Foosbots_working/results/train_4_1/Foosbots_working.onnx (onnx, 278463 bytes, 7 tensors)

action_model._continuous_distribution.log_sigma f4 [1, 2]
0.0 0.0
00000000: 0000 0000 0000 0000

action_model._continuous_distribution.mu.bias f4 [2]
0.0 0.0
00000000: 0000 0000 0000 0000

action_model._continuous_distribution.mu.weight f4 [2, 256]
-0.0075612725 0.00069579115 -0.0005994876 0.011029216 0.010454369 -0.007701968 -0.021486737 0.02508193
-0.009260251 0.00393641 0.009769919 -0.003501343 -0.036845822 -0.016687004 0.0002044535 0.0075264648
-0.009854506 0.014845942 -0.003375786 -0.013446818 -0.023690408 -0.005472773 0.0026997537 0.01123279
-0.00013323005 -0.013062249 -0.018387996 0.0055779046 0.012756265 -0.01943591 -0.0014461756 0.0009273749
0.00024472288 0.0074561425 0.012225479 0.019317618 -0.009840624 0.0076463534 0.03468275 0.018989583
0.007393483 0.01722979 0.0140557755 0.009912225 0.0197429 -0.005956008 0.008031518 -0.026653165
0.00018576007 -0.0036583045 0.01018368 0.007032024 0.013907795 0.0039273086 0.006468928 0.005727775
7.486487e-06 0.0038295293 -0.0027021663 -0.019688701 0.004825824 0.0050772307 -0.01905336 -0.015493437
-0.019257322 0.009590533 -0.0091341715 -0.019294502 -0.03790742 0.005528856 -0.00074667035 0.0075726877
0.001033193 -0.0011794624 0.0048707514 0.00074679067 -0.000667382 -0.01504968 -0.021066183 -0.00572852
0.011673718 0.020143656 -0.0069515924 -7.5132324e-05 0.014086502 -0.007828469 -0.0027413517 -0.011871009
-0.011385262 0.0044544 -0.015853008 -0.00087168504 0.0072071957 -0.012285025 0.011014424 0.0018464267
-0.009799907 -0.009461913 -0.00924199 -0.0017404506 0.010999865 0.02128098 0.007383544 0.01879218
-0.014450115 0.010538957 0.013850093 0.021282572 -0.008376587 -0.002685807 -0.005735875 0.007507391
0.023816273 0.0022523627 0.024294568 0.0060289702 0.006714664 0.005988468 -0.009399125 -0.004054041
0.012469664 -0.022339975 0.00474615 0.006125243 0.0207172 -0.0044364645 -0.009945162 0.022612704
0.0084626 0.025858894 0.0031268678 -0.0020858103 -0.008730653 -0.014515321 0.02070137 0.00019241354
0.004577031 0.0069917473 0.021968808 -0.0033033725 0.0026837988 0.0079702195 0.006142949 -0.011109495
-0.014035607 -0.013269007 -0.0013032446 -0.011656917 0.0030019754 0.008039281 0.007505172 -0.016124299
-0.01580115 -0.0016510393 -0.0061382703 -0.004213271 0.02341715 -0.009291588 0.0025857268 0.01609568
-0.01121823 -0.014824207 -0.013393815 0.011483639 0.010491171 0.003211646 -0.00503852 0.0027876515
0.015574266 -0.0005374563 0.012490283 -0.014740558 -0.031005347 -0.023030836 0.0038431664 0.018148853
-0.008796553 0.0041682995 -0.0003099962 0.0015641352 -0.006237284 -0.007890324 0.004534276 0.028923783
-0.008703475 0.01732877 0.006454117 -0.009346171 0.011511944 -0.019949589 -0.004151941 -0.0113573475
0.015514754 -0.013531679 -0.0133633865 -0.0057617496 -0.013159285 0.01233852 -0.010390571 -0.0155902
0.0019164296 0.0019612776 0.009620434 0.0072465823 -0.0025601988 0.014180905 -0.00822845 -0.011579896
-0.0057988623 0.016773025 0.018081231 0.0064284676 -0.0052259555 -0.024578556 -0.0014583415 -0.01288143
-0.014618694 0.02689497 -0.0015950975 -0.0006166259 0.0018789977 0.019685749 0.014552124 0.018257705
-0.015560809 -0.02261076 -0.0006979291 0.02373436 -0.009462132 0.0070337686 0.009282312 -0.009023573
-0.011170699 0.021974498 -0.009338884 -0.004557513 -0.014426151 -8.176616e-05 0.015020236 0.011331431
0.00042430573 0.009070554 0.02170137 -0.013342606 0.011025418 -0.004010888 0.012724985 -0.028286373
-0.0075368895 0.009768854 0.013591598 0.011588924 -0.0071647735 0.0017214811 -0.004831478 -0.017646158
00000000: 8dc4 f7bb c165 363a ef26 1dba e3b3 343c
00000010: cd48 2b3c ca60 fcbb f404 b0bc 9f78 cd3c
00000020: 4fb8 17bc 00fd 803b 0312 203c ca76 65bb
00000030: a5eb 16bd 2fb3 88bc 9262 5639 90a0 f63b
00000040: cb74 21bc 653c 733c 4a3c 5dbb 0b50 5cbc
00000050: 6312 c2bc f354 b3bb 5aee 303b bc09 383c
00000060: abb3 0bb9 0b03 56bc 6ca2 96bc dbc6 b63b
00000070: a7ff 503c 0f38 9fbc 9a8d bdba 131b 733a
00000080: 264e 8039 a852 f43b 604d 483c fb3f 9e3c
00000090: 923a 21bc 438e fa3b 800f 0e3d 0b90 9b3c
000000a0: 0845 f23b 7d25 8d3c 324a 663c e366 223c
000000b0: ddbb a13c 9e2a c3bb a196 033c bd57 dabc
000000c0: 97c8 4239 2ac0 6fbb 73d9 263c e56c e63b
000000d0: 85dd 633c a7b0 803b 4df9 d33b 0fb0 bb3b
000000e0: 6f34 fb36 d7f8 7a3b d416 31bb 334a a1bc
000000f0: f221 9e3b e65e a63b cb15 9cbc 2fd8 7dbc
00000100: 88c1 9dbc 9c21 1d3c 7ea7 15bc 810f 9ebc
00000110: d044 1bbd 682b b53b 33bc 43ba 4f24 f83b
00000120: 346c 873a 3198 9aba d39a 9f3b 46c4 433a
00000130: 3ff3 2eba ef92 76bc fd92 acbc 4fb6 bbbb
00000140: 1f43 3f3c 4f04 a53c 2fca e3bb 5c90 9db8
00000150: 12cb 663c fb42 00bc 40a8 33bb 9f7e 42bc
00000160: 4089 3abc 37f6 913b 2bde 81bc cb81 64ba
00000170: 572a ec3b 2147 49bc d875 343c cd03 f23a
00000180: ca8f 20bc 2406 1bbc b76b 17bc d51f e4ba
00000190: c738 343c 7355 ae3c a8f1 f13b 0ff2 993c
000001a0: 2dc0 6cbc 97ab 2c3c 80eb 623c ca58 ae3c
000001b0: f43d 09bc 5d04 30bb 02f4 bbbb 8f00 f63b
000001c0: 581a c33c 609c 133b 6705 c73c ab8e c53b
000001d0: af06 dc3b e93a c43b cafe 19bc c3d7 84bb
000001e0: 904d 4c3c 5302 b7bc 9885 9b3b 43b6 c83b
000001f0: 1eb7 a93c c35f 91bb 08f1 22bc 473e b93c
00000200: b8a6 0a3c 08d6 d33c 23ec 4c3b 17b2 08bb
00000210: 030b 0fbc abd1 6dbc eb95 a93c 9ec2 4939
00000220: ebfa 953b 071b e53b eef7 b33c 657d 58bb
00000230: ace2 2f3b 8695 023c cb4a c93b 9904 36bc
00000240: 9af5 65bc 4066 59bc a2d1 aaba a7fc 3ebc
00000250: cabc 443b 30b7 033c f2ed f53b 1b17 84bc
00000260: 6a71 81bc b067 d8ba 8b23 c9bb 7b0f 8abb
00000270: 53d5 bf3c bf3b 18bc 4c75 293b 16db 833c
00000280: abcc 37bc 3be1 72bc bb71 5bbc df25 3c3c
00000290: 29e3 2b3c 7b7a 523b 2b1a a5bb 08b1 363b
000002a0: 352b 7f3c 15e4 0cba 0ba4 4c3c 6282 71bc
000002b0: edfe fdbc 2aab bcbc a2dd 7b3b e7ac 943c
000002c0: 6b1f 10bc 3b96 883b fc86 a2b9 ab03 cd3a
000002d0: 2162 ccbb 6b46 01bc 4494 943b 92f1 ec3c
000002e0: 0599 0ebc 11f5 8d3c 0f7d d33b af20 19bc
000002f0: 989c 3c3c 526d a3bc 010d 88bb 2b14 3abc
00000300: 9831 7e3c fab3 5dbc 1bf2 5abc 0fcd bcbb
00000310: 0b9a 57bc 8127 4a3c 373d 2abc 0a6e 7fbc
00000320: b530 fb3a c788 003b 069f 1d3c bd74 ed3b
00000330: 02c9 27bb 0757 683c 9fd0 06bc 9bb9 3dbc
00000340: 6204 bebb 9567 893c 171f 943c e5a5 d23b
00000350: 7e3e abbb f858 c9bc d225 bfba a20c 53bc
00000360: 3f83 6fbc d752 dc3c 9712 d1ba 10a5 21ba
00000370: b348 f63a 0244 a13c 086c 6e3c 2f91 953c
00000380: c3f2 7ebc 333a b9bc 3bf5 36ba 8f6e c23c
00000390: 0f07 1bbc 877b e63b d714 183c 9cd7 13bc
000003a0: 4f05 37bc dd03 b43c 1e02 19bc 3157 95bb
000003b0: aa5b 6cbc df79 abb8 7017 763c 77a7 393c
000003c0: 5a75 de39 a99c 143c 12c7 b13c f29a 5abc
000003d0: f4a3 343c c46d 83bb 757c 503c d3b8 e7bc
000003e0: 03f8 f6bb 8b0d 203c 4baf 5e3c 78df 3d3c
000003f0: 7ac6 eabb 52a3 e13a 6051 9ebb ad8e 90bc

network_body._body_endoder.seq_layers.0.bias f4 [256]
0.0 0.0 0.0 0.0 0.0 0.0 0.0 0.0
0.0 0.0 0.0 0.0 0.0 0.0 0.0 0.0
0.0 0.0 0.0 0.0 0.0 0.0 0.0 0.0
0.0 0.0 0.0 0.0 0.0 0.0 0.0 0.0
0.0 0.0 0.0 0.0 0.0 0.0 0.0 0.0
0.0 0.0 0.0 0.0 0.0 0.0 0.0 0.0
0.0 0.0 0.0 0.0 0.0 0.0 0.0 0.0
0.0 0.0 0.0 0.0 0.0 0.0 0.0 0.0
0.0 0.0 0.0 0.0 0.0 0.0 0.0 0.0
0.0 0.0 0.0 0.0 0.0 0.0 0.0 0.0
0.0 0.0 0.0 0.0 0.0 0.0 0.0 0.0
0.0 0.0 0.0 0.0 0.0 0.0 0.0 0.0
0.0 0.0 0.0 0.0 0.0 0.0 0.0 0.0
0.0 0.0 0.0 0.0 0.0 0.0 0.0 0.0
0.0 0.0 0.0 0.0 0.0 0.0 0.0 0.0
0.0 0.0 0.0 0.0 0.0 0.0 0.0 0.0
0.0 0.0 0.0 0.0 0.0 0.0 0.0 0.0
0.0 0.0 0.0 0.0 0.0 0.0 0.0 0.0
0.0 0.0 0.0 0.0 0.0 0.0 0.0 0.0
0.0 0.0 0.0 0.0 0.0 0.0 0.0 0.0
0.0 0.0 0.0 0.0 0.0 0.0 0.0 0.0
0.0 0.0 0.0 0.0 0.0 0.0 0.0 0.0
0.0 0.0 0.0 0.0 0.0 0.0 0.0 0.0
0.0 0.0 0.0 0.0 0.0 0.0 0.0 0.0
0.0 0.0 0.0 0.0 0.0 0.0 0.0 0.0
0.0 0.0 0.0 0.0 0.0 0.0 0.0 0.0
0.0 0.0 0.0 0.0 0.0 0.0 0.0 0.0
0.0 0.0 0.0 0.0 0.0 0.0 0.0 0.0
0.0 0.0 0.0 0.0 0.0 0.0 0.0 0.0
0.0 0.0 0.0 0.0 0.0 0.0 0.0 0.0
0.0 0.0 0.0 0.0 0.0 0.0 0.0 0.0
0.0 0.0 0.0 0.0 0.0 0.0 0.0 0.0
00000000: 0000 0000 0000 0000 0000 0000 0000 0000
00000010: 0000 0000 0000 0000 0000 0000 0000 0000
00000020: 0000 0000 0000 0000 0000 0000 0000 0000
00000030: 0000 0000 0000 0000 0000 0000 0000 0000
00000040: 0000 0000 0000 0000 0000 0000 0000 0000
00000050: 0000 0000 0000 0000 0000 0000 0000 0000
00000060: 0000 0000 0000 0000 0000 0000 0000 0000
00000070: 0000 0000 0000 0000 0000 0000 0000 0000
00000080: 0000 0000 0000 0000 0000 0000 0000 0000
00000090: 0000 0000 0000 0000 0000 0000 0000 0000
000000a0: 0000 0000 0000 0000 0000 0000 0000 0000
000000b0: 0000 0000 0000 0000 0000 0000 0000 0000
000000c0: 0000 0000 0000 0000 0000 0000 0000 0000
000000d0: 0000 0000 0000 0000 0000 0000 0000 0000
000000e0: 0000 0000 0000 0000 0000 0000 0000 0000
000000f0: 0000 0000 0000 0000 0000 0000 0000 0000
00000100: 0000 0000 0000 0000 0000 0000 0000 0000
00000110: 0000 0000 0000 0000 0000 0000 0000 0000
00000120: 0000 0000 0000 0000 0000 0000 0000 0000
00000130: 0000 0000 0000 0000 0000 0000 0000 0000
00000140: 0000 0000 0000 0000 0000 0000 0000 0000
00000150: 0000 0000 0000 0000 0000 0000 0000 0000
00000160: 0000 0000 0000 0000 0000 0000 0000 0000
00000170: 0000 0000 0000 0000 0000 0000 0000 0000
00000180: 0000 0000 0000 0000 0000 0000 0000 0000
00000190: 0000 0000 0000 0000 0000 0000 0000 0000
000001a0: 0000 0000 0000 0000 0000 0000 0000 0000
000001b0: 0000 0000 0000 0000 0000 0000 0000 0000
000001c0: 0000 0000 0000 0000 0000 0000 0000 0000
000001d0: 0000 0000 0000 0000 0000 0000 0000 0000
000001e0: 0000 0000 0000 0000 0000 0000 0000 0000
000001f0: 0000 0000 0000 0000 0000 0000 0000 0000
00000200: 0000 0000 0000 0000 0000 0000 0000 0000
00000210: 0000 0000 0000 0000 0000 0000 0000 0000
00000220: 0000 0000 0000 0000 0000 0000 0000 0000
00000230: 0000 0000 0000 0000 0000 0000 0000 0000
00000240: 0000 0000 0000 0000 0000 0000 0000 0000
00000250: 0000 0000 0000 0000 0000 0000 0000 0000
00000260: 0000 0000 0000 0000 0000 0000 0000 0000
00000270: 0000 0000 0000 0000 0000 0000 0000 0000
00000280: 0000 0000 0000 0000 0000 0000 0000 0000
00000290: 0000 0000 0000 0000 0000 0000 0000 0000
000002a0: 0000 0000 0000 0000 0000 0000 0000 0000
000002b0: 0000 0000 0000 0000 0000 0000 0000 0000
000002c0: 0000 0000 0000 0000 0000 0000 0000 0000
000002d0: 0000 0000 0000 0000 0000 0000 0000 0000
000002e0: 0000 0000 0000 0000 0000 0000 0000 0000
000002f0: 0000 0000 0000 0000 0000 0000 0000 0000
00000300: 0000 0000 0000 0000 0000 0000 0000 0000
00000310: 0000 0000 0000 0000 0000 0000 0000 0000
00000320: 0000 0000 0000 0000 0000 0000 0000 0000
00000330: 0000 0000 0000 0000 0000 0000 0000 0000
00000340: 0000 0000 0000 0000 0000 0000 0000 0000
00000350: 0000 0000 0000 0000 0000 0000 0000 0000
00000360: 0000 0000 0000 0000 0000 0000 0000 0000
00000370: 0000 0000 0000 0000 0000 0000 0000 0000
00000380: 0000 0000 0000 0000 0000 0000 0000 0000
00000390: 0000 0000 0000 0000 0000 0000 0000 0000
000003a0: 0000 0000 0000 0000 0000 0000 0000 0000
000003b0: 0000 0000 0000 0000 0000 0000 0000 0000
000003c0: 0000 0000 0000 0000 0000 0000 0000 0000
000003d0: 0000 0000 0000 0000 0000 0000 0000 0000
000003e0: 0000 0000 0000 0000 0000 0000 0000 0000
000003f0: 0000 0000 0000 0000 0000 0000 0000 0000

network_body._body_endoder.seq_layers.0.weight f4 [256, 10]
-0.38645872 -0.021594342 0.25582632 0.17376214 -0.12275134 0.27595654 0.7972576 0.14030895
0.20767175 -0.13811262 0.34961528 0.26773638 -0.05303533 0.41793913 0.1138038 0.1598657
-0.22264577 0.3839222 0.5035049 -0.24538887 -0.30076456 -0.37352526 -0.3088289 0.34488565
0.10813287 -0.15867929 -0.2351368 0.1779997 0.06550752 0.13566509 -0.3960587 0.34252793
0.27900907 -0.19831695 -0.47199762 0.2346631 0.13649772 -0.030536855 -0.6615747 -0.1859675
-0.03465592 0.07721754 -0.0893387 -0.23469934 -0.0031530128 0.2908597 -0.42020515 -0.16111282
-0.20159465 -0.3353857 0.12508526 -0.2635014 0.97597516 -0.33944613 0.44819617 -0.35393745
-0.2093631 0.18111227 0.024480456 -0.18026556 -0.27869287 -0.057429165 -0.19135478 -0.014721638
0.39838046 -0.18860915 0.3693184 -0.25812843 0.34182432 0.33537897 -0.30370387 0.34717596
-0.009122545 -0.040868063 0.28938407 -0.2835121 0.11748585 0.25709322 -0.08153126 0.24847713
0.011457652 -0.20720817 0.011103423 0.032519326 -0.3737371 0.11575865 0.28316507 0.012985594
-0.36420295 0.05604977 -0.19666596 0.24022894 0.18021363 -0.52677566 0.37582555 0.066562824
0.16998383 -0.24997866 -0.047976535 -0.1945402 0.3284839 0.019606601 -0.4167871 -0.21452208
0.110215254 0.3559477 -0.022753373 -0.5454015 0.26948476 -0.13237748 -0.081695504 -0.28040686
-0.49300453 0.5570368 -0.10954409 0.33405492 0.32249475 -0.052728713 -0.6349279 -0.20132335
0.05454292 -0.28155738 -0.08921062 0.17721197 0.28123155 -0.044788077 0.3630736 0.061315108
-0.21201377 0.5100829 -0.57245684 -0.41518775 -0.16250545 0.3186892 0.6181631 0.26852953
-0.36684087 0.19097488 0.12833567 -0.5811956 0.17868257 0.24576943 0.7896323 -0.22133282
0.53343976 0.5001905 0.1509777 0.082743704 0.43723047 0.4019385 0.2579952 -0.66456836
-0.29326132 -0.20563076 0.21429679 -0.04496252 -0.14313191 -0.5067536 -0.09949238 -0.39821646
0.0035410682 0.1568476 -0.2040501 0.35123217 0.038610667 0.32204932 0.123838596 -0.4426877
0.02140837 0.17147645 -0.13661532 -0.6602985 0.2040172 0.010505273 -0.07034369 -0.8427683
0.3084666 0.31443584 0.06891447 -0.34357932 0.10114398 -0.15916747 -0.21000454 0.557874
-0.062554576 -0.45489728 0.4584345 -0.21583252 0.94248366 0.22065276 0.3399485 -0.15931925
0.46892145 -0.6293937 -0.16648237 -0.11976817 -0.5015652 0.0871201 0.23257215 -0.12481108
-0.101263106 -0.3907235 -0.11820544 -0.553438 -0.31633845 -0.53033024 -0.7075481 -0.40974486
-0.073621884 0.058630988 0.42599675 -0.19496451 0.021757 0.05325917 -0.3841654 0.5388029
-0.5738882 0.32717085 0.123161234 0.13660148 -0.017457817 0.03376862 -0.13092943 0.2955055
-0.02691048 0.0022009886 0.058411278 0.23097801 -0.71234345 0.06627227 0.33536354 -0.31863213
-0.42175084 -0.214013 0.09395099 -0.2066904 0.47651297 -0.12160934 -0.42031687 -0.17356713
0.17146145 0.31136698 -0.14851838 -0.15927488 0.6257098 -0.014535786 0.38646135 0.10628868
0.4395578 -0.6230348 -0.08264535 0.17949641 -0.22507972 0.1184321 0.7316224 0.41400486
00000000: ebdd c5be 9ee6 b0bc abfb 823e b4ee 313e
00000010: 0e65 fbbd 2d4a 8d3e 1319 4c3f 26ad 0f3e
00000020: e7a7 543e 656d 0dbe c600 b33e be14 893e
00000030: 933b 59bd 1efc d53e f711 e93d d6b3 233e
00000040: 41fd 63be 7391 c43e b2e5 003f 3847 7bbe
00000050: d0fd 99be b43e bfbe d21e 9ebe da94 b03e
00000060: c474 dd3d d37c 22be b4c7 70be 8e45 363e
00000070: cf28 863d caeb 0a3e 35c8 cabe d25f af3e
00000080: 47da 8e3e 9913 4bbe aca9 f1be 864b 703e
00000090: 0fc6 0b3e 6d28 fabc f65c 29bf 446e 3ebe
000000a0: 5ef3 0dbd 3b24 9e3d 35f7 b6bd 0655 70be
000000b0: c7a2 4ebb 90eb 943e 2125 d7be c2fa 24be
000000c0: d46e 4ebe adb7 abbe 5a16 003e a8e9 86be
000000d0: 82d9 793f e2cb adbe f879 e53e 4a37 b5be
000000e0: 4863 56be 7f75 393e 3d8b c83c 8997 38be
000000f0: d5b0 8ebe d83a 6bbd 82f2 43be 0633 71bc
00000100: 86f8 cb3e c222 41be 4d17 bd3e 6929 84be
00000110: 9903 af3e cbb6 ab3e 137f 9bbe 0cc1 b13e
00000120: ba76 15bc 4565 27bd 262a 943e 7f28 91be
00000130: 6c9c f03d b9a1 833e dcf9 a6bd ca70 7e3e
00000140: e0b8 3b3c 612e 54be 22eb 353c fc32 053d
00000150: 785a bfbe df12 ed3d 03fb 903e 87c1 543c
00000160: cf78 babe 7294 653d cd62 49be 93fe 753e
00000170: ec89 383e c5da 06bf 356c c03e 1752 883d
00000180: 3e10 2e3e 68fa 7fbe 0b83 44bd 8c35 47be
00000190: 0b2f a83e 069e a03c 1e65 d5be adab 5bbe
000001a0: 89b8 e13d c73e b63e 4865 babc 6f9f 0bbf
000001b0: e8f9 893e f68d 07be f94f a7bd 7d91 8fbe
000001c0: 176b fcbe f799 0e3f a758 e0bd 3f09 ab3e
000001d0: 081e a53e 10fa 57bd a38a 22bf b527 4ebe
000001e0: 6668 5f3d 4a28 90be 0fb4 b6bd 0e77 353e
000001f0: 95fd 8f3e b473 37bd c8e4 b93e 8d25 7b3d
00000200: 231a 59be cb94 023f 888c 12bf 7d93 d4be
00000210: d467 26be 3b2b a33e f03f 1e3f b47c 893e
00000220: 91d2 bbbe eb8e 433e 6d6a 033e 3cc9 14bf
00000230: 90f8 363e fbaa 7b3e 5825 4a3f 12a5 62be
00000240: 828f 083f 7c0c 003f e699 1a3e 8875 a93d
00000250: acdc df3e e2ca cd3e f217 843e 2721 2abf
00000260: 5926 96be df90 52be 9e70 5b3e 9f2a 38bd
00000270: 2c91 12be 9bba 01bf a9c2 cbbd 07e3 cbbe
00000280: 4411 683b a89c 203e 82f2 50be b4d4 b33e
00000290: 3826 1e3d a6e3 a43e 179f fd3d f6a7 e2be
000002a0: 9b60 af3c 8697 2f3e e3e4 0bbe 5309 29bf
000002b0: e3e9 503e 4f1e 2c3c 5a10 90bd aabf 57bf
000002c0: 56ef 9d3e bcfd a03e 0823 8d3d a1e9 afbe
000002d0: 9324 cf3d ccfc 22be 6e0b 57be d5d0 0e3f
000002e0: 9d1c 80bd 4ce8 e8be edb7 ea3e 3303 5dbe
000002f0: 9c46 713f ccf2 613e bb0d ae3e 9624 23be
00000300: 7916 f03e f21f 21bf 5b7a 2abe 0449 f5bd
00000310: 9466 00bf 066c b23d 6527 6e3e f49c ffbd
00000320: 0863 cfbd e90c c8be b215 f2bd 1dae 0dbf
00000330: 1df7 a1be b9c3 07bf df21 35bf 14ca d1be
00000340: 12c7 96bd 0c27 703d 3f1c da3e c7a4 47be
00000350: bc3b b23c 4a26 5a3d 54b1 c4be fdee 093f
00000360: 56ea 12bf f082 a73e f53b fc3d 42e1 0b3e
00000370: b203 8fbc f750 0a3d 5d12 06be 7f4c 973e
00000380: 5e73 dcbc 763e 103b aa40 6f3d 8085 6c3e
00000390: 245c 36bf c2b9 873d c5b4 ab3e c023 a3be
000003a0: baef d7be 3926 5bbe 6069 c03d a6a6 53be
000003b0: 82f9 f33e 510e f9bd c633 d7be 95bb 31be
000003c0: 9793 2f3e 7e6b 9f3e 3415 18be f418 23be
000003d0: 842e 203f 8127 6ebc 43de c53e e1ad d93d
000003e0: b80d e13e 357f 1fbf f741 a9bd e8cd 373e
000003f0: 4c7b 66be 878c f23d 9b4b 3b3f 72f8 d33e

network_body._body_endoder.seq_layers.2.bias f4 [256]
0.0 0.0 0.0 0.0 0.0 0.0 0.0 0.0
0.0 0.0 0.0 0.0 0.0 0.0 0.0 0.0
0.0 0.0 0.0 0.0 0.0 0.0 0.0 0.0
0.0 0.0 0.0 0.0 0.0 0.0 0.0 0.0
0.0 0.0 0.0 0.0 0.0 0.0 0.0 0.0
0.0 0.0 0.0 0.0 0.0 0.0 0.0 0.0
0.0 0.0 0.0 0.0 0.0 0.0 0.0 0.0
0.0 0.0 0.0 0.0 0.0 0.0 0.0 0.0
0.0 0.0 0.0 0.0 0.0 0.0 0.0 0.0
0.0 0.0 0.0 0.0 0.0 0.0 0.0 0.0
0.0 0.0 0.0 0.0 0.0 0.0 0.0 0.0
0.0 0.0 0.0 0.0 0.0 0.0 0.0 0.0
0.0 0.0 0.0 0.0 0.0 0.0 0.0 0.0
0.0 0.0 0.0 0.0 0.0 0.0 0.0 0.0
0.0 0.0 0.0 0.0 0.0 0.0 0.0 0.0
0.0 0.0 0.0 0.0 0.0 0.0 0.0 0.0
0.0 0.0 0.0 0.0 0.0 0.0 0.0 0.0
0.0 0.0 0.0 0.0 0.0 0.0 0.0 0.0
0.0 0.0 0.0 0.0 0.0 0.0 0.0 0.0
0.0 0.0 0.0 0.0 0.0 0.0 0.0 0.0
0.0 0.0 0.0 0.0 0.0 0.0 0.0 0.0
0.0 0.0 0.0 0.0 0.0 0.0 0.0 0.0
0.0 0.0 0.0 0.0 0.0 0.0 0.0 0.0
0.0 0.0 0.0 0.0 0.0 0.0 0.0 0.0
0.0 0.0 0.0 0.0 0.0 0.0 0.0 0.0
0.0 0.0 0.0 0.0 0.0 0.0 0.0 0.0
0.0 0.0 0.0 0.0 0.0 0.0 0.0 0.0
0.0 0.0 0.0 0.0 0.0 0.0 0.0 0.0
0.0 0.0 0.0 0.0 0.0 0.0 0.0 0.0
0.0 0.0 0.0 0.0 0.0 0.0 0.0 0.0
0.0 0.0 0.0 0.0 0.0 0.0 0.0 0.0
0.0 0.0 0.0 0.0 0.0 0.0 0.0 0.0
00000000: 0000 0000 0000 0000 0000 0000 0000 0000
00000010: 0000 0000 0000 0000 0000 0000 0000 0000
00000020: 0000 0000 0000 0000 0000 0000 0000 0000
00000030: 0000 0000 0000 0000 0000 0000 0000 0000
00000040: 0000 0000 0000 0000 0000 0000 0000 0000
00000050: 0000 0000 0000 0000 0000 0000 0000 0000
00000060: 0000 0000 0000 0000 0000 0000 0000 0000
00000070: 0000 0000 0000 0000 0000 0000 0000 0000
00000080: 0000 0000 0000 0000 0000 0000 0000 0000
00000090: 0000 0000 0000 0000 0000 0000 0000 0000
000000a0: 0000 0000 0000 0000 0000 0000 0000 0000
000000b0: 0000 0000 0000 0000 0000 0000 0000 0000
000000c0: 0000 0000 0000 0000 0000 0000 0000 0000
000000d0: 0000 0000 0000 0000 0000 0000 0000 0000
000000e0: 0000 0000 0000 0000 0000 0000 0000 0000
000000f0: 0000 0000 0000 0000 0000 0000 0000 0000
00000100: 0000 0000 0000 0000 0000 0000 0000 0000
00000110: 0000 0000 0000 0000 0000 0000 0000 0000
00000120: 0000 0000 0000 0000 0000 0000 0000 0000
00000130: 0000 0000 0000 0000 0000 0000 0000 0000
00000140: 0000 0000 0000 0000 0000 0000 0000 0000
00000150: 0000 0000 0000 0000 0000 0000 0000 0000
00000160: 0000 0000 0000 0000 0000 0000 0000 0000
00000170: 0000 0000 0000 0000 0000 0000 0000 0000
00000180: 0000 0000 0000 0000 0000 0000 0000 0000
00000190: 0000 0000 0000 0000 0000 0000 0000 0000
000001a0: 0000 0000 0000 0000 0000 0000 0000 0000
000001b0: 0000 0000 0000 0000 0000 0000 0000 0000
000001c0: 0000 0000 0000 0000 0000 0000 0000 0000
000001d0: 0000 0000 0000 0000 0000 0000 0000 0000
000001e0: 0000 0000 0000 0000 0000 0000 0000 0000
000001f0: 0000 0000 0000 0000 0000 0000 0000 0000
00000200: 0000 0000 0000 0000 0000 0000 0000 0000
00000210: 0000 0000 0000 0000 0000 0000 0000 0000
00000220: 0000 0000 0000 0000 0000 0000 0000 0000
00000230: 0000 0000 0000 0000 0000 0000 0000 0000
00000240: 0000 0000 0000 0000 0000 0000 0000 0000
00000250: 0000 0000 0000 0000 0000 0000 0000 0000
00000260: 0000 0000 0000 0000 0000 0000 0000 0000
00000270: 0000 0000 0000 0000 0000 0000 0000 0000
00000280: 0000 0000 0000 0000 0000 0000 0000 0000
00000290: 0000 0000 0000 0000 0000 0000 0000 0000
000002a0: 0000 0000 0000 0000 0000 0000 0000 0000
000002b0: 0000 0000 0000 0000 0000 0000 0000 0000
000002c0: 0000 0000 0000 0000 0000 0000 0000 0000
000002d0: 0000 0000 0000 0000 0000 0000 0000 0000
000002e0: 0000 0000 0000 0000 0000 0000 0000 0000
000002f0: 0000 0000 0000 0000 0000 0000 0000 0000
00000300: 0000 0000 0000 0000 0000 0000 0000 0000
00000310: 0000 0000 0000 0000 0000 0000 0000 0000
00000320: 0000 0000 0000 0000 0000 0000 0000 0000
00000330: 0000 0000 0000 0000 0000 0000 0000 0000
00000340: 0000 0000 0000 0000 0000 0000 0000 0000
00000350: 0000 0000 0000 0000 0000 0000 0000 0000
00000360: 0000 0000 0000 0000 0000 0000 0000 0000
00000370: 0000 0000 0000 0000 0000 0000 0000 0000
00000380: 0000 0000 0000 0000 0000 0000 0000 0000
00000390: 0000 0000 0000 0000 0000 0000 0000 0000
000003a0: 0000 0000 0000 0000 0000 0000 0000 0000
000003b0: 0000 0000 0000 0000 0000 0000 0000 0000
000003c0: 0000 0000 0000 0000 0000 0000 0000 0000
000003d0: 0000 0000 0000 0000 0000 0000 0000 0000
000003e0: 0000 0000 0000 0000 0000 0000 0000 0000
000003f0: 0000 0000 0000 0000 0000 0000 0000 0000

network_body._body_endoder.seq_layers.2.weight f4 [256, 256]
-0.032144614 0.08113378 -0.08716735 0.049907424 0.03902561 -0.034096427 -0.047448616 0.063769326
0.0010782905 -0.010690899 0.01835393 -0.0688858 -0.16070281 -0.086887285 0.089499004 0.124597445
0.09214147 -0.006865529 -0.0424023 0.11266158 -0.014363171 0.051129665 0.0140392985 -0.009880814
-0.028998485 -0.0005386744 0.045656487 -0.017094161 0.05423763 -0.026485529 0.01478049 0.020662077
0.09091502 -0.17517635 -0.009882925 0.01594352 -0.05439087 0.018452084 -0.036123417 0.031834982
-0.07075793 -0.12197058 0.07151286 0.003501034 0.0060189487 0.0142658185 0.033554714 0.033480644
0.045163203 -0.05791615 0.03661155 0.016426433 0.024565507 0.07269285 -0.035089906 -0.092654854
-0.06767413 -0.03966507 -0.0017309372 -0.044940673 0.006446442 -0.016605802 0.03745723 -0.021151472
0.0093006585 0.034163278 -0.09924314 0.07457556 0.042822387 0.047187578 -0.07831382 -0.08833393
-0.0028444673 -0.090589836 0.09022656 0.0027982711 0.039612047 -0.08177605 -0.047480736 -0.0014192947
-0.031047752 5.114377e-05 0.0679062 0.06886691 0.042087585 0.006633226 -0.08173844 0.013964071
0.040664464 -0.06236984 -0.16784965 0.04449201 -0.1279614 -0.00915539 -0.008616609 0.038282204
-0.13318343 -0.018946031 -0.08829368 -0.09532817 0.05023622 -0.0055394154 0.0017582712 0.028592443
0.12327392 0.009466598 0.057819415 0.018903965 -0.05129848 -0.018410008 0.016674027 0.08795833
-0.0009918413 0.08057704 0.014753375 0.033007655 -0.046632025 -0.09225741 0.029010566 0.047639508
-0.09482353 0.06747938 -0.13803372 -0.0054436973 -0.07044002 -0.04699892 -0.019609397 0.043247838
0.012185224 -0.0036783556 -0.036506195 0.114489146 -0.024127033 -0.028489074 0.050759833 0.0705758
-0.102578126 -0.07044474 -0.03777137 0.038293608 0.02186499 0.048961323 0.16244584 0.07130456
0.07108322 -0.031796906 0.0109094335 0.00040276203 0.0076757045 -0.0072837616 0.08201183 -0.035094865
-0.022233788 0.034309894 0.012348611 0.044997856 0.01786774 0.09070591 -0.042865813 -0.0049049547
-0.032655954 0.0057305177 0.0032710438 0.04183852 -0.0063818684 0.0638355 -0.02327569 -0.027075905
-0.03871733 -0.02907449 0.01578785 0.09332763 -0.040178202 -0.09082046 -0.009251575 -0.02559493
0.061015047 0.0069377334 0.009588218 0.05075325 0.012031367 -0.037020747 0.0682295 0.05933018
-0.12610844 0.040369634 0.038818344 0.13241777 0.030755602 -0.042458534 -0.036353428 0.0023855998
0.061542146 -0.011785086 0.090506904 -0.013410596 -0.0007294721 0.014565779 0.042702116 0.038888857
-0.010075829 -0.08318866 -0.020201452 0.028514976 -0.12839782 -0.063752495 -0.049813055 -0.03219231
-0.01443865 0.08896289 -0.033646725 0.1096098 0.0067410427 -0.058638725 -0.032623753 0.07375489
0.09904078 0.025492184 -0.079647385 -0.018571181 0.049403314 0.03229624 -0.03477857 -0.011210202
-0.0095200725 -0.030395037 0.10036273 0.060014393 0.023271518 0.11631627 0.018282002 0.13691893
-0.025018435 0.027565202 0.04800651 -0.10541513 -0.014153216 -0.12705775 0.08918343 -0.021864649
-0.11553076 0.0004452125 0.17107688 0.043448996 -0.077174425 0.042559326 0.02045137 -9.125945e-05
0.061025202 0.11517083 0.092321165 0.0042491048 -0.06363133 -0.00449236 -0.06305546 -0.048792325
00000000: 12aa 03bd 7829 a63d cc84 b2bd ba6b 4c3d
00000010: 51d9 1f3d b2a8 0bbd 7b59 42bd 7e99 823d
00000020: 6d55 8d3a e128 2fbc fb5a 963c 0014 8dbd
00000030: 478f 24be f6f1 b1bd 414b b73d f22c ff3d
00000040: abb4 bc3d 3bf8 e0bb 09ae 2dbd 1dbb e63d
00000050: 8153 6bbc 576d 513d 1605 663c 23e3 21bc
00000060: 3b8e edbc d435 0dba 4c02 3b3d 0e09 8cbc
00000070: 4728 5e3d 2ef8 d8bc de29 723c 8443 a93c
00000080: a731 ba3d 6e61 33be feeb 21bc fc9b 823c
00000090: f6c8 5ebd d328 973c 26f6 13bd 6665 023d
000000a0: 89e9 90bd b6cb f9bd 5675 923d 9b71 653b
000000b0: 9a3a c53b 2ebb 693c ab70 093d 0023 093d
000000c0: 0dfd 383d 7c39 6dbd fef5 153d ba90 863c
000000d0: 9a3d c93c fddf 943d 6fba 0fbd d4c1 bdbd
000000e0: bc98 8abd d777 22bd 9de0 e2ba b613 38bd
000000f0: ad3c d33b e408 88bc c16c 193d da45 adbc
00000100: ca61 183c cbee 0b3d fd3f cbbd 12bb 983d
00000110: 8766 2f3d c347 413d ff62 a0bd 6be8 b4bd
00000120: 3e6a 3abb 2a87 b9bd b4c8 b83d 3363 373b
00000130: 3e40 223d 347a a7bd 297b 42bd a107 baba
00000140: db57 febc 3483 5638 6812 8b3d 180a 8d3d
00000150: 0864 2c3d 885b d93b 7c66 a7bd 8fc9 643c
00000160: c88f 263d 8477 7fbd c7e0 2bbe 413d 363d
00000170: 5008 03be 7d00 16bc ad2c 0dbc cdcd 1c3d
00000180: 3d61 08be b534 9bbc 51d3 b4bd 6a3b c3bd
00000190: 7fc4 4d3d fc83 b5bb cb75 e63a b33a ea3c
000001a0: 0977 fc3d ca19 1b3c 0dd4 6c3d 7ddc 9a3c
000001b0: 5b1e 52bd 96d0 96bc f897 883c 7f23 b43d
000001c0: ac00 82ba 9305 a53d 24b8 713c 0933 073d
000001d0: 3901 3fbd 74f1 bcbd 91a7 ed3c a521 433d
000001e0: d732 c2bd a132 8a3d b658 0dbe 0b61 b2bb
000001f0: db42 90bd f181 40bd e3a3 a0bc a524 313d
00000200: 89a4 473c 9110 71bb 8587 15bd 4979 ea3d
00000210: 0ea6 c5bc eb61 e9bc 8be9 4f3d 0c8a 903d
00000220: 7b14 d2bd 5545 90bd 27b6 1abd c2d9 1c3d
00000230: 351e b33c ab8b 483d 3458 263e 2008 923d
00000240: 1494 913d 793d 02bd 7bbd 323c ce29 d339
00000250: 7a84 fb3b 9fac eebb d1f5 a73d a2bf 0fbd
00000260: a223 b6bc 8888 0c3d d451 4a3c ac4f 383d
00000270: 5e5f 923c 05c4 b93d 1094 2fbd beb9 a0bb
00000280: 40c2 05bd 11c7 bb3b 025f 563b de5e 2b3d
00000290: fe1e d1bb 30bc 823d a9ac bebc 4ace ddbc
000002a0: 1096 1ebd a02d eebc 8555 813c 8e22 bf3d
000002b0: e691 24bd 1400 babd eb93 17bc 75ac d1bc
000002c0: eaea 793d ed55 e33b e717 1d3c a4e2 4f3d
000002d0: 361f 453c 11a3 17bd e8bb 8b3d 3404 733d
000002e0: 9222 01be a15a 253d fcff 1e3d 8698 073e
000002f0: 2cf3 fb3c 00e9 2dbd 55e7 14bd b957 1c3b
00000300: 9e13 7c3d 3c16 41bc af5b b93d 1eb8 5bbc
00000310: 0b3a 3fba 4ea5 6e3c 6ae8 2e3d ec49 1f3d
00000320: 1715 25bc d15e aabd 847d a5bc 3d98 e93c
00000330: b87a 03be ab90 82bd c608 4cbd 15dc 03bd
00000340: 1690 6cbc 2d32 b63d 26d1 09bd 1a7b e03d
00000350: f7e3 dc3b 292f 70bd 7ca0 05bd ce0c 973d
00000360: e4d5 ca3d fcd4 d03c 2b1e a3bd 9722 98bc
00000370: 215b 4a3d 1049 043d f973 0ebd ffaa 37bc
00000380: 14fa 1bbc 03ff f8bc fa8a cd3d a7d1 753d
00000390: e9a3 be3c 3937 ee3d 23c4 953c 7a34 0c3e
000003a0: 76f3 ccbc 6bd0 e13c 79a2 443d e3e3 d7bd
000003b0: e4e2 67bc 6d1b 02be cda5 b63d 7e1d b3bc
000003c0: 649b ecbd 696b e939 c72e 2f3e 93f7 313d
000003d0: a00d 9ebd b052 2e3d a289 a73c 8b62 bfb8
000003e0: 90f5 793d afde eb3d e112 bd3d 133c 8b3b
000003f0: 2551 82bd a634 93bb 3923 81bd 76da 47bd
