Foosbots_working/results/train_2_1/Foosbots_working/Foosbots_working-500087.onnx (onnx, 278463 bytes, 7 tensors)

action_model._continuous_distribution.log_sigma f4 [1, 2]
000000 79 d5 da 3c 3b 36 d3 3c
       0.02671312 0.025782695

action_model._continuous_distribution.mu.bias f4 [2]
000000 2d a0 28 3c 3f 14 19 3c
       0.010292095 0.009343206

action_model._continuous_distribution.mu.weight f4 [2, 256]
000000 6b 04 15 bb 37 45 60 bc 65 57 0e 3c 62 1b 9d bb
       -0.002273823 -0.013688377 0.008687829 -0.004794524
000010 cf 75 d2 39 1f b5 e9 bb 70 62 30 3b 33 b0 e5 39
       0.00040142096 -0.007132187 0.0026914142 0.00043809562
000020 5b 3f 31 bb df ba ab 3c 56 32 5f ba 19 8a 39 bb
       -0.002704582 0.02096313 -0.00085142755 -0.0028311072
000030 20 9e bc bb 5f 53 bf 3c f1 3a b6 bb 6a d5 e5 3c
       -0.0057561547 0.023355184 -0.0055612256 0.028055865
000040 29 ca 78 3b 21 c6 98 bc a0 0d 8c 3c 93 8f e8 3b
       0.0037962294 -0.018649163 0.01709634 0.0070971935
000050 de be 97 3c a4 f0 54 bb 28 46 ff bb 9a ce 59 ba
       0.01852363 -0.0032492066 -0.0077903457 -0.0008308679
000060 f3 37 00 bc 4d 88 60 bc 98 b4 8a 3c ca ca 9f bc
       -0.007825839 -0.013704372 0.016931817 -0.019505877
000070 cf 0b 99 bc 12 b0 9f bb 71 e1 e0 3b 0f 00 4e bb
       -0.018682389 -0.004873284 0.006862812 -0.003143314
000080 a8 3c 19 bc 15 86 79 bc 9a 46 c5 bb c5 d4 8d 3c
       -0.0093528405 -0.015229722 -0.0060203793 0.01731337
000090 5f 0d d0 3c e4 75 e7 3b d6 d7 98 bb 04 e7 4b ba
       0.025397 0.007063614 -0.0046644015 -0.00077782595
0000a0 a5 0c b4 3b f5 ad 95 bc ac 11 d9 bc 6a 1b c8 bc
       0.0054946714 -0.018271426 -0.026497684 -0.024427135
0000b0 f7 60 0c bc c9 de 64 bc 93 7e 81 3b eb 4c 3b 3c
       -0.00856804 -0.013969132 0.0039518564 0.011431913
0000c0 e1 d6 38 bc de 76 e4 bb 55 c9 88 ba 10 58 92 bb
       -0.0112817 -0.006972178 -0.0010435978 -0.0044660643
0000d0 c2 fd 79 bb a4 c6 87 3c 7c d5 b4 3b 69 fd 31 3b
       -0.0038145636 0.016574211 0.0055186134 0.00271591
0000e0 28 ff 7e 3c 79 c3 d4 bb fa 89 b5 3c aa 95 48 bb
       0.015563764 -0.0064930287 0.022160519 -0.0030606785
0000f0 72 43 f5 bb f4 d3 30 bc 22 68 38 bc 06 1d 1b 3c
       -0.0074848467 -0.010792721 -0.011255296 0.009467369
000100 57 86 fc 3a b0 36 04 bc d1 93 8f 3c a8 02 12 3c
       0.0019266111 -0.008069679 0.017526539 0.008911766
000110 98 18 ed bb 94 76 5e bb 87 a5 67 3b 77 12 43 3c
       -0.007235598 -0.003394519 0.0035346465 0.011906258
000120 a1 db 09 3c a5 6e 63 3c 46 a7 71 3a 64 f0 4d 3c
       0.00841418 0.01388136 0.0009218346 0.012569521
000130 d7 8f bf ba 80 99 89 3c 0b 98 ac ba 1a ad b9 3b
       -0.0014615011 0.016796827 -0.0013167871 0.0056663873
000140 40 99 97 3c ea fa 4b bc 3d e0 4d 3c 9f 3c a1 bb
       0.018505692 -0.012449959 0.01256567 -0.0049205567
000150 1e 05 e3 bc 32 c5 50 bb 91 41 a0 bc 40 0f a1 bc
       -0.027712401 -0.0031855819 -0.019562514 -0.019660592
000160 f2 e2 e0 bc 08 be 66 3c b0 db f3 3a 1f 35 f4 ba
       -0.027451966 0.014083393 0.0018604901 -0.0018631554
000170 f0 5d 03 bc 62 f8 9e 3c 64 69 f0 bc e3 dc fd 3c
       -0.008018002 0.019405548 -0.02934713 0.030989116
000180 35 27 fe bb a7 25 57 bb 9f f2 02 bc 9a 27 cd 3b
       -0.0077561387 -0.003282884 -0.007992416 0.0062608244
000190 b9 4f f4 3b d9 59 f3 ba fa f1 a5 bc 2f 12 02 3c
       0.0074557927 -0.0018566205 -0.020256985 0.007938906
0001a0 a2 f3 ce 3b e1 14 38 bc 68 31 17 3c 7c 8b 94 bc
       0.0063156644 -0.011235447 0.009228088 -0.018132918
0001b0 0d a3 a1 bb f5 17 9e bc 63 46 82 3c 54 37 b4 bc
       -0.0049327672 -0.019298533 0.015902704 -0.021999039
0001c0 e9 58 c3 bc 42 f4 33 3a 1b cf 8a 3b 6b 27 14 3c
       -0.023846107 0.00068647054 0.0042361147 0.009042601
0001d0 0e 8d c8 3a c2 26 a6 bc 0b 67 3f 3c db ca 16 bb
       0.0015300827 -0.020282153 0.011682282 -0.0023009095
0001e0 a4 c9 f0 3b de e9 47 3a 65 dc af bc 1a f5 fd 3b
       0.007348256 0.00076260965 -0.021467397 0.0077501656
0001f0 9f 23 ca 3c 87 64 21 3c 7b 7b 8e ba 20 77 31 3c
       0.024675189 0.009850628 -0.001087054 0.010831624
000200 ff e4 27 3c 6b 65 d7 3a b5 06 7a 3c 1a 9d a1 bc
       0.010247468 0.0016433423 0.015260388 -0.019728232
000210 ca d8 c8 bb cc 2d 47 3c e1 d9 a2 3a 1d 6f 0c bc
       -0.006129359 0.012156915 0.0012424552 -0.008571413
000220 0f 00 13 3b 70 3f 12 3c b2 ae 0c bc 44 93 62 bc
       0.0022430455 0.0089262575 -0.0085865725 -0.013829056
000230 dd 27 05 3c b5 16 46 bb e6 24 34 3c af 31 1e 3c
       0.00812718 -0.0030225937 0.010995125 0.0096554
000240 22 bb 30 3d c5 eb 32 bc c4 ab c0 bc ea cf ed 3b
       0.043147214 -0.01092047 -0.023519404 0.0072574513
000250 cb 86 ad 3b 8a d7 6c 3b f8 88 21 bb 43 1f d4 bb
       0.0052956096 0.0036139213 -0.002464829 -0.0064734532
000260 10 26 f8 3b 71 73 00 3c 8c f4 9a 3b 83 b2 47 3c
       0.007572897 0.007840023 0.0047288593 0.012188557
000270 d1 7d e0 3a 97 77 9d bc fc 7f c3 3c f5 de 7d bb
       0.001712734 -0.019222064 0.023864739 -0.003873763
000280 ab 77 c3 bc a1 a6 4b bb 5b bc 9a 3c 45 88 30 3d
       -0.023860773 -0.003107466 0.018888643 0.043098707
000290 55 2c 13 bc e4 a0 cc 3c e5 fd 97 3b a2 ff 14 3c
       -0.008982738 0.024979062 0.004638421 0.009094151
0002a0 3b fc 72 3c a0 9f 3a 3a d9 c4 65 bb b9 98 44 3b
       0.014830644 0.0007119123 -0.0035059957 0.0029998256
0002b0 87 19 92 bb 55 8c a7 3a cd 58 95 3b cf 19 be 3c
       -0.0044586095 0.0012782911 0.004557705 0.023205666
0002c0 bf 22 4c bc 5e c7 b1 3b c8 8b 36 3b e8 5a 18 bc
       -0.012459456 0.0054253777 0.0027854312 -0.0092990175
0002d0 41 34 2f bc 95 a4 27 3c 48 e9 21 bc 0b 90 16 3a
       -0.010693611 0.0102321105 -0.009882279 0.000574351
0002e0 3f b2 23 3c 94 70 33 bc 72 95 ec 3c b8 c9 b5 3c
       0.009991228 -0.010952134 0.028879855 0.022190914
0002f0 ac 6e fe bb 74 3a 04 bc a7 35 1f 3a 5e 93 62 3c
       -0.007764658 -0.008070577 0.00060733635 0.01382908
000300 9a f5 75 bc c8 26 70 bc 3a 5f 27 3c c2 62 b8 bc
       -0.015012169 -0.014657684 0.010215575 -0.022508029
000310 a1 96 da 3a 4e c5 f8 3b 9e 61 9d 3c e7 bf a8 39
       0.0016676971 0.00759188 0.019211587 0.00032186435
000320 87 c8 35 bc 50 34 88 3c 2d 92 a7 3c c4 b0 07 bc
       -0.011095173 0.016626507 0.020455444 -0.00828189
000330 58 ad 09 3b c9 f3 17 bb 75 29 bc ba c1 95 e3 bb
       0.0021007862 -0.0023186079 -0.0014355617 -0.0069453423
000340 20 6b 4a 3c 8b 3e bc 3b 1d 3d b0 bc fb bf c6 3c
       0.012354642 0.0057447604 -0.021513516 0.024261465
000350 f9 16 20 3a 8d 3b 67 bb fa 25 84 3b c8 c0 6d bc
       0.0006106939 -0.0035283298 0.0040328475 -0.014511295
000360 a7 b0 be bc 0a d6 91 bc b3 a9 c7 ba 23 21 df ba
       -0.023277594 -0.017802257 -0.001523307 -0.0017023425
000370 ba ea 17 bc 20 4d 99 3a 47 6f 8f 3b 64 3b 86 bb
       -0.009272272 0.0011695959 0.004377279 -0.0040964354
000380 07 4f 5d 3c 6f dd eb bb d5 7e 9e 3c 24 5e 0f 3c
       0.013507611 -0.007198028 0.019347588 0.008750472
000390 bd bc 1a bc 29 6a 97 3b 96 4f 72 3c 40 37 92 bc
       -0.009444413 0.0046208096 0.014789483 -0.01784861
0003a0 97 9d 59 bb 70 a6 7e 3c ca a4 8c 3c 34 4a 45 ba
       -0.0033205503 0.0155426115 0.017168421 -0.0007526011
0003b0 ff 4a 5a bc 54 49 00 3c 1e 04 90 3c 00 c2 d0 3b
       -0.0133235445 0.007829983 0.017580088 0.006370783
0003c0 a9 d6 19 bc e7 ff 49 3b 52 6f bb 3a 67 3b 35 bb
       -0.009389558 0.0030822696 0.0014300144 -0.0027653815
0003d0 35 37 63 bc 43 e5 13 3c 6b 00 e6 38 5e 18 d9 3b
       -0.013868143 0.009026828 0.000109673325 0.0066252192
0003e0 ff d8 b2 3a 31 03 d0 3c 0f 2a 65 3c b7 ef 81 3b
       0.0013644992 0.025392147 0.013987078 0.003965344
0003f0 9d e7 a4 3b d3 b7 80 3c 95 fd da bc d2 8f 6f bb
       0.0050324933 0.015712654 -0.026732245 -0.003655423

network_body._body_endoder.seq_layers.0.bias f4 [256]
000000 07 89 17 bb a2 48 e1 3b f5 46 24 3c fd c2 37 3c
       -0.0023122446 0.0068751136 0.010026683 0.011215922
000010 18 17 60 3c b5 bf cb 3b 86 39 90 bb 43 a3 1d bc
       0.013677381 0.0062179216 -0.0044013886 -0.009621444
000020 d0 97 2b 3c 3a f1 08 3c 90 ce 6b bb fd bf ad 3b
       0.010473207 0.008358294 -0.0035981275 0.005302428
000030 24 82 8a 3b c0 e2 3d 3c 43 d3 55 3c e1 cc 37 3c
       0.0042269398 0.011589706 0.013050857 0.0112182805
000040 ec 30 08 3c ad 9a 52 3c 12 00 81 bb 51 66 a0 39
       0.008312445 0.01285426 -0.003936776 0.0003059381
000050 1f a6 02 3c 57 4e 1b 3c d2 aa 7e bb f9 c0 26 3c
       0.007974177 0.009479127 -0.003885914 0.010177844
000060 12 6c 16 bb 32 4e df 3b 33 c6 bd ba 4e 54 28 bc
       -0.0022952599 0.0068147415 -0.0014478624 -0.010274006
000070 c5 ab d9 3b 83 5a cc ba be 20 12 bb b3 22 3a bc
       0.006642791 -0.001559094 -0.0022297348 -0.011360812
000080 fb af 7e 3b 3e c9 ee bb 8b 69 eb 3a 56 f3 3e 3c
       0.0038862217 -0.0072871735 0.0017960531 0.0116546955
000090 28 e7 4b 3c 1c cb 18 bc 7b 82 f2 bb 7b ff f5 bb
       0.012445249 -0.009325769 -0.0074008084 -0.0075072623
0000a0 0c 3e a6 3a af 22 64 3c b3 1c 0c bb 64 6e f7 ba
       0.0012683286 0.013924285 -0.002137941 -0.0018877503
0000b0 ef 3f 44 3c 04 c9 30 3c da b1 36 3b ad 3e cb 3b
       0.011978134 0.010790113 0.0027877004 0.00620254
0000c0 7c 91 58 3c 6a 14 0d bc 36 4e 88 3a ca 1b 49 3b
       0.01321828 -0.008610824 0.0010399285 0.003068673
0000d0 95 0a 08 3a 2b 07 24 3c 24 ee 2f bc d9 5d 9d bb
       0.0005189565 0.010011475 -0.0107379295 -0.0048024473
0000e0 d8 77 f1 38 3b 6c 61 bb 40 bd c0 3b 16 50 ee ba
       0.00011514098 -0.0034396786 0.0058819354 -0.0018181826
0000f0 21 7f 04 bc 49 29 b8 bb ca 6e ee 3a 85 8f 10 bc
       -0.0080869505 -0.005620156 0.0018190977 -0.00882328
000100 1f 34 2f 3b 82 ae 1e 3c 21 5b 80 bb a1 af 1a 3b
       0.0026733947 0.009685161 -0.0039171134 0.0023603218
000110 84 55 30 3c 43 1d 03 3b 19 ac 63 3c 8a bc fd bb
       0.010762576 0.0020006455 0.013896012 -0.007743423
000120 53 84 08 bc 83 b2 d2 bb af ce 20 bc 3d 0a 4d 38
       -0.00833233 -0.0064299717 -0.009814902 4.8885344e-05
000130 84 34 84 bb cc 6d 8b 3b f8 03 3a bc 63 6c f3 3a
       -0.0040345807 0.004255032 -0.011353485 0.001857173
000140 41 cf 4a 3b 54 cf b4 3b 24 c7 e0 3b 7c 02 f1 ba
       0.0030946287 0.0055178795 0.006859677 -0.0018387581
000150 a2 00 5f bc 45 4f fc 3b e3 96 91 bb 47 a9 71 ba
       -0.013610991 0.0076998794 -0.004443036 -0.00092186447
000160 db a1 eb 3a 0c 62 40 3c 0b c1 bf bb 1d 6a b1 3b
       0.0017977314 0.011742126 -0.00585187 0.005414261
000170 70 d6 5e bb 0d a9 83 3b 77 33 93 3b 97 ca 14 3c
       -0.0034002326 0.004017955 0.004492219 0.009081504
000180 cf 14 ec 3a 6c e1 eb 3b 96 d0 7f 3a df 38 f8 3b
       0.0018011573 0.0071985032 0.000975856 0.007575139
000190 73 2c f8 3b c8 51 68 3c 20 a2 cc b9 bf a6 80 3c
       0.007573658 0.014179654 -0.00039030705 0.01570451
0001a0 88 12 92 bb 86 a5 7a 3b 0a 28 08 3c c9 45 f3 3b
       -0.0044577755 0.0038245632 0.008310327 0.0074240905
0001b0 26 c3 3c 3b 97 0a 4a 3b cd 25 8f 3b 82 98 b7 bb
       0.002880284 0.0030829066 0.00436852 -0.005602897
0001c0 04 da 9e 3b 23 ab 13 bc 64 7f 8a bb 14 28 d7 bb
       0.004847767 -0.00901297 -0.004226612 -0.006566057
0001d0 27 af 03 bc 0d 96 48 3b 72 17 31 3b ed 1b 3f bc
       -0.008037365 0.0030607015 0.002702203 -0.011664373
0001e0 1a ba 71 3b 6f 3a 0c bc 11 5b 17 3c 91 14 27 3c
       0.0036884607 -0.0085588535 0.0092380205 0.0101977745
0001f0 80 74 1a 3c 1e 5c b1 bb 26 d8 c9 3b 7d 83 2d 3c
       0.00942719 -0.0054125926 0.0061598 0.010590431
000200 19 61 7c bb d6 59 07 bb a5 00 1e ba d1 97 5d bb
       -0.0038510023 -0.0020652912 -0.0006027318 -0.0033812413
000210 5b 46 16 ba 7d 4f 5b bb 92 69 24 3c c5 3c 35 3b
       -0.00057325297 -0.0033464127 0.010034936 0.002765463
000220 bb 2d 0c bc 3f 25 33 bc a1 2f d2 3b 68 e1 05 bc
       -0.008555825 -0.010934173 0.006414369 -0.008171417
000230 c1 cd f3 3b 9c 57 2f bb d3 42 0a 3c ae 93 e8 3b
       0.0074402993 -0.00267551 0.008438784 0.007097683
000240 01 b4 97 bb f4 31 09 bc 65 47 5d 3c 5a 36 04 3c
       -0.0046296124 -0.008373726 0.013505791 0.008069599
000250 eb 2b 28 3c 75 7b 59 3b 9f c4 f7 3b f6 7d 3b 3c
       0.010264377 0.0033185158 0.007561281 0.011443606
000260 a0 9f 20 bc 2e 5a 1c bb ef 11 9a bb 80 0b ef bb
       -0.009803683 -0.0023857462 -0.004701845 -0.007295072
000270 6d 8b 2b ba 3b 8a 5d bb 80 53 69 3b c7 e4 a5 3b
       -0.00065439084 -0.0033804316 0.0035602748 0.005062673
000280 92 16 51 bb 87 bc 2d bc 1e ca 52 3c 7a 43 35 3c
       -0.0031904322 -0.01060403 0.012865571 0.011063451
000290 b4 12 31 3c 46 58 2b bb 2e 56 59 3b c9 c1 57 bc
       0.010807682 -0.0026145144 0.003316294 -0.013168761
0002a0 45 82 04 b9 a2 57 2c 3c 59 34 44 3c fb 6d 63 3b
       -0.0001263703 0.01051894 0.011975371 0.0034703005
0002b0 fd a6 c4 bb e0 65 ec 3a af 09 d4 3a e4 f8 2e bc
       -0.006001352 0.0018035732 0.0016177202 -0.010679457
0002c0 7f 77 a1 bb 42 3c 2a bc 32 16 18 3b b3 3c ee 3b
       -0.004927575 -0.010390343 0.0023206589 0.0072704195
0002d0 8d e6 f4 bb 96 60 52 3a cf 90 f9 3b c5 e9 43 3c
       -0.007473773 0.00080252567 0.0076161395 0.0119575905
0002e0 f1 09 de bb b9 84 15 bc b6 8b 34 bc eb 87 2d bc
       -0.0067760875 -0.009125882 -0.011019638 -0.010591487
0002f0 14 1a 43 3c 9c d8 ab 3b 91 0f 90 3b 73 81 ec 3b
       0.011908073 0.0052443277 0.004396387 0.00721758
000300 dc aa ee bb 4f 1b f2 bb 8b 41 22 bc 90 a0 18 bc
       -0.0072835516 -0.0073885093 -0.009903322 -0.009315625
000310 8e 91 01 bb a2 75 74 bb 86 6b be bb df 88 2d bb
       -0.0019770595 -0.003730156 -0.0058111576 -0.0026479287
000320 c2 22 3f bc d6 ff 26 bc b0 3c dd 3b 06 ec 0f bc
       -0.011666002 -0.010192832 0.0067516193 -0.0087843
000330 81 e8 eb 3b 87 60 1b bc bc 21 2b 3c 8e 42 c6 3b
       0.0071993475 -0.009483463 0.010445055 0.0060504144
000340 e4 ac 54 3c 19 d9 24 3c bc ca aa 3b 0d d6 9a 3b
       0.012980673 0.010061526 0.005212156 0.004725224
000350 ce c9 0e bc a3 d6 05 bc 4b 8e 04 3c 5c e2 08 bb
       -0.008715106 -0.008168849 0.008090566 -0.0020886874
000360 12 55 7c 3b d3 f8 c5 bb 19 e7 1d 3c 51 94 d2 3b
       0.0038502854 -0.006041625 0.0096376175 0.006426372
000370 c4 a6 8f 3b be 61 35 3b 6d 00 29 b9 9e c8 5b bb
       0.0043838937 0.0027676667 -0.00016117255 -0.0033536325
000380 1c 20 ba 3a f3 df 07 bb 03 7b 83 3b 47 97 a4 bb
       0.0014200243 -0.002073285 0.004012467 -0.0050229165
000390 30 84 fa bb 8f e0 0e 3c 43 b5 7b 3c 63 c5 d3 3b
       -0.0076451525 0.008720531 0.01536304 0.0064627393
0003a0 30 36 5d 3c 15 2b 91 bb 57 9f 1b 3c 85 70 fe bb
       0.013501689 -0.0044301846 0.009498439 -0.007764878
0003b0 26 7d 5c bb 30 1e 23 3c 85 63 4b 3c aa 8b 01 3b
       -0.003364393 0.009955928 0.012413864 0.0019767084
0003c0 68 6e 1b 3c e3 02 8f bb 4a c1 5c 3c db 53 4c 3a
       0.009486772 -0.004364358 0.013473818 0.0007794478
0003d0 fd 8a 3d 3b c4 69 4b bb e2 a9 34 3b 9b 0f 20 3b
       0.0028921955 -0.0031038383 0.0027567078 0.0024423364
0003e0 a4 38 12 bc 05 53 42 3c bb cc 82 3c 8b 4b 12 bc
       -0.008924637 0.011860614 0.015966764 -0.008929144
0003f0 22 14 67 3b d6 ef 9e 3b 37 cb 82 39 77 87 ac 3b
       0.0035259803 0.004850368 0.0002494694 0.005265172

network_body._body_endoder.seq_layers.0.weight f4 [256, 10]
000000 01 21 92 be 58 5a a5 3d b9 18 92 3e db 6a 7f 3d
       -0.28540805 0.08073872 0.28534487 0.062357765
000010 36 35 e9 bd fd 4b e4 bd 6b 59 57 be 7a c0 0b be
       -0.11387102 -0.11147306 -0.21030204 -0.13647643
000020 79 24 0d 3f 9c 1d 1d 3e e2 58 a6 3d a9 43 2d 3f
       0.5513378 0.15343326 0.08122422 0.67681366
000030 de 1c 6e be f9 67 ab 3e fe 24 c9 be c6 ab df be
       -0.232532 0.33477762 -0.39286035 -0.4368574
000040 c3 95 22 3d 7f 29 0b be 98 f9 95 3a 08 fd 4f 3e
       0.039693605 -0.13590048 0.0011442183 0.20311368
000050 05 d4 99 3e 6f 15 15 bf bf b5 cb be 5a 8c 8f 3e
       0.3004457 -0.5823583 -0.397871 0.28036767
000060 79 fb 38 be 02 d5 d8 3e 97 97 61 3e 6e 49 0c be
       -0.18064679 0.42350012 0.22030483 -0.13699886
000070 d6 2f 1d be c4 dd 85 bd 81 46 14 3f eb de 41 3e
       -0.15350279 -0.06536439 0.5792008 0.18932693
000080 a7 83 05 3e 39 f8 f8 bd f2 85 04 be 7c bf c3 be
       0.13038503 -0.1215672 -0.12941721 -0.38232028
000090 40 6e 85 3e 49 c7 d4 bc 42 77 a1 be b1 2c d4 be
       0.26060677 -0.025973933 -0.315363 -0.41440347
0000a0 5c e6 81 be ff 08 d7 bd d3 8b 3c bd 74 fd ad be
       -0.25371063 -0.10499763 -0.046031784 -0.33982432
0000b0 ab 52 e4 be 36 6e e5 3e 7a 0f 82 be 4b 7e 8d 3e
       -0.4459432 0.44810647 -0.25402433 0.27635416
0000c0 85 19 ac bd 7f c7 26 3e 4f 90 02 bf fb 33 e2 3d
       -0.08403305 0.16287039 -0.5100145 0.11045071
0000d0 d3 cd 62 3f 7c 12 b6 be e6 37 b9 be 3d 31 1e 3d
       0.8859531 -0.35560977 -0.3617546 0.038621176
0000e0 e5 57 fe bd e3 0b a2 be 81 85 65 be a3 b7 18 be
       -0.12419108 -0.31649694 -0.22414209 -0.14913802
0000f0 c6 bc 92 3e 75 27 df 3d 7c bb a3 bc 64 10 93 bd
       0.28659648 0.10896198 -0.01998686 -0.07180861
000100 70 2e ed bd 50 99 06 3f b0 4a a7 be 05 29 00 3e
       -0.11581123 0.52577686 -0.3267417 0.12515648
000110 68 c2 40 3e 51 8c c0 3e 55 3d b7 bd 40 19 03 3e
       0.1882416 0.37607053 -0.08947245 0.12802601
000120 72 d1 1f bf e4 9d 91 bc 16 a0 5a be bf 37 f5 3d
       -0.62428963 -0.017775483 -0.2135013 0.11973523
000130 c3 be b6 be b1 75 10 3f f1 4c 86 be 30 a3 93 3e
       -0.35692415 0.5642958 -0.26230577 0.2883544
000140 f4 65 1c 3f 44 96 c1 be 8e 53 fc 3d ac 05 73 3e
       0.6109307 -0.37809956 0.12320624 0.23732632
000150 ba dc 9d bc 04 ee 94 bd f1 fe 34 3e 27 61 10 3f
       -0.01927029 -0.072719604 0.17675377 0.5639824
000160 29 3a 98 bd cf 60 d6 bd cf 62 86 3d d5 7b 48 3d
       -0.07432968 -0.104676835 0.06561815 0.04894622
000170 b4 f9 22 be 15 b4 8c be f7 b6 86 3e 4e 0c bd 3d
       -0.15915567 -0.27481142 0.26311466 0.092308626
000180 61 5c ca bb 9a 30 7a 3e 7d 4f b2 3e b6 6d 44 be
       -0.006175563 0.24432603 0.3482627 -0.19182476
000190 c1 4e 86 3d f0 67 c7 3d ac 57 6b 3e 26 13 4a be
       0.0655799 0.097366214 0.22982663 -0.19733867
0001a0 d8 b6 07 bf 58 37 37 be 64 87 df bd 0b fa 8d 3e
       -0.5301337 -0.17892206 -0.109144956 0.2772983
0001b0 14 dd fa bc 7a a8 c9 bb d5 31 13 3f 36 86 95 3c
       -0.030622996 -0.006154117 0.5749791 0.018252473
0001c0 60 11 46 be 2f a7 ca be 62 f5 36 be 10 a2 07 3f
       -0.19342566 -0.39580676 -0.17867044 0.5298166
0001d0 02 29 b2 be a8 f0 3c 3e e9 25 34 3d 73 4c 9b be
       -0.3479691 0.18451178 0.043981466 -0.30331764
0001e0 98 90 39 be 07 a9 07 3f f9 85 4d 3d 33 02 9e 3e
       -0.18121564 0.5299229 0.050176594 0.30861053
0001f0 dd f5 87 be 34 a1 06 bc 1e a9 95 bc 3e 59 8e 3d
       -0.26554766 -0.008217145 -0.018269118 0.06950615
000200 75 1c d6 3e 2e 97 5c bd fa 4c 8a 3e 12 63 f5 3e
       0.41818586 -0.053855114 0.27011853 0.47927147
000210 7d 10 ad bd 77 85 15 3d 44 99 c7 3e 0a 98 51 3e
       -0.084504105 0.036504235 0.3898412 0.20468155
000220 38 1e dc bd 6d b3 ab be b4 16 8b 3d dc 4e a0 3c
       -0.10747951 -0.33535329 0.0679144 0.019568853
000230 6e 2c c9 3e 79 17 c9 3d d2 c7 19 bf e1 29 b6 be
       0.3929171 0.0981893 -0.60070527 -0.35578826
000240 e1 29 63 be 79 99 fb bd 6b db 1d 3d 35 57 c8 3c
       -0.22183944 -0.12285132 0.03853933 0.024455646
000250 03 05 29 3e 49 e8 f2 be f8 c8 7c 3e ba 7f fe bc
       0.16505818 -0.47442845 0.24686038 -0.031066764
000260 76 5f 22 3e f8 57 6f be 52 66 96 bd 3f 51 a1 be
       0.15856728 -0.23373401 -0.07343735 -0.31507298
000270 a9 f7 8a be 41 6c 7c 3b bb d6 25 bd 34 51 22 3f
       -0.27142075 0.0038516673 -0.040487986 0.63405156
000280 e7 24 ea 3e 25 f3 22 bf 08 28 3e 3f a7 1f 60 3e
       0.4573128 -0.6365226 0.7427983 0.21887074
000290 03 a1 98 3e 73 58 95 bd 57 f6 1a be 5e 91 58 be
       0.29810342 -0.07292261 -0.15133034 -0.21149203
0002a0 4d 54 9c be 92 b1 39 be c9 91 86 3e 58 d1 95 3c
       -0.30533066 -0.18134144 0.262831 0.0182883
0002b0 91 37 93 3e 40 8e c4 be ef 20 0c 3f 77 7f ad 3e
       0.2875333 -0.38389778 0.5473775 0.3388631
0002c0 b7 6e 7f 3e 30 78 8c 3d da 61 b3 3e 2b b8 7d be
       0.24944578 0.068588614 0.35035592 -0.24777286
0002d0 a6 6d b5 3e 72 a2 c1 be 16 34 4a be 55 7e c6 be
       0.35435218 -0.37819248 -0.19746432 -0.3876826
0002e0 9b bd cf bd 78 8c 8e 3b 42 98 2e 3e 26 6b a2 3e
       -0.10143586 0.0043502413 0.17050269 0.31722373
0002f0 97 13 1b bf a2 6c 33 3e ab 0c 47 bf b0 c4 fc bd
       -0.60576767 0.17521909 -0.77753705 -0.12342203
000300 7d 3a a2 be c7 ab 98 be 6a 1d f4 be d7 05 02 bf
       -0.31685248 -0.29818556 -0.4767869 -0.5079016
000310 ba fa b5 3d 47 15 e2 be 5c dc 02 3f 42 6f 61 3d
       0.08885713 -0.44156858 0.5111749 0.055037744
000320 b9 f8 a2 bd 15 21 ba be c8 5a a1 be c3 74 88 3e
       -0.07957596 -0.36353365 -0.31514573 0.26651582
000330 0f 6c da 3e 34 7b 8c be 57 61 32 be aa 5e 50 3e
       0.42660567 -0.27437747 -0.17419945 0.20348611
000340 63 7b c9 3d 3f 4a 5a bd 0d 0f 07 3e 64 bc 9f bd
       0.09837987 -0.053293463 0.13189335 -0.077996045
000350 b9 18 71 3e 26 5a af bd 40 15 7b 3d 9c e9 70 be
       0.23544587 -0.08562116 0.061299562 -0.23526615
000360 50 6a 0b 3d 44 ff ed be 57 16 b5 be fc 04 ae 3e
       0.034036934 -0.46483815 -0.35368606 0.33988178
000370 35 d3 62 be 40 18 cb bd ff 36 b7 3e aa 98 1e be
       -0.22150882 -0.09916735 0.35784146 -0.15487924
000380 c0 a3 e5 3e 99 f0 51 3e 5a 2a 9c be 31 6b d2 3d
       0.44851494 0.20501937 -0.30501062 0.102743514
000390 ec 7e e4 3e 87 46 29 3e af ad 49 bd 17 23 ff 3e
       0.44628084 0.1653081 -0.049237903 0.4983146
0003a0 c0 ef 08 3e 37 e8 5d 3e 58 38 cf 3e 98 a3 6b 3e
       0.13372707 0.21670614 0.40472674 0.23011625
0003b0 0a 06 ae 3c c3 c2 05 bf 6b 1c 4d be e9 69 ed 3c
       0.021243114 -0.5225031 -0.20030372 0.028981166
0003c0 dc ba 9f be d3 95 6f be 2a 24 16 bf 25 3a 8a 3e
       -0.3119725 -0.23396997 -0.5864893 0.26997486
0003d0 15 0f 24 3f ef 94 e7 3e e2 35 6b 3f c7 b6 a5 3e
       0.64085513 0.45230815 0.91879094 0.3236601
0003e0 2f 9c aa 3d 42 ea 8b 3e 93 87 6b 3d f1 44 16 3d
       0.08330571 0.27327162 0.05750234 0.03668684
0003f0 30 ab 25 3f a3 49 e5 be e7 7c b0 be c5 37 fd 3e
       0.64714336 -0.44782743 -0.34470293 0.4945661

network_body._body_endoder.seq_layers.2.bias f4 [256]
000000 a1 e6 22 3c 33 54 2e bc 1f 4c ef bb 3b bd 95 bb
       0.0099426815 -0.010640192 -0.0073027755 -0.004569677
000010 f3 a6 28 3b 84 cc 04 3c e9 46 15 bc 8f 14 08 bc
       0.0025734275 0.008105401 -0.009111145 -0.008305683
000020 6c 21 03 3c 9c ab 08 3c c0 49 bb 3b df 6e ad 3b
       0.008003574 0.008341696 0.005715579 0.005292758
000030 55 f9 61 bc 27 9c 45 3c 57 c7 eb bb 8c 4e c5 3b
       -0.013792356 0.012061155 -0.007195394 0.0060213264
000040 34 d2 57 3c d6 3c 32 bc a6 c3 3a 3c 1b a8 93 bb
       0.013172675 -0.010878762 0.011399185 -0.0045061237
000050 94 4f c1 3b 16 df 53 bc 93 a2 6b bc df a5 b3 ba
       0.005899379 -0.012931606 -0.014382022 -0.001370605
000060 b8 16 02 3c f9 0b d0 3b a9 60 ab 3a 42 6c f7 3a
       0.007939987 0.0063490835 0.0013075072 0.0018876868
000070 61 f9 95 3a a6 e2 10 bc 92 c6 99 3b ab 6c 66 3b
       0.0011442119 -0.0088431 0.004692861 0.0035159986
000080 d2 39 40 bc 4d 8b 87 bb 5a 54 5f bc b3 2d 7c 3b
       -0.011732535 -0.004136479 -0.013630951 0.0038479387
000090 5d 9f 86 3b 4c 75 56 3c 99 ce b0 3b 50 4c 3b bc
       0.004108353 0.013089489 0.005395722 -0.011431769
0000a0 cd ae 98 3b b2 1f 78 3b ef 53 6d bb 15 02 11 bc
       0.0046595098 0.0037860689 -0.0036213358 -0.008850594
0000b0 ed 4f 0d 3c 79 1c 1b bc 8e 32 11 3c 9a bb 3f 3c
       0.008625013 -0.009467238 0.008862151 0.011702443
0000c0 23 cb 85 bb 0f 0d 20 ba 55 32 11 bc 95 d9 41 bc
       -0.0040830537 -0.00061054615 -0.008862098 -0.011831661
0000d0 35 93 14 3c bb 8b 17 3c f0 6b 04 bc 91 cb 31 3c
       0.0090683 0.009249623 -0.008082375 0.010851757
0000e0 cd 1b c8 3b ea 82 d2 3b 06 60 bd 3b 9e ef f7 bb
       0.0061068297 0.0064242976 0.005779269 -0.0075664064
0000f0 35 5e a4 3b 0e c2 4d bb c8 39 59 bc 0d 1a cf bb
       0.005016113 -0.0031396183 -0.013258405 -0.006320244
000100 70 ee 4b 3c b1 4f 76 3b 80 fa 23 3c fb da 34 3c
       0.012446985 0.003758412 0.010008454 0.011038537
000110 1a 49 44 bc 05 a0 16 bc e9 3d c7 bb e1 57 ed 3b
       -0.011980319 -0.009193425 -0.0060803783 0.007243142
000120 73 d5 c7 ba 81 70 14 3c ab 3c 0a 3b ee bb 22 bb
       -0.0015246108 0.009060026 0.002109329 -0.0024831253
000130 1e 58 31 3c 75 15 29 3b 13 6e 03 bc 0d 68 0e 3c
       0.010824231 0.0025800143 -0.008021849 0.0086918
000140 c2 dd 23 3c b6 68 4e bc fd f7 ba 3b 02 f1 07 bb
       0.010001602 -0.012598207 0.005705832 -0.0020743017
000150 61 84 34 bc 7c 17 20 bc 70 d8 a3 bb 8c 8e b4 38
       -0.01101789 -0.009771224 -0.0050001666 8.60962e-05
000160 fc 67 fa bb 7f 72 23 3c f4 21 b2 bb c4 ae 0b bc
       -0.0076417904 0.009976028 -0.0054361764 -0.008525554
000170 74 f6 66 bc d0 79 52 3c 38 82 23 bc a0 0e 39 3c
       -0.014096845 0.012846425 -0.009979777 0.011294991
000180 4b 5a 2f bc 4b 94 60 bc 50 0e 5c bc 9a b4 46 3c
       -0.01070268 -0.013707231 -0.013431147 0.01212802
000190 ce e3 7e 3a 1f 7d 33 3c 36 9b 5e bc 6d 61 38 3c
       0.00097232766 0.010955124 -0.01358681 0.011253697
0001a0 f2 3e c8 bb 94 3c d0 bb 2d 32 83 bb 84 8d 10 bb
       -0.0061110193 -0.0063548777 -0.004003784 -0.0022057006
0001b0 e8 c6 06 bc db 71 65 bc 6a eb 41 3b a2 78 17 bc
       -0.008226134 -0.014004196 0.002958978 -0.00924507
0001c0 43 60 f1 bb aa 46 1c bc 5b df 4c 3c 19 4e 51 3c
       -0.0073662116 -0.009538332 0.012504424 0.012774968
0001d0 38 55 bf b9 f6 8c 62 bc 01 19 34 3c 0f f8 39 bc
       -0.00036493852 -0.013827553 0.0109922895 -0.011350646
0001e0 8a 53 5b 3a de a0 1e bc 7f 14 f3 ba 7e d3 5a 3c
       0.00083666353 -0.009681908 -0.0018545537 0.013356088
0001f0 3d 66 e0 3b 88 44 1c 3b eb 6c 2f bc cd 6e 55 3c
       0.0068481253 0.0023844559 -0.01070712 0.013026905
000200 fa d6 be bb ac f4 0e 3c 94 81 33 bb ce 35 6a bc
       -0.005823967 0.0087253265 -0.0027390467 -0.014295055
000210 3a 44 00 3c 4d 94 a1 3c 0e d3 33 bc 6f 67 0e bc
       0.0078287665 0.019724036 -0.010975612 -0.008691653
000220 70 b2 0e 3c 15 4c 27 bb 0d bb d5 bb 08 72 f7 ba
       0.008709535 -0.0025527526 -0.0065225423 -0.0018878588
000230 9b 94 b8 bb 4c fb c8 bb 09 58 a3 3b 67 33 c0 3b
       -0.0056329495 -0.0061334725 0.00498486 0.0058655026
000240 f3 30 55 3c 73 80 32 bc a1 8c 68 bc a6 09 3b 3c
       0.013012159 -0.0108948825 -0.014193685 0.011415875
000250 84 6c 32 3c 82 4b 29 bc 91 b4 b0 bb 99 0e 0a 3c
       0.01089013 -0.010332944 -0.005392619 0.008426332
000260 ab 7e ed 3b a1 d2 63 3c 1b b3 b7 bb 25 f3 32 3c
       0.007247766 0.013905198 -0.005606068 0.010922228
000270 95 3e c2 3b 21 39 56 bc 1c b5 00 3c e1 1a 3a bc
       0.0059278705 -0.013075144 0.00785568 -0.0113589475
000280 95 54 fd bb 86 8e e3 3b e4 c1 12 3c 9e 51 7f 3b
       -0.00773103 0.0069444804 0.00895736 0.003895856
000290 19 d6 a0 ba 72 68 b7 3b b4 88 9c 3b f8 5a c0 bb
       -0.0012270837 0.0055971676 0.0047770385 -0.0058702193
0002a0 ec 27 54 3c be 8b fa 3b 74 62 21 3c cc 12 18 bc
       0.012948971 0.007646053 0.009850133 -0.009281825
0002b0 73 75 cd 3b 65 32 f9 3b c5 f2 d3 bb 80 98 24 3c
       0.0062701046 0.0076048844 -0.0064681494 0.010046124
0002c0 aa ea 1c 3b 5b c3 1f 3c ee 38 ff bb 25 27 95 3b
       0.0023943582 0.009751166 -0.007788769 0.0045517855
0002d0 9f 7d 17 3b e6 c5 64 3c 6b d8 ec 3a fa a4 a0 3b
       0.0023115647 0.013963198 0.0018069869 0.0049024792
0002e0 27 3e 8f 3a 35 59 a4 ba 79 ce 1a 3c 44 61 79 3b
       0.0010928557 -0.0012538793 0.009448641 0.003805236
0002f0 5e d4 23 bc e8 b5 29 bc fc 9b 25 3c 94 6c 30 3c
       -0.009999363 -0.010358311 0.01010799 0.010768075
000300 57 de e0 bb 82 c4 1c bc 7f 17 14 3c 63 18 19 bc
       -0.0068624425 -0.0095683355 0.009038805 -0.009344193
000310 6f 8e ec 3b 55 2b 43 3c 6d 7b 4e 3c 05 e7 23 bc
       0.007219128 0.011912187 0.012602669 -0.01000381
000320 f7 3b 54 bc 77 4d 48 39 3b a8 12 ba aa 0f 00 bc
       -0.01295375 0.00019102344 -0.00055945263 -0.007816235
000330 ad 0b 0f 3c bf 21 1e 3a 46 21 f2 bb 8a 60 64 bc
       0.008730811 0.000603225 -0.0073892204 -0.013939032
000340 9f 4b 83 bb 50 e2 31 bb db ff 17 bc c5 95 bf ba
       -0.0040068175 -0.002714295 -0.009277309 -0.0014616778
000350 33 73 40 3b 32 fc 20 3c 35 70 53 3c 91 26 ad 3b
       0.002936554 0.009825753 0.01290517 0.0052841385
000360 4f 58 3f bc 80 b8 01 bc 77 e0 2d 3c 1a c2 24 bc
       -0.011678769 -0.007917523 0.010612599 -0.010056043
000370 ea db bd 3b 57 83 04 3b df 86 52 3c 4e 22 c4 3b
       0.005794038 0.0020219886 0.012849539 0.0059855347
000380 3f cb 09 3c c3 d3 9b bb d5 da 3e 3c 19 6d 14 3b
       0.008410274 -0.0047554686 0.011648853 0.0022648035
000390 42 5e bb b9 0a ad 4f 3c f6 50 08 3c 25 d1 3e bc
       -0.00035737647 0.012675533 0.008320084 -0.011646544
0003a0 78 b2 14 3c 4f 7d 53 bb 54 84 12 3c fd 52 16 bb
       0.009075753 -0.0032270735 0.008942682 -0.0022937648
0003b0 bb 62 13 bc 4d c5 0e 3a 67 ef fa 3b ce 2c 55 3c
       -0.008995707 0.000544627 0.0076579335 0.013011171
0003c0 fe 86 78 bb b6 dc 25 3c fa 9a 46 3c 0a cb 09 bc
       -0.0037922258 0.010123422 0.01212191 -0.008410225
0003d0 51 f3 ae 3a eb 80 54 3c fb 56 06 3c f1 3d cc 3b
       0.001334766 0.01297019 0.008199449 0.00623297
0003e0 55 69 c5 3b ea fd 1a 3b a6 a8 2c 3c 08 98 21 3c
       0.0060245194 0.002364988 0.010538256 0.009862907
0003f0 5f 28 3b 3c 17 c4 b9 3b e5 70 5e bc d2 0a 0a bc
       0.011423199 0.0056691277 -0.013576721 -0.008425431

network_body._body_endoder.seq_layers.2.weight f4 [256, 256]
000000 72 16 0b bd 68 d2 d5 3c c0 2f 89 3c db a7 91 bb
       -0.033956952 0.026101306 0.016746402 -0.0044450588
000010 9e 45 20 be 28 bc 13 bd 68 79 93 3d 48 82 be 39
       -0.15651557 -0.03606811 0.07200891 0.0003633669
000020 df 2b 70 bc 0c dc 32 bd f0 32 07 3d 57 a2 ee 3c
       -0.014658897 -0.043666884 0.033007562 0.029130144
000030 d6 dc d0 bc 37 ef 2e 3d fc d6 64 3c d4 30 3d bc
       -0.025495928 0.0427086 0.013967272 -0.011547286
000040 f7 7e 7f 39 28 2c 1e 3d 24 b5 30 3d ca cf a1 3c
       0.00024365993 0.03861633 0.0431415 0.019752402
000050 40 15 36 bc 22 e3 5f 3d d4 0a 59 bd 02 5c 43 bc
       -0.011113465 0.05465997 -0.052988842 -0.011923792
000060 42 89 7f bc 9d a9 90 bd c3 41 a6 3c 2c 0a d4 3d
       -0.01559669 -0.07063601 0.02029503 0.10353503
000070 0c bc 1b bd 41 36 22 bd bf 62 70 3b 54 3b 9b bc
       -0.038021132 -0.03960252 0.003667995 -0.018949188
000080 a4 c7 68 3d 4a 00 bb bc 37 fe 8d 3d 52 10 b7 bc
       0.056831017 -0.022827286 0.06933253 -0.02234665
000090 49 70 89 bd 17 a2 ac bc db 82 10 bc b5 02 b7 3a
       -0.0671087 -0.021073384 -0.008820261 0.0013962599
0000a0 4b bd ef 3d 02 ba 1c bd 79 b0 75 bd 6e 8c 20 3e
       0.11706027 -0.03826333 -0.05998275 0.1567857
0000b0 83 80 9b 3d ca 9b db 3c f3 1f 73 3c 24 ec e9 bc
       0.07592871 0.026807684 0.01483916 -0.028554983
0000c0 19 41 b9 bd ab 36 16 bd b5 e5 d2 bc 83 8c 7a bd
       -0.090456195 -0.03667323 -0.025744298 -0.06116916
0000d0 16 dc 86 bc 78 f5 39 bd c1 44 52 3b d1 1d b6 bd
       -0.016462367 -0.045400113 0.0032084438 -0.08892406
0000e0 61 c8 a5 bc 36 ef ac bd 45 f9 d9 bb 56 83 ae 3d
       -0.02023715 -0.08444063 -0.0066520297 0.08521144
0000f0 3e 6a 68 3d 35 c5 5b 3d 9b dd d1 3d a0 a5 4b bd
       0.056741945 0.05365487 0.10247346 -0.0497185
000100 eb a2 b1 bd 78 70 9c bd 27 3c fb bc ba c3 d0 3d
       -0.08673652 -0.07638639 -0.030668331 0.10193582
000110 c0 a2 ea 3d ac 09 77 3d be d0 27 3e 55 a8 b4 3c
       0.11456823 0.06031196 0.16388223 0.022052923
000120 44 7e 56 3d d0 d4 28 bd 07 39 8b 3d e6 bb 7d bd
       0.05236651 -0.04121858 0.067979865 -0.061946772
000130 d5 fe cb 3b 38 24 ab 3d 17 f8 12 bd 86 e6 cb bb
       0.0062254467 0.083565176 -0.03588113 -0.006222549
000140 ba 56 84 3a 74 68 2a bd 19 54 07 bd cc 4d f4 3c
       0.0010096647 -0.04160352 -0.033039186 0.029822253
000150 36 b8 66 3c 82 27 e8 3c 08 f3 83 3d 36 fb 2f bd
       0.014082005 0.028339151 0.06442839 -0.042964183
000160 21 2a b5 3d 96 5d 4f bc 2b 78 2d bd 6f 24 5a bd
       0.08845926 -0.01265659 -0.04235093 -0.053257402
000170 69 cd af 3d 2f d8 5d bd e7 b4 03 be 86 d4 d1 bd
       0.08584101 -0.054161247 -0.12861978 -0.10245614
000180 a3 2b cf 3d 35 d7 83 bd 41 a0 43 bc fe 94 20 bb
       0.10115745 -0.06437532 -0.011940063 -0.0024502869
000190 01 24 23 3c b4 1c 36 3d 74 33 c2 3d de 48 c9 bc
       0.0099573145 0.044460967 0.0948247 -0.024570879
0001a0 28 8e bc bd 2a a1 d9 bb 44 41 83 bd 6e 00 87 3c
       -0.09206802 -0.0066415267 -0.06408933 0.016479697
0001b0 81 e6 cd 3d 50 8e 4c 3d c6 1b bf bc 8c 48 4b bb
       0.10053731 0.049940407 -0.023328673 -0.0031018583
0001c0 ca c8 a8 3c c4 1d a7 3c 5c 25 4e bb b2 e7 21 bd
       0.020603556 0.020399936 -0.0031455373 -0.039527602
0001d0 8f c3 7f 3d 42 ed 3c 3d a4 a1 27 3e e4 91 26 bd
       0.06244236 0.046124704 0.16370255 -0.040666476
0001e0 cf bc 1e bc 2b 70 9a bb af 29 1e 3d ae 0a d0 bc
       -0.00968857 -0.0047130785 0.03861397 -0.025395717
0001f0 d3 a4 41 bc e9 e6 db bd 45 51 1c be 38 68 08 3c
       -0.011819082 -0.10737402 -0.15265377 0.008325629
000200 58 92 fe bd 05 32 45 3d 13 89 f3 bb f8 c8 80 3d
       -0.124302566 0.048143405 -0.007432112 0.06288332
000210 5b 4e 88 bc 26 19 6f 3d 8e 6c cc bc d1 ac 86 bc
       -0.016638925 0.058373593 -0.024954107 -0.016439827
000220 f2 a9 ef 3c 74 fa 8b 3b 42 75 d0 3c ff 96 48 be
       0.02925584 0.0042717997 0.025446538 -0.1958885
000230 0b ef 5a 3c fb ac 25 bc 81 fb e4 bd 0c bd 4f 3d
       0.013362656 -0.010112043 -0.11180783 0.0507174
000240 31 52 94 bd 30 29 fb bd 24 50 10 3e 6a 7c 62 3d
       -0.07242239 -0.12263715 0.14093071 0.05529443
000250 f9 27 a3 3d f6 f8 80 bd 2f bb 01 3c e6 d0 ff bc
       0.079666086 -0.062974855 0.007918163 -0.03122754
000260 0f df c3 bc 9e 0b fb bd 2d 11 47 3d cf f6 99 3b
       -0.023910074 -0.12258075 0.048600364 0.0046986113
000270 b1 b7 06 bd 07 89 36 bd f6 ab 5a bd dd 4c 30 3d
       -0.032890026 -0.044564273 -0.05338665 0.043042053
000280 ac 55 bc 3c f7 28 61 bb d9 7e 8d bd a5 29 8c 3c
       0.02299007 -0.0034356692 -0.0690896 0.017109701
000290 5d 1f c3 3c 16 d7 26 bd ad 97 11 3e d7 84 d1 3c
       0.023818666 -0.040732466 0.14218016 0.025576038
0002a0 5a 47 6e 3c 2a f6 78 bd 4a 3b 4b 3d 5d ef f4 bc
       0.014543379 -0.060781635 0.04961709 -0.029899294
0002b0 c6 0f 8d bb 9b c2 12 3e 02 b9 87 3d fa 7c ed bc
       -0.004304859 0.14332049 0.06627084 -0.028990258
0002c0 d3 39 0a 3c 1a e3 66 3d 3b 31 fa 3b 89 2f ce bd
       0.008436638 0.056368925 0.0076352633 -0.1006766
0002d0 7f bd 81 3d f1 ac e1 3d c5 bb c8 bc 5f aa 15 3d
       0.06334972 0.11019314 -0.024503598 0.03653943
0002e0 1b ce 99 3b d7 90 c1 bc 08 54 f0 3b e9 4d f8 3d
       0.004693759 -0.023628635 0.007334236 0.12124235
0002f0 f4 c2 53 3d 1f a6 2c 3b 70 e5 9b 3a bb b7 18 bd
       0.051699594 0.0026344133 0.0011893939 -0.037284594
000300 95 7c a5 bd 07 45 86 3d 47 e2 4f bd 35 d4 84 3c
       -0.08080403 0.06556135 -0.050752904 0.01621447
000310 e3 05 9f 3d 0d 3f 4e 3d f1 75 69 3c c2 23 bc 3d
       0.07764795 0.0503531 0.014249311 0.09186508
000320 51 56 ad 3b ae f7 2c bd 60 3b d1 bd df 09 eb bc
       0.0052898307 -0.042228393 -0.10216403 -0.02869123
000330 8a e4 91 bb c0 a0 f7 bd 46 3b 56 bd 4c bf 8d 39
       -0.004452293 -0.120912075 -0.05230262 0.00027036143
000340 b0 a6 fe 3d d2 b8 07 3e 3a 5d ce bb 5e 12 a6 bd
       0.12434137 0.13254097 -0.0062977346 -0.08108972
000350 a0 4a a3 3d 86 68 84 3d 18 53 d2 3d b2 e7 e3 3d
       0.07973218 0.06465249 0.10269755 0.11128177
000360 e3 4c 04 3b 34 18 8d 3d 99 ee 4d bc 69 07 5e bd
       0.002018743 0.06889382 -0.012569093 -0.054206286
000370 bc 3c 0e bd 40 8b be bc 49 dd b8 bc 70 95 af 3d
       -0.03472589 -0.023259759 -0.022566454 0.08573425
000380 d6 8e 0a bd 02 ce 75 bd 14 ce e1 bb de 08 9c 3d
       -0.033827625 -0.060010917 -0.0068910215 0.07618879
000390 5b 01 3b bd a6 52 e0 bd c0 05 1a bd 79 74 77 3d
       -0.04565559 -0.10953264 -0.03760314 0.06041381
0003a0 25 11 53 3c 5d 3c 54 b9 a5 dd e6 bd cb 9f 0b 3d
       0.012882506 -0.00020240383 -0.11272744 0.034087937
0003b0 09 4d ed 3d 68 d4 39 3d 26 5c bc 3d 1e f4 1d bd
       0.11586959 0.045368582 0.091972634 -0.038562886
0003c0 7e 98 93 3d fe ac 09 bc 8b 01 08 3d ae c0 33 bd
       0.0720682 -0.008403061 0.033204596 -0.043884926
0003d0 2b a5 c4 bd 7c d3 06 bc 69 53 80 bd 08 94 76 3d
       -0.09601816 -0.008229133 -0.06265909 0.060199767
0003e0 86 63 ac 3c 38 4e b7 3d 67 ac 7a bd c7 17 a5 3d
       0.02104355 0.08950466 -0.061199572 0.08061176
0003f0 9e 6b d9 bb cd 28 b9 3c ea 1d 82 3d 92 32 dd 3c
       -0.0066351434 0.022602463 0.06353362 0.027001653
