Foosbots_working/results/train_5_1/Foosbots_working.onnx (onnx, 278463 bytes, 7 tensors)

action_model._continuous_distribution.log_sigma f4 [1, 2]
0.01202967 0.011940569
00000000: 1818 453c 60a2 433c

action_model._continuous_distribution.mu.bias f4 [2]
-0.0037676012 -0.0013269597
00000000: dce9 76bb 61ed adba

action_model._continuous_distribution.mu.weight f4 [2, 256]
-0.0007008692 -0.0036195293 0.0021913995 0.0016978028 -0.0072070365 -0.0026224526 -0.028857907 -0.0051251226
0.016149532 -0.0017428601 -0.020769693 0.012331306 -0.0020795509 0.014481049 0.018869294 -0.011267632
0.009857517 0.010710539 -0.017935636 -0.014357709 -0.006866954 -0.006456005 -0.02203236 0.016514482
-0.0118098 0.007891915 0.008071141 -0.0063622682 -0.003173933 -0.012968802 -0.010663307 0.015709804
0.0061154403 0.0028678535 0.0025112936 -0.019794017 0.029189827 -0.009509832 -0.005011323 0.0071176826
0.015807336 -0.017688675 -0.008305578 -0.018769668 0.022834817 0.00032213214 -0.0007763543 -0.0076529845
0.02564755 0.0073150764 0.011831335 -0.00917382 0.0010436138 0.009181181 0.009840253 0.016846994
0.010291086 -0.025665563 0.0025920442 -0.0010518902 0.012479467 0.0015658991 -0.014224762 -0.001695654
-0.005871382 0.022425914 -0.00510267 0.010095817 -0.014993218 -0.0015280024 0.0050514643 0.011364769
-0.012963749 0.00979945 -0.012200287 0.0020270422 -0.008830221 -0.018319407 -0.007345407 0.013169464
-0.0012476549 -0.0073164026 -0.013576865 -0.014768695 0.008427467 0.0030981782 0.012218162 0.002825807
-0.0042371354 0.0044172145 0.0042796955 -0.019882338 0.012006669 -0.0013436164 0.0007874726 0.017439608
0.008014574 -0.013322225 0.015127823 -9.291035e-05 0.008021435 0.016404781 -0.018994326 -0.009859527
-0.001055148 0.012028505 0.0063693384 0.008185612 -0.019994106 0.0068418 -0.003567069 -0.0187377
0.00728397 -0.018705377 0.011309218 -0.031236568 -0.0103955325 0.005034664 0.002391839 -0.014614716
-0.0036661958 0.010448778 0.008934089 -0.015890952 -0.020776657 -0.0077358396 -0.002887844 -0.0133621935
0.031886294 0.013577947 -0.0021392496 -0.00019376984 -0.029363846 -0.017906917 0.01491004 0.011180738
-0.000990483 0.0032934044 -0.0053470936 -0.00063675595 0.005509404 -0.010628071 0.0031331663 0.012519251
-0.016489312 0.0016842457 0.0048937774 0.0022060596 -0.00259771 -0.007155723 0.026771627 0.010521774
-0.0020936225 -0.015245562 0.00029867928 -0.0150953755 -0.012024095 -0.0055849086 -0.0055083293 0.0039707385
0.007190255 0.018425906 -0.0034677072 0.002919682 0.010380209 -0.007171556 0.001254501 -0.011021014
0.018268827 -0.0052126204 0.007100558 0.0068789218 -0.0014413089 -0.014059282 -0.0058151693 0.012523824
-0.025232986 0.004780003 -0.014084482 0.005090261 -0.0073279752 -0.0031852773 0.012672514 0.006673886
-0.0011081499 0.0042065154 -0.017644048 0.0110594705 0.0010505819 -0.0018630328 -0.0144955795 0.0020393599
-0.008227941 -0.0053188647 -0.011952963 0.004350115 -0.015983643 0.0014171631 -0.003914402 0.01619682
-0.00749286 0.0012327766 0.011956906 -0.0107965255 0.0017986073 -0.030048767 0.0005189513 0.007571148
0.018183298 -0.019834628 -0.010993626 -0.019521585 0.0087224925 0.02144838 -0.008322133 -0.009279842
0.006115105 0.020804651 0.00509442 -0.0057133166 0.010752255 0.00045301928 -0.0008582937 -0.0043661213
-0.0008835282 -0.029919188 0.003548509 0.019174282 -0.014851127 0.007079808 -0.00217075 -0.038264114
0.00600699 0.008891842 -0.0048602005 0.009351744 -0.007880168 0.02605321 -0.011305478 0.0011387418
-0.01370766 0.007407907 0.005034433 -0.009542554 -0.00826786 0.022993568 0.021843322 0.0011484493
-0.015206583 -0.0013469002 -0.0115108965 -0.0023757338 -0.013418213 -0.039175652 0.016124388 -0.013395382
00000000: 89ba 37ba a035 6dbb 959d 0f3b cf88 de3a
00000010: 0129 ecbb 74dd 2bbb 6b67 ecbc a5f0 a7bb
00000020: 064c 843c ae70 e4ba 3425 aabc 3f09 4a3c
00000030: 1349 08bb ec41 6d3c c793 9a3c e09b 38bc
00000040: 6c81 213c 427b 2f3c c1ed 92bc 993c 6bbc
00000050: 2f04 e1bb e58c d3bb 357d b4bc 6149 873c
00000060: e47d 41bc 174d 013c d23c 043c 937a d0bb
00000070: c201 50bb 197b 54bc 27b5 2ebc d9b1 803c
00000080: 0864 c83b 99f2 3b3b 8494 243b 1027 a2bc
00000090: 811f ef3c 20cf 1bbc 0636 a4bb 733b e93b
000000a0: 637e 813c d7e7 90bc 1e14 08bc d9c2 99bc
000000b0: 1510 bb3c d8e3 a839 4184 4bba e3c5 fabb
000000c0: d01a d23c 4fb3 ef3b 37d8 413c ca4d 16bc
000000d0: dec9 883a aa6c 163c 0339 213c b502 8a3c
000000e0: f19b 283c 9640 d2bc 49df 293b 94df 89ba
000000f0: ae76 4c3c db3e cd3a fa0e 69bc b540 deba
00000100: b964 c0bb 8db6 b73c 4c34 a7bb ed68 253c
00000110: 1da6 75bc 4147 c8ba c186 a53b 4c33 3a3c
00000120: e765 54bc df8d 203c b6e3 47bc 20d8 043b
00000130: a2ac 10bc 9512 96bc bdb1 f0bb bcc4 573c
00000140: 5a88 a3ba 6fbe efbb 8071 5ebc 66f8 71bc
00000150: 5c13 0a3c ce0a 4b3b b02e 483c 2d31 393b
00000160: abd7 8abb 48be 903b b03c 8c3b 49e0 a2bc
00000170: 9fb7 443c 491c b0ba 646e 4e3a 82dd 8e3c
00000180: 8f4f 033c 7645 5abc b0da 773c ddd8 c2b8
00000190: 566c 033c 5263 863c fd99 9bbc db89 21bc
000001a0: e44c 8aba 3513 453c e2b5 d03b f21c 063c
000001b0: aeca a3bc 2e31 e03b 7dc5 69bb ce7f 99bc
000001c0: 5eae ee3b 053c 99bc 4c4a 393c d5e3 ffbc
000001d0: 0652 2abc d3f9 a43b 66c0 1c3b 9072 6fbc
000001e0: 8f44 70bb 5a31 2b3c 4960 123c be2d 82bc
000001f0: cf33 aabc ed7c fdbb fc41 3dbb 1aed 5abc
00000200: 349b 023d 0a76 5e3c a732 0cbb b22e 4bb9
00000210: 738c f0bc 87b1 92bc 3e49 743c 6a2f 373c
00000220: 18d3 81ba 28d6 573b ac36 afbb f8eb 26ba
00000230: 3b88 b43b 5c21 2ebc cf55 4d3b 8b1d 4d3c
00000240: 9814 87bc e8c1 dc3a fb5b a03b 8a93 103b
00000250: 573e 2abb 8e7a eabb 2c50 db3c 8563 2c3c
00000260: 2835 09bb 86c8 79bc 0e98 9c39 9852 77bc
00000270: b600 45bc 9c01 b7bb 377f b4bb f81c 823b
00000280: 3b9c eb3b edf1 963c 7942 63bb 2358 3f3b
00000290: c111 2a3c 5fff eabb 126e a43a 7c91 34bc
000002a0: 82a8 953c a1ce aabb ccab e83b 9468 e13b
000002b0: 4dea bcba e758 66bc 2d8d bebb ba30 4d3c
000002c0: 68b5 cebc 92a1 9c3b 99c2 66bc 34cc a63b
000002d0: 831f f0bb 16c0 50bb 60a0 4f3c 9db0 da3b
000002e0: 573f 91ba cfd6 893b 408a 90bc c832 353c
000002f0: aeb3 893a 0231 f4ba de7e 6dbc c8a6 053b
00000300: 7cce 06bc df49 aebb 5cd6 43bc 698b 8e3b
00000310: 21f0 82bc 1ac0 b93a 6244 80bb 32af 843c
00000320: aa86 f5bb 1e95 a13a e6e6 433c e9e3 30bc
00000330: 3fbf eb3a d528 f6bc 3b0a 083a 6517 f83b
00000340: 24f5 943c 3b7c a2bc 9c1e 34bc bbeb 9fbc
00000350: c9e8 0e3c 83b4 af3c 8e59 08bc 7a0a 18bc
00000360: 3861 c83b 846e aa3c 18ef a63b c636 bbbb
00000370: 3a2a 303c 3883 ed39 1dff 60ba ae11 8fbb
00000380: 939c 67ba 1619 f5bc 1a8e 683b 6213 9d3c
00000390: 2452 73bc bcfd e73b 2443 0ebb d5ba 1cbd
000003a0: 49d6 c43b 17af 113c 5142 9fbb 0f38 193c
000003b0: d21b 01bc 8b6d d53c 9d3a 39bc d641 953a
000003c0: 1896 60bc 07be f23b e3f7 a43b 5f58 1cbc
000003d0: eb75 07bc 025d bc3c c4f0 b23c 9087 963a
000003e0: 0825 79bc 798a b0ba 3398 3cbc 33b2 1bbb
000003f0: 11d8 5bbc a676 20bd 4b17 843c 4e78 5bbc

network_body._body_endoder.seq_layers.0.bias f4 [256]
-0.00235181 -0.0030708823 -0.0027913277 0.0037226717 0.0013374299 0.0031457436 0.0028312963 0.0007349455
0.0009802906 0.0031675578 -0.0038762575 0.0023720406 0.0029937788 0.003096186 -0.0038636543 -0.0024211826
-0.0004518568 -0.0030675018 -0.0031364805 0.0022555534 0.0025586432 -0.0027278378 -0.0004428864 -0.00035832828
-0.0026710865 0.0036334076 0.0034831392 -0.003062092 -0.002890647 -0.0031724565 -0.0017177393 -0.0012241037
-0.00065127114 0.00062434905 -0.00039397975 -0.0041934545 0.0031649068 -0.000167783 -0.0021930162 0.0025742268
0.0036374358 -0.0021240811 -0.0025181836 -0.0025029771 -0.003322231 4.6878384e-05 -0.0035389124 0.0014532538
0.0039164918 0.0033363586 -0.0026538197 0.0028311883 0.0026122904 -0.0011222789 -0.0021407178 0.0013241465
0.0010934956 0.0020621852 -0.0031886627 -0.0024058407 0.0030546605 -0.00248175 0.0014557114 -0.002865439
0.0032022465 -0.0007838989 0.002357097 0.003526438 -0.0008316255 0.0015845307 0.0029960189 -0.0026008615
-0.0002239224 -0.0024732861 0.0032888867 0.0010312995 -0.0027053307 -0.0030272175 -0.0036961886 -0.0016091925
-3.3590538e-06 -0.0027174884 0.0033782676 0.0018746789 0.002978755 -0.0015615439 0.0030074734 -0.0010696495
-0.0031206468 -0.00069235184 -0.0006402748 0.0014925111 0.003169258 -0.002026402 0.003428903 0.0012349618
-0.0018001789 -0.0011963882 0.0024279188 0.0014825972 -0.00085425045 0.0023569604 -0.0031306334 -0.002647013
-0.001259449 0.0034859134 -0.0018496737 0.00089740835 -0.0001952751 0.002436815 -0.003255713 -0.002323131
0.0033426613 -0.003917999 0.0022249534 -0.0023777855 0.0016873457 0.00080278877 0.0034568573 -0.0026115323
-0.00030204418 -0.00015073687 -0.0031976693 -0.0016350966 0.0034559472 0.0017202885 0.0032380407 0.001295301
-0.0014343036 0.0012881443 0.0026860607 -0.0026400776 0.003473994 0.001972367 -0.00035886193 -0.0020125413
0.0015256826 0.0010894234 0.0024448694 -0.0034385244 -0.0032681844 0.002001079 0.0015573507 0.0029033637
-0.0003709878 0.002424572 -0.0018557454 0.000845861 0.003307052 -0.0033565632 0.0017897106 0.0017188734
-0.0025114126 0.0009611884 -0.0031560112 0.0015381043 0.003853584 0.0022775899 0.0031903475 0.0028294786
-0.002289383 0.0010019105 -0.0019791767 0.0031117469 0.0019075606 0.0007382662 0.002088736 -0.0026306515
0.0032414233 -0.0020367622 -0.00042433498 -0.003747261 0.0025442417 -0.0038250058 0.0032576476 -0.0028914765
0.0021934821 -0.0035676465 -0.0029977874 0.0025243051 0.0024297407 -0.003508211 -0.0035799707 -0.0019134062
0.0013830498 -0.0036259235 0.0033492355 0.0013782602 -0.0014551852 0.0031432882 0.00304498 0.0010370365
-0.00084802177 -0.0027533865 0.0039379103 -0.0031317691 -0.0029163866 -0.00214068 0.0034560016 -0.0012741942
0.004562914 0.0016050375 -0.0023634522 0.00013225984 -0.0029203906 -0.0028072507 0.0009952707 0.0035068006
0.0007403742 -0.0028389448 0.002634521 0.002363961 0.0030546952 -0.0027690954 -0.0032684011 -0.00017347244
-0.001130525 0.003485238 0.0027868596 -0.0029100021 0.0034325165 0.003330869 0.00071707496 0.0023664506
-0.0018629861 0.0030037768 0.0012818072 0.0032080517 0.0028848026 -0.0018288416 6.359589e-05 -0.0024677622
0.0032190902 0.0016255608 -0.0023308026 -0.0015628161 0.0016874323 -0.0007097037 -0.0026643837 -0.0029770702
-0.002091984 0.0008208972 0.002354152 -0.0026530575 -0.00043429798 -0.002386411 -5.1538034e-05 0.0026780313
0.0005327567 0.002667004 -0.0033424578 -0.0015347172 0.003015631 -0.0012593875 -0.00042335712 0.0027810875
00000000: d320 1abb db40 49bb b5ee 36bb 11f8 733b
00000010: b34c af3a d228 4e3b 458d 393b 5ca9 403a
00000020: 187d 803a cd96 4f3b cf08 7ebb 3d74 1b3b
00000030: 4633 443b 62e9 4a3b 5d35 7dbb b4ac 1ebb
00000040: 31e7 ecb9 2408 49bb 698d 4dbb e8d1 133b
00000050: e9ae 273b 86c5 32bb 3533 e8b9 02de bbb9
00000060: 650d 2fbb 771e 6e3b 6145 643b 61ad 48bb
00000070: 0271 3dbb fde8 4fbb c425 e1ba 1b72 a0ba
00000080: 11ba 2aba 5bab 233a 118f ceb9 3f69 89bb
00000090: 536a 4f3b e8ee 2fb9 b5b8 0fbb 5cb4 283b
000000a0: 0c62 6e3b 2b34 0bbb 1c08 25bb fd08 24bb
000000b0: c9b9 59bb 489f 4438 19ed 67bb 1b7b be3a
000000c0: ea55 803b cfa6 5a3b b5eb 2dbb 758b 393b
000000d0: f632 2b3b 6e19 93ba 494b 0cbb fc8e ad3a
000000e0: a053 8f3a ba25 073b e2f8 50bb 4fab 1dbb
000000f0: b330 483b dba4 22bb 92cd be3a 17ca 3bbb
00000100: c8dc 513b 917e 4dba 8779 1a3b d01b 673b
00000110: 7101 5aba 07b0 cf3a db58 443b 3773 2abb
00000120: b6cc 6ab9 db16 22bb 5d8a 573b ab2c 873a
00000130: eb4b 31bb 4864 46bb c13b 72bb 8aeb d2ba
00000140: 1b6c 61b6 e417 32bb ed65 5d3b c9b7 f53a
00000150: 3737 433b b8ac ccba 0819 453b 7b33 8cba
00000160: c483 4cbb f27e 35ba 1dd8 27ba 5da0 c33a
00000170: 53b3 4f3b 62cd 04bb 72b7 603b 71de a13a
00000180: fbf3 ebba 20d0 9cba b81d 1f3b b553 c23a
00000190: c7ef 5fba 3c77 1a3b 502b 4dbb 8279 2dbb
000001a0: 1914 a5ba ec73 643b c070 f2ba 0e40 6b3a
000001b0: c3c2 4cb9 f9b2 1f3b cd5d 55bb ac3f 18bb
000001c0: 8d10 5b3b 8f62 80bb 86d0 113b 9fd4 1bbb
000001d0: ed29 dd3a 3e72 523a 718c 623b 3e26 2bbb
000001e0: af5b 9eb9 1f0f 1eb9 fd8f 51bb bd50 d6ba
000001f0: 2c7d 623b 4e7b e13a 4f35 543b 17c7 a93a
00000200: 3eff bbba f3d6 a83a 9f08 303b 2705 2dbb
00000210: f3ab 633b d442 013b a225 bcb9 d7e4 03bb
00000220: 6af9 c73a fcca 8e3a 1a3a 203b de58 61bb
00000230: 092f 56bb 8924 033b 0520 cc3a 5c46 3e3b
00000240: 2481 c2b9 91e5 1e3b 7c3c f3ba c5bc 5d3a
00000250: 20bb 583b c9f9 5bbb b994 ea3a d24b e13a
00000260: 8396 24bb 43f8 7b3a 15d5 4ebb 379a c93a
00000270: 698c 7c3b 9e43 153b 2615 513b c66e 393b
00000280: 7909 16bb 8a52 833a 13b5 01bb 73ee 4b3b
00000290: 1d07 fa3a 3588 413a 2de3 083b 0267 2cbb
000002a0: 0f6e 543b 337b 05bb 4779 deb9 9b94 75bb
000002b0: 4bbd 263b f3ac 7abb 427e 553b ed7e 3dbb
000002c0: 86c0 0f3b 2dcf 69bb 8776 44bb d06e 253b
000002d0: 493c 1f3b 04ea 65bb f19d 6abb 42cb faba
000002e0: 7347 b53a e7a0 6dbb d97e 5b3b bda6 b43a
000002f0: eabb beba a0ff 4d3b 4a8e 473b 2ced 873a
00000300: c74d 5eba 2972 34bb 9609 813b 5e3e 4dbb
00000310: d920 3fbb a74a 0cbb 167e 623b dd02 a7ba
00000320: 7f84 953b 1f60 d23a 26e4 1abb 3baf 0a39
00000330: 0664 3fbb daf9 37bb be73 823a 5ad2 653b
00000340: ac15 423a 970d 3abb eea7 2c3b afec 1a3b
00000350: 4831 483b b679 35bb ac32 56bb 27e6 35b9
00000360: 202e 94ba 9768 643b bfa3 363b bcb5 3ebb
00000370: 12f4 603b b54a 5a3b 16fa 3b3a 7416 1b3b
00000380: 712f f4ba 03db 443b 5002 a83a 2d3e 523b
00000390: f50e 3d3b beb5 efba c95e 8538 2eba 21bb
000003a0: 5ff7 523b c510 d53a 61c0 18bb 68d7 ccba
000003b0: d52c dd3a 690b 3aba f19c 2ebb f31a 43bb
000003c0: ab19 09bb 7b31 573a 1e48 1a3b ebde 2dbb
000003d0: 7db2 e3b9 5565 1cbb 8b2a 58b8 e981 2f3b
000003e0: b2a8 0b3a e7c8 2e3b 230d 5bbb 9028 c9ba
000003f0: e5a1 453b 0812 a5ba 08f6 ddb9 e842 363b

network_body._body_endoder.seq_layers.0.weight f4 [256, 10]
0.15961048 0.9912417 0.18125056 -0.16635428 0.05315949 0.15712844 -0.09117143 -0.35000286
0.24429323 0.124079354 -0.29631644 -0.22099085 -0.046265412 -0.6394446 -0.09300017 0.009550515
0.54205227 0.56766725 0.34002683 0.35840994 -0.61424774 0.0353299 0.24839771 -0.24444519
0.034105543 -0.046822615 0.35050505 0.07878806 0.29583824 0.4395817 -0.059611645 0.21293965
-0.21115538 0.45407283 -0.0019406148 -0.47777444 -0.05302381 -0.687037 0.063407056 -0.4134284
0.036186915 -0.32014638 -0.06992837 0.13415524 -0.19957186 -0.08265876 -0.059557755 -0.4120346
-0.10249442 -0.39164937 0.15927762 -0.52633196 0.055701442 -0.18028249 -0.041564547 0.18255773
-0.17310052 0.18412791 -0.27997485 -0.47661284 0.08844562 -0.12729043 -0.41020218 -0.18659131
0.4419773 0.041437656 0.57099414 0.09268321 -0.20617144 -0.08480008 -0.48141798 0.0198851
-0.33002567 0.14394262 0.02169396 0.038702365 -0.00060281187 -0.0063051153 -0.19024406 0.0020948139
-0.2760687 0.014241214 -0.08964615 -0.06687596 -0.23508447 -0.5904158 0.16208062 0.54193586
0.11338287 -0.1742237 0.5792287 -0.095723286 -0.4419256 -0.31927314 -0.03345836 0.1986755
0.031212188 -0.6741496 -0.29179752 0.59488565 -0.06438797 0.28613454 0.19677323 -0.14924984
0.2655903 -0.43961772 -0.031882375 0.41680998 0.91291136 -0.66480035 -0.42826018 -0.050894428
0.07535964 0.13893583 -0.10674552 0.29057208 0.4190387 0.55261993 -0.17985657 -0.36250427
0.46483904 -0.004274475 -0.29857704 -0.16544889 -0.08697838 0.7242108 -0.361685 0.12060198
-0.3568809 0.08470251 0.593665 0.17578599 0.17834172 0.008616839 0.6637061 -0.48055688
-0.004034618 0.122524075 0.33102003 0.3558827 0.003538561 -0.086506724 0.117930904 0.44308507
0.55311334 -0.34868437 0.30488092 0.6683587 0.3298395 0.04824437 -0.2907865 0.6638604
-0.116675206 0.27313703 0.4184662 0.026924072 0.23631461 -0.07918221 -0.4040928 0.5079501
0.40871698 0.20988567 0.024203403 -0.41956732 -0.29521045 -0.4110688 -0.19557045 -0.18643697
-0.09741454 0.5840219 -0.37747645 -0.07999861 0.060018443 0.36791763 -0.033266276 -0.078494
0.016481554 -0.11242908 -0.36538383 -0.2625681 0.29401842 -0.06759068 -0.26892942 0.009639946
-0.16886196 -0.2026789 -0.48614103 -0.23028007 -0.072280854 -0.3441808 0.018524822 0.9809274
0.6646339 -0.3520257 0.20830037 -0.07826577 -0.18911156 0.3327014 0.88069695 0.07514157
0.46474922 -0.8027113 -0.11588178 0.11004466 -0.042902727 0.06981188 -0.54676026 -0.046522252
0.38841256 -0.40503967 -0.2701156 0.34911653 -0.32333893 -0.006122596 0.032895867 -0.5055435
-0.1676261 -0.0054102596 0.17075503 0.24051335 -0.11504658 0.4656174 0.22204295 -0.489382
-0.7677741 -0.39916125 0.42387703 0.17892678 0.08506628 0.4084463 0.26995313 -0.040049102
0.1756698 0.074190706 -0.13306475 0.09235782 -0.009655967 0.048981044 -0.27672428 -0.32596412
-0.3810022 -0.09076057 0.21781632 0.66191024 -0.16436905 -0.029452482 0.20053342 -0.7461641
-0.01222111 0.42633486 0.5581967 0.020991448 -0.3377301 -0.19790919 -0.43252224 0.010773692
00000000: ee70 233e 04c2 7d3f bf99 393e c758 2abe
00000010: c4bd 593d 47e6 203e 16b8 babd 9333 b3be
00000020: 0128 7a3e 511d fe3d cab6 97be 6d4b 62be
00000030: cd80 3dbd a4b2 23bf e076 bebd c379 1c3c
00000040: f0c3 0a3f a452 113f ff17 ae3e 8281 b73e
00000050: 573f 1dbf 16b6 103d f85b 7e3e d74f 7abe
00000060: 41b2 0b3d 12c9 3fbd 6675 b33e a25b a13d
00000070: 1c78 973e da10 e13e 572b 74bd da0c 5a3e
00000080: 1e39 58be 3c7c e83e 3a5c feba da9e f4be
00000090: 7f2f 59bd a8e1 2fbf 8fdb 813d e3ac d3be
000000a0: bb38 143d 3aea a3be 9b36 8fbd fe5f 093e
000000b0: 915c 4cbe ff48 a9bd d5f2 73bd 33f6 d2be
000000c0: 98e8 d1bd 4486 c8be ac19 233e b1bd 06bf
000000d0: 3227 643d f99b 38be 963f 2abd 6af0 3a3e
000000e0: 4341 31be 078c 3c3e dd58 8fbe 9906 f4be
000000f0: fa22 b53d 6c58 02be 0506 d2be cb11 3fbe
00000100: d94a e23e 88ba 293d ac2c 123f b2d0 bd3d
00000110: 9b1e 53be aaab adbd 6b7c f6be 14e6 a23c
00000120: 20f9 a8be b265 133e 88b7 b13c 5f86 1e3d
00000130: 0506 1eba 249b cebb 57cf 42be 2549 093b
00000140: e058 8dbe fb53 693c 6798 b7bd 43f6 88bd
00000150: fcb9 70be 7d25 17bf 76f8 253e 4fbc 0a3f
00000160: 4735 e83d b367 32be 5548 143f 920a c4bd
00000170: 1244 e2be c577 a3be a20b 09bd 9771 4b3e
00000180: b4b0 ff3c 1195 2cbf 7c66 95be 6d4a 183f
00000190: d7dd 83bd 3a80 923e ec7e 493e f3d4 18be
000001a0: 74fb 873e 9315 e1be 1897 02bd 1e68 d53e
000001b0: 8fb4 693f 5b30 2abf eb44 dbbe ad76 50bd
000001c0: 2856 9a3d 3245 0e3e 659d dabd ddc5 943e
000001d0: 3e8c d63e 8078 0d3f 522c 38be 299a b9be
000001e0: 62ff ed3e e510 8cbb 17df 98be 6f6b 29be
000001f0: b921 b2bd e165 393f c72e b9be 2cfe f63d
00000200: 18b9 b6be 8278 ad3d 6efa 173f 3e01 343e
00000210: 369f 363e a42d 0d3c a5e8 293f 8d0b f6be
00000220: d434 84bb e7ed fa3d 757b a93e 4236 b63e
00000230: 34e7 673b 702a b1bd c285 f13d 0cdc e23e
00000240: d698 0d3f c286 b2be 5a19 9c3e 8e19 2b3f
00000250: b9e0 a83e e39b 453d f8e1 94be c1f2 293f
00000260: 69f3 eebd 9ed8 8b3e 3441 d63e df8f dc3c
00000270: 75fc 713e 482a a2bd 40e5 cebe 0509 023f
00000280: 5a43 d13e 45ec 563e 3746 c63c 87d1 d6be
00000290: d325 97be 9c77 d2be 9f43 48be 55e9 3ebe
000002a0: 4681 c7bd 7682 153f 9844 c1be 50d6 a3bd
000002b0: e6d5 753d b35f bc3e 3842 08bd 76c1 a0bd
000002c0: 5304 873c 3841 e6bd 9713 bbbe 536f 86be
000002d0: 9589 963e fc6c 8abd 1eb1 89be ddf0 1d3c
000002e0: 26ea 2cbe 0f8b 4fbe 7ae7 f8be 8ace 6bbe
000002f0: fc07 94bd 7738 b0be 5ec1 973c 0f1e 7b3f
00000300: 7325 2a3f b63c b4be b14c 553e ce49 a0bd
00000310: 76a6 41be d757 aa3e 5b75 613f d3e3 993d
00000320: 9cf3 ed3e 7d7e 4dbf 6d53 edbd 185f e13d
00000330: c5ba 2fbd 88f9 8e3d 7bf8 0bbf 1e8e 3ebd
00000340: 03de c63e 5c61 cfbe 984c 8abe 67bf b23e
00000350: ae8c a5be 0fa0 c8bb d1bd 063d 4c6b 01bf
00000360: 2da6 2bbe 8c48 b1bb 68da 2e3e 2249 763e
00000370: 8b9d ebbd 6765 ee3e 3a5f 633e 4790 fabe
00000380: d88c 44bf dd5e ccbe 6906 d93e 9538 373e
00000390: 3b37 ae3d e01f d13e 4c37 8a3e 870a 24bd
000003a0: c9e2 333e 4cf1 973d 2042 08be 1926 bd3d
000003b0: 1034 1ebc 59a0 483d ceae 8dbe c5e4 a6be
000003c0: b812 c3be ade0 b9bd 3e0b 5f3e f372 293f
000003d0: 5c50 28be 5546 f1bc a258 4d3e 9c04 3fbf
000003e0: 0d3b 48bc 9048 da3e fbe5 0e3f 42f6 ab3c
000003f0: f6ea acbe b5a8 4abe 8e73 ddbe 2484 303c

network_body._body_endoder.seq_layers.2.bias f4 [256]
-0.0005999247 0.00171022 0.0012476168 -0.0015140645 0.0022427598 0.002493612 0.0034802118 0.0028369953
-0.0035423967 0.002479493 0.002814599 -0.0028727946 0.0019739487 -0.0020122668 -0.0029175081 0.0031218645
-0.0018119194 -0.0025552823 0.0010353187 0.0029335213 0.0012354933 0.0014019551 0.003196081 -0.003681579
0.0022557415 -0.003586682 -0.0032857477 0.0026865648 0.0008833123 0.0034104784 0.0032283673 -0.0036013615
0.00068594975 -0.002856424 0.0003465084 0.0035693224 -0.0036899983 0.0024952611 0.0025060498 -0.003712934
-0.0034471913 0.0021618255 0.002630895 0.0036496588 -0.0036902372 -0.0014866982 0.0018828729 0.003521783
-0.003660563 -0.0030339665 -0.0029138525 0.0027639791 0.0015403962 -0.0021106112 -0.0031807912 -0.0032324556
-0.0025708452 0.003603882 0.00047563598 0.0021517582 -0.003220373 -0.00087002537 0.0033189435 0.0015586718
0.0018275599 -0.0031686302 0.0013857058 -0.0026319046 0.0012876837 0.0035000225 -0.0025150704 -0.0033828104
0.0036841377 -0.002543033 0.0030523003 -0.00015629476 5.3412787e-05 0.0037308964 0.0017344839 -0.00160709
0.002417894 0.0024358938 0.00283265 0.0019577974 -0.002290469 -0.0023883795 -0.001260791 -0.0029114124
0.0028374337 -0.0027229628 -0.0023332594 0.0018297513 -0.0033390378 -0.0001166822 -0.002576401 -0.0034996143
-0.0009069447 0.0033570512 -0.003037897 0.0003367349 -0.0016244139 -0.0018345204 0.0036043806 0.0026540018
0.0018860458 -0.0031305475 -0.003449704 -0.003110206 0.00230339 -0.0004506509 0.0030395272 0.003437975
-0.0016325716 0.0031871852 -0.0034779347 0.0034612631 0.002727691 -0.002841572 -0.0013966543 0.0021275345
0.000489863 -0.0029887715 -0.0020560892 0.0034126255 0.0028268823 0.003023441 0.0030718513 0.0035949457
-0.0036577007 -0.003407624 0.0028729576 -0.0020917873 0.003275644 0.0021623531 -0.0030330026 -0.0033500304
-0.0002511366 -0.0023249956 -0.00013949013 -0.0012185297 -0.0026169494 0.0023057922 -0.002432457 -0.0016253804
0.0031620741 1.7527589e-05 0.0003099204 0.0008701644 0.0012878405 0.00062704436 -0.0033391395 -0.0009932994
-0.0011032388 0.0034236456 -0.0014733247 0.0031376013 0.0024460624 0.0030198575 0.0010824626 0.00070076576
-0.00083695486 -0.0035058346 0.0029335567 -0.0019029541 -0.0028840655 0.0025355131 -0.002819446 0.00010276795
-0.0030302587 0.0034219292 -0.0031674237 -0.003328478 -0.0004244852 0.0036748005 0.002762866 -0.003255778
0.0018160375 -0.0015760222 0.0029376578 -0.001778933 0.0018819949 0.0034813636 -0.0010540611 -1.28834e-05
-0.0011103939 0.00066241797 0.0032506639 -0.0024935673 -0.00092371745 -0.0009357432 0.0033059584 0.0005257705
0.0011030457 -0.0001526483 0.0026656152 -0.0019273736 0.003276415 -8.767597e-05 0.0030815958 -0.003675769
0.002599223 0.0017266768 -0.0012575156 0.0026033805 -0.0028255705 0.002620881 -0.0015310063 1.0459266e-05
-0.0029999865 0.00372756 0.0017742729 0.0037287404 -0.0030949055 -0.00361257 0.001576848 0.0036238364
-0.0031414141 -0.0030960022 -0.0031763145 0.0018027686 -0.0019807336 0.002438012 0.003137655 0.0018716679
-0.0010422808 0.0035193365 0.00030799664 -0.002510729 0.0029957767 -7.198327e-05 0.00093479746 0.003526574
0.0003073173 -0.0033366797 0.003505657 -0.003638748 0.0025232122 -0.0035831083 0.002478651 -0.00059028843
0.0021391518 -0.002344761 -0.0026426911 0.0033079053 0.00016455869 -0.0035012139 -0.0036429556 -0.0017843096
0.0027724884 0.002751828 0.0035951901 0.0014267765 0.0015665023 0.003049928 -0.0034746418 0.0034265937
00000000: 4444 1dba 7629 e03a 1387 a33a 9373 c6ba
00000010: 44fb 123b de6b 233b 4414 643b e2ec 393b
00000020: 8e27 68bb fd7e 223b 2375 383b 7f45 3cbb
00000030: 5d5d 013b 3ce0 03bb aa33 3fbb 3298 4c3b
00000040: ed7d edba 8676 27bb 88b3 873a 5240 403b
00000050: 47f0 a13a cfc1 b73a 5775 513b a546 71bb
00000060: 10d5 133b 8a0e 6bbb b355 57bb 1411 303b
00000070: 168e 673a 5582 5f3b 0493 533b d204 6cbb
00000080: 4fd1 333a d832 3bbb 92ab b539 4beb 693b
00000090: e6d3 71bb 8987 233b 8a3c 243b b254 73bb
000000a0: 46ea 61bb 6aad 0d3b 186b 2c3b 1d2f 6f3b
000000b0: e8d7 71bb 50dd c2ba bbca f63a b7cd 663b
000000c0: 0ee6 6fbb 83d5 46bb 55f6 3ebb e023 353b
000000d0: 1fe7 c93a 2e52 0abb d274 50bb 9bd7 53bb
000000e0: a07b 28bb 1b2f 6c3b c85e f939 8304 0d3b
000000f0: e50c 53bb 6a12 64ba a282 593b 594c cc3a
00000100: bc8a ef3a cba8 4fbb 92a0 b53a 087c 2cbb
00000110: 7fc7 a83a a260 653b e1d3 24bb 24b2 5dbb
00000120: 9371 713b 04a9 26bb 1a09 483b 0ee3 23b9
00000130: 8b07 6038 0e82 743b 9f57 e33a fea4 d2ba
00000140: 8875 1e3b 84a3 1f3b fba3 393b 644e 003b
00000150: b11b 16bb 5c86 1cbb 2041 a5ba 65cd 3ebb
00000160: 3df4 393b bc73 32bb 99e9 18bb 44d4 ef3a
00000170: c2d3 5abb 47b3 f4b8 d6d8 28bb c959 65bb
00000180: 07c0 6dba f901 5c3b 7417 47bb cb8b b039
00000190: 49ea d4ba 4a74 f0ba 7937 6c3b c3ee 2d3b
000001a0: 3235 f73a df29 4dbb 6e14 62bb 99d4 4bbb
000001b0: 79f4 163b 5745 ecb9 ce32 473b a64f 613b
000001c0: 03fc d5ba 18e0 503b 10ee 63bb 5cd6 623b
000001d0: 10c3 323b ab39 3abb f10f b7ba 1b6e 0b3b
000001e0: 266a 003a 44df 43bb 74bf 06bb 5ba6 5f3b
000001f0: 3743 393b ec24 463b 1d51 493b 2e99 6b3b
00000200: 09b6 6fbb 7252 5fbb 3b48 3c3b 5e16 09bb
00000210: 30ac 563b 44b6 0d3b 57c5 46bb 2f8c 5bbb
00000220: fcaa 83b9 f45e 18bb 1944 12b9 12b7 9fba
00000230: 2081 2bbb c61c 173b db69 1fbb b70a d5ba
00000240: cd3a 4f3b 3608 9337 d07c a239 bf1b 643a
00000250: c2cc a83a 3c60 243a 77d5 5abb 9931 82ba
00000260: 8d9a 90ba 3e5f 603b 931c c1ba 37a0 4d3b
00000270: 1e4e 203b cde8 453b 6be1 8d3a 98b3 373a
00000280: 1767 5bba 25c2 65bb ea40 403b 8b6c f9ba
00000290: 9702 3dbb da2a 263b 74c6 38bb 1f85 d738
000002a0: 4e97 46bb 7242 603b 8d94 4fbb 9822 5abb
000002b0: 708d deb9 ecd4 703b 3311 353b e45e 55bb
000002c0: 1b08 ee3a 8892 ceba b885 403b 162b e9ba
000002d0: 45ad f63a 9727 643b 6c28 8aba c825 58b7
000002e0: a38a 91ba 1ea6 2d3a 1709 553b 1e6b 23bb
000002f0: a125 72ba aa4c 75ba c7a8 583b dcd3 093a
00000300: 1294 903a 3710 20b9 9ab1 2e3b ed9f fcba
00000310: 1fb9 563b aede b7b8 99f4 493b 2ce5 70bb
00000320: ba57 2a3b a951 e23a 39d3 a4ba 7a9d 2a3b
00000330: 352d 39bb 16c3 2b3b 0cac c8ba 357a 2f37
00000340: 6c9b 44bb 144a 743b b88e e83a e25d 743b
00000350: e6d3 4abb dec0 6cbb 3dae ce3a e37d 6d3b
00000360: 2fe0 4dbb 4ce6 4abb b729 50bb e04a ec3a
00000370: 32cf 01bb 0ec7 1f3b 1ea1 4d3b c152 f53a
00000380: 249d 88ba aba4 663b 9c7a a139 0b8b 24bb
00000390: cb54 443b b9f5 96b8 320d 753a 181e 673b
000003a0: 6e1f a139 32ac 5abb 2abf 653b 1078 6ebb
000003b0: 7a5c 253b 95d2 6abb dd70 223b 96bd 1aba
000003c0: 0331 0c3b 90aa 19bb 0031 2dbb 71c9 583b
000003d0: 638d 2c39 9f74 65bb a7be 6ebb 7fdf e9ba
000003e0: a3b2 353b 0358 343b 489d 6b3b ad02 bb3a
000003f0: 1853 cd3a 4de1 473b d1b6 63bb b490 603b

network_body._body_endoder.seq_layers.2.weight f4 [256, 256]
-0.085210875 0.038084455 0.011057306 -0.01972174 -0.013217715 -0.01600721 0.014856488 -0.014106164
0.06365543 -0.059133317 0.020541891 -0.07615113 -0.043729007 -0.084958605 0.028186701 0.09881625
0.03368619 -0.060842212 0.0028903657 0.037478622 -0.06349923 -0.04286369 0.0046075108 -0.14050317
-0.021344263 -0.019777136 0.040387265 0.039931223 0.14914283 -0.041454528 -0.084196806 -0.014956565
0.076206945 0.004603874 0.02216706 0.03893741 0.077180386 -0.0161538 0.05135792 0.04961915
-0.056580137 -0.024669014 0.055419836 -0.008689913 -0.007024663 -0.045519646 -0.040029805 -0.0674693
-0.05480137 -0.0108105 0.0131212035 -0.11862372 -0.01520563 -0.00758392 -0.063526906 -0.048633184
-0.009370844 -0.09816978 0.041216787 -0.011763059 -0.0461702 -0.043859642 -0.17375122 -0.0058756014
-0.11276489 -0.016266579 0.01601722 0.024152387 0.006045232 0.016633593 -0.10670252 0.07988721
0.02844791 -0.16271968 0.00062144594 0.0069621704 0.049718935 -0.006321039 -0.051498346 -0.14195845
0.041730285 0.050232805 -0.052950818 -0.066386834 -0.095074624 -0.02228409 0.038482547 -0.07392893
0.0373451 0.040095054 0.0015424354 -0.029982124 0.015796566 -0.03421669 -0.015978128 -0.029774776
0.049432583 0.01612496 0.02290119 -0.046382297 -0.051441003 -0.03391092 -0.019533368 -0.060485102
-0.055710822 0.0072165965 -0.0022857492 0.04452738 0.036265478 -0.018424729 0.05845841 0.10787823
-0.016807316 0.00651519 0.08270235 0.025112273 0.11700065 -0.058237046 0.08593587 -0.07717887
0.020942442 0.044056587 -0.16872156 -0.08432915 0.008280922 -0.0032603478 0.010472165 -0.12653172
0.06451076 -0.08149625 0.08912709 0.08184124 -0.050427172 0.008768501 0.040322863 0.060837574
0.020630864 0.03818416 -0.010281453 -0.10355559 0.0073523773 0.1554898 0.00942431 -0.036053494
-0.0049627014 -0.03995787 -0.017190471 -0.066603914 0.030942172 -0.06004529 -0.11541944 0.055374563
-0.01365724 -0.0967635 0.007872099 -0.1255071 -0.02781628 -0.098807044 -0.037332065 -0.03680505
-0.03721877 0.009051333 -0.026321193 -0.10388049 0.00968624 -0.043677166 -0.0023780577 -0.041282304
-0.04078519 0.03177946 0.016466122 0.048934154 -0.10523688 -0.017472439 -0.011003084 -0.02925517
0.008232975 0.02020332 0.08637907 0.06850392 0.061705794 -0.036094755 -0.06064781 0.059225723
-0.0013247468 0.034091394 -0.06451219 0.063916594 -0.024302514 0.07376935 0.06060183 -0.015375118
-0.060728855 -0.08387814 0.048798677 0.06945895 0.13822645 0.05632002 -0.06188212 0.10938542
0.0059811156 -0.1156662 -0.06517361 0.06664964 -0.101616934 0.07269919 0.018271133 0.016119914
0.015211899 -0.020086447 -0.067659445 0.051609084 -0.013350506 -0.058014195 0.04298866 -0.005836017
-0.07586777 -0.040972564 -0.030966727 0.08568672 -0.06259639 0.07644789 -0.02737126 -0.046565913
0.034327142 -0.017620783 0.15871783 0.022724539 0.028035227 0.13074133 0.0811757 0.078564025
-0.04481587 0.116174474 0.03407098 -0.027912125 -0.03337011 -0.08522086 -0.021840708 0.057883296
-0.14567217 0.015403193 -0.12525232 0.0974166 0.0767494 0.05383728 -0.046505988 0.044487137
-0.054385018 -0.1621891 0.08841814 0.10794522 -0.06417683 -0.12207661 -0.04050273 -0.0019305823
00000000: 0a83 aebd 72fe 1b3d b429 353c 7d8f a1bc
00000010: 1d8f 58bc 8d21 83bc a168 733c 8a1d 67bc
00000020: c75d 823d c735 72bd 7847 a83c 20f5 9bbd
00000030: 301d 33bd c7fe adbd cce7 e63c 2d60 ca3d
00000040: 88fa 093d af35 79bd 4a6c 3d3b 2f83 193d
00000050: e20b 82bd d691 2fbd 9afa 963b 10e0 0fbe
00000060: 2ada aebc a903 a2bc 1e6d 253d ec8e 233d
00000070: e6b8 183e 39cc 29bd 606f acbd 610c 75bc
00000080: 6312 9c3d 18dc 963b b297 b53c d57c 1f3d
00000090: c010 9e3d f954 84bc af5c 523d 733d 4b3d
000000a0: 93c0 67bd ac16 cabc e9ff 623d 2360 0ebc
000000b0: 252f e6bb cf72 3abd 4bf6 23bd 582d 8abd
000000c0: 6777 60bd 861e 31bc 51fa 563c fef0 f2bd
000000d0: 0921 79bc 8882 f8bb 651a 82bd 9733 47bd
000000e0: 2b88 19bc 3d0d c9bd efd2 283d d8b9 40bc
000000f0: f71c 3dbd 2ba6 33bd d7eb 31be 1e88 c0bb
00000100: 47f1 e6bd 7d41 85bc 8c36 833c 3adb c53c
00000110: 1517 c63b 2c43 883c da86 dabd e89b a33d
00000120: 970b e93c fd9f 26be 88e8 223a eb22 e43b
00000130: 15a6 4b3d b820 cfbb eeef 52bd 8e5d 11be
00000140: 60ed 2a3d eac0 4d3d f5e2 58bd d2f5 87bd
00000150: 7cb6 c2bd 208d b6bc e09f 1d3d 0d68 97bd
00000160: 2df7 183d b63a 243d 8b2b ca3a 129d f5bc
00000170: cd67 813c cd26 0cbd 90e4 82bc 3bea f3bc
00000180: d279 4a3d 7e18 843c 479b bb3c 5dfb 3dbd
00000190: cdb3 52bd 2de6 0abd 7104 a0bc 3abf 77bd
000001a0: 0831 64bd 3379 ec3b 82cc 15bb 5862 363d
000001b0: 1c8b 143d 75ef 96bc 1672 6f3d 43ef dc3d
000001c0: 7faf 89bc 607d d53b da5f a93d 41b8 cd3c
000001d0: 099e ef3d f889 6ebd 25ff af3d f50f 9ebd
000001e0: 7c8f ab3c ae74 343d 58c5 2cbe c3b4 acbd
000001f0: b4ac 073c 8fab 55bb 7293 2b3c 8891 01be
00000200: 381e 843d 82e7 a6bd 4488 b63d 619c a73d
00000210: b98c 4ebd c2a9 0f3c 9629 253d d230 793d
00000220: 0f02 a93c fe66 1c3d 8a73 28bc f414 d4bd
00000230: 36ec f03b b838 1f3e 6c68 1a3c d4ac 13bd
00000240: 289e a2bb ddaa 23bd 08d3 8cbc a267 88bd
00000250: 707a fd3c 0df2 75bd 0761 ecbd 70d0 623d
00000260: 9ec2 5fbc f12b c6bd faf9 003c ef84 00be
00000270: f8de e3bc 595b cabd 82e9 18bd e4c0 16bd
00000280: b572 18bd 0b4c 143c 8b9f d7bc 4bbf d4bd
00000290: 09b3 1e3c d4e6 32bd 30d9 1bbb a217 29bd
000002a0: 5f0e 27bd 2e2b 023d f6e3 863c 2e6f 483d
000002b0: 6f86 d7bd 5c22 8fbc 4746 34bc 8aa8 efbc
000002c0: 9ae3 063c 6f81 a53c 83e7 b03d c94b 8c3d
000002d0: 37bf 7c3d 18d8 13bd d769 78bd ac96 723d
000002e0: 20a3 adba 6ba3 0b3d f81e 84bd b4e6 823d
000002f0: 1116 c7bc 6314 973d a039 783d ebe7 7bbc
00000300: d2be 78bd 4dc8 abbd 1fe1 473d 7e40 8e3d
00000310: 3c8b 0d3e d2af 663d 1b78 7dbd 7705 e03d
00000320: 3cfd c33b 67e2 ecbd be79 85bd 9b7f 883d
00000330: 8a1c d0bd 50e3 943d 58ad 953c e90d 843c
00000340: 543b 793c 558c a4bc 0991 8abd 0c64 533d
00000350: 15bc 5abc 4ba0 6dbd e114 303d 0f3c bfbb
00000360: 9060 9bbd d9d2 27bd efad fdbc 857c af3d
00000370: 8932 80bd b690 9c3d b139 e0bc e6bb 3ebd
00000380: 9e9a 0c3d 7659 90bc ed86 223e d028 ba3c
00000390: 22aa e53c 0ee1 053e 723f a63d 2de6 a03d
000003a0: d890 37bd e2ec ed3d 038e 0b3d f8a7 e4bc
000003b0: 19af 08bd 4688 aebd 49eb b2bc 0917 6d3d
000003c0: 162b 15be ad5d 7c3c 2542 00be 5b82 c73d
000003d0: ca2e 9d3d 7b84 5c3d 107d 3ebd 2538 363d
000003e0: d3c2 5ebd e614 26be 9214 b53d 6212 dd3d
000003f0: 246f 83bd 4d03 fabd 31e6 25bd 980b fdba
