Foosbots_working/results/train_3_1/Foosbots_working/Foosbots_working-499054.onnx (onnx, 278463 bytes, 7 tensors)

action_model._continuous_distribution.log_sigma f4 [1, 2]
000000 18 33 97 3c 08 e9 eb 3b
       0.01845698 0.0071994103

action_model._continuous_distribution.mu.bias f4 [2]
000000 a2 1b 1b ba 69 3f b8 3b
       -0.00059168984 0.0056227935

action_model._continuous_distribution.mu.weight f4 [2, 256]
000000 15 70 d6 3b e9 11 e9 3c 12 7b 0e 3c e4 51 dc 3a
       0.006544123 0.028450923 0.008696334 0.0016809073
000010 3f 4d e5 3b eb 05 87 bc 35 63 f2 bb 84 f5 20 3c
       0.006997734 -0.016482314 -0.0073970803 0.0098241605
000020 39 0b 67 bb a4 ac e2 bb 33 c5 2b 3c 18 7d 3b 3c
       -0.0035254492 -0.006917553 0.010484028 0.011443399
000030 32 24 06 bc 33 9a d6 ba 82 1b f6 ba c8 7e 95 bc
       -0.008187341 -0.0016372859 -0.0018776509 -0.01824893
000040 0e 05 12 3c bf 86 73 bc 0e a1 1b 3c 11 92 03 bc
       0.008912338 -0.014863669 0.009498848 -0.00803043
000050 13 77 9b 3b 6c f1 a6 bb a1 19 f3 ba bd a9 76 bc
       0.0047444194 -0.0050946977 -0.0018547067 -0.015055117
000060 41 a5 92 bb 2f 8a 61 3b 44 46 8b 3c ab 7e 2d bb
       -0.004475266 0.003441464 0.017001279 -0.0026473205
000070 26 57 a6 bb 38 ad 6b 3c 2d 8f 6b 3c c5 4c ab bc
       -0.005076307 0.01438456 0.0143773975 -0.02091063
000080 d6 de f1 ba 47 bc 91 ba a6 8f 03 bc 03 e5 00 bd
       -0.0018453251 -0.0011118733 -0.008029854 -0.031468403
000090 c0 5a d9 3b 5f d3 5d bc 93 c2 e9 ba b0 7d af bb
       0.0066331327 -0.013539164 -0.0017834477 -0.0053555593
0000a0 cb dd 60 3c a2 21 bd 3a d3 4e a3 3b db f0 45 3a
       0.013724755 0.0014429579 0.004983762 0.0007550844
0000b0 f7 8a a9 bc 59 89 bb bb 79 52 3b bc 28 cb 73 3c
       -0.020696146 -0.00572316 -0.011433237 0.014879979
0000c0 ad c3 39 bc 7a 85 a3 bc c1 7f 94 3b 79 79 1d 3c
       -0.011338157 -0.019961108 0.004531831 0.009611481
0000d0 1f 78 99 bb 71 34 87 3b a2 d4 28 bb 6b 84 90 3b
       -0.004683509 0.0041261245 -0.0025761505 0.0044103167
0000e0 ba 68 88 3c 77 46 24 3c f4 76 7d ba 3f 90 44 3b
       0.0166515 0.010026566 -0.00096689095 0.0029993204
0000f0 99 30 b9 3c 5b 16 d0 bc a7 3c 00 bb 76 a7 66 3c
       0.022606181 -0.025401285 -0.0019567402 0.014078012
000100 3a f0 d6 3b d9 62 ca bb 39 05 2e bc f1 51 a0 ba
       0.006559399 -0.0061763343 -0.010621362 -0.0012231452
000110 9f 6f a4 bb 11 4c 3f bc c6 19 0b 3d ef 9c 9d 3c
       -0.005018189 -0.0116758505 0.033960126 0.01923987
000120 de d6 c3 3b b4 3d 84 bb 32 2d 9a 3b 1f 56 d3 bb
       0.005976542 -0.004035676 0.0047050947 -0.0064494754
000130 24 8b 27 3b 74 a3 1b bb 84 26 b0 bb 2c 88 c5 bc
       0.0025565112 -0.0023748549 -0.005375685 -0.024112783
000140 cf 85 73 3c 85 b9 e4 bb b1 c3 66 38 cf 31 3a ba
       0.014863445 -0.0069801235 5.5018525e-05 -0.0007102759
000150 4f 8c 63 bc d4 c2 70 39 a4 ec e6 39 0d 6d 80 3b
       -0.013888433 0.00022960763 0.0004404533 0.00391925
000160 0e 01 b5 bb 1f c4 b3 bb 33 06 a4 39 c5 ea 25 bb
       -0.0055238074 -0.005486026 0.00031285136 -0.0025316935
000170 ab 19 56 3c 37 c8 99 3b 13 b7 cb 3c 47 a7 8b 3b
       0.013067643 0.004693057 0.02486757 0.0042618844
000180 3d 39 53 bc 2f d4 1a 3c d2 c7 9b bc 45 76 64 bb
       -0.012892065 0.009450003 -0.01901618 -0.0034860533
000190 f1 0d 59 3b c1 a9 92 bc 9e 34 9f 3a 58 6f 79 3c
       0.0033119882 -0.01790321 0.0012146418 0.0152243
0001a0 f2 ef ed 3b 87 70 02 3c 3c f3 93 b9 df 19 6c 3c
       0.0072612697 0.007961399 -0.0002821925 0.014410465
0001b0 42 d5 3e 3b 8b 64 57 b9 a4 aa 5e 3c f7 98 12 bc
       0.002911881 -0.00020541453 0.013590489 -0.0089476025
0001c0 c0 3b 62 3c 0b 5b 92 3c 23 f7 53 3c fc 41 0b 3b
       0.013808191 0.017865678 0.01293734 0.0021249047
0001d0 73 24 c4 39 d7 bc 71 3c 29 d1 e8 bb bd 1e 2b bc
       0.0003741119 0.014754496 -0.007105012 -0.01044434
0001e0 d9 92 77 3b 75 95 a8 ba d4 c9 23 3c 77 78 3c 3c
       0.0037776737 -0.0012861924 0.00999685 0.01150333
0001f0 86 e7 77 3b df 0f 70 bb 44 5e f8 ba 24 88 83 3c
       0.0037827208 -0.0036630554 -0.0018948992 0.016056128
000200 d3 fe 28 3c 04 07 0f 3b 68 a3 fd 39 10 94 a4 3c
       0.010314661 0.002182425 0.00048377668 0.020090133
000210 93 24 78 3c 06 73 c8 3b 30 64 58 bc 5b fb 8d ba
       0.015145439 0.0061172275 -0.01320748 -0.0010832356
000220 7f 2b eb 3a 80 d8 de bb 30 ce 54 3c 9e 54 8e bb
       0.001794204 -0.006800711 0.012988612 -0.0043435832
000230 d4 7b 0c bc db 60 4f bb a7 03 6d 3b ac fa 21 bc
       -0.008574445 -0.0031643424 0.0036165507 -0.009886425
000240 49 1b 39 bb d5 18 63 bb 60 b2 43 ba 50 ba 07 bb
       -0.0028245023 -0.0034652252 -0.00074652396 -0.0020710416
000250 42 e9 2f 3c a5 62 ea b9 65 d5 7f 3c 62 0f 13 bc
       0.010736765 -0.00044705454 0.015614842 -0.0089758355
000260 1a ef 52 3c e0 84 ad 3b 02 08 45 3b 8e 1c 2c bc
       0.012874389 0.005295381 0.0030064587 -0.010504855
000270 40 f3 fe bb 74 10 8d ba e8 a0 0f 3c af 3f 24 bc
       -0.0077804625 -0.001076235 0.00876639 -0.010024949
000280 0c 5a 01 bc 07 69 2b bc 9b 4d 8b bb 27 79 7b 3c
       -0.007895004 -0.010462052 -0.0042511947 0.015348709
000290 35 9f a7 b9 d2 75 07 bd 12 35 12 3b 2c be 8c 3a
       -0.0003197134 -0.033071347 0.0022309464 0.0010737828
0002a0 49 ca cb 3c 1c bc e4 bb 67 bb a3 bc ff 8f 60 3c
       0.02487673 -0.006980432 -0.019986821 0.013706206
0002b0 51 09 30 3c 14 6a 2e bb 5f 4b 3c bc 7c a8 03 bb
       0.010744409 -0.002661352 -0.011492579 -0.0020089438
0002c0 9a 6a 93 bc b2 d9 0f bc 5c 65 66 3c 34 6d c0 3b
       -0.017995168 -0.00877993 0.014062252 0.005872393
0002d0 62 16 0e 3d be 4c 93 3c 7a ea 31 3c 84 20 49 bc
       0.034689315 0.01798093 0.010859126 -0.012275819
0002e0 60 72 1c 3c f7 f7 85 bc fc 59 99 3c cf 02 34 3c
       0.0095487535 -0.01635359 0.018719666 0.010986998
0002f0 a2 88 2e bb 51 9d a0 3c dd db 54 3b b7 2e dd bb
       -0.0026631732 0.019606264 0.0032479682 -0.0067499536
000300 0e f4 34 3c 23 42 5d bc 4c 16 94 3b 87 01 55 3c
       0.011044515 -0.013504538 0.0045192596 0.013000852
000310 6f e7 fe 3b 7d 71 18 bc 80 49 95 3c b7 33 3c bb
       0.007779054 -0.009304401 0.018223524 -0.0028717348
000320 ea 93 e7 bc f8 11 66 3c c4 46 8a 3b b3 cc 16 3c
       -0.028268773 0.01404237 0.0042198617 0.009204078
000330 3a a2 73 3b 15 c2 84 bc 17 05 2e 3c 52 b9 80 3c
       0.0037175552 -0.016205827 0.010621331 0.015713368
000340 db f5 4c 3c 5b 10 a5 3c c5 83 a5 ba 17 82 eb 3c
       0.012509788 0.0201494 -0.0012627771 0.028748555
000350 17 04 1a 3c f6 d8 48 bb bd 26 78 bb 74 55 df 3b
       0.009400389 -0.0030646897 -0.0037864887 0.0068156067
000360 ab 1e e6 38 47 79 8c 3b f6 3b bd 3c 32 12 9c bb
       0.00010972967 0.0042869183 0.02309988 -0.0047629112
000370 be d0 06 bb 3c 2e a0 3c b6 6d 92 3b 14 ca 16 3c
       -0.0020571197 0.019553296 0.004468645 0.009203453
000380 d7 93 2a 3b 23 29 04 bc a6 4c 81 bc 43 d1 34 bc
       0.002602806 -0.008066448 -0.01578362 -0.01103622
000390 cc 98 04 bb ac 50 0a bd 34 29 08 3b 3b d7 df 38
       -0.0020232676 -0.03376834 0.0020776512 0.000106735584
0003a0 76 89 b2 3c 49 cf ab bb 34 b8 92 3b c6 15 10 3b
       0.021794062 -0.005243216 0.004477525 0.0021985634
0003b0 4e 2d a8 3b b4 c7 cb bb cd 0e 96 3b f6 71 21 bd
       0.005132354 -0.006218875 0.004579401 -0.039415322
0003c0 49 98 a1 bc 12 61 8b ba b7 50 10 39 1f 42 db ba
       -0.019725936 -0.0010633788 0.00013762979 -0.001672808
0003d0 bb c0 56 bc a7 10 cf ba b9 d0 7f 3c 3b ff 00 bb
       -0.013107474 -0.001579781 0.015613728 -0.001968338
0003e0 b8 df 2f bb 78 44 13 3c b7 3b 84 3b 26 ed 92 bb
       -0.0026836228 0.008988492 0.004035439 -0.0044838367
0003f0 4b e5 db ba df a9 6b 3b 1d 68 47 b9 35 53 80 bc
       -0.0016776709 0.0035959405 -0.00019016904 -0.015664676

network_body._body_endoder.seq_layers.0.bias f4 [256]
000000 d5 83 23 bb c9 c9 84 3a 90 ef cb ba c1 43 08 bb
       -0.0024950404 0.0010130937 -0.0015559066 -0.0020792338
000010 71 88 74 3b 0a 07 4f 3a 34 85 15 ba a0 8e 94 ba
       0.003731277 0.0007897472 -0.0005703748 -0.001133401
000020 e3 c9 2f bb 14 d9 7f ba 48 7f 4e bb e4 72 11 bb
       -0.0026823215 -0.0009759825 -0.003150897 -0.0022193724
000030 9b e6 00 bc 9f 2e 05 3b 58 dd c8 bb c4 a5 e0 39
       -0.007867481 0.0020321978 -0.006129902 0.00042848114
000040 0e 8e f6 ba b3 c6 83 ba b4 71 84 bc cb c5 b4 bc
       -0.0018810646 -0.0010053724 -0.0161675 -0.022066971
000050 e5 c3 ed ba 2f 5b 44 bb 9e 2f a1 b9 ba e3 14 ba
       -0.0018140046 -0.0029961576 -0.0003074379 -0.0005679686
000060 aa fb 79 bb 6f ed 96 bb 03 ef 0a 3c 5c 53 cf 3b
       -0.0038144388 -0.004605941 0.008479836 0.006327076
000070 2b a1 67 3c 69 bd 19 3c 30 3b 68 bb 27 14 a3 ba
       0.0141375465 0.009383538 -0.003543567 -0.0012441919
000080 97 f2 ed 3a 72 75 63 3b 2e 05 45 3a 48 10 9c ba
       0.0018153962 0.0034707454 0.00075157254 -0.0011906708
000090 5c b6 d2 bb f3 f3 49 3c 6f f3 a7 3b a5 27 c1 3a
       -0.0064304303 0.012326228 0.005125455 0.0014736546
0000a0 a4 99 44 bc 8a 0e d6 bb ee 63 e1 3b e8 9e 12 bc
       -0.011999521 -0.006532495 0.0068783676 -0.008949019
0000b0 0a 62 b4 bb af b9 0b bc ff 5d 21 bc 68 86 b5 ba
       -0.005504851 -0.008528157 -0.009849071 -0.001384926
0000c0 bc fc 11 3c 58 59 d2 ba a6 df 4e b9 95 ef 97 bb
       0.008910354 -0.0016048355 -0.00019729006 -0.0046367147
0000d0 72 84 89 bb c6 b3 96 3b e3 1a 74 bb 14 11 99 3b
       -0.004196697 0.0045990674 -0.003724747 0.0046712253
0000e0 5f 5c 3e 3b c3 62 46 3b 55 3d 4d bb 34 cb bb bb
       0.0029046757 0.003027127 -0.0031317074 -0.005731011
0000f0 40 d4 f8 bb a5 f2 80 bc 79 82 20 3b ba 26 c7 ba
       -0.0075936615 -0.015740702 0.002449183 -0.0015194037
000100 3b 48 51 bb 11 d4 47 bc 3b cf 92 bb e8 55 ad bc
       -0.0031933922 -0.012196557 -0.00448027 -0.021159127
000110 aa 36 e2 ba bc 98 ff ba dc e1 e3 3a bb 67 86 3b
       -0.0017258723 -0.0019500474 0.0017386037 0.004101721
000120 16 3e 4d bb b4 fd 7a bb 4e b4 3b bc 5d b1 37 bc
       -0.0031317524 -0.0038298192 -0.011456562 -0.01121172
000130 b8 a2 f5 38 67 49 10 bc cc 03 96 ba 53 56 82 ba
       0.00011712819 -0.008806563 -0.0011445223 -0.000994394
000140 f9 cf 1e bb 11 11 bb bb f3 32 86 3b cb 7c 34 ba
       -0.0024232848 -0.0057088216 0.004095429 -0.00068850507
000150 7f 89 35 3b 13 65 b8 3b 0c 14 f6 bb 1d 1b 4a bb
       0.0027700362 0.0056272834 -0.007509714 -0.0030838915
000160 e3 1d 0c bb 68 c9 81 3a 18 30 2e 3c 5c d6 e4 bb
       -0.0021380119 0.0009901943 0.010631584 -0.0069835614
000170 b9 1d 3e 3a c9 01 68 bb e4 7e 3f 3a 9c 0c 45 3b
       0.0007252354 -0.0035401455 0.000730498 0.003006733
000180 01 70 06 bc 7d 6b 3a 3b bf 70 0b bb 71 a9 7c bb
       -0.008205415 0.0028445416 -0.0021276919 -0.0038553143
000190 a1 de fd 3b 6d c3 19 bb 99 50 e5 bb b4 9c b0 3a
       0.0077474867 -0.002346243 -0.0069981334 0.0013474436
0001a0 47 43 90 bc 68 30 52 3b 03 44 c0 39 d7 5c 25 3b
       -0.017610205 0.003207231 0.00036671766 0.0025232339
0001b0 68 1c 04 3c 8c 76 c8 bb 40 96 43 b9 3a cd 7e bb
       0.008063413 -0.0061176475 -0.00018652622 -0.0038879649
0001c0 6b 16 5a 3b 08 44 8d bc f5 32 60 b9 f2 04 9c b9
       0.0033277522 -0.017244354 -0.00021381288 -0.00029758323
0001d0 58 71 c9 bb 09 d6 7d 3b b7 28 83 bc eb 5e 3c bc
       -0.006147545 0.0038732311 -0.016010625 -0.01149724
0001e0 5f 99 93 bb 2a 2d 12 bc 1d b9 a7 3b 4d 0c eb ba
       -0.0045043672 -0.008921901 0.005118503 -0.0017932743
0001f0 e2 42 7d 3a 08 9f ed bb 2f 3e 3e bc c5 6d 5a bb
       0.00096611504 -0.007251624 -0.011611505 -0.0033329588
000200 c1 c0 ce bb ed 59 21 39 34 f8 9c 3a 74 2d 22 bb
       -0.006309599 0.00015387656 0.0011975826 -0.002474633
000210 b3 d8 4f bc 84 d5 0c 3b de 3f 25 b8 a3 c9 f3 3a
       -0.012685942 0.002148957 -3.9398547e-05 0.0018599521
000220 b7 64 54 bb 3a f0 1e bc dc 47 7f bb d6 17 e4 ba
       -0.0032408664 -0.009700829 -0.0038952744 -0.0017402123
000230 99 54 1a 3c 2b eb 8c ba 1b 52 2b bc d6 d7 2c 3b
       0.009419584 -0.0010751238 -0.010456587 0.0026373765
000240 82 17 b9 bb db 15 42 bb e9 12 aa 3b 97 3a 03 3b
       -0.0056485543 -0.0029615078 0.0051902425 0.0020023936
000250 46 d9 a4 3b c1 55 7b 3c 9d 5d 85 bc a5 d2 31 bb
       0.005030784 0.01534027 -0.01627999 -0.002713361
000260 f9 55 5b bb 16 bf 18 bb 8c 22 89 3b 43 e4 a6 3b
       -0.0033467992 -0.0023307255 0.0041850265 0.005093129
000270 63 8f 04 3c 74 04 4c 3b 03 be 00 3c 62 d8 8c bb
       0.008090827 0.0031130584 0.007857802 -0.004298256
000280 a8 cd bb 3a db 5f 88 bb fd 68 c6 38 0b e1 67 bb
       0.0014328258 -0.0041618175 9.460931e-05 -0.0035381939
000290 b4 f7 bf 3a 04 a6 a6 ba 0e 86 b0 3a 82 76 01 3a
       0.0014645965 -0.0012714271 0.0013467686 0.00049386185
0002a0 4e 03 7b bb 2f bd 77 bb a5 bf df ba cb 49 48 bb
       -0.003830153 -0.0037801971 -0.0017070664 -0.0030561562
0002b0 c5 66 e8 bb 3c ad 1c bb 4e d6 3f 3a bf af 9d 3b
       -0.007092329 -0.0023906967 0.00073180057 0.0048122103
0002c0 bd f5 8b bb 3b 0f 92 3b 5a 6b 8b 3a a1 4b 36 bb
       -0.0042712376 0.004457382 0.0010636852 -0.0027816074
0002d0 a3 78 92 bb 69 aa 24 bc 59 a7 f0 bb 6d c9 03 bb
       -0.0044699474 -0.010050395 -0.007344168 -0.0020109073
0002e0 ff 4e ca bb d0 a4 08 bc ce 0e 82 3b e4 18 ad 3b
       -0.006173968 -0.008340076 0.00396905 0.005282508
0002f0 38 1a 1f bc 2b 5e f1 ba 9c 46 c8 ba d9 3c 30 bb
       -0.009710841 -0.0018414905 -0.0015279832 -0.0026891737
000300 8c e1 e4 bb f3 df a5 3b 55 26 28 bb 7b 87 91 bb
       -0.006984895 0.005062097 -0.0025657613 -0.0044411994
000310 c9 6d a2 bb 0c f3 b4 bb 93 38 41 bb 0c 7f 79 3b
       -0.004956935 -0.0055221375 -0.0029483184 0.003807011
000320 69 b1 d2 3b 69 75 f8 3b d3 02 48 bb fa 09 20 39
       0.0064298403 0.0075823558 -0.0030519261 0.00015262506
000330 dd a8 4a 3b 20 bd 3e 3c 2c 7c 8b b9 7e 7c e1 bb
       0.0030923404 0.011641771 -0.0002660466 -0.0068812957
000340 f3 2f 59 bb 4e 8d 11 bc f4 2e 65 3c ab 62 a4 ba
       -0.0033140152 -0.008883787 0.013988245 -0.0012541612
000350 0e 08 bd ba 9b 91 b0 b9 f0 8d b4 bc 01 e6 ef 39
       -0.0014421956 -0.0003367782 -0.022040337 0.00045757
000360 6b 4a 2f bc 8a ae d0 ba 3d dc 44 bc 97 f1 4b bb
       -0.010698895 -0.0015921157 -0.0120153995 -0.003111934
000370 61 10 a8 bb 60 c6 1e 3b 51 5f b1 3b e1 94 6e bb
       -0.0051289056 0.0024227127 0.005412974 -0.0036404657
000380 31 08 40 bc 61 69 2e bc 90 0a 87 ba 62 30 43 3b
       -0.011720703 -0.0106452415 -0.001030283 0.0029783477
000390 27 aa 01 bb b2 00 ec 3b 9f ef 8d 3b 85 3c e8 bb
       -0.0019785257 0.0072022313 0.0043315436 -0.0070872926
0003a0 b4 af 6e 3b c9 6b da ba 63 00 88 3b 6d a3 bc ba
       0.0036420645 -0.0016664203 0.0041504367 -0.0014391966
0003b0 60 8b 1b bb 4c 76 84 ba 41 69 2e bb 05 4a 8c bc
       -0.0023734197 -0.0010106056 -0.002661303 -0.017125139
0003c0 02 74 89 bb eb 3b 99 bc 44 49 05 3b 3f 9c 71 bb
       -0.0041947374 -0.018705329 0.002033786 -0.0036866812
0003d0 62 11 5c ba e3 e1 16 bb 40 3c 64 3a 53 3b 32 3a
       -0.0008394924 -0.0023022823 0.0008706488 0.0006799001
0003e0 a9 86 d5 3b 8e 40 e4 3a 40 88 98 bb ed 04 9d 39
       0.006516297 0.0017414258 -0.004654914 0.00029949044
0003f0 f0 60 b6 3a 11 28 09 bc 4d de 46 bc 41 a8 0c bc
       0.0013914388 -0.008371369 -0.012137962 -0.008585037

network_body._body_endoder.seq_layers.0.weight f4 [256, 10]
000000 61 9d 06 bf 01 55 53 3e b2 94 c8 3b b8 b7 7d bd
       -0.5258389 0.20637895 0.0061212415 -0.061942786
000010 97 9c 04 3f 95 b4 09 3f 70 b4 89 be 30 ce e0 3e
       0.5180144 0.5379117 -0.26895475 0.4390731
000020 37 6c ab 3e d2 38 cb bd e4 d4 f5 3c 67 f0 66 3e
       0.33481 -0.09922947 0.03000874 0.22552644
000030 f5 94 45 be 8a 07 fa 3e c6 cf 4a bd 41 64 b7 bc
       -0.19295104 0.48833877 -0.049514554 -0.022386672
000040 c9 6d 2d 3e 68 a8 6b be 38 63 2d 3e 82 1b 0b bf
       0.16936411 -0.2301346 0.1693238 -0.5433885
000050 7c 8e 1f be 56 e7 bf be f4 b6 d6 bd 69 a4 02 3e
       -0.15581697 -0.37481183 -0.10484114 0.1275803
000060 53 50 31 3d 8c a6 b4 bc a6 2c cf 3d 5d ef 07 be
       0.043289494 -0.022052072 0.10115938 -0.13274904
000070 7a 5e 28 bc 71 11 8c bb 30 25 ca 3d 45 d2 1d bf
       -0.010276431 -0.00427454 0.09870374 -0.6164897
000080 c7 d9 8b be 3a 27 84 bd 16 65 01 3f ac 59 87 3e
       -0.27314588 -0.064527944 0.5054487 0.26435602
000090 02 72 7d be 64 fa cc bd fb db d7 3c af eb a6 3e
       -0.24750522 -0.10008696 0.026350012 0.32601687
0000a0 7b b3 81 be 67 32 4b be 87 ce 59 be 43 93 b2 bd
       -0.25332245 -0.19843446 -0.2127019 -0.08719494
0000b0 8e 7c 70 bd 8f 52 fb 3e e9 18 0b bf 7d 53 5e 3d
       -0.058712535 0.49086425 -0.54334885 0.05427884
0000c0 b9 fa 56 bd 67 a0 d0 be 91 87 65 bd fb 9e 08 3e
       -0.0524852 -0.40747377 -0.05603749 0.13341896
0000d0 93 69 24 be db 19 e1 bd ce da 8d be 1f b2 89 3e
       -0.16055898 -0.1099126 -0.27705997 0.26893708
0000e0 76 bb 0a 3f 77 e8 41 3e 67 db b7 bd dc be aa 3e
       0.5419229 0.18936335 -0.089773946 0.3334874
0000f0 32 06 b1 be bf b5 23 bf 6d eb 83 be 26 7f 9b be
       -0.3457504 -0.639492 -0.25765553 -0.30370444
000100 04 84 70 3e 02 7c 66 3d 72 97 c5 3e 32 25 d4 bd
       0.2348786 0.056270607 0.38592106 -0.10358657
000110 9e 57 6e bf 2c df 82 3e 9a 27 2a be b7 12 1d 3e
       -0.93102443 0.25560892 -0.1661667 0.1533917
000120 2b 93 71 be 81 4c b0 3e f9 ee 20 3f 50 aa a1 bd
       -0.23591296 0.34433368 0.62864643 -0.07893813
000130 65 33 4f be c5 4e ca 3d fd 7a 14 be 07 94 c7 bd
       -0.20234449 0.09878305 -0.14500041 -0.09745031
000140 68 6d 63 be 3f b1 09 3e 48 25 d1 3e 73 50 d7 3e
       -0.22209704 0.1344652 0.40848756 0.42053565
000150 d3 3f 37 be f1 82 3f be a9 ed 8a bd 79 ff c6 be
       -0.17895441 -0.18702294 -0.06783611 -0.38866785
000160 e2 fe 5c 3a 04 f9 7a be 87 d0 fe be 77 c7 a4 3e
       0.00084303145 -0.24509054 -0.4976847 0.3218343
000170 da 6a b5 3e 78 33 82 3e 4b dc bb 3e 74 c7 d7 bc
       0.35433084 0.25429893 0.36691508 -0.026340224
000180 66 e3 50 be 57 8f 07 3e 32 50 15 be d3 ea 85 be
       -0.20399246 0.13238274 -0.14581373 -0.2615572
000190 0a 04 07 3f 09 6b 08 3f 3f c5 69 3e dd a6 3d 3e
       0.5274054 0.5328832 0.2282915 0.18520685
0001a0 72 bb 52 bc 7b 44 2b be 0d a0 d7 3e 98 1d 75 3e
       -0.012862073 -0.16725342 0.42114297 0.2393707
0001b0 1b e5 0f 3f dd 98 5b be fb dd c2 3e 96 83 ae be
       0.5620896 -0.21445031 0.38059983 -0.34084767
0001c0 ed fe cb 3d 31 9a 0c bd 4a 81 70 3e 71 e8 f2 be
       0.099607326 -0.034326736 0.2348682 -0.47442964
0001d0 c3 28 1a 3f 02 0a ae 3e be 2b 41 bd 1d 2a 82 3e
       0.6021845 0.3399201 -0.047160856 0.25422755
0001e0 04 c8 0c 3f 42 13 08 3f cc e2 a9 bd 91 77 11 3f
       0.549927 0.53154385 -0.08295211 0.5682307
0001f0 82 6a cf 3e cf f2 6c be 3d 1d 46 3e 97 89 16 3f
       0.40510947 -0.23139499 0.19347091 0.58803695
000200 36 eb 65 be ec df 87 3e 9f bd 2c bd 8b 5f fe 3e
       -0.22453007 0.26538026 -0.042173024 0.49682269
000210 61 9c 34 3e 89 9e f0 3c f7 7f 87 3e 4a a6 8c be
       0.17637779 0.02937247 0.26464817 -0.27470618
000220 38 ed e8 be 9e e2 b9 bc 1a c3 6a be c7 c2 87 3e
       -0.45493484 -0.022691067 -0.22925988 0.2651579
000230 d0 17 eb bd eb 98 68 3e d6 b7 1b 3e 26 e1 2a be
       -0.11479151 0.22714584 0.15206847 -0.1668745
000240 4f a6 b2 be e0 60 11 bf 05 85 9e 3e 67 58 85 3b
       -0.34892508 -0.56788445 0.3096086 0.0040693763
000250 61 e6 98 3e 42 71 04 3f da 12 58 be 27 9a 05 3e
       0.29863265 0.5173532 -0.21100941 0.13047086
000260 7c 94 57 3e 4e cd da bc b5 d8 1a 3e 33 e8 11 be
       0.21052736 -0.026709225 0.1512173 -0.14248733
000270 5f 09 a2 3c 8e 50 db be e2 0b 1c 3e 57 a9 a8 bc
       0.01977986 -0.42834896 0.15238908 -0.02058856
000280 17 e3 92 bc f6 9b 37 3f 10 06 d7 be b2 88 07 3f
       -0.01793055 0.7172235 -0.41996813 0.52942955
000290 7d 31 e1 be f8 6d aa be 1f 9d 53 be 04 4f a1 3e
       -0.4398307 -0.33287024 -0.20665406 0.31505597
0002a0 be 5d 1f be 9e 70 bf 3d a7 e2 1b bf 42 bb d5 bd
       -0.15563104 0.09347652 -0.6089272 -0.10436107
0002b0 95 db 5a 3e 23 2b 47 3e 6f d3 24 be 73 91 20 3e
       0.21372826 0.19450049 -0.1609628 0.15680484
0002c0 24 4a eb bd 3c b3 ee 3d a0 0d 03 bf 28 28 34 bf
       -0.114887506 0.1165528 -0.51192665 -0.70373774
0002d0 55 f9 63 3e d9 4a 04 3f 17 61 ed be b6 d9 af bc
       0.22263081 0.5167671 -0.46363136 -0.021466117
0002e0 58 b8 90 3e 14 0a 33 3e b2 16 2b be 18 fb 11 bf
       0.28265643 0.17484313 -0.16707876 -0.57023764
0002f0 40 c9 ac be 92 50 87 3b ed ca ec 3e 52 65 4d 3d
       -0.33747292 0.004129478 0.4624857 0.050145455
000300 ff 0d 55 be 64 c9 91 be 56 3b 7c be 66 9b 35 be
       -0.2080612 -0.2847396 -0.2463201 -0.17735061
000310 f5 33 ad bd 00 7b 84 3e 83 89 1f be 7d bd 57 3d
       -0.08457176 0.25875092 -0.155798 0.052670944
000320 c8 b1 ae be 7c 43 36 bf 7d 56 15 bf 15 21 b5 bd
       -0.3412001 -0.71196723 -0.58335096 -0.088442005
000330 26 c5 f9 3c 78 38 45 3e 2f 04 86 3e 75 84 27 bd
       0.030489516 0.19259822 0.26175067 -0.040897805
000340 ce 15 a8 be 39 3d 35 be d6 78 0c bf 2e 1d 02 bd
       -0.32829136 -0.17699136 -0.5487188 -0.03176611
000350 54 96 0f 3e d7 77 15 be 18 d3 e7 bd 2a a4 b7 3e
       0.1402219 -0.14596497 -0.1131956 0.35867435
000360 a0 90 a4 be a3 3d b1 bd 3d 7a fd 3e 9c 16 82 3e
       -0.3214159 -0.086543344 0.49507323 0.25407875
000370 38 c3 ff 3e 84 cd b3 3e 58 01 47 3d c0 04 1f 3e
       0.49953628 0.35117733 0.048585266 0.15529156
000380 11 07 95 3e 32 f3 14 3e 79 f9 58 bd 30 db c1 be
       0.29106954 0.14545897 -0.05297229 -0.3786254
000390 59 d9 ac 3e c4 13 ce 3c e2 dd 5f be 2f bb 29 3e
       0.33759573 0.02515591 -0.21861985 0.16575311
0003a0 1d c8 bc bd 55 32 39 3d 6d e5 ad 3e ee 62 ac be
       -0.09217856 0.045214016 0.339641 -0.33669227
0003b0 7f 25 8c 3e cb 7f 31 3e 9b a1 d9 3c 6b 6a f9 bc
       0.27372357 0.17333905 0.026566317 -0.030446252
0003c0 1c 45 26 3e 42 65 e5 3e e2 5f 6a 3e c8 2f 0e bf
       0.162373 0.44803816 0.22888139 -0.5554166
0003d0 af ad 92 3e 85 b6 ea 3e 51 5b 1e bf 07 27 12 3e
       0.28648135 0.45842376 -0.6185809 0.142727
0003e0 8c 09 7f be c2 02 04 3e 78 91 98 3e bf b3 d0 3d
       -0.24905986 0.12891677 0.29798484 0.10190534
0003f0 2d 2f 75 3f 7e 3d 07 3e 54 38 56 be eb 2c 82 be
       0.9577511 0.13207051 -0.20919925 -0.25424895

network_body._body_endoder.seq_layers.2.bias f4 [256]
000000 79 31 90 bb 61 fa d1 ba 9f ee 23 ba 59 60 8c bc
       -0.004400429 -0.0016020053 -0.0006253514 -0.017135786
000010 5a 00 c8 bb 29 a1 32 b7 be 9c b6 bb 0a f3 3e 3a
       -0.0061035575 -1.064715e-05 -0.0055728843 0.00072841404
000020 e9 73 1e 3c 53 cf 90 ba 65 50 05 bb 43 32 5b 3b
       0.00967119 -0.0011048116 -0.0020342108 0.0033446706
000030 dc 72 8a bb 02 52 16 bc b2 d8 13 3c df e2 37 3b
       -0.004225118 -0.009174826 0.009023832 0.002805881
000040 77 a6 e2 39 07 b1 76 bb 72 8b e2 3a aa b9 21 bb
       0.00043230105 -0.0037642138 0.001728399 -0.0024677315
000050 a1 cb 84 3b b0 27 aa 3b f4 a7 a3 3b 3c 7e b5 3a
       0.004052595 0.0051927194 0.004994387 0.0013846825
000060 1b 35 c3 39 3d 1f a4 bb 57 e7 a8 bb 76 e3 6e bb
       0.00037232865 -0.0050086067 -0.005154531 -0.0036451495
000070 b2 6a 9f bb 98 a9 67 ba 34 5b c4 bb c0 b7 e9 ba
       -0.004865014 -0.0008837222 -0.0059923176 -0.0017831251
000080 bc dc 41 bb d5 d9 0d 3b 1a 60 95 bb cc 85 1d ba
       -0.002958103 0.002164473 -0.0045585753 -0.0006009012
000090 33 0e 48 3a 98 b7 8c b9 29 13 95 3b 93 1d 2b bb
       0.00076315104 -0.0002683967 0.004549403 -0.0026110157
0000a0 8e ed 12 bb 39 c0 a7 bb 8c e6 c2 3a f1 ad f6 3b
       -0.0022419426 -0.0051193503 0.0014869734 0.0075280597
0000b0 44 88 1e ba f5 85 ce bb c7 26 b0 bb 2e bb c0 bb
       -0.0006047527 -0.00630259 -0.0053757164 -0.0058816886
0000c0 7e 98 a6 bb cf b6 9d ba ba 01 1d bb 38 2e 4c 3b
       -0.0050840965 -0.0012032631 -0.0023957328 0.0031155478
0000d0 b7 e5 88 ba 3d 0a 50 bb ba 37 9e 3b f3 ff 14 3b
       -0.0010444437 -0.0031744384 0.0048284205 0.0022735565
0000e0 21 65 9e ba c2 b3 19 bb f4 13 8a 3b d5 70 aa bb
       -0.0012084582 -0.0023453091 0.0042138044 -0.005201439
0000f0 c7 45 74 3b dc df 01 38 84 77 d0 bb de fd b1 ba
       0.0037273036 3.0964482e-05 -0.0063619036 -0.0013579687
000100 83 20 13 3b cb ae 80 bb ce b5 81 bb 11 97 8e 3b
       0.0022449798 -0.003927087 -0.0039584404 0.0043515046
000110 0c ae 3e bb 7b 41 9c bb f8 80 15 3a c0 03 87 3b
       -0.002909544 -0.004768548 0.0005703117 0.00412032
000120 46 d6 7d 3a 1e e4 b4 bb f5 79 01 bc 00 c4 8d 3b
       0.00096831133 -0.0055203578 -0.007902612 0.0043263435
000130 98 84 25 bc 4a c7 47 bc 97 b5 02 3c e7 f3 61 3b
       -0.010102414 -0.01219351 0.007977865 0.0034477653
000140 8d 3e 48 ba 48 b0 b0 bb b6 da a7 3b 23 8c cb bb
       -0.00076387153 -0.005392108 0.005122508 -0.006211774
000150 20 0e 8a 39 6b 06 95 3b 38 1d 4f bc b2 cc 9d 3b
       0.00026331935 0.004547884 -0.012641244 0.0048156613
000160 70 53 29 bc 00 cd dc b9 25 ff ea bb 7a 26 9b b8
       -0.010334834 -0.00042114407 -0.007171529 -7.398143e-05
000170 97 5f 2b bb d5 05 0d bc 56 0f 61 bb ce ae 2a 3b
       -0.0026149505 -0.0086073475 -0.0034341416 0.0026044133
000180 89 06 3d 3b 19 f7 c6 bb 9b d9 0d 3b 7f 04 73 bc
       0.0028843007 -0.006071937 0.0021644596 -0.014832615
000190 19 aa 6c bc 38 14 94 ba a8 28 a2 ba ce 10 38 ba
       -0.014444851 -0.001129753 -0.0012371736 -0.0007021547
0001a0 70 70 c5 bb 58 95 ce bb 4f 85 83 3c 5a 71 5a 3a
       -0.0060253665 -0.0063044243 0.016054777 0.0008332931
0001b0 db 7c a2 bb 90 97 83 3b 41 29 16 37 6b dd a3 ba
       -0.0049587316 0.0040158704 8.950302e-06 -0.0012501901
0001c0 61 ad 25 bb e8 e5 97 bb 52 3b 8c 3b 15 d3 03 3c
       -0.0025280344 -0.0046355613 0.0042795325 0.008045931
0001d0 79 54 91 bb 08 6d 6a bb b1 f5 0a 3a aa 96 a4 3b
       -0.0044351188 -0.0035770554 0.0005300893 0.0050228434
0001e0 31 18 6b 3c 5e 9f 9a 3b 31 f3 ae 3b 6d 40 d7 3a
       0.014349029 0.004718705 0.0053390493 0.0016422399
0001f0 2e 63 47 bc f5 67 f2 3b 33 21 30 3b a5 33 9b 3a
       -0.012169642 0.0073976466 0.0026875257 0.0011840953
000200 40 64 11 3b 4c 00 b2 bb c2 1c a5 3b da 63 89 bb
       0.0022184998 -0.0054321643 0.0050388286 -0.0041928114
000210 df f2 ba 3b b4 85 05 3c f9 c1 a7 bb f5 01 4f 3b
       0.005705222 0.008149553 -0.005119559 0.003158686
000220 96 f4 a5 bb 21 19 26 3a 9d 34 7b bb 29 70 fc ba
       -0.0050645573 0.0006336142 -0.003833092 -0.00192595
000230 c6 75 ee b9 1a d8 65 ba c5 16 e6 bb 3c e4 ab bb
       -0.00045482646 -0.00087678584 -0.0070217573 -0.0052457135
000240 8f 0a ba 3b 06 8e ee bb 57 22 7c bc 48 a6 7f 3b
       0.005677528 -0.007280114 -0.015389047 0.0039009023
000250 cd 3a fd 3b ee 60 00 39 98 08 37 b9 ac 82 8f bb
       0.007727957 0.0001224314 -0.00017455441 -0.004379591
000260 57 a9 b4 3b c7 79 a7 3b e6 76 3b bc 98 1a c5 ba
       0.005513351 0.0051109525 -0.011441922 -0.0015037833
000270 3c e7 3a ba eb 40 9f 3b 30 80 49 bb 9a 58 d3 3a
       -0.00071297935 0.0048600337 -0.0030746572 0.0016124428
000280 7d cf f3 3a a9 c7 9a 3b ad 2b cb 3b 9e cd d4 3b
       0.0018601265 0.0047235084 0.006200275 0.006494238
000290 fe df ff 3a 69 cb b7 3a 64 0b fe ba ef 6b 4f bc
       0.0019521711 0.0014022413 -0.0019382057 -0.012660011
0002a0 2f 97 fe ba 2e e4 22 39 a6 a5 a3 bb 59 32 58 3b
       -0.0019423718 0.00015534527 -0.004994112 0.0032988994
0002b0 7e b7 a0 bb fa 1f d2 3b 73 c7 be bb 8b 67 a5 bc
       -0.0049046865 0.0064125033 -0.005822116 -0.020190975
0002c0 d0 35 9f bb 05 5d c8 3b af c4 ff 3a 1a fa 13 bc
       -0.00485871 0.0061146044 0.0019513572 -0.009031797
0002d0 5a 1a 99 ba 2d 32 ae bb a7 5f f1 bb 6c 35 2a 3b
       -0.0011680827 -0.00531604 -0.007366139 0.0025971783
0002e0 91 f7 97 3b 96 ec 2a 39 3b 36 9a bb 8e da 5f 3b
       0.0046376665 0.00016300599 -0.004706172 0.0034157368
0002f0 1e 4b 50 bc bf 0c f4 ba 5d c1 f4 bb 38 03 aa bb
       -0.012713222 -0.0018619521 -0.0074693398 -0.005188372
000300 d5 77 d1 39 81 bc 1a 3b 54 93 1f 3b 7a dc dc ba
       0.00039952868 0.0023610892 0.002434929 -0.0016850375
000310 61 c0 b9 3b a8 f8 f3 ba 32 6a 3c 3b 91 46 1c 3c
       0.0056686853 -0.0018613534 0.002874982 0.009538309
000320 46 52 05 bb a4 2e 8b 3b ba ae 2a bc 8d fb b7 3b
       -0.0020343228 0.0042475034 -0.010417635 0.005614704
000330 aa 29 6e bb e5 e7 25 3a c0 eb ee bb 73 c2 c7 3b
       -0.0036340752 0.00063288055 -0.007291287 0.006096178
000340 95 65 38 3b 7b 7a 3f bb 80 07 ab bb 14 ae 3b bb
       0.002813672 -0.002921729 -0.0052194 -0.0028637694
000350 df b6 a9 bb 1e 9f 94 3b a6 6f 57 3b a6 37 8c 3b
       -0.0051792706 0.00453557 0.0032872944 0.0042790947
000360 a0 b7 86 bb f6 5c 0d bc 2b cb 4b 3a ad b3 af 3b
       -0.0041112453 -0.008628121 0.000777411 0.005361995
000370 7e e3 cd 3b 19 24 7d bb 2f c7 1a bc f9 9b 42 3b
       0.0062832227 -0.0038626252 -0.009446903 0.0029695018
000380 9a 3d 22 bc 28 ec 80 3b 84 53 d6 ba 54 20 47 bb
       -0.009902382 0.003934402 -0.0016351794 -0.003038426
000390 0f e1 3d 3b 9e 31 54 3a 6c 9c ee 3b 5f d0 04 bc
       0.0028973257 0.0008094552 0.0072818305 -0.00810632
0003a0 b8 95 51 ba 1f bf d6 bb 3e fe f5 bb 7e c7 26 bc
       -0.0007995027 -0.006553545 -0.0075071147 -0.010179399
0003b0 92 00 bb 3b bf 6b b9 3b cf 01 e5 3b 71 d9 b1 ba
       0.005706855 0.0056585963 0.006988741 -0.0013568831
0003c0 0b 9f 39 bb 42 99 14 3c f0 96 9d 3c 75 68 28 3c
       -0.0028323557 0.009069743 0.019237012 0.010278811
0003d0 13 12 9b bb c5 9d 0a 3c 13 f9 96 ba d6 61 e5 bb
       -0.004732379 0.008460467 -0.0011518322 -0.0070001883
0003e0 94 fd b0 3a 1e d1 cc 3b 76 e9 49 bc c7 5d eb ba
       0.0013503307 0.0062505146 -0.012323728 -0.0017957025
0003f0 73 77 39 3c 39 ed af bb e7 c2 f0 ba 28 d0 3d ba
       0.011319983 -0.0053688553 -0.0018368632 -0.00072407955

network_body._body_endoder.seq_layers.2.weight f4 [256, 256]
000000 93 15 ae 3c 9b ea 82 3c c5 0d 8b bd 42 2f c2 bc
       0.021250522 0.01598101 -0.06789736 -0.023704175
000010 72 9c 2b 3d 75 7a 47 3d 0f 8e 1b bc 8b 78 49 3c
       0.041897245 0.04870077 -0.009494319 0.012296806
000020 ec c1 90 bb 2d 84 85 bb e2 ed 5d 3d 41 35 2c bd
       -0.0044176485 -0.0040745945 0.05418194 -0.042042974
000030 98 13 b6 bd 0e 3f 5d bd 9b b5 c6 bc ad 86 2f bc
       -0.08890456 -0.05401521 -0.024256518 -0.010713262
000040 1c 82 a4 bc 40 37 33 3d 38 9c 5c 3d 08 90 ad b6
       -0.020081572 0.043753862 0.05385992 -5.172569e-06
000050 d0 da 87 3d c0 0d d1 bc 82 a2 8f bd b8 9c 67 bd
       0.06633532 -0.025519252 -0.07013418 -0.056545943
000060 5a 52 93 3c 14 da a0 bd 1a d4 26 bd ff 18 f0 bc
       0.017983604 -0.07854095 -0.04072962 -0.029308794
000070 c7 1b 19 be 2a 58 af bc 26 60 ab 3c 83 15 69 3c
       -0.14952002 -0.021404345 0.02091987 0.01422632
000080 27 17 13 3b a0 99 91 bc 9c cf 55 bd 6b 91 30 3d
       0.002244422 -0.01777345 -0.052199945 0.04310743
000090 11 8c 0a 3d 09 08 e3 bc f1 cc 95 3c 1c 7c 2d 3d
       0.033824984 -0.027713792 0.0182862 0.042354688
0000a0 48 8c 83 3d ab 76 bf 3c 6b 0e 2d 3c 11 49 d9 3d
       0.06423241 0.023372015 0.01056252 0.106096394
0000b0 00 48 95 3c 18 02 4d 3d fb a7 b7 bc 07 14 bc bd
       0.018222809 0.050050825 -0.022418967 -0.091835074
0000c0 1a 7f 03 bc 92 88 40 3d 1f a7 e2 bd 35 a1 6b bc
       -0.008025909 0.047005244 -0.11067032 -0.0143816965
0000d0 dd e9 0a 3e 73 29 99 bd 06 d5 07 3d 7d fa 2e be
       0.13565774 -0.07478609 0.03316214 -0.17087741
0000e0 8b 62 a3 b9 d8 25 94 bc aa c5 9e 3d 36 cc 96 3d
       -0.00031163203 -0.018084452 0.07752545 0.07363169
0000f0 c0 b7 b5 bd f3 ec ab bd e8 a7 68 3c 9a b5 83 bd
       -0.08872938 -0.08394804 0.014200188 -0.06431122
000100 fe 24 f8 bc 0a 03 50 3c 6f 9a 81 bc 2c 44 d3 bd
       -0.030291077 0.012696037 -0.01582071 -0.10315737
000110 6b fa 51 bd b4 5f 3a 3d 95 64 bc 3b 45 63 d6 bc
       -0.051264208 0.045501426 0.005749295 -0.026170382
000120 9d b0 cb 3d 4b 54 9b bb 69 e9 bd 3c 2a 7b 29 bd
       0.09945796 -0.004740273 0.023182588 -0.041377224
000130 ad c2 7a 3d 5b 3f 04 bd de 76 bd 3d 84 00 2d 3c
       0.061220814 -0.032286983 0.09251188 0.010559205
000140 91 97 43 3d 1d 1f 77 bc 1c 7c 09 3d 8d 69 54 3d
       0.047751967 -0.015083102 0.033565626 0.051858474
000150 e0 61 95 3c 85 f7 b8 bd e7 a1 26 bd a5 02 53 3d
       0.018235147 -0.090315856 -0.040681746 0.051516194
000160 d5 74 4a 3d 5b 57 fd 3c 70 a5 8b 3b 23 6b 7c 3d
       0.049427826 0.030925443 0.004261665 0.06162561
000170 57 65 5a 3d 4e b3 9b 3d c1 cd 9e 3d 83 dc 53 bc
       0.0533193 0.07602559 0.07754088 -0.012930992
000180 f1 75 1e 3d 00 8a d7 bc 8e b3 e3 bd a1 84 ae 3d
       0.038686696 -0.02631092 -0.11118232 0.08521391
000190 5e 1a 12 3d 4d 8c 1e 3b 59 49 b0 3d 49 f8 0a 3c
       0.035669677 0.0024192513 0.0860774 0.008482047
0001a0 f4 6e 8d bd ad 5f 22 bc 4e 50 68 bc ec c9 f5 bd
       -0.06905928 -0.009910506 -0.014179302 -0.12001404
0001b0 cb 64 08 3e b5 81 ca 3d 47 7c e4 3c 48 16 dc 3c
       0.133197 0.09888021 0.027891291 0.026866093
0001c0 73 38 53 bd e6 4a 5f bd f9 51 0a bd ee 21 9f 3d
       -0.051567506 -0.054514788 -0.03376958 0.077701434
0001d0 65 dd 5f bc 9e 0f 6d bc 78 2f 73 3d af cd 9d bd
       -0.013663624 -0.014469055 0.05937144 -0.07705247
0001e0 f2 9c 17 bd 07 4f 8e bd f1 46 10 bd 85 29 dd 3c
       -0.03701491 -0.06948667 -0.035223905 0.026997337
0001f0 8f 4e 83 3d 7c bc db 3d e5 48 1a 3e f3 81 26 bb
       0.06411468 0.1072931 0.1506687 -0.0025407046
000200 16 32 5c bc 5a 35 d2 3c 6d e0 f3 bc 3b 0d e6 3c
       -0.013439676 0.025660206 -0.0297701 0.02808248
000210 43 ac ad 3c 52 7d 82 3c 5c 36 46 3c f2 6a f3 bb
       0.021200305 0.015928898 0.012097921 -0.0074285204
000220 57 c3 1c 3e f3 7a f8 bd 2f 08 3a 3d 6e b3 15 3d
       0.15308891 -0.12132826 0.04541796 0.03654807
000230 95 8b f4 3c 0b 86 84 3d 71 d6 ab 3d 26 95 1b 3d
       0.029851714 0.06470879 0.08390511 0.037984036
000240 07 99 1f 3d e2 c8 b3 bd 9e a2 17 3c 0f 2a 40 3c
       0.038964298 -0.0877855 0.00925508 0.011728778
000250 0c 88 cc bd eb 35 79 3d 56 fc a4 bc 1e 0d ef 3b
       -0.099868864 0.060842436 -0.020139854 0.007295265
000260 05 b4 1f 3d 0b 0b 20 3d 80 eb c1 3c e5 c6 8f bd
       0.03899004 0.03907303 0.023671865 -0.07020358
000270 ea 0f 06 bd 47 45 93 bd 0f 9e f2 3d 66 e6 9a bd
       -0.03273002 -0.07190948 0.118465535 -0.07563476
000280 8d 9b a4 bd 4a a0 af bd 51 3a 8e bd db 24 3f bd
       -0.080374815 -0.085754946 -0.06944717 -0.046666007
000290 df 4e 3a be 2d 5d 04 3d 15 cd db 3d c3 e5 58 3b
       -0.1819415 0.03231542 0.10732476 0.0033095933
0002a0 1c 63 80 bd 0e d7 51 bc 03 bd 99 bd 46 11 56 bd
       -0.062689036 -0.012807621 -0.07506754 -0.052262567
0002b0 5e 87 d2 ba 24 53 56 bd ee 1d 40 3d 8a 11 55 bd
       -0.0016062071 -0.052325383 0.046903543 -0.05201868
0002c0 e6 b4 c3 bc e1 e6 c0 bb 5e 2c e1 3c 48 e4 3a bc
       -0.02388997 -0.005886898 0.027486976 -0.011406966
0002d0 94 d0 e3 3c a6 5f f6 bd 8c 17 09 3c 2c 47 2c bd
       0.027809419 -0.12029962 0.00836743 -0.042060062
0002e0 df bd 83 bc b0 12 90 bd 8e 4c 4d 3b 98 2a 8d bc
       -0.016081749 -0.07034814 0.0031326148 -0.017232224
0002f0 47 f7 29 3d f9 ca a7 bd 18 81 f9 3c 94 02 be bc
       0.041495588 -0.08193011 0.030457065 -0.023194589
000300 24 c8 59 bc b0 7b 93 bd 48 86 c8 bd 7a f8 58 bc
       -0.013292346 -0.07201326 -0.09791237 -0.013242835
000310 03 dc ed bc 0c 90 1e 3d da ce 87 3d e8 28 98 bc
       -0.029035574 0.038711593 0.06631251 -0.018574193
000320 1b 8f 66 bd eb 8d 3a bd 23 32 d8 3c 6a 46 fc bb
       -0.05628882 -0.0455455 0.026391095 -0.0076988237
000330 c9 c0 20 3d db 8f a6 bd 90 e8 93 bd 08 cf fc bc
       0.039246354 -0.08132907 -0.07222092 -0.030860439
000340 2e c8 40 bd f4 71 21 bd 29 07 47 3d f6 44 7b 3d
       -0.047065906 -0.039415315 0.048590813 0.061345063
000350 a4 0a d4 bd d3 a1 4d b9 a4 a3 8c 3b 31 63 22 3c
       -0.10353592 -0.00019610608 0.0042919684 0.009911344
000360 76 89 ad bc f3 3a 92 bd 97 ee d4 bc e4 3e 46 3d
       -0.02118371 -0.0714015 -0.025992675 0.04839982
000370 1f 0a a2 bd 37 35 c5 bd 33 d6 c6 3c ba 27 df bd
       -0.07912087 -0.096292906 0.02427206 -0.10896249
000380 f4 36 bb bd 04 45 af bd ab 93 a3 bd c9 32 ff bd
       -0.09141341 -0.085580856 -0.0798715 -0.124608584
000390 bf 26 91 bc 56 f1 ea bc f8 da 97 bd 3f 6a bb 3c
       -0.01771867 -0.028679531 -0.07414812 0.02287781
0003a0 58 d9 28 bb a4 a4 bd 3d df 72 ca ba 32 a5 95 3d
       -0.0025764313 0.09259918 -0.0015445611 0.07306899
0003b0 fe 70 16 bd eb 1f b0 bc 36 16 b4 3c 6f 51 31 3e
       -0.03672885 -0.021499595 0.021983247 0.1731622
0003c0 a5 83 31 bd f7 00 e2 bc 57 4a fc bb 30 66 0e 3d
       -0.043338437 -0.02758835 -0.0076992917 0.034765422
0003d0 d2 6b a5 bd bc 62 ea bc f2 da 10 bb 22 fb f8 bd
       -0.08077206 -0.028611533 -0.0022103158 -0.12157275
0003e0 4e 0e 91 3d c8 04 00 3d d2 a2 42 bc ba c0 ca bc
       0.070828065 0.03125456 -0.01187964 -0.024750102
0003f0 d1 bc 7a bd d4 4c 87 bb 8d a0 ed bd a4 98 92 bc
       -0.061215226 -0.0041290317 -0.11602888 -0.01789505
