Foosbots_working/results/train_3_1/Foosbots_working/Foosbots_working-9001.pt (torch, 560655 bytes, 12 tensors)

network_body._body_endoder.seq_layers.0.weight f4 [256, 10]
0	0xbf4039dc	-0.75088286
1	0x3dde9c2d	0.10869632
2	0x3ec83525	0.39103046
3	0xbf01b286	-0.5066303
4	0x3d032a52	0.03202278
5	0xbe2e76d9	-0.17037524
6	0x3b303f70	0.002689328
7	0x3e677106	0.22601709
8	0x3e951496	0.29117268
9	0xbe403e03	-0.18773656
10	0xbd5dfc7e	-0.054195873
11	0x3ea15b60	0.31515026
12	0x3e43a9c3	0.19107728
13	0xbebde788	-0.37090707
14	0xbc97d32b	-0.01853331
15	0x3f18c2d0	0.5967226
16	0x3eaf0dcb	0.3419021
17	0xbe9519fe	-0.29121393
18	0xbe032fc6	-0.12811193
19	0xbe34ce04	-0.17656714
20	0xbefbfd32	-0.4921661
21	0x3c152543	0.009103122
22	0x3e6fda1d	0.23423047
23	0x3ddad511	0.106851704
24	0x3e36db7c	0.17857164
25	0xbe7f7bc2	-0.24949554
26	0x3dfc1392	0.1230842
27	0xbf2f7636	-0.6853975
28	0xbe4e4179	-0.20142163
29	0xbea166dd	-0.3152379
30	0x3bb5a29b	0.0055430657
31	0x3b8f1a0a	0.004367118
32	0xbecb2577	-0.3967702
33	0xbedd90a4	-0.43274415
34	0xbe0064c4	-0.12538439
35	0x3e807198	0.25086665
36	0x3d2c4637	0.04205915
37	0x3e1e74b9	0.15474214
38	0x3eeb4657	0.45952103
39	0xbe8e9f81	-0.27856067
40	0x3e03a145	0.12854488
41	0xbdb27103	-0.087129615
42	0xbe3357a3	-0.175139
43	0xbef7ade9	-0.4837487
44	0x3e07b302	0.1325188
45	0xbe1959f9	-0.14975728
46	0x3dc8b11f	0.09799408
47	0x3d09d722	0.033652432
48	0x3d1eebd8	0.038799137
49	0x3e875894	0.26434767
50	0xbeb5030c	-0.35353887
51	0x3f19c3b3	0.6006424
52	0x3d9b4ab8	0.07582611
53	0x3e2645a4	0.16237503
54	0xbd710154	-0.058839157
55	0xbe843688	-0.25822854
56	0x3d68f50a	0.056874312
57	0x3e472a34	0.19449693
58	0x3de370f3	0.11105528
59	0xbd50c20f	-0.05096632
60	0x3ef945d8	0.486861
61	0xbebf8aa3	-0.3741046
62	0x3e63048c	0.22169703
63	0x3ea885f5	0.329147
64	0x3c3b88cb	0.011446188
65	0xbf0f4bb8	-0.5597491
66	0x3e803fe4	0.25048745
67	0xbe741c02	-0.23838809
68	0xbebdc13e	-0.37061495
69	0x3d913382	0.070899025
70	0x3d8db422	0.06919123
71	0x3e838835	0.25689855
72	0xbeedecf2	-0.46469837
73	0xbe4084ca	-0.18800655
74	0x3e7e0d01	0.24809648
75	0xbf0c3bec	-0.54778934
76	0x3ee81d78	0.45334983
77	0x3e5de4a5	0.21669252
78	0x3dcade4a	0.099056795
79	0xbb63e178	-0.003477184
80	0xbe100957	-0.14066063
81	0x3b11617e	0.0022183354
82	0x3de32bb7	0.11092322
83	0xbe11001c	-0.14160198
84	0x3e7302d5	0.23731549
85	0xbdfb6149	-0.12274415
86	0x3ebf608f	0.37378356
87	0xbeb76a74	-0.35823405
88	0x3dd8cf0f	0.10586368
89	0xbe7b4747	-0.24538909
90	0x3ea616d3	0.32439288
91	0x3c9e19d3	0.019299423
92	0x3ec7f844	0.390566
93	0x3ec4ae8f	0.38414428
94	0x3f1d065b	0.6133782
95	0x3dc8ba8b	0.09801205
96	0x3e87359d	0.2640809
97	0x3d506d64	0.050885573
98	0x3d967e8b	0.07348355
99	0xbe98d762	-0.29851824
100	0x3d64cf4a	0.05586175
101	0xbefa7b65	-0.48922268
102	0xbf3222fb	-0.69584626
103	0x3d9d1860	0.07670665
104	0xbee4aa9e	-0.4466142
105	0x3d88fac7	0.06688457
106	0xbe2963e1	-0.16542007
107	0x3edb3f2f	0.42821643
108	0xbe0bc674	-0.13649923
109	0xbe5464ff	-0.20741652
110	0xbeeb1145	-0.45911613
111	0xbecc544b	-0.3990806
112	0x3e60b922	0.21945623
113	0xbe5988cc	-0.2124359
114	0xbd375353	-0.0447572
115	0x3d7e1068	0.062027365
116	0xbcafe3e2	-0.021470968
117	0x3ec8f4d1	0.3924928
118	0xbe02be81	-0.12767984
119	0x3d5303fc	0.05151747
120	0xbe79e7cf	-0.24404834
121	0xbdb826d7	-0.08991783
122	0x3d0907af	0.033454593
123	0x3defbbf4	0.11705771
124	0xbe108677	-0.14113794
125	0x3edeb370	0.43496275
126	0x3eefbefe	0.46825403
127	0x3e8cb376	0.27480668
128	0xbdd2bc98	-0.10289878
129	0x3e83d737	0.25750133
130	0xbe58e815	-0.21182282
131	0x3ee595eb	0.4484094
132	0xbe873f4d	-0.26415482
133	0xbdefa63e	-0.1170163
134	0xbd671881	-0.056419853
135	0x3d071a9b	0.032984357
136	0x3c55b916	0.013044616
137	0xbe0edd52	-0.13951614
138	0x3ecccdfa	0.40000898
139	0x3d041e9f	0.032255765
140	0xbc55caf3	-0.013048875
141	0x3c56b877	0.013105503
142	0xbf18e949	-0.59730965
143	0x3eba021f	0.36329743
144	0xbd876daa	-0.06612714
145	0x3ecfb222	0.40565592
146	0xbea77ef3	-0.32714042
147	0xbe94c278	-0.29054618
148	0xbe725f27	-0.2366911
149	0xbf83118c	-1.023973
150	0xbed8fce5	-0.42380443
151	0x3d130cd6	0.035900913
152	0x3e175d85	0.14781769
153	0xbdd70555	-0.10499064
154	0x3d1404f6	0.036137544
155	0x3e22a189	0.15881933
156	0xbe7f059e	-0.24904487
157	0x3dc233bf	0.09482526
158	0xbeda1fe4	-0.42602456
159	0xbf308cff	-0.6896514
160	0xbe3ecd47	-0.18632995
161	0xbe87b88f	-0.26507995
162	0x3dd0f78a	0.10203464
163	0xbea1afd6	-0.31579465
164	0x3e58efae	0.2118518
165	0x3ea5b846	0.32367152
166	0x3e37f720	0.17965364
167	0x3f225f88	0.6342702
168	0xbe18ebc6	-0.1493369
169	0xbdf979ca	-0.121814325
170	0x3f609eaf	0.8774213
171	0xbe1f38a7	-0.15548955
172	0x3dc0bc43	0.09410908
173	0xbe574f99	-0.21026458
174	0x3ede68aa	0.43439227
175	0xbe1b1c56	-0.15147528
176	0x3f04fb9b	0.5194642
177	0xbf6a53cd	-0.9153412
178	0x3ece8548	0.4033606
179	0x3da50a68	0.080586255
180	0x3d4ee53b	0.05051158
181	0x3ca8ebb1	0.020620199
182	0x3e0b9d95	0.13634332
183	0xbe1f77fb	-0.15573113
184	0x3ec158f0	0.37763166
185	0xbe29ac29	-0.1656958
186	0x3eb77787	0.3583338
187	0x3d8ce9dd	0.068805434
188	0x3dfb82ce	0.122808084
189	0x3f0e9988	0.5570302
190	0x3ec7165f	0.38884255
191	0xbe65b4c7	-0.22432242
192	0x3e284d3b	0.16435711
193	0x3d8cf7ae	0.06883179
194	0x3db269fb	0.087116204
195	0xbd93e5c4	-0.07221559
196	0x3eee1481	0.46500018
197	0x3ea8afb1	0.32946542
198	0x3c9ae646	0.018908631
199	0x3d91e6b0	0.07124078
200	0x3e5defcf	0.21673511
201	0x3e93973f	0.2882633
202	0xbe9aaf40	-0.3021183
203	0xbe1caef1	-0.1530111
204	0xbea3a6f9	-0.31963328
205	0xbf168f6a	-0.5881258
206	0xbf6527d3	-0.8951389
207	0xbe043a75	-0.12912925
208	0x3efe55c6	0.49674815
209	0x3e834ef6	0.2564618
210	0xbd87bf2a	-0.066282585
211	0xbd284d3f	-0.041089293
212	0xbd89507f	-0.067048065
213	0xbd8cbce2	-0.06871964
214	0xbe1f68a2	-0.15567258
215	0xbf07673f	-0.52891916
216	0x3edc66ad	0.43047085
217	0x3d001883	0.031273376
218	0x3d6a1d2a	0.05715672
219	0xbd66ace5	-0.05631723
220	0xbcda8457	-0.026674433
221	0xbe8c18b1	-0.27362588
222	0x3d3168cb	0.04331283
223	0x3c2205aa	0.009889046
224	0xbe167323	-0.14692359
225	0x3e576565	0.21034773
226	0xbd4a4eef	-0.049391683
227	0xbd142ebe	-0.03617739
228	0x3ed1a2bd	0.40944472
229	0x3e9841a2	0.29737574
230	0xbea20132	-0.31641537
231	0x3eab2a25	0.3343059
232	0xbf2c8276	-0.6738657
233	0x3ee701b2	0.4511848
234	0x3e96512e	0.2935881
235	0xbda03116	-0.078218624
236	0xbf3b393b	-0.731342
237	0xbe164419	-0.14674415
238	0x3e52f09c	0.20599598
239	0xbeb5bbbd	-0.35494795
240	0x3db75bc7	0.08953052
241	0x3ee83fab	0.45361075
242	0xbdc692c7	-0.09695964
243	0x3c19fb34	0.00939827
244	0x3e8c4d10	0.27402544
245	0x3e96cdcf	0.29453894
246	0xbec293f5	-0.38003507
247	0x3f180812	0.59387314
248	0xbd9d4cab	-0.07680639
249	0xbd082677	-0.033239808
250	0x3ec744ef	0.3891978
251	0x3e3a8bff	0.18217467
252	0x3eb09344	0.34487355
253	0x3aee892d	0.001819884
254	0xbe33c7b8	-0.17556655
255	0x3e5f20dd	0.2178988

network_body._body_endoder.seq_layers.0.bias f4 [256]
0	0x00000000	0.0
1	0x00000000	0.0
2	0x00000000	0.0
3	0x00000000	0.0
4	0x00000000	0.0
5	0x00000000	0.0
6	0x00000000	0.0
7	0x00000000	0.0
8	0x00000000	0.0
9	0x00000000	0.0
10	0x00000000	0.0
11	0x00000000	0.0
12	0x00000000	0.0
13	0x00000000	0.0
14	0x00000000	0.0
15	0x00000000	0.0
16	0x00000000	0.0
17	0x00000000	0.0
18	0x00000000	0.0
19	0x00000000	0.0
20	0x00000000	0.0
21	0x00000000	0.0
22	0x00000000	0.0
23	0x00000000	0.0
24	0x00000000	0.0
25	0x00000000	0.0
26	0x00000000	0.0
27	0x00000000	0.0
28	0x00000000	0.0
29	0x00000000	0.0
30	0x00000000	0.0
31	0x00000000	0.0
32	0x00000000	0.0
33	0x00000000	0.0
34	0x00000000	0.0
35	0x00000000	0.0
36	0x00000000	0.0
37	0x00000000	0.0
38	0x00000000	0.0
39	0x00000000	0.0
40	0x00000000	0.0
41	0x00000000	0.0
42	0x00000000	0.0
43	0x00000000	0.0
44	0x00000000	0.0
45	0x00000000	0.0
46	0x00000000	0.0
47	0x00000000	0.0
48	0x00000000	0.0
49	0x00000000	0.0
50	0x00000000	0.0
51	0x00000000	0.0
52	0x00000000	0.0
53	0x00000000	0.0
54	0x00000000	0.0
55	0x00000000	0.0
56	0x00000000	0.0
57	0x00000000	0.0
58	0x00000000	0.0
59	0x00000000	0.0
60	0x00000000	0.0
61	0x00000000	0.0
62	0x00000000	0.0
63	0x00000000	0.0
64	0x00000000	0.0
65	0x00000000	0.0
66	0x00000000	0.0
67	0x00000000	0.0
68	0x00000000	0.0
69	0x00000000	0.0
70	0x00000000	0.0
71	0x00000000	0.0
72	0x00000000	0.0
73	0x00000000	0.0
74	0x00000000	0.0
75	0x00000000	0.0
76	0x00000000	0.0
77	0x00000000	0.0
78	0x00000000	0.0
79	0x00000000	0.0
80	0x00000000	0.0
81	0x00000000	0.0
82	0x00000000	0.0
83	0x00000000	0.0
84	0x00000000	0.0
85	0x00000000	0.0
86	0x00000000	0.0
87	0x00000000	0.0
88	0x00000000	0.0
89	0x00000000	0.0
90	0x00000000	0.0
91	0x00000000	0.0
92	0x00000000	0.0
93	0x00000000	0.0
94	0x00000000	0.0
95	0x00000000	0.0
96	0x00000000	0.0
97	0x00000000	0.0
98	0x00000000	0.0
99	0x00000000	0.0
100	0x00000000	0.0
101	0x00000000	0.0
102	0x00000000	0.0
103	0x00000000	0.0
104	0x00000000	0.0
105	0x00000000	0.0
106	0x00000000	0.0
107	0x00000000	0.0
108	0x00000000	0.0
109	0x00000000	0.0
110	0x00000000	0.0
111	0x00000000	0.0
112	0x00000000	0.0
113	0x00000000	0.0
114	0x00000000	0.0
115	0x00000000	0.0
116	0x00000000	0.0
117	0x00000000	0.0
118	0x00000000	0.0
119	0x00000000	0.0
120	0x00000000	0.0
121	0x00000000	0.0
122	0x00000000	0.0
123	0x00000000	0.0
124	0x00000000	0.0
125	0x00000000	0.0
126	0x00000000	0.0
127	0x00000000	0.0
128	0x00000000	0.0
129	0x00000000	0.0
130	0x00000000	0.0
131	0x00000000	0.0
132	0x00000000	0.0
133	0x00000000	0.0
134	0x00000000	0.0
135	0x00000000	0.0
136	0x00000000	0.0
137	0x00000000	0.0
138	0x00000000	0.0
139	0x00000000	0.0
140	0x00000000	0.0
141	0x00000000	0.0
142	0x00000000	0.0
143	0x00000000	0.0
144	0x00000000	0.0
145	0x00000000	0.0
146	0x00000000	0.0
147	0x00000000	0.0
148	0x00000000	0.0
149	0x00000000	0.0
150	0x00000000	0.0
151	0x00000000	0.0
152	0x00000000	0.0
153	0x00000000	0.0
154	0x00000000	0.0
155	0x00000000	0.0
156	0x00000000	0.0
157	0x00000000	0.0
158	0x00000000	0.0
159	0x00000000	0.0
160	0x00000000	0.0
161	0x00000000	0.0
162	0x00000000	0.0
163	0x00000000	0.0
164	0x00000000	0.0
165	0x00000000	0.0
166	0x00000000	0.0
167	0x00000000	0.0
168	0x00000000	0.0
169	0x00000000	0.0
170	0x00000000	0.0
171	0x00000000	0.0
172	0x00000000	0.0
173	0x00000000	0.0
174	0x00000000	0.0
175	0x00000000	0.0
176	0x00000000	0.0
177	0x00000000	0.0
178	0x00000000	0.0
179	0x00000000	0.0
180	0x00000000	0.0
181	0x00000000	0.0
182	0x00000000	0.0
183	0x00000000	0.0
184	0x00000000	0.0
185	0x00000000	0.0
186	0x00000000	0.0
187	0x00000000	0.0
188	0x00000000	0.0
189	0x00000000	0.0
190	0x00000000	0.0
191	0x00000000	0.0
192	0x00000000	0.0
193	0x00000000	0.0
194	0x00000000	0.0
195	0x00000000	0.0
196	0x00000000	0.0
197	0x00000000	0.0
198	0x00000000	0.0
199	0x00000000	0.0
200	0x00000000	0.0
201	0x00000000	0.0
202	0x00000000	0.0
203	0x00000000	0.0
204	0x00000000	0.0
205	0x00000000	0.0
206	0x00000000	0.0
207	0x00000000	0.0
208	0x00000000	0.0
209	0x00000000	0.0
210	0x00000000	0.0
211	0x00000000	0.0
212	0x00000000	0.0
213	0x00000000	0.0
214	0x00000000	0.0
215	0x00000000	0.0
216	0x00000000	0.0
217	0x00000000	0.0
218	0x00000000	0.0
219	0x00000000	0.0
220	0x00000000	0.0
221	0x00000000	0.0
222	0x00000000	0.0
223	0x00000000	0.0
224	0x00000000	0.0
225	0x00000000	0.0
226	0x00000000	0.0
227	0x00000000	0.0
228	0x00000000	0.0
229	0x00000000	0.0
230	0x00000000	0.0
231	0x00000000	0.0
232	0x00000000	0.0
233	0x00000000	0.0
234	0x00000000	0.0
235	0x00000000	0.0
236	0x00000000	0.0
237	0x00000000	0.0
238	0x00000000	0.0
239	0x00000000	0.0
240	0x00000000	0.0
241	0x00000000	0.0
242	0x00000000	0.0
243	0x00000000	0.0
244	0x00000000	0.0
245	0x00000000	0.0
246	0x00000000	0.0
247	0x00000000	0.0
248	0x00000000	0.0
249	0x00000000	0.0
250	0x00000000	0.0
251	0x00000000	0.0
252	0x00000000	0.0
253	0x00000000	0.0
254	0x00000000	0.0
255	0x00000000	0.0

network_body._body_endoder.seq_layers.2.weight f4 [256, 256]
0	0x3da0ac09	0.07845313
1	0x3c47392e	0.012159629
2	0xbccd39cf	-0.02505198
3	0x3bb86037	0.005626704
4	0x3bad8e3f	0.005296498
5	0xbd26e28d	-0.0407434
6	0xbd72025f	-0.059084293
7	0x3d7ecc82	0.062206753
8	0xbd8537dc	-0.06504795
9	0xbd1792a3	-0.037005078
10	0x3c755d93	0.014975923
11	0xbda21f5b	-0.07916137
12	0xbbe8d661	-0.007105634
13	0xbd0e07eb	-0.03467552
14	0x3cfd76eb	0.030940494
15	0x3a53e27c	0.000808276
16	0xbd85eab8	-0.0653891
17	0x3d2b67b6	0.041846953
18	0x3c193fdd	0.009353605
19	0x3daf65f1	0.08564366
20	0xbaa580ef	-0.0012626926
21	0x3de7a74c	0.11311206
22	0x3dbde2eb	0.09271797
23	0xbd54aeb4	-0.051924422
24	0xbd7f9634	-0.062399104
25	0x3c45caaa	0.012072245
26	0x3ca23fc5	0.019805798
27	0xbdc87200	-0.09787369
28	0xbdb31203	-0.0874367
29	0x3cb21385	0.021737823
30	0x3a65ea1c	0.0008770542
31	0xbe011155	-0.12604268
32	0xbd3ff91d	-0.046868432
33	0xbcfca0e9	-0.030838447
34	0xbdd5d3e6	-0.10440807
35	0x3d0150db	0.03157125
36	0x3c820c45	0.015874991
37	0xbd953d0e	-0.07287036
38	0xbdd898a3	-0.10575988
39	0x3d386419	0.045017336
40	0x3d600256	0.054689728
41	0x3d1d7802	0.038444526
42	0x3d274cef	0.040844854
43	0xbda51a72	-0.08061685
44	0xbcf599f4	-0.029980637
45	0xbd601583	-0.054708015
46	0x3cc0fb36	0.023557287
47	0xbd18af3a	-0.037276484
48	0xbd1af56e	-0.037831716
49	0xbcce67b7	-0.02519594
50	0x3d946b51	0.072470315
51	0xbd92b885	-0.071641006
52	0x3d04d37c	0.03242825
53	0x3dda5ec1	0.10662604
54	0xbd99eef0	-0.07516277
55	0x3da904c2	0.082528606
56	0x3c8463ff	0.016160963
57	0xbc3687ce	-0.011140777
58	0xbd9e7d58	-0.07738751
59	0xbd1d7589	-0.03844217
60	0xbb30cbf7	-0.0026977041
61	0x3e064a40	0.13114262
62	0xbc521a40	-0.012823641
63	0x3da97706	0.08274655
64	0xbdde0f3e	-0.10842751
65	0x3c697feb	0.014251689
66	0x3d342dd3	0.043989014
67	0xbd5f99a3	-0.05458988
68	0x3d08a0c3	0.03335644
69	0xbd875d40	-0.06609583
70	0x3db4cfc6	0.08828692
71	0x3c8e78b0	0.017391533
72	0x3d4ca4ad	0.049961735
73	0x3c406c90	0.011744633
74	0xbce29d64	-0.02766294
75	0xbd474600	-0.04865074
76	0xbc27e783	-0.010248068
77	0xbd28222e	-0.04104822
78	0xbc04ee50	-0.008113459
79	0xbdbdd2ee	-0.09268747
80	0x3d895df3	0.067073725
81	0xbd096e08	-0.0335522
82	0x3cbaf0fd	0.02281999
83	0xbd7edeb1	-0.062224094
84	0xbd58765f	-0.052847262
85	0x3d6c9121	0.057755593
86	0x3deb8e5f	0.115017645
87	0xbdeaffbf	-0.11474561
88	0xbd1179d7	-0.035516586
89	0xbb5de3a2	-0.0033857604
90	0xbce4a3e1	-0.027910175
91	0xbc4c930e	-0.012486232
92	0xbcce85a4	-0.02521021
93	0xbd45aad0	-0.048258603
94	0xbd50df01	-0.050993923
95	0xb98768c3	-0.0002582726
96	0x3d3ef4ec	0.046620294
97	0xbd83d8d4	-0.06437841
98	0x3e0346f4	0.12820035
99	0x3d2f6402	0.042819984
100	0x3c129bcf	0.0089482805
101	0x3d9ab249	0.075535364
102	0x3d3b6e74	0.045759633
103	0x3d0cb40d	0.034351397
104	0x3cadd390	0.021219045
105	0xbdb265eb	-0.087108456
106	0x3e1445b4	0.14479715
107	0xbcbfbcca	-0.023405451
108	0x3bfa93bb	0.0076470054
109	0xbcccee03	-0.025015837
110	0xbdb0e007	-0.0863648
111	0x3d9b6531	0.0758766
112	0xbcf5dc71	-0.030012341
113	0x3dbbc406	0.09168248
114	0xbd952421	-0.07282282
115	0x3db2f548	0.0873819
116	0x3ddc1a80	0.10747242
117	0xbd577cc3	-0.052609216
118	0xbd64ec11	-0.055889193
119	0xbd871075	-0.06594936
120	0xbc9e95fa	-0.019358624
121	0xbc1c137c	-0.00952613
122	0x3d819e00	0.06328964
123	0x3ad93f17	0.0016574588
124	0xbd73f246	-0.05955722
125	0x3d4479a2	0.04796756
126	0xbd075840	-0.033043146
127	0x3c9be1cf	0.019028572
128	0xbd18d2f1	-0.037310544
129	0xbd96face	-0.07372056
130	0xbd9f7eac	-0.077878326
131	0xbcbc116e	-0.02295753
132	0x3d3037ca	0.043021955
133	0x3d0ad163	0.033891093
134	0xba8ca13d	-0.0010729205
135	0xbb8991d5	-0.0041982927
136	0xbd1477f1	-0.036247198
137	0x3c1ad330	0.009449765
138	0xbc0d14e9	-0.008610942
139	0xbdbb564a	-0.09147318
140	0xbd7df443	-0.062000524
141	0xbd8e815a	-0.069582656
142	0x3c900290	0.017579347
143	0x3ded4aaa	0.11586507
144	0xbcb99a4b	-0.02265658
145	0xbd26176e	-0.040549688
146	0xbdf8bd6f	-0.121455066
147	0x3df516c2	0.11967231
148	0xbd96d771	-0.07365311
149	0xbdd86bd2	-0.1056744
150	0xbb730081	-0.0037079158
151	0xbd055e8c	-0.03256087
152	0x3d467794	0.048453882
153	0x3c853559	0.01626079
154	0xbc0943f8	-0.008378021
155	0xbd93e35e	-0.07221101
156	0xbd140ed5	-0.036146957
157	0x3dd1a48b	0.10236462
158	0x3da7411a	0.08166714
159	0xbb471fbf	-0.0030383912
160	0xbd9b84b7	-0.07593673
161	0x3d2aba26	0.04168143
162	0xbc6bfbc9	-0.014403292
163	0x3c89c881	0.01681924
164	0x3d38ee24	0.045148984
165	0x3da64177	0.08117955
166	0x3c2fab4c	0.010721993
167	0x3dc75784	0.09733489
168	0x3d24c0b6	0.040222846
169	0x3da0de80	0.078549385
170	0xbd1b605d	-0.037933696
171	0xbc19ea3f	-0.0093942275
172	0x3d0afc7a	0.033932187
173	0xbcf4376e	-0.029811587
174	0xbdc1f2fa	-0.09470172
175	0xbd90e5da	-0.07075091
176	0x3c98b696	0.018641751
177	0xbd8b3e20	-0.06798959
178	0x3cbd9c86	0.023145925
179	0xbe0ce86b	-0.13760535
180	0xbdc97527	-0.09836798
181	0xbd4ddeed	-0.050261427
182	0xbdd8ec46	-0.105919406
183	0xbdc568f7	-0.09639161
184	0xbcb29112	-0.02179769
185	0xbd65b4ac	-0.056080505
186	0x3d58503d	0.052810896
187	0x3d763a79	0.060114358
188	0xbde27509	-0.11057479
189	0x3dc4d474	0.09610835
190	0xbdc91ead	-0.09820304
191	0x3d5f6f57	0.05454954
192	0xbda5643d	-0.080757596
193	0x3dc6e47f	0.09711551
194	0xbc7008c4	-0.014650527
195	0xbdb963ec	-0.09052262
196	0x3d9716c0	0.07377386
197	0xbd9ecaa8	-0.07753497
198	0xbbc1dbee	-0.0059161102
199	0x3db28e18	0.087185085
200	0x3c91465c	0.017733745
201	0x3d64ef54	0.055892304
202	0xbcdf17ae	-0.027232971
203	0xbd1780ad	-0.03698795
204	0xbd0fe4dc	-0.035130367
205	0xbd5d6420	-0.054050565
206	0x3c3760e4	0.011192534
207	0x3da89e96	0.08233373
208	0x3dbeb30f	0.093114965
209	0x3cd81f3b	0.02638208
210	0x3ce193a6	0.027536225
211	0x3c26b242	0.010174336
212	0xbe1f0038	-0.15527427
213	0x3c3323e4	0.01093385
214	0xbbf772f5	-0.0075515457
215	0x3d55912c	0.0521404
216	0x3d32e64b	0.043676656
217	0x3d09f6cb	0.033682626
218	0xbd052415	-0.032505114
219	0x3c86ecd0	0.016470343
220	0xbd8958a5	-0.06706361
221	0x3aaf76c9	0.0013386841
222	0xbdb56478	-0.088570535
223	0x3ba6edc0	0.00509426
224	0x3cb19b5e	0.02168053
225	0xbcdf3397	-0.02724628
226	0xbd205ff9	-0.039154027
227	0x3d0950b0	0.033524215
228	0x3d1ffe08	0.039060622
229	0xbc5b6f59	-0.013393247
230	0x3bde7c26	0.006789702
231	0xba9a2d3e	-0.0011762751
232	0xbc83e435	-0.016100029
233	0xbd1327bd	-0.03592657
234	0xbd75bed6	-0.05999645
235	0x3d69201f	0.0569154
236	0x3b94facc	0.004546499
237	0xbd889ce0	-0.066705465
238	0x3cc0bcbe	0.0235275
239	0xbd59ba82	-0.053156383
240	0xbdad7455	-0.08469454
241	0xbd611e66	-0.05496063
242	0x3df37e53	0.11889329
243	0x3d8e8699	0.06959266
244	0xbd94ed18	-0.072717845
245	0xbe027653	-0.1274045
246	0xbe0d4259	-0.13794841
247	0x3b4d27b9	0.0031304194
248	0x3ca74bde	0.020421918
249	0xbb88f5d3	-0.004179695
250	0xbc4d52cb	-0.012531946
251	0x3c8446a3	0.016146963
252	0x3d3683ed	0.044559408
253	0x3d1d7024	0.038437024
254	0x3dede7bd	0.11616466
255	0xbd028f20	-0.031874776

network_body._body_endoder.seq_layers.2.bias f4 [256]
0	0x00000000	0.0
1	0x00000000	0.0
2	0x00000000	0.0
3	0x00000000	0.0
4	0x00000000	0.0
5	0x00000000	0.0
6	0x00000000	0.0
7	0x00000000	0.0
8	0x00000000	0.0
9	0x00000000	0.0
10	0x00000000	0.0
11	0x00000000	0.0
12	0x00000000	0.0
13	0x00000000	0.0
14	0x00000000	0.0
15	0x00000000	0.0
16	0x00000000	0.0
17	0x00000000	0.0
18	0x00000000	0.0
19	0x00000000	0.0
20	0x00000000	0.0
21	0x00000000	0.0
22	0x00000000	0.0
23	0x00000000	0.0
24	0x00000000	0.0
25	0x00000000	0.0
26	0x00000000	0.0
27	0x00000000	0.0
28	0x00000000	0.0
29	0x00000000	0.0
30	0x00000000	0.0
31	0x00000000	0.0
32	0x00000000	0.0
33	0x00000000	0.0
34	0x00000000	0.0
35	0x00000000	0.0
36	0x00000000	0.0
37	0x00000000	0.0
38	0x00000000	0.0
39	0x00000000	0.0
40	0x00000000	0.0
41	0x00000000	0.0
42	0x00000000	0.0
43	0x00000000	0.0
44	0x00000000	0.0
45	0x00000000	0.0
46	0x00000000	0.0
47	0x00000000	0.0
48	0x00000000	0.0
49	0x00000000	0.0
50	0x00000000	0.0
51	0x00000000	0.0
52	0x00000000	0.0
53	0x00000000	0.0
54	0x00000000	0.0
55	0x00000000	0.0
56	0x00000000	0.0
57	0x00000000	0.0
58	0x00000000	0.0
59	0x00000000	0.0
60	0x00000000	0.0
61	0x00000000	0.0
62	0x00000000	0.0
63	0x00000000	0.0
64	0x00000000	0.0
65	0x00000000	0.0
66	0x00000000	0.0
67	0x00000000	0.0
68	0x00000000	0.0
69	0x00000000	0.0
70	0x00000000	0.0
71	0x00000000	0.0
72	0x00000000	0.0
73	0x00000000	0.0
74	0x00000000	0.0
75	0x00000000	0.0
76	0x00000000	0.0
77	0x00000000	0.0
78	0x00000000	0.0
79	0x00000000	0.0
80	0x00000000	0.0
81	0x00000000	0.0
82	0x00000000	0.0
83	0x00000000	0.0
84	0x00000000	0.0
85	0x00000000	0.0
86	0x00000000	0.0
87	0x00000000	0.0
88	0x00000000	0.0
89	0x00000000	0.0
90	0x00000000	0.0
91	0x00000000	0.0
92	0x00000000	0.0
93	0x00000000	0.0
94	0x00000000	0.0
95	0x00000000	0.0
96	0x00000000	0.0
97	0x00000000	0.0
98	0x00000000	0.0
99	0x00000000	0.0
100	0x00000000	0.0
101	0x00000000	0.0
102	0x00000000	0.0
103	0x00000000	0.0
104	0x00000000	0.0
105	0x00000000	0.0
106	0x00000000	0.0
107	0x00000000	0.0
108	0x00000000	0.0
109	0x00000000	0.0
110	0x00000000	0.0
111	0x00000000	0.0
112	0x00000000	0.0
113	0x00000000	0.0
114	0x00000000	0.0
115	0x00000000	0.0
116	0x00000000	0.0
117	0x00000000	0.0
118	0x00000000	0.0
119	0x00000000	0.0
120	0x00000000	0.0
121	0x00000000	0.0
122	0x00000000	0.0
123	0x00000000	0.0
124	0x00000000	0.0
125	0x00000000	0.0
126	0x00000000	0.0
127	0x00000000	0.0
128	0x00000000	0.0
129	0x00000000	0.0
130	0x00000000	0.0
131	0x00000000	0.0
132	0x00000000	0.0
133	0x00000000	0.0
134	0x00000000	0.0
135	0x00000000	0.0
136	0x00000000	0.0
137	0x00000000	0.0
138	0x00000000	0.0
139	0x00000000	0.0
140	0x00000000	0.0
141	0x00000000	0.0
142	0x00000000	0.0
143	0x00000000	0.0
144	0x00000000	0.0
145	0x00000000	0.0
146	0x00000000	0.0
147	0x00000000	0.0
148	0x00000000	0.0
149	0x00000000	0.0
150	0x00000000	0.0
151	0x00000000	0.0
152	0x00000000	0.0
153	0x00000000	0.0
154	0x00000000	0.0
155	0x00000000	0.0
156	0x00000000	0.0
157	0x00000000	0.0
158	0x00000000	0.0
159	0x00000000	0.0
160	0x00000000	0.0
161	0x00000000	0.0
162	0x00000000	0.0
163	0x00000000	0.0
164	0x00000000	0.0
165	0x00000000	0.0
166	0x00000000	0.0
167	0x00000000	0.0
168	0x00000000	0.0
169	0x00000000	0.0
170	0x00000000	0.0
171	0x00000000	0.0
172	0x00000000	0.0
173	0x00000000	0.0
174	0x00000000	0.0
175	0x00000000	0.0
176	0x00000000	0.0
177	0x00000000	0.0
178	0x00000000	0.0
179	0x00000000	0.0
180	0x00000000	0.0
181	0x00000000	0.0
182	0x00000000	0.0
183	0x00000000	0.0
184	0x00000000	0.0
185	0x00000000	0.0
186	0x00000000	0.0
187	0x00000000	0.0
188	0x00000000	0.0
189	0x00000000	0.0
190	0x00000000	0.0
191	0x00000000	0.0
192	0x00000000	0.0
193	0x00000000	0.0
194	0x00000000	0.0
195	0x00000000	0.0
196	0x00000000	0.0
197	0x00000000	0.0
198	0x00000000	0.0
199	0x00000000	0.0
200	0x00000000	0.0
201	0x00000000	0.0
202	0x00000000	0.0
203	0x00000000	0.0
204	0x00000000	0.0
205	0x00000000	0.0
206	0x00000000	0.0
207	0x00000000	0.0
208	0x00000000	0.0
209	0x00000000	0.0
210	0x00000000	0.0
211	0x00000000	0.0
212	0x00000000	0.0
213	0x00000000	0.0
214	0x00000000	0.0
215	0x00000000	0.0
216	0x00000000	0.0
217	0x00000000	0.0
218	0x00000000	0.0
219	0x00000000	0.0
220	0x00000000	0.0
221	0x00000000	0.0
222	0x00000000	0.0
223	0x00000000	0.0
224	0x00000000	0.0
225	0x00000000	0.0
226	0x00000000	0.0
227	0x00000000	0.0
228	0x00000000	0.0
229	0x00000000	0.0
230	0x00000000	0.0
231	0x00000000	0.0
232	0x00000000	0.0
233	0x00000000	0.0
234	0x00000000	0.0
235	0x00000000	0.0
236	0x00000000	0.0
237	0x00000000	0.0
238	0x00000000	0.0
239	0x00000000	0.0
240	0x00000000	0.0
241	0x00000000	0.0
242	0x00000000	0.0
243	0x00000000	0.0
244	0x00000000	0.0
245	0x00000000	0.0
246	0x00000000	0.0
247	0x00000000	0.0
248	0x00000000	0.0
249	0x00000000	0.0
250	0x00000000	0.0
251	0x00000000	0.0
252	0x00000000	0.0
253	0x00000000	0.0
254	0x00000000	0.0
255	0x00000000	0.0

action_model._continuous_distribution.log_sigma f4 [1, 2]
0	0x00000000	0.0
1	0x00000000	0.0

action_model._continuous_distribution.mu.weight f4 [2, 256]
0	0xbc2b400e	-0.010452284
1	0x39ceefff	0.00039470193
2	0xbc805d11	-0.015669378
3	0xbce49cc7	-0.027906789
4	0xb98b7848	-0.00026601763
5	0x39d4dd5b	0.00040600714
6	0x3b23b80c	0.0024981527
7	0xbbc76dd7	-0.006086092
8	0xbb6bd765	-0.003598654
9	0xbba0b064	-0.00490384
10	0xbc8ceb7d	-0.017202133
11	0xbc63d75d	-0.013906327
12	0xbcb0a10f	-0.021561174
13	0xbc817931	-0.015804859
14	0xbc126aa1	-0.008936555
15	0x3b6de135	0.0036297564
16	0xbbb8eda7	-0.0056435647
17	0x3cf8a86f	0.030353753
18	0x3b03ce64	0.0020112032
19	0x3bfd6515	0.007732997
20	0xbab4b40f	-0.0013786572
21	0x3ca359cb	0.019940278
22	0xbc557c6f	-0.013030156
23	0xbc3f0073	-0.011657822
24	0x3b4faef5	0.0031689976
25	0xbc2d3156	-0.010570845
26	0xbc8ef4f7	-0.017450793
27	0xbc39f9c1	-0.01135105
28	0xbb457586	-0.0030129864
29	0xbb0c65b1	-0.0021422917
30	0xbc8eca3a	-0.017430414
31	0x3ba8758c	0.005140966
32	0x3cd4d63a	0.025981057
33	0x3cca1031	0.024665924
34	0xbc74c427	-0.0149393445
35	0x3bf2ee5a	0.0074136676
36	0x3c34938d	0.011021507
37	0xbbc2b27b	-0.0059416867
38	0xbc3874cd	-0.011258316
39	0xbc4eab8b	-0.012614141
40	0xbbaae7a7	-0.0052156034
41	0xbbb8e4bd	-0.005642502
42	0x3c84f68d	0.016230846
43	0xbb7bf32b	-0.00384445
44	0xbb092212	-0.0020924849
45	0x3cb0ef66	0.02159853
46	0x3a9d245f	0.0011988989
47	0xbb8dfe2d	-0.0043332786
48	0xbc15480f	-0.009111418
49	0xbd00f275	-0.031481225
50	0xbc3dd37f	-0.011586069
51	0x3c895e39	0.016768562
52	0x3c0da152	0.008644419
53	0x3b958dfe	0.004564046
54	0xbc17a197	-0.009254835
55	0xbc575412	-0.0131426025
56	0xbcbf9b2d	-0.023389423
57	0x3d0b6d60	0.034039855
58	0xbb0d2f5d	-0.0021543123
59	0x3a859efc	0.0010194476
60	0x3baf685d	0.0053530172
61	0x3bdf4f63	0.0068148836
62	0xba89ed18	-0.001052293
63	0xbc633cf8	-0.013869517
64	0x3b9e1e17	0.0048253643
65	0xbc3aa206	-0.011391168
66	0xb8acf84b	-8.247847e-05
67	0x3ab70f7c	0.0013966407
68	0xbc15766e	-0.009122474
69	0xbbeed4b2	-0.007288539
70	0x3b14e1ba	0.0022717551
71	0xbb143b17	-0.0022618228
72	0xbc558330	-0.013031766
73	0xbc0da5a1	-0.008645446
74	0xbba47bfb	-0.0050196624
75	0x3c591893	0.013250488
76	0x3c080a3b	0.00830322
77	0xbc040353	-0.008057433
78	0x3c9ee322	0.019395415
79	0xbcdfc8e7	-0.027317477
80	0xbc68573d	-0.0141809555
81	0xbcce605f	-0.025192438
82	0xbbd0677f	-0.006359994
83	0x3cb7ba4b	0.022427699
84	0xbaa91589	-0.0012900095
85	0x3c66e892	0.014093535
86	0x3c2c52c7	0.0105177825
87	0x3bd16d8d	0.0063912333
88	0x3bcfe4c8	0.0063444115
89	0x3b8c4f8b	0.004281943
90	0x3c2f4179	0.010696762
91	0xbb9488b6	-0.004532899
92	0xbb80ec0a	-0.003934388
93	0xba9430cc	-0.0011306047
94	0x39c94ff1	0.00038397269
95	0xbb2bd6f7	-0.0026220658
96	0xbb86b1b8	-0.004110541
97	0x3c94fcc5	0.018186936
98	0x3c2d6f4a	0.010585615
99	0x3ca391f3	0.019967055
100	0x3c2746b6	0.01020973
101	0x3c23206f	0.009956463
102	0xb99d7a73	-0.00030036605
103	0x3c03d71f	0.008046894
104	0xb826487e	-3.9644998e-05
105	0x3acbb7bc	0.0015542428
106	0x3b4ce7a0	0.003126599
107	0xbbeebda0	-0.0072857887
108	0xba2176db	-0.00061593734
109	0xbc3e4eae	-0.011615438
110	0x3bca73c5	0.0061783516
111	0xbc0a12ef	-0.008427366
112	0xbac9eea3	-0.0015406202
113	0xbbb97e85	-0.0056608343
114	0x3c96f0ec	0.018425427
115	0x3a9d54ca	0.0012003419
116	0x3be2d0c8	0.0069218613
117	0x3c41f2b6	0.011837652
118	0xbcd75b3b	-0.02628862
119	0xbc023f75	-0.0079497
120	0x3c213c33	0.009841013
121	0x3bc7198d	0.006076044
122	0x3bce1c22	0.006289975
123	0xbba86fd9	-0.0051402864
124	0xbc8d977d	-0.01728415
125	0xbbea1b6a	-0.0071443813
126	0x3c293f8c	0.010330092
127	0x3c8c379d	0.017116362
128	0x3cf2a88b	0.029621383
129	0xbbe8de65	-0.0071065896
130	0xbbf6249d	-0.007511689
131	0xba056cdb	-0.0005089768
132	0xbc694a85	-0.014238958
133	0xbc09bd0b	-0.008406888
134	0xbc08995b	-0.008337344
135	0x3b4c2b9e	0.0031153928
136	0x3a8cf22d	0.0010753326
137	0x3c6e7f60	0.014556736
138	0x3bff8c23	0.007798688
139	0x3b2a5251	0.0025989006
140	0xbc1652aa	-0.009174982
141	0xbcc40bc3	-0.02393139
142	0xbc21b7fe	-0.009870527
143	0xbb89695a	-0.004193467
144	0xbcbcf8a8	-0.023067787
145	0x3a89cef0	0.0010513943
146	0x3c8b7217	0.017022176
147	0xbb14a6b7	-0.0022682378
148	0xbbdafb78	-0.0066828094
149	0x3c091383	0.008366468
150	0x3c3d7634	0.011563826
151	0x3b80253f	0.00391069
152	0x3ca53362	0.020166103
153	0xbc4e2a35	-0.012583305
154	0x3c235113	0.00996806
155	0x3c8af999	0.01696472
156	0x3ca8e703	0.020617967
157	0xbc4c90f3	-0.01248573
158	0x3afeb857	0.00194336
159	0x3a81a7e7	0.0009891958
160	0xbbfac377	-0.0076526958
161	0x3b31a76f	0.0027107855
162	0xbc753733	-0.014966774
163	0xbb4f94f7	-0.0031674483
164	0x3c3cf1c3	0.01153225
165	0x3ab61fdf	0.0013894996
166	0xbbcf4a0b	-0.0063259653
167	0xbce914ef	-0.028452365
168	0x3ab21e27	0.0013589308
169	0xbba267e7	-0.004956234
170	0x3c3163a8	0.010826983
171	0xbbdfe383	-0.0068325414
172	0x3b0c6487	0.0021422224
173	0xbcdee29a	-0.027207661
174	0xbc2fbbc7	-0.010725922
175	0x3c1f41f4	0.009720314
176	0x3c4ace44	0.012378279
177	0xbcdc4728	-0.026889399
178	0xbc6a85cb	-0.014314125
179	0x3c1d82c1	0.009613694
180	0x3b6554fb	0.003499328
181	0xbc50305f	-0.012706845
182	0xbbcbd817	-0.0062208283
183	0xbc28f88a	-0.010313163
184	0x3c54ff37	0.013000301
185	0x3a1baca7	0.0005938508
186	0x3cedcde2	0.029028837
187	0xbb1f6b4b	-0.0024325426
188	0xbac2ce96	-0.0014862593
189	0xbb6185e3	-0.0034412078
190	0x3c053cd5	0.008132179
191	0xbcd16e13	-0.025565183
192	0x3c7de645	0.015496795
193	0x3b922660	0.004460141
194	0xbc770e67	-0.015079117
195	0xbc0a1cd0	-0.008429721
196	0x3bb64f1d	0.0055636303
197	0x3c58b44a	0.013226578
198	0xbc0d4007	-0.008621222
199	0xbc2a4a5a	-0.010393703
200	0x3b8a4657	0.004219811
201	0x3cb6b3ce	0.022302534
202	0xbc89d3c4	-0.01682461
203	0x3bcc6023	0.0062370463
204	0xbcc962ff	-0.024583338
205	0xba627c12	-0.0008639704
206	0x3bcfda5b	0.0063431687
207	0xbc19d6fb	-0.009389634
208	0x3bad9e4f	0.005298413
209	0x3b006570	0.0019591711
210	0x3bd67e30	0.0065458044
211	0x3aae279c	0.0013286951
212	0xbcb03a9f	-0.021512328
213	0x3c159e3b	0.009131963
214	0x3c1c924b	0.009556363
215	0x3c56e3e2	0.013115855
216	0xbc40628d	-0.011742246
217	0x3cd3a513	0.02583555
218	0x3c7f8a9a	0.01559701
219	0x3bbc4f53	0.005746761
220	0x3bceff6a	0.006317069
221	0xbbc17498	-0.0059037916
222	0x3b95d48d	0.004572457
223	0xbc12023e	-0.008911667
224	0xbc4ac573	-0.012376177
225	0x3c0443b7	0.008072785
226	0x3b230d53	0.0024879768
227	0xbbbe61e1	-0.005810008
228	0x3c479e07	0.012183673
229	0x3c1a2217	0.009407542
230	0xbba7b89f	-0.005118444
231	0x3b9a6e34	0.0047128443
232	0xba13f8b7	-0.00056446664
233	0x3c36ef9f	0.011165529
234	0xbc80fd85	-0.015745888
235	0x3c964d3a	0.018347371
236	0x3bf277af	0.0073995213
237	0xbc3fdc5a	-0.011710251
238	0x3cab02f4	0.020875432
239	0x3b545f50	0.0032405443
240	0xbc838a77	-0.016057236
241	0x3cba1d70	0.022719115
242	0x39ec3363	0.00045051714
243	0x3b161236	0.0022899038
244	0x3a8dd275	0.0010820167
245	0xbbd0bd95	-0.006370256
246	0x3c1aa108	0.009437807
247	0xbc08f769	-0.008359768
248	0x3cc97c8b	0.02459552
249	0x3ce70cdf	0.02820438
250	0xbc7d2ead	-0.015453023
251	0x3c010aef	0.007876142
252	0xbcec6030	-0.02885446
253	0xba63893f	-0.0008679814
254	0xbc8cea66	-0.017201614
255	0x3c8ce298	0.017197892

action_model._continuous_distribution.mu.bias f4 [2]
0	0x00000000	0.0
1	0x00000000	0.0

network_body._body_endoder.seq_layers.0.weight f4 [256, 10]
0	0x3e42aea2	0.1901193
1	0xbe4cc69a	-0.19997635
2	0x3f2e84c2	0.6817132
3	0xbe5a2451	-0.21302916
4	0xbdc3d6f4	-0.095624834
5	0xbec24d36	-0.37949532
6	0x3e3470dd	0.17621179
7	0x3ebab4d7	0.36466095
8	0x3ebad801	0.36492923
9	0x3bbb968c	0.0057247337
10	0x3e91c3e9	0.2846978
11	0x3e5c45e0	0.2151103
12	0xbe8cfe6d	-0.2753786
13	0x3e263867	0.16232453
14	0x3cfd0799	0.030887412
15	0xbf076658	-0.5289054
16	0xbea52198	-0.32252192
17	0xbc87f7cb	-0.01659765
18	0xbe3acf6b	-0.18243186
19	0xbd5ab7fb	-0.053398114
20	0xbd5c6b82	-0.053813465
21	0xbd940aed	-0.072286464
22	0xbe00860f	-0.1255114
23	0x3e60a095	0.21936257
24	0xbc2b8723	-0.010469231
25	0xbee2c801	-0.44293216
26	0x3e8394f9	0.25699595
27	0xbd8848c4	-0.06654504
28	0x3e3373d5	0.17524655
29	0xbd36969d	-0.04457723
30	0xbde65082	-0.112458244
31	0xbcdea67a	-0.027178992
32	0x3e4adf38	0.19811714
33	0xbf26e366	-0.6519073
34	0x3e98e830	0.29864645
35	0xbf0c3829	-0.54773194
36	0x3ec437bd	0.38323775
37	0x3e59f59c	0.21285099
38	0x3cd16a2d	0.025563324
39	0xbe1ace72	-0.15117815
40	0x3f191bbb	0.5980794
41	0xbe35cbd6	-0.17753538
42	0xbebbc825	-0.36676136
43	0xbe4895c4	-0.19588381
44	0x3f199684	0.59995294
45	0xbe3437db	-0.17599432
46	0xbe53a414	-0.2066806
47	0xbef601ec	-0.4804834
48	0xbdf8b1d6	-0.121432945
49	0x3e928a3b	0.28621086
50	0x3db5ff28	0.08886558
51	0x3eaa8af4	0.33309138
52	0x3dd79290	0.105260015
53	0x3d818611	0.06324399
54	0xbef61b96	-0.4806792
55	0x3ea94fd1	0.33068708
56	0xbdc7374c	-0.09727344
57	0xbcb62700	-0.022235394
58	0x3e845df4	0.2585293
59	0x3e4480fb	0.19189827
60	0xbe20e671	-0.15712906
61	0x3e77e837	0.24209677
62	0xbe026f5b	-0.12737791
63	0x3e659cac	0.22423047
64	0xbe9663d0	-0.29373026
65	0xbf085d1b	-0.5326707
66	0x3e57b110	0.21063638
67	0x3e1504f2	0.14552668
68	0xbeb20ec9	-0.34776905
69	0xba40a644	-0.0007348994
70	0xbdd385ca	-0.103282526
71	0xbde03b8c	-0.10948858
72	0x3cb1c112	0.021698508
73	0x3f0c7ebe	0.54880893
74	0x3e09f220	0.1347127
75	0xbe286226	-0.1644369
76	0x3cdc21a9	0.02687152
77	0xbe4f7ea8	-0.2026316
78	0x3b4ab88e	0.0030932757
79	0x3e695939	0.22787942
80	0xbe293a28	-0.16526091
81	0x3eae0f5a	0.33996087
82	0x3e6d3e9a	0.23168412
83	0xbe38dc01	-0.18052675
84	0x3de4cd1f	0.11171936
85	0x3e3e3a37	0.18576895
86	0xbdc5ecd9	-0.09664316
87	0x3f2b4530	0.66902447
88	0xbe69873d	-0.22805496
89	0x3e9febe5	0.3123466
90	0x3e5dd746	0.21664152
91	0x3f07b072	0.5300361
92	0x3e7655c1	0.2405615
93	0xbe9432fe	-0.28945154
94	0x3c9d5f20	0.019210398
95	0x3eacfbae	0.33785766
96	0xbe6cc2ea	-0.23121229
97	0xbd0c8355	-0.034304935
98	0xbec3dede	-0.38255972
99	0x3f05bc11	0.5224009
100	0xbc8a0399	-0.016847419
101	0x3e84d7b1	0.2594581
102	0xbdae477e	-0.0850973
103	0x3e5ef466	0.21772918
104	0x3df006d6	0.11720054
105	0xbe2dab1c	-0.16959804
106	0xbea069e7	-0.31330797
107	0xbd79a4fc	-0.060948357
108	0xbdd161c4	-0.102237254
109	0x3c4fb233	0.012676763
110	0xbef1ea4b	-0.47249064
111	0xbe7ed48b	-0.24885766
112	0xbe7bd1ec	-0.24591798
113	0x3e365be8	0.17808497
114	0xbd00b519	-0.03142271
115	0xbe64a0ec	-0.22327012
116	0xbe42f20c	-0.19037646
117	0x3d1ec23a	0.038759448
118	0x3e837043	0.25671586
119	0xbe948e70	-0.2901492
120	0xbec9b860	-0.3939848
121	0x3e4e4f3b	0.20147412
122	0xbe0db059	-0.13836803
123	0xbd533918	-0.05156812
124	0x3ecc8408	0.39944482
125	0x3e00eb30	0.12589717
126	0x3f02a105	0.51026946
127	0xbe9ad599	-0.30241087
128	0xbe3d658a	-0.18495765
129	0xbe7fdd65	-0.24986799
130	0xbc9984b6	-0.01874004
131	0x3f0ff542	0.5623361
132	0x3e258704	0.16164786
133	0xbf2c0100	-0.67189026
134	0x3e566205	0.20935829
135	0x3e9c72db	0.30556378
136	0xbd7cc644	-0.06171252
137	0x3e15a150	0.14612317
138	0x3ebaeb28	0.36507535
139	0x3f022f85	0.5085376
140	0xbe54414f	-0.20728038
141	0x3f34b2b4	0.7058518
142	0x3e79be68	0.2438904
143	0x3f07257b	0.52791566
144	0xbe631a6a	-0.22178045
145	0xbd352edc	-0.04423414
146	0xbe926c1e	-0.28598112
147	0xbe03368f	-0.12813781
148	0x3ee6a707	0.45049307
149	0xbd4174c0	-0.047230482
150	0xbef91c14	-0.48654234
151	0xbd0e0cbd	-0.034680117
152	0xbeb4c19e	-0.35303968
153	0x3f452e12	0.7702342
154	0x3e98154c	0.29703748
155	0x3dcadd94	0.09905544
156	0xbea5c10f	-0.32373855
157	0xbf0913c1	-0.5354577
158	0x3f1b88e3	0.6075575
159	0xbeffb457	-0.49942276
160	0xbeaf1f71	-0.34203675
161	0x3d0a3aeb	0.033747595
162	0x3e883d8e	0.26609462
163	0xbf2021eb	-0.62551755
164	0x3d4b2cc7	0.04960325
165	0xbe0e591d	-0.13901182
166	0xbe351a1d	-0.17685743
167	0x3e7434da	0.23848286
168	0x3e5bcca7	0.21464787
169	0xbee1a551	-0.4407144
170	0x3ce3ef3b	0.027824035
171	0x3e851978	0.25995994
172	0x3dc7242e	0.097236976
173	0xbe1028ad	-0.14078017
174	0x3ecb9a7a	0.39766294
175	0x3e8d2469	0.2756684
176	0xbdee5103	-0.116365455
177	0xbed27cb1	-0.41110757
178	0xbea4f588	-0.32218575
179	0x3f414024	0.75488496
180	0x3eae24a5	0.34012333
181	0xbe3c544d	-0.18391533
182	0x3e0535ab	0.13008754
183	0x3e03cf31	0.12872006
184	0x3ec296e8	0.38005757
185	0xbe544ed4	-0.20733196
186	0x3ded9953	0.1160151
187	0xbee7a5b4	-0.4524361
188	0x3dbe69c1	0.09297515
189	0xbef4510d	-0.47718087
190	0x3e805122	0.250619
191	0xbdba7e19	-0.091060825
192	0x3ed9dbce	0.4255051
193	0xbe9911d9	-0.2989643
194	0xbf062a8d	-0.5240868
195	0x3c225a30	0.009909198
196	0xbeda899a	-0.42683107
197	0x3ecb246c	0.39676225
198	0x3ef1bc58	0.47214007
199	0xbdde183c	-0.10844466
200	0x3ef4388c	0.47699392
201	0x3dcd433d	0.1002259
202	0x3e4b5f74	0.19860631
203	0xbd4524d4	-0.048130825
204	0x3f09d285	0.5383685
205	0x3f09fdae	0.5390271
206	0xbf1e0491	-0.6172572
207	0xbf09181b	-0.5355241
208	0xbf0e4105	-0.5556796
209	0x3e1b08a3	0.15140013
210	0x3dff8a7a	0.12477584
211	0xbd5f3a9a	-0.054499246
212	0x3e1bce3a	0.15215388
213	0x3efb920d	0.49134865
214	0xbe4a1fce	-0.19738695
215	0x3f2eddc4	0.6830714
216	0x3d91eb20	0.07124925
217	0x3e9089e6	0.28230208
218	0xbf28109b	-0.6565034
219	0x3ed8c364	0.4233657
220	0xbe52aa76	-0.20572838
221	0xbd2b57d9	-0.041831825
222	0x3f2702a8	0.6523843
223	0xb9e352a5	-0.0004335839
224	0x3e31294b	0.17300908
225	0xbe9a6579	-0.30155542
226	0x3c73dd3c	0.014884289
227	0xbdf75789	-0.12077243
228	0xbcd1e127	-0.025620056
229	0x3e2f0802	0.17092898
230	0x3d1189db	0.03553186
231	0x3e1023d6	0.1407617
232	0xbec74f87	-0.38927862
233	0xbdb82d92	-0.08993067
234	0x3f1203af	0.5703687
235	0xbf351bf0	-0.70745754
236	0x3dd0d1b1	0.101962455
237	0xbe02df17	-0.12780415
238	0xbf250ba2	-0.64470875
239	0xbf0644b5	-0.5244859
240	0xbd8a998a	-0.067675665
241	0x3e03cbeb	0.12870757
242	0xbf05246f	-0.5200872
243	0x3e3c3891	0.18380953
244	0x3e0821ae	0.13294098
245	0x3d3ead5d	0.04655205
246	0xbd416500	-0.04721546
247	0x3e94e3ec	0.2908014
248	0x3e86bb4e	0.26314777
249	0x3e573a4c	0.21018332
250	0xbd08ce52	-0.033399887
251	0x3dab735f	0.08371615
252	0xbe024e4e	-0.12725183
253	0xbeb33a26	-0.350053
254	0xbe34328a	-0.17597404
255	0xbec5bd01	-0.3862076

network_body._body_endoder.seq_layers.0.bias f4 [256]
0	0x00000000	0.0
1	0x00000000	0.0
2	0x00000000	0.0
3	0x00000000	0.0
4	0x00000000	0.0
5	0x00000000	0.0
6	0x00000000	0.0
7	0x00000000	0.0
8	0x00000000	0.0
9	0x00000000	0.0
10	0x00000000	0.0
11	0x00000000	0.0
12	0x00000000	0.0
13	0x00000000	0.0
14	0x00000000	0.0
15	0x00000000	0.0
16	0x00000000	0.0
17	0x00000000	0.0
18	0x00000000	0.0
19	0x00000000	0.0
20	0x00000000	0.0
21	0x00000000	0.0
22	0x00000000	0.0
23	0x00000000	0.0
24	0x00000000	0.0
25	0x00000000	0.0
26	0x00000000	0.0
27	0x00000000	0.0
28	0x00000000	0.0
29	0x00000000	0.0
30	0x00000000	0.0
31	0x00000000	0.0
32	0x00000000	0.0
33	0x00000000	0.0
34	0x00000000	0.0
35	0x00000000	0.0
36	0x00000000	0.0
37	0x00000000	0.0
38	0x00000000	0.0
39	0x00000000	0.0
40	0x00000000	0.0
41	0x00000000	0.0
42	0x00000000	0.0
43	0x00000000	0.0
44	0x00000000	0.0
45	0x00000000	0.0
46	0x00000000	0.0
47	0x00000000	0.0
48	0x00000000	0.0
49	0x00000000	0.0
50	0x00000000	0.0
51	0x00000000	0.0
52	0x00000000	0.0
53	0x00000000	0.0
54	0x00000000	0.0
55	0x00000000	0.0
56	0x00000000	0.0
57	0x00000000	0.0
58	0x00000000	0.0
59	0x00000000	0.0
60	0x00000000	0.0
61	0x00000000	0.0
62	0x00000000	0.0
63	0x00000000	0.0
64	0x00000000	0.0
65	0x00000000	0.0
66	0x00000000	0.0
67	0x00000000	0.0
68	0x00000000	0.0
69	0x00000000	0.0
70	0x00000000	0.0
71	0x00000000	0.0
72	0x00000000	0.0
73	0x00000000	0.0
74	0x00000000	0.0
75	0x00000000	0.0
76	0x00000000	0.0
77	0x00000000	0.0
78	0x00000000	0.0
79	0x00000000	0.0
80	0x00000000	0.0
81	0x00000000	0.0
82	0x00000000	0.0
83	0x00000000	0.0
84	0x00000000	0.0
85	0x00000000	0.0
86	0x00000000	0.0
87	0x00000000	0.0
88	0x00000000	0.0
89	0x00000000	0.0
90	0x00000000	0.0
91	0x00000000	0.0
92	0x00000000	0.0
93	0x00000000	0.0
94	0x00000000	0.0
95	0x00000000	0.0
96	0x00000000	0.0
97	0x00000000	0.0
98	0x00000000	0.0
99	0x00000000	0.0
100	0x00000000	0.0
101	0x00000000	0.0
102	0x00000000	0.0
103	0x00000000	0.0
104	0x00000000	0.0
105	0x00000000	0.0
106	0x00000000	0.0
107	0x00000000	0.0
108	0x00000000	0.0
109	0x00000000	0.0
110	0x00000000	0.0
111	0x00000000	0.0
112	0x00000000	0.0
113	0x00000000	0.0
114	0x00000000	0.0
115	0x00000000	0.0
116	0x00000000	0.0
117	0x00000000	0.0
118	0x00000000	0.0
119	0x00000000	0.0
120	0x00000000	0.0
121	0x00000000	0.0
122	0x00000000	0.0
123	0x00000000	0.0
124	0x00000000	0.0
125	0x00000000	0.0
126	0x00000000	0.0
127	0x00000000	0.0
128	0x00000000	0.0
129	0x00000000	0.0
130	0x00000000	0.0
131	0x00000000	0.0
132	0x00000000	0.0
133	0x00000000	0.0
134	0x00000000	0.0
135	0x00000000	0.0
136	0x00000000	0.0
137	0x00000000	0.0
138	0x00000000	0.0
139	0x00000000	0.0
140	0x00000000	0.0
141	0x00000000	0.0
142	0x00000000	0.0
143	0x00000000	0.0
144	0x00000000	0.0
145	0x00000000	0.0
146	0x00000000	0.0
147	0x00000000	0.0
148	0x00000000	0.0
149	0x00000000	0.0
150	0x00000000	0.0
151	0x00000000	0.0
152	0x00000000	0.0
153	0x00000000	0.0
154	0x00000000	0.0
155	0x00000000	0.0
156	0x00000000	0.0
157	0x00000000	0.0
158	0x00000000	0.0
159	0x00000000	0.0
160	0x00000000	0.0
161	0x00000000	0.0
162	0x00000000	0.0
163	0x00000000	0.0
164	0x00000000	0.0
165	0x00000000	0.0
166	0x00000000	0.0
167	0x00000000	0.0
168	0x00000000	0.0
169	0x00000000	0.0
170	0x00000000	0.0
171	0x00000000	0.0
172	0x00000000	0.0
173	0x00000000	0.0
174	0x00000000	0.0
175	0x00000000	0.0
176	0x00000000	0.0
177	0x00000000	0.0
178	0x00000000	0.0
179	0x00000000	0.0
180	0x00000000	0.0
181	0x00000000	0.0
182	0x00000000	0.0
183	0x00000000	0.0
184	0x00000000	0.0
185	0x00000000	0.0
186	0x00000000	0.0
187	0x00000000	0.0
188	0x00000000	0.0
189	0x00000000	0.0
190	0x00000000	0.0
191	0x00000000	0.0
192	0x00000000	0.0
193	0x00000000	0.0
194	0x00000000	0.0
195	0x00000000	0.0
196	0x00000000	0.0
197	0x00000000	0.0
198	0x00000000	0.0
199	0x00000000	0.0
200	0x00000000	0.0
201	0x00000000	0.0
202	0x00000000	0.0
203	0x00000000	0.0
204	0x00000000	0.0
205	0x00000000	0.0
206	0x00000000	0.0
207	0x00000000	0.0
208	0x00000000	0.0
209	0x00000000	0.0
210	0x00000000	0.0
211	0x00000000	0.0
212	0x00000000	0.0
213	0x00000000	0.0
214	0x00000000	0.0
215	0x00000000	0.0
216	0x00000000	0.0
217	0x00000000	0.0
218	0x00000000	0.0
219	0x00000000	0.0
220	0x00000000	0.0
221	0x00000000	0.0
222	0x00000000	0.0
223	0x00000000	0.0
224	0x00000000	0.0
225	0x00000000	0.0
226	0x00000000	0.0
227	0x00000000	0.0
228	0x00000000	0.0
229	0x00000000	0.0
230	0x00000000	0.0
231	0x00000000	0.0
232	0x00000000	0.0
233	0x00000000	0.0
234	0x00000000	0.0
235	0x00000000	0.0
236	0x00000000	0.0
237	0x00000000	0.0
238	0x00000000	0.0
239	0x00000000	0.0
240	0x00000000	0.0
241	0x00000000	0.0
242	0x00000000	0.0
243	0x00000000	0.0
244	0x00000000	0.0
245	0x00000000	0.0
246	0x00000000	0.0
247	0x00000000	0.0
248	0x00000000	0.0
249	0x00000000	0.0
250	0x00000000	0.0
251	0x00000000	0.0
252	0x00000000	0.0
253	0x00000000	0.0
254	0x00000000	0.0
255	0x00000000	0.0

network_body._body_endoder.seq_layers.2.weight f4 [256, 256]
0	0x3d0da028	0.034576565
1	0x3c97dc7e	0.018537756
2	0xbd93eb6b	-0.07222637
3	0xbd259df0	-0.040433824
4	0xbd602902	-0.054726608
5	0xbd592f27	-0.053023484
6	0xbd959325	-0.07303456
7	0xbd2e77c6	-0.042594694
8	0x3c61dcb9	0.013785535
9	0xbd2de57d	-0.042455185
10	0xbbab47ca	-0.005227064
11	0x3bc6c0ee	0.0060654795
12	0xbaea8a00	-0.001789391
13	0x3d137f66	0.03601017
14	0x3a8a934d	0.0010572464
15	0xbd929fd7	-0.07159393
16	0xbd87f590	-0.06638634
17	0x399e0fc0	0.00030147843
18	0xbd092297	-0.033480253
19	0x3d7085f1	0.058721486
20	0x3ddd064e	0.10792218
21	0xbd107905	-0.035271663
22	0xbaafe39d	-0.0013419274
23	0xbc055c7b	-0.008139725
24	0x3cdc2043	0.026870852
25	0x3d01dac8	0.031702787
26	0xbc575a09	-0.013144025
27	0x3cb67494	0.022272386
28	0x3d7aac2d	0.061199356
29	0xbd892d95	-0.06698147
30	0xbc333d37	-0.010939888
31	0x3d44ddce	0.048063092
32	0xbd2b9999	-0.04189453
33	0xbd3aa12e	-0.04556387
34	0xbccc6c29	-0.024953919
35	0x3cda9688	0.026683107
36	0xbd3bb400	-0.04582596
37	0x3d0a9faa	0.033843674
38	0x3d9a6510	0.075388074
39	0x3d8455d9	0.06461687
40	0xbcc1809a	-0.023620892
41	0xbdba7bcf	-0.09105646
42	0x3dac3f5f	0.084105246
43	0x3d8a3791	0.0674888
44	0xbbb30c62	-0.0054641226
45	0xbcc5bcb4	-0.024137832
46	0x3e1f2208	0.15540326
47	0xbddbfe75	-0.10741893
48	0xbdbc7a74	-0.092030436
49	0xbd032609	-0.032018695
50	0xbd293d5c	-0.041318282
51	0x3c0f9007	0.008762366
52	0x3d11e2e9	0.03561679
53	0xbaca598b	-0.0015438063
54	0x3bce15e9	0.006289233
55	0x3d0b38ba	0.033989646
56	0xbd225bbb	-0.039638262
57	0xbcc3a891	-0.02388409
58	0x3b596f44	0.0033177892
59	0x3d374252	0.044740982
60	0x3ac5f7af	0.0015103723
61	0xba840415	-0.0010072017
62	0x3d327184	0.04356529
63	0x3d748d17	0.059704866
64	0x3d200acf	0.039072808
65	0xbc537a88	-0.012907632
66	0x3d6b2f87	0.057418372
67	0xbc543154	-0.012951214
68	0x3d9f992c	0.07792887
69	0x3d867fb5	0.06567327
70	0x3d7e4460	0.062076926
71	0xbcf56ff2	-0.029960606
72	0xbc7b6e18	-0.015346073
73	0x3ca30ffe	0.019905087
74	0xbcb06e36	-0.021536928
75	0xbbe728be	-0.0070544174
76	0x3d57cbd4	0.05268462
77	0x3ca24f57	0.019813223
78	0xbcd789ed	-0.026310885
79	0x3d1326ba	0.035925604
80	0x3cad47fa	0.021152485
81	0xbc0e2857	-0.00867661
82	0x3ccb9c53	0.024854815
83	0x3dc76e81	0.09737874
84	0x3d532c54	0.051555946
85	0xbd80bc9e	-0.06285976
86	0xbd35623f	-0.044283148
87	0xbd036d24	-0.032086506
88	0xbd1cbcfe	-0.038266174
89	0xbc9bcbf2	-0.019018147
90	0xbc3f9169	-0.011692383
91	0xbd21e2e6	-0.039523028
92	0x3d3763ae	0.044772796
93	0x3d8a58f5	0.067552485
94	0xbc13a149	-0.009010621
95	0x3e0530a1	0.13006832
96	0xbd88c0af	-0.066773765
97	0x3be57f2b	0.007003685
98	0xbd08c9b0	-0.03339547
99	0xbbe3cf4b	-0.0069522015
100	0x3b31116e	0.0027018446
101	0x3dd9abf1	0.10628498
102	0xbdf9e994	-0.122027546
103	0xbd89153a	-0.06693502
104	0x3c8ba6b6	0.017047267
105	0x3d3d85d5	0.04627021
106	0xbd9a5332	-0.075353995
107	0xbcc71297	-0.024300857
108	0xbda80f35	-0.082060255
109	0xbd3c595f	-0.04598367
110	0xbd15024c	-0.036379144
111	0x3d0f7ce0	0.0350312
112	0x3ce3a133	0.027786827
113	0xbd39fbf1	-0.045406286
114	0x3db2c50d	0.08728991
115	0x3c9e277d	0.019305939
116	0x3d99ac3b	0.075035535
117	0x3d8289cb	0.06373938
118	0xbb778c66	-0.0037772893
119	0xbd1eb503	-0.038746845
120	0x3c6726d9	0.014108383
121	0xbcd72395	-0.026262084
122	0x3c624a2d	0.01381163
123	0xbd022efe	-0.031783096
124	0xbd651213	-0.05592544
125	0xbd0d1a22	-0.03444875
126	0xbd12d333	-0.035845947
127	0x3dd7d1f0	0.10538089
128	0xbcf8ee63	-0.03038711
129	0xbc5ad281	-0.013355852
130	0xbd1b2296	-0.03787478
131	0x3d91c086	0.07116799
132	0xbc941568	-0.018076614
133	0x3da46366	0.08026771
134	0xbd151480	-0.036396503
135	0x3d8bacdd	0.068200804
136	0xbdde74f1	-0.108621486
137	0xbe06acd1	-0.13151862
138	0xbddf4237	-0.10901301
139	0xbddc872e	-0.10767971
140	0xbcf1356a	-0.029444415
141	0x3c283bdd	0.010268179
142	0xbcf2b577	-0.029627545
143	0xbc187217	-0.009304545
144	0x3d4b8af8	0.049693078
145	0x3d171a13	0.0368901
146	0xbd014bc7	-0.031566408
147	0x3c49e68e	0.012323035
148	0x3b057337	0.0020362863
149	0x3d8a02b2	0.06738795
150	0x3c955a60	0.01823157
151	0xbb0c3998	-0.0021396633
152	0xbae83761	-0.00177167
153	0xbbe1589e	-0.006877019
154	0xbc29209c	-0.010322716
155	0xbe345224	-0.17609459
156	0xbd627dca	-0.055295743
157	0xbc6e2972	-0.0145362485
158	0x3d088894	0.033333376
159	0xbd006efe	-0.03135585
160	0x3cf46d27	0.029837204
161	0x3da8d4de	0.08243726
162	0x3d8568ca	0.065141276
163	0x3d636d48	0.05552414
164	0xbc6702d8	-0.014099799
165	0xbd89e1e1	-0.06732536
166	0x3ae51814	0.0017478489
167	0x3ab18928	0.0013544904
168	0x3dda0225	0.1064494
169	0x3d6a61ad	0.057222057
170	0x3db4d90e	0.088304624
171	0x3dc2f458	0.09519261
172	0xbcc403c6	-0.02392758
173	0x3dcf5d8c	0.101252645
174	0x3d6d24f1	0.05789656
175	0x3d568d80	0.05238104
176	0x3ce3fe85	0.027831325
177	0xbc16413c	-0.0091708265
178	0x3c85fc7a	0.016355742
179	0x3e0b7ad5	0.13621075
180	0x3c9b3cc5	0.018949876
181	0xbd3b7c33	-0.045772742
182	0xbcdbb9c0	-0.026821971
183	0xbcc1aeae	-0.023642864
184	0x3d4f06ce	0.0505436
185	0xbc1a395a	-0.009413088
186	0x3db2881e	0.087173685
187	0x3dc553d2	0.09635128
188	0xbd047f3f	-0.032347914
189	0xbca183e4	-0.01971621
190	0xbe2b60bf	-0.16736124
191	0x3c2802ca	0.010254571
192	0x3e199fe4	0.150024
193	0x3d332ea9	0.04374567
194	0xbbe37026	-0.0069408594
195	0xbb5ba92d	-0.0033517585
196	0xbdbe67f0	-0.09297168
197	0x3cd59c6d	0.026075566
198	0x3c55ce4e	0.013049675
199	0xbcd6ebee	-0.026235547
200	0x3da1a61f	0.07893013
201	0x3dcf3f4f	0.10119497
202	0x3c64b328	0.01395873
203	0x3c150934	0.0090964325
204	0xbdc5e44c	-0.09662685
205	0xbcd6e322	-0.026231352
206	0x3da0738b	0.07834538
207	0xbd1e689e	-0.03867399
208	0xbd3f6aca	-0.0467327
209	0xbcf83fc1	-0.030303838
210	0xbe190f35	-0.14947207
211	0x3d4b0da6	0.049573563
212	0xbd903953	-0.07042184
213	0x3cc9a3ea	0.024614293
214	0xbcdea5c3	-0.02717865
215	0x3da33c51	0.07970489
216	0x3d57d1f5	0.052690465
217	0xbc757698	-0.014981888
218	0x3d32d778	0.04366252
219	0x3d54057f	0.051763054
220	0xbd24f7f8	-0.040275544
221	0xbca25774	-0.019817092
222	0x3dad157a	0.08451362
223	0xbdccbfda	-0.0999753
224	0x3dd579a7	0.10423594
225	0x3c205d27	0.009787834
226	0x3db69f93	0.08917155
227	0xbd6cb5f9	-0.05779073
228	0x3b8e9c7a	0.0043521496
229	0xbdcf39ba	-0.10118432
230	0xbe0530bd	-0.13006873
231	0x3d060736	0.03272172
232	0xbd962d08	-0.07332808
233	0x3d78e4f3	0.060765218
234	0x3d7c4df3	0.061597776
235	0x3c92be0f	0.017912893
236	0x3da36f89	0.07980258
237	0x3da05aa2	0.07829787
238	0xbd4092ce	-0.047015004
239	0xbaa68a31	-0.0012705979
240	0x3c3eef3d	0.011653719
241	0x3a804f98	0.0009789346
242	0xbdbfa685	-0.09357933
243	0x3a2b9753	0.00065456814
244	0x3dad8a43	0.08473637
245	0x3b9ceaee	0.004788748
246	0xbba34175	-0.0049821683
247	0xbc08c3c4	-0.008347455
248	0x3dca8447	0.09888511
249	0x3dc98f40	0.09841776
250	0xbc964fd6	-0.018348616
251	0x3d77659b	0.060399633
252	0xbc3743ba	-0.011185581
253	0x3b93445a	0.004494232
254	0x3d3ff2f2	0.04686255
255	0xbcf4f2c1	-0.02990091
