Foosbots_working/results/foosballTraining3/Foosbots_working/Foosbots_working-53504.onnx (onnx, 74687 bytes, 7 tensors)

action_model._continuous_distribution.log_sigma f4 [1, 2]
-0.10286587 -0.18529469
00000000: 57ab d2bd e4bd 3dbe

action_model._continuous_distribution.mu.bias f4 [2]
0.055767667 -0.08452772
00000000: a36c 643d df1c adbd

action_model._continuous_distribution.mu.weight f4 [2, 128]
-0.04919948 -0.07436271 0.10765267 0.08237224 -0.059187245 -0.09587533 0.12984085 -0.06652421
-0.041993674 0.1125415 0.08774581 0.09217432 -0.082960546 -0.08531654 0.08669261 -0.07826141
-0.081072494 0.0058301566 0.07446224 -0.08339755 -0.12539878 0.09090761 -0.059873506 -0.0789998
-0.11597546 -0.04543749 0.08731145 0.12214806 0.111111775 -0.072129965 0.08531315 0.099280745
-0.070397615 -0.035494026 -0.073603846 -0.077391535 -0.074083544 0.12790976 0.11002679 0.074084
-0.03763985 -0.10584633 -0.07583252 0.09451353 -0.07377162 0.08626532 -0.09186632 0.100798376
0.10643811 0.0891307 0.10566929 0.09517891 -0.059035588 0.11382409 0.09033709 -0.045720734
-0.01307228 0.09509441 -0.07242165 0.1105841 0.05798692 0.11283081 0.09615113 0.12043293
-0.062116187 -0.040943634 0.107864425 0.09654213 -0.04850276 0.10368352 0.11417938 -0.08129415
-0.09330917 -0.06389262 0.09283049 -0.063076794 -0.002521802 -0.07854869 -0.06955422 -0.051797535
0.10285557 -0.026241496 -0.046386376 0.108127825 -0.08773297 0.09864246 -0.0960177 0.11552425
0.008957787 0.11789164 0.107327774 -0.107150756 0.109842 -0.042468272 -0.05049696 -0.074668914
0.035323646 0.12811054 -0.08921688 0.105854794 0.004702329 -0.073561154 0.117930554 -0.06440363
0.10892162 -0.07122408 0.11066795 0.101043634 0.0956025 0.11480481 0.105212174 -0.07449926
0.06778382 -0.0829693 -0.08052175 -0.07944149 -0.08318907 0.10309962 0.11767517 -0.068863414
0.11327265 0.11931937 0.07646378 -0.0755361 -0.047283925 -0.09183973 -0.049154747 0.12880975
-0.06470649 -0.04922107 4.2265718e-05 0.031641584 -0.04498419 -0.0535277 -0.0077678226 -0.011751125
0.01863683 -0.015830267 0.009612272 0.0071643023 -0.03880915 -0.061002 -0.046027336 -0.058696833
-0.04620153 0.07567743 1.5066894e-05 -0.091638505 -0.07274021 -0.024749618 -0.0685238 -0.04170171
-0.07036023 -0.016613709 -0.031434383 0.027631957 0.015828837 -0.068682775 0.031146249 -0.007225279
-0.07698545 -0.09156183 -0.06278011 -0.05345292 -0.05936187 -0.015810234 -0.038129054 -0.008609206
-0.07147753 -0.05635773 -0.00067618187 -0.0013535284 -0.07443002 0.006603955 -0.06266233 0.0046423823
-0.013460936 0.0010503406 -0.018235793 -0.007556804 -0.045035224 -0.0071689254 -0.0031924506 0.050956134
-0.026185513 -0.022645736 -0.016415961 -0.019165795 -0.004401597 -0.0072819097 -0.017084513 -0.020705467
-0.066708215 -0.063048 -0.022831976 -0.007928657 -0.05808746 -0.009193734 -0.020667732 -0.057062645
-0.0025773328 0.023106292 0.017646478 -0.052185304 0.032196045 -0.0702722 -0.05245631 -0.08513447
-0.02483868 -0.05442966 -0.04595539 -0.008892512 -0.07037786 -0.007543641 -0.07020002 -0.029478602
-0.053979408 -0.029137276 -0.0011318227 -0.06934436 -0.011159284 0.01845331 -0.04969142 -0.034243263
-0.06370362 0.014455772 -0.060496476 -0.023780024 -0.026603013 -0.05366595 -0.021450015 -0.026002752
-0.014344604 -0.05624005 0.008395449 0.019705402 -0.0013421146 -0.016467918 0.0045711915 -0.030879896
0.011260359 -0.03646546 -0.04404619 -0.03079635 -0.0757005 -0.017560076 -0.015357429 -0.06731168
0.000964841 -0.015045578 0.011661568 -0.0421265 -0.050716437 -0.06077663 0.015684562 -0.020030854
00000000: 6585 49bd 7a4b 98bd 0179 dc3d c7b2 a83d
00000010: 536e 72bd 495a c4bd 00f5 043e d83d 88bd
00000020: 8f01 2cbd 287c e63d 13b4 b33d e4c5 bc3d
00000030: 38e7 a9bd 70ba aebd e58b b13d 8547 a0bd
00000040: 5609 a6bd e60a bf3b a97f 983d 56cc aabd
00000050: 8a68 00be c52d ba3d ec3d 75bd a6ca a1bd
00000060: 8b84 edbd a91c 3abd 58d0 b23d c328 fa3d
00000070: 928e e33d e0b8 93bd a9b8 ae3d b453 cb3d
00000080: a02c 90bd 2f62 11bd 9dbd 96bd 747f 9ebd
00000090: 1db9 97bd c7fa 023e ba55 e13d 5ab9 973d
000000a0: 3e2c 1abd f6c5 d8bd 154e 9bbd 4f90 c13d
000000b0: 9315 97bd dfab b03d 6924 bcbd 616f ce3d
000000c0: 39fc d93d 288a b63d 2469 d83d 29ed c23d
000000d0: 4dcf 71bd 9b1c e93d a702 b93d aa45 3bbd
000000e0: 1e2d 56bc dcc0 c23d cd51 94bd eb79 e23d
000000f0: b183 6d3d d713 e73d e2ea c43d 8aa5 f63d
00000100: 8b6d 7ebd 83b4 27bd 06e8 dc3d e1b7 c53d
00000110: d4aa 46bd 0658 d43d e1d6 e93d 8c7d a6bd
00000120: e118 bfbd 22da 82bd e91d be3d 682e 81bd
00000130: d144 25bb 23de a0bd 7172 8ebd a729 54bd
00000140: f1a5 d23d 68f8 d6bc a4ff 3dbd 1f72 dd3d
00000150: 58ad b3bd 0f05 ca3d eea4 c4bd fa97 ec3d
00000160: afc3 123c 2c71 f13d aace db3d db71 dbbd
00000170: d8f4 e03d 36f3 2dbd e6d5 4ebd 04ec 98bd
00000180: 87af 103d 692f 033e 57b7 b6bd 66ca d83d
00000190: ff15 9a3b 3ba7 96bd 9385 f13d 0de6 83bd
000001a0: 4c12 df3d eedd 91bd e1a5 e23d f7ef ce3d
000001b0: 3ecb c33d c91e eb3d 7b79 d73d 1193 98bd
000001c0: 3ed2 8a3d cfeb a9bd 96e8 a4bd 38b2 a2bd
000001d0: 085f aabd e525 d33d aeff f03d 4308 8dbd
000001e0: 7efb e73d b75d f43d 0b99 9c3d acb2 9abd
000001f0: caac 41bd 7816 bcbd 7d56 49bd b4e6 033e
00000200: d684 84bd 089c 49bd 7846 3138 9b9a 013d
00000210: 5841 38bd dd3f 5bbd 3889 febb ca87 40bc
00000220: 44ac 983c 7aae 81bc ca7c 1d3c 86c2 ea3b
00000230: 58f6 1ebd 3cdd 79bd 2987 3cbd 176c 70bd
00000240: d13d 3dbd c5fc 9a3d d1c7 7c37 f8ac bbbd
00000250: d2f8 94bd b6bf cabc 3556 8cbd 6acf 2abd
00000260: 0619 90bd 7919 88bc 57c1 00bd 6a5c e23c
00000270: 7aab 813c 8ea9 8cbd 6b26 ff3c 09c2 ecbb
00000280: 8caa 9dbd c584 bbbd dc92 80bd 73f1 5abd
00000290: 6f25 73bd 7784 81bc 362d 1cbd a10d 0dbc
000002a0: d062 92bd 5dd7 66bd cc41 31ba e068 b1ba
000002b0: c46e 98bd fd65 d83b 1c55 80bd 201f 983b
000002c0: 428b 5cbc 95ab 893a 3b63 95bc 119f f7bb
000002d0: db76 38bd 4ee9 eabb 6f38 51bb 61b7 503d
000002e0: 0083 d6bc 8d83 b9bc c47a 86bc 9601 9dbc
000002f0: 463b 90bb 169d eebb d2f4 8bbc 839e a9bc
00000300: 519e 88bd 4f1f 81bd 200a bbbc 33e7 01bc
00000310: 1eed 6dbd 51a1 16bc 604f a9bc 85ba 69bd
00000320: 78e8 28bb 6849 bd3c 598f 903c 42c0 55bd
00000330: 00e0 033d dfea 8fbd 6ddc 56bd fb5a aebd
00000340: 7d7a cbbc a3f1 5ebd b83b 3cbd e6b1 11bc
00000350: 4422 90bd a630 f7bb 07c5 8fbd 1c7d f1bc
00000360: 8319 5dbd 4cb1 eebc ab59 94ba 6a04 8ebd
00000370: 6ed5 36bc 652b 973c 3b89 4bbd aa42 0cbd
00000380: 0b77 82bd e7d7 6c3c 27cb 77bd 53ce c2bc
00000390: 90ee d9bc d4d0 5bbd f1b7 afbc b903 d5bc
000003a0: a105 6bbc f75b 66bd 118d 093c 396d a13c
000003b0: e5e9 afba bae7 86bc efc9 953b d6f7 fcbc
000003c0: 5e7d 383c ce5c 15bd c769 34bd a148 fcbc
000003d0: dd08 9bbd 26da 8fbc ba9d 7bbc b5da 89bd
000003e0: 62ed 7c3a ba81 76bc 2910 3f3c d68c 2cbd
000003f0: 0abc 4fbd eaf0 78bd e97c 803c bf17 a4bc

network_body._body_endoder.seq_layers.0.bias f4 [128]
0.04189238 0.047135513 0.031720135 0.0361804 0.0051069907 0.026533669 0.008037208 -0.020914325
-0.026872052 -0.024464486 -0.039902616 -0.025773847 0.006833081 -0.01878169 0.019094074 0.048169143
0.051618163 0.050813075 -0.022704799 0.043894142 0.011025656 -0.019959113 0.012856133 0.027308477
0.036332626 -0.010638593 -0.012443105 0.041146234 0.034797594 0.040464614 0.027854241 0.04975631
-0.009714627 0.05711483 0.00037334458 0.037445668 -0.043080978 0.0436987 -0.03941904 0.038413715
-0.018917874 0.046474617 0.040818475 0.05517275 -0.004078092 0.033496283 -0.0030334601 -0.017960614
0.04426827 0.05471758 0.046361383 0.039854337 -0.0045143403 0.033616923 -0.010567766 -0.028544117
-0.03193164 0.023973012 -0.013514842 -0.022516835 -0.00048676832 0.03131205 0.015466392 0.0028453625
0.0051105204 0.026370747 0.0014603911 0.014690477 -0.019997826 0.049160864 -0.030926596 0.010670757
-0.04751848 -0.019282192 -0.0048574363 0.036245573 -0.0048108785 -0.008970984 0.055359364 -0.016124053
-0.015902722 0.026591517 -0.01704574 0.016188733 0.038812526 0.03868761 0.049667694 -0.021394126
0.002234782 0.04840489 -0.038516324 -0.008126374 -0.028803155 -0.02072213 0.006268143 -0.027841974
0.045623507 -0.025302991 0.03402601 0.038357947 0.013131317 -0.01872917 0.042406116 -0.022860037
0.030475445 -0.020349385 0.042268407 0.06461106 -0.026071941 0.03596432 -0.035893768 -0.010700544
-0.003667098 0.02368674 0.03614576 -0.009470006 -0.02083607 0.0036142028 -0.023106515 0.019533323
0.03428325 0.044343654 -0.0210938 -0.032426387 -0.009783075 -0.031560592 0.021272454 -0.02178202
00000000: 5897 2b3d 2b11 413d f9ec 013d e631 143d
00000010: 8b58 a73b 235d d93c 7eae 033c 8554 abbc
00000020: c722 dcbc bf69 c8bc ed70 23bd ad23 d3bc
00000030: 0ae8 df3b 0fdc 99bc 2d6b 9c3c 024d 453d
00000040: 916d 533d 5f21 503d 6aff b9bc 58ca 333d
00000050: f4a4 343c 4b81 a3bc 88a2 523c 07b6 df3c
00000060: 85d1 143d 7e4d 2ebc 2ade 4bbc f488 283d
00000070: ec87 0e3d 39be 253d 942e e43c 46cd 4b3d
00000080: 192a 1fbc 3df1 693d 76bd c339 a160 193d
00000090: ae75 30bd 68fd 323d dc75 21bd b357 1d3d
000000a0: a8f9 9abc 2b5c 3e3d 4631 273d d2fc 613d
000000b0: 84a1 85bb 6633 093d 04cd 46bb 2322 93bc
000000c0: a552 353d 8b1f 603d 6fe5 3d3d 4d3e 233d
000000d0: 08ed 93bb e6b1 093d 6c24 2dbc 5ad5 e9bc
000000e0: c0ca 02bd 0d63 c43c 5b6d 5dbc 3a75 b8bc
000000f0: f034 ffb9 1041 003d c066 7d3c 4379 3a3b
00000100: 2776 a73b 7707 d83c 986a bf3a 54b0 703c
00000110: 7bd2 a3bc e75c 493d c659 fdbc 66d4 2e3c
00000120: bda2 42bd b0f5 9dbc 212b 9fbb 3d76 143d
00000130: 93a4 9dbb 09fb 12bc 80c0 623d 9716 84bc
00000140: 6d46 82bc 74d6 d93c 82a3 8bbc 3c9e 843c
00000150: e2f9 1e3d e676 1e3d 5a70 4b3d bc42 afbc
00000160: 6c75 123b 3544 463d 4bc3 1dbd 7c24 05bc
00000170: 98f4 ebbc 75c1 a9bc ff64 cd3b da14 e4bc
00000180: b7df 3a3d 3848 cfbc dc5e 0b3d 391d 1d3d
00000190: bc24 573c eb6d 99bc 09b2 2d3d f944 bbbc
000001a0: a4a7 f93c c1b3 a6bc a321 2d3d ce52 843d
000001b0: d394 d5bc 534f 133d 5805 13bd 5651 2fbc
000001c0: b253 70bb b20a c23c 940d 143d 1628 1bbc
000001d0: 68b0 aabc 43dc 6c3b e049 bdbc 5904 a03c
000001e0: 986c 0c3d b1a1 353d e8cc acbc 88d1 04bd
000001f0: 3149 20bc ae45 01bd 9243 ae3c 3570 b2bc

network_body._body_endoder.seq_layers.0.weight f4 [128, 10]
0.13236792 0.5683955 0.62157774 0.2715447 -0.32913893 0.43662673 0.18923476 -0.15060486
0.60738236 0.37259352 0.24645703 0.010089525 0.07124481 0.39396778 0.22855759 -0.10246156
-0.34353185 0.27780902 0.33723983 -0.1256256 0.09652327 -0.09697461 -0.07794802 0.07732316
0.080820754 -0.15244101 0.36134887 0.008885997 0.5045721 0.5506275 0.24027197 0.17037475
-0.1704448 0.20556433 0.16703989 0.10012228 0.080118686 0.12880933 0.08475746 0.062105548
-0.37192094 0.54641414 -0.24907885 -0.45054415 -0.0008021825 -0.58522826 -0.55917066 0.3932564
0.0106047215 0.5247818 0.058468625 0.23962036 0.5904163 0.43865454 0.38406974 0.506725
-0.41933024 -0.11818484 0.28066015 -0.048133265 -0.31831026 -0.4325871 -0.548893 0.2742942
0.06499097 -0.040165972 -0.52477306 0.1889452 -0.0077742315 0.09606525 -0.26633278 -0.37554184
0.6610231 -0.014019423 0.093645416 0.06458351 -0.020239944 0.2601612 0.11764368 0.1895119
-0.19075115 -0.29607624 0.4151883 0.20334156 0.4380885 -0.11548821 -0.31952927 0.3755983
0.033057522 -0.44750482 -0.1381305 -0.0901888 0.2588449 0.22104561 -0.092907615 0.2749649
0.24420528 0.3784827 -0.12883143 -0.4724267 -0.37413934 0.24306685 0.51272696 -0.12288068
0.14303003 -0.37379053 0.5319228 0.333157 0.25180313 0.2996012 -0.107256606 0.36006328
-0.08398322 -1.0393991 0.4128765 -0.013402623 0.20678787 -0.1093265 -0.057064716 0.053685494
-0.8682934 0.23723252 0.30426133 0.45034572 -0.10819018 0.129408 -0.091191635 0.07704879
0.18456481 -0.0026178646 -0.23173124 0.16447306 -0.14862423 -0.22134487 -0.066309765 0.048378665
-0.011382903 0.11847013 -0.30320406 -0.07365214 0.12313767 -0.5689142 -0.0664569 -0.0533308
-0.20550069 0.47627664 -0.40588585 -0.5165034 0.34393382 -0.04667593 0.1393676 -0.34176633
-0.23715843 0.4916565 -0.702592 0.30436388 0.6518686 0.30370322 -0.32458043 0.39432687
0.27607846 -0.19881576 -0.077103436 -0.04460075 0.112773776 -0.17461887 0.0013234807 -0.15344131
0.34845868 -0.01065451 0.40639997 0.8154063 0.13248625 0.36432183 -0.24151355 -0.15280086
-0.14308347 -0.14563915 0.24602528 -0.08454338 -0.31051582 -0.31101543 -0.13032272 0.28337964
0.062204458 0.21338797 -0.3570634 0.18407446 -0.37685853 -0.21605292 0.15236291 0.1563611
-0.2054738 0.049402263 0.661952 0.46648118 0.005704177 -0.34293362 0.19369747 0.19189863
0.073774464 0.084084764 -0.47715324 0.3519968 -0.010932848 0.13855141 0.19577025 0.5435169
0.10669563 -0.08372326 -0.32673317 0.31755373 0.06608051 0.33418378 -0.29417667 -0.24646315
0.0047979923 0.033190634 -0.19699737 -0.5159051 -0.0732956 -0.19559744 0.22092998 -0.18687284
0.159973 0.31918785 -0.30543816 -0.45396778 0.24111426 -0.19686554 0.20103729 -0.27106386
-0.40362328 -0.54135776 -0.21755902 0.24641295 0.3293994 -0.053195488 -0.016510723 -0.113088764
0.20334703 -0.023804681 -0.22219633 0.5516837 0.27911815 0.73722345 -0.3963257 0.17317726
0.32219347 -0.17167184 -0.5249633 -0.045300696 -0.06033932 -0.48868465 -0.045864154 0.17512631
00000000: 758b 073e 5e82 113f b81f 1f3f e807 8b3e
00000010: e684 a8be 8a8d df3e c2c6 413e 2938 1abe
00000020: 697d 1b3f 94c4 be3e 3b5f 7c3e 894e 253c
00000030: cde8 913d 25b6 c93e 000b 6a3e 5ed7 d1bd
00000040: 68e3 afbe fc3c 8e3e b3aa ac3e ffa3 00be
00000050: fead c53d a09a c6bd 36a3 9fbd 9b5b 9e3d
00000060: 5a85 a53d 7f19 1cbe b802 b93e 9396 113c
00000070: a32b 013f edf5 0c3f db09 763e b876 2e3e
00000080: 1589 2ebe 757f 523e 810c 2b3e e90c cd3d
00000090: 4415 a43d 98e6 033e 5295 ad3d 6362 7e3d
000000a0: 6c6c bebe cce1 0b3f 870e 7fbe b9ad e6be
000000b0: 8e49 52ba 85d1 15bf cf25 0fbf e758 c93e
000000c0: 6dbf 2d3c 1a58 063f cc7c 6f3d 0a5f 753e
000000d0: 8625 173f 5497 e03e caa4 c43e bbb8 013f
000000e0: 74b2 d6be e50a f2bd b0b2 8f3e 6327 45bd
000000f0: 90f9 a2be 0e7c ddbe 4084 0cbf 4a70 8c3e
00000100: fc19 853d 1385 24bd 8757 06bf da7a 413e
00000110: fbbe febb dcbd c43d c55c 88be 0547 c0be
00000120: cf38 293f b9b1 65bc 2bc9 bf3d 5c44 843d
00000130: 3dce a5bc d933 853e 2bef f03d 680f 423e
00000140: 4554 43be 4e97 97be 9093 d43e c538 503e
00000150: 234d e03e 1585 ecbd 5799 a3be 6c4e c03e
00000160: 5367 073d 5a1f e5be 1572 0dbe e8b4 b8bd
00000170: 5287 843e c859 623e 5946 bebd 33c8 8c3e
00000180: f310 7a3e 7cc8 c13e 63ec 03be eae1 f1be
00000190: 318f bfbe 84e6 783e 1342 033f dea8 fbbd
000001a0: 7776 123e 7961 bfbe 182c 083f 8e93 aa3e
000001b0: 57ec 803e 5465 993e 5aa9 dbbd 375a b83e
000001c0: 65ff abbd 080b 85bf 8c64 d33e ad96 5bbc
000001d0: 33c0 533e 92e6 dfbd b1bc 69bd 52e5 5b3d
000001e0: 7a48 5ebf 15ed 723e 24c8 9b3e b793 e63e
000001f0: d092 ddbd 8883 043e aec2 babd c2cb 9d3d
00000200: 8ffe 3c3e 7b90 2bbb f44a 6dbe a06b 283e
00000210: f330 18be 3ba8 62be 6acd 87bd b528 463d
00000220: 5b7f 3abc 78a0 f23d 903d 9bbe efd6 96bd
00000230: 9a2f fc3d 5ca4 11bf 8e1a 88bd 6671 5abd
00000240: c66e 52be 88da f33e 45d0 cfbe 9139 04bf
00000250: 1818 b03e 432f 3fbd 61b6 0e3e fffb aebe
00000260: a9d9 72be 67ba fb3e 12dd 33bf 95d5 9b3e
00000270: dce0 263f fd7e 9b3e 682f a6be 36e5 c93e
00000280: 285a 8d3e 5c96 4bbe 68e8 9dbd 47af 36bd
00000290: f0f5 e63d 4acf 32be a578 ad3a b81f 1dbe
000002a0: 2d69 b23e 4190 2ebc a813 d03e 78be 503f
000002b0: 7aaa 073e 6488 ba3e 544f 77be d477 1cbe
000002c0: 7984 12be 6e22 15be 0dee 7b3e 1425 adbd
000002d0: eefb 9ebe 6a3d 9fbe 5273 05be 2317 913e
000002e0: 1aca 7e3d 6082 5a3e 04d1 b6be 047e 3c3e
000002f0: 9af3 c0be fa3c 5dbe 0605 1c3e 201d 203e
00000300: b967 52be 075a 4a3d b075 293f 9fd6 ee3e
00000310: 1bea ba3b ff94 afbe a158 463e 1381 443e
00000320: 1117 973d a234 ac3d 6e4d f4be ed38 b43e
00000330: b01f 33bc 6ce0 0d3e ff77 483e ec23 0b3f
00000340: 3d83 da3d 1a77 abbd 9249 a7be 6796 a23e
00000350: 3855 873d 231a ab3e 539e 96be d660 7cbe
00000360: 7a38 9d3b e7f2 073d aeb9 49be 5b12 04bf
00000370: 011c 96bd b24a 48be 783b 623e 985b 3fbe
00000380: f6cf 233e 976c a33e 6462 9cbe 776e e8be
00000390: a8e6 763e 1f97 49be b8dc 4d3e e2c8 8abe
000003a0: b6a7 cebe 6c96 0abf cbc7 5ebe ad53 7c3e
000003b0: 0aa7 a83e 83e3 59bd 7f41 87bc 159b e7bd
000003c0: 343a 503e 0902 c3bc 6f87 63be 253b 0d3f
000003d0: 93e8 8e3e adba 3c3f 34eb cabe 6155 313e
000003e0: 8bf6 a43e beca 2fbe ff63 06bf 398d 39bd
000003f0: 5d26 77bd e034 fabe 0ddc 3bbd 5054 333e

network_body._body_endoder.seq_layers.2.bias f4 [128]
0.027138595 -0.0005494065 0.03930325 -0.0036727518 0.0014589389 0.007832018 0.05130832 -0.038931083
-0.053393677 0.060060102 0.015708523 0.013554414 -0.013382596 0.007032561 0.07686883 0.009511228
0.0053403233 -0.07757051 0.024084125 0.036505416 0.0077128448 0.055802356 0.02524307 -0.0056279832
0.012610452 -0.0030255108 0.049742654 0.03157696 0.027458474 0.02172565 -0.0057504643 0.0623492
0.03076468 0.060919307 0.014593766 0.0014992974 0.007841851 0.063801706 0.071764156 0.035343602
0.04296108 0.002730585 -0.050805945 0.03793704 0.024762489 0.022417141 0.011272759 0.029144915
0.068798 0.040285688 0.064017326 0.04732141 0.0133037 0.05421042 0.029985936 -0.08566593
0.05426744 0.05801317 -0.035032433 0.06439491 0.0068750842 0.060745664 0.0671063 0.06284171
0.03141297 0.031200485 0.072397776 0.053088818 0.030781647 0.047888428 0.072898276 0.008439977
-0.04026243 -0.08076272 0.0046697534 0.023767443 -0.07749647 0.02410285 -0.0006069344 0.048276924
0.081067756 0.05701537 0.002203414 0.065932564 0.017313207 0.03859177 0.015073336 0.07159727
0.07395855 0.07579505 0.052063897 0.011342444 0.055707287 -0.07565505 -0.0019670792 -0.013448418
0.0774013 0.034208626 0.0120005105 0.062334456 0.032117587 0.00028215564 0.07210416 -0.026055004
0.055533692 0.0146567095 0.032659482 0.013224627 0.03687965 0.06482533 0.030380487 -0.022314075
-0.0073661306 -0.014685831 -0.009964091 -0.02408002 0.023802405 0.061951 0.055632886 0.02131773
0.036475416 0.06046989 0.031373993 -0.0067170984 -0.0009803838 0.011209565 -0.080121495 0.06981419
00000000: c251 de3c 0c06 10ba 72fc 203d 8db2 70bb
00000010: de39 bf3a dd51 003c ac28 523d 3376 1fbd
00000020: 54b3 5abd 9501 763d 29af 803c 5513 5e3c
00000030: ad42 5bbc 6671 e63b 686d 9d3d fbd4 1b3c
00000040: e1fd ae3b 4add 9ebd 124c c53c b486 153d
00000050: 08bc fc3b 0391 643d 8eca ce3c f26a b8bb
00000060: 129c 4e3c a647 46bb f4be 4b3d d856 013d
00000070: 98f0 e03c fef9 b13c 646e bcbb e061 7f3d
00000080: 3606 fc3c 8686 793d b11a 6f3c 1384 c43a
00000090: 1b7b 003c 78aa 823d 16f9 923d 74c4 103d
000000a0: f5f7 2f3d 9df3 323b e519 50bd df63 1b3d
000000b0: b4da ca3c 27a4 b73c 61b1 383c 51c1 ee3c
000000c0: f7e5 8c3d 9b02 253d 841b 833d 18d4 413d
000000d0: c3f7 593c bf0b 5e3d 11a5 f53c 9e71 afbd
000000e0: 8947 5e3d 389f 6d3d 2b7e 0fbd 7be1 833d
000000f0: 6348 e13b 72d0 783d 076f 893d 28b3 803d
00000100: e3aa 003d 2998 ff3c 4945 943d a973 593d
00000110: cb29 fc3c a826 443d b14b 953d d447 0a3c
00000120: 38ea 24bd ed66 a5bd bb04 993b f1b3 c23c
00000130: 78b6 9ebd 5773 c53c ae1a 1fba 06be 453d
00000140: da06 a63d f388 693d 2767 103b a707 873d
00000150: 6dd4 8d3c 6712 1e3d 27f6 763c 97a1 923d
00000160: 9577 973d 6f3a 9b3d f440 553d a9d5 393c
00000170: 532d 643d 09f1 9abd 1dea 00bb c156 5cbc
00000180: 9384 9e3d 581e 0c3d ca9d 443c 6a52 7f3d
00000190: bb8d 033d 4aee 9339 59ab 933d 4e71 d5bc
000001a0: 4c77 633d b222 703c f3c5 053d 1bac 583c
000001b0: 1e0f 173d 25c3 843d 80e0 f83c 02cc b6bc
000001c0: 955f f1bb d79c 70bc 6d40 23bc 7643 c5bc
000001d0: 43fd c23c 55c0 7d3d 4fdf 633d 85a2 ae3c
000001e0: 3f67 153d 46af 773d 0482 003d 1b1b dcbb
000001f0: 3980 80ba 53a8 373c bd16 a4bd befa 8e3d

network_body._body_endoder.seq_layers.2.weight f4 [128, 128]
-0.07726984 -0.15740581 -0.00016380147 0.038687717 0.07378982 -0.02716918 0.13809241 0.08474832
0.06470578 -0.016668407 -0.10029163 0.034718778 -0.021812692 0.04046269 -0.050137777 -0.10596114
-0.12766266 -0.07360847 0.24327539 -0.1850095 -0.13245311 0.16447121 0.086912766 -0.06701757
-0.17869657 0.26650098 0.09037888 -0.029428042 -0.12582502 -0.26482472 -0.13942865 0.074200645
0.2108791 -0.23235272 -0.2177397 -0.0055079777 -0.0077061234 0.0011632673 0.051033698 0.010072328
-0.024041146 0.059090577 -0.018663187 -0.054752115 0.23651753 0.017659599 0.14024903 0.1014034
-0.12339525 -0.07644782 0.15534602 -0.019741066 0.09373323 -0.020926313 0.120488845 0.118341856
-0.020368448 -0.006442294 0.06665456 -0.063176714 0.14469782 0.09658283 -0.009147598 0.076746844
-0.07660841 -0.061501976 -0.005693423 0.13663867 0.011293239 -0.2543382 -0.08834555 0.04908789
0.18399227 0.028928151 0.052419078 -0.09569822 -0.1502505 0.017789315 -0.046406697 0.07327723
0.24644832 0.0020778268 0.23831736 -0.02538258 0.030371753 -0.10905757 -0.074783124 0.06472481
-0.091467515 -0.14130071 -0.12914993 0.05564328 -0.0011366536 0.2411505 -0.09350539 0.06247003
-0.065153845 0.039148226 0.014504838 -0.12849492 -0.13158344 -0.037704993 0.09168241 -0.023323057
-0.037558805 0.048602484 -0.05337034 0.0763221 0.06704787 -0.10165789 0.020526515 0.22341238
0.086262904 -0.059163105 -0.013365717 0.12712094 0.0012269854 -0.07148641 0.16123618 -0.15918228
-0.017603999 -0.12917688 0.13752452 0.049375996 -0.04231098 0.14649406 -0.07476869 -0.037145346
-0.031386845 -0.021561196 0.10198622 -0.254312 0.13691735 0.13149518 0.18699975 0.06670692
0.096267685 0.0024567933 0.0162644 0.07924479 -0.03836717 0.11159163 0.10877916 -0.07032145
-0.16569375 0.028505277 0.12864502 -0.060620274 -0.12683092 -0.041115344 0.15385376 0.062268265
-0.042557683 0.086075254 0.14903343 0.025906464 -0.117196605 -0.10192443 0.070327364 -0.020118518
-0.023696402 -0.084576204 -0.18830031 -0.02228219 -0.018365834 0.0043095495 0.16292723 -0.07871932
-0.03787868 -0.026487539 -0.2671423 -0.040551763 0.0029646833 0.020373426 0.12996234 -0.0460014
0.016150314 -0.1781041 -0.20354031 -0.22227429 0.04017703 -0.061169215 0.026126571 0.01186382
0.033253558 -0.0009879918 0.11085542 -0.055514906 0.04683406 0.10576634 -0.029466366 -0.06791732
0.18397589 -0.11378224 0.13411196 0.10869897 -0.06812736 -0.012698174 -0.012485734 0.00018787471
0.037459403 0.01992036 0.09019055 -0.07914833 -0.06647605 0.12490957 -0.04576047 0.10098608
0.115026206 -0.22058833 0.07892925 -0.19461691 -0.25782856 -0.058311757 0.05301339 0.0989664
-0.23321867 -0.002411423 -0.14115642 0.2263589 0.06286177 -0.03748433 -0.12674399 0.075889036
-0.03109657 0.13152911 -0.11844838 -0.20364575 -0.021932287 -0.06979702 0.022357138 0.07537115
0.053316507 0.029459935 -0.11695538 -0.11672116 0.00019126714 -0.20013797 0.0547006 0.029246502
0.08921913 -0.13972569 -0.124644354 0.0926396 0.14911467 -0.07864147 0.10023069 0.0033122543
-0.16622189 -0.014125983 0.059497084 0.26711333 0.15418647 -0.0118141025 -0.07956384 0.07231492
00000000: a63f 9ebd fd2e 21be 1fc2 2bb9 0377 1e3d
00000010: 1e1f 973d e691 debc 1968 0d3e 8790 ad3d
00000020: 7784 843d 2f8c 88bc b365 cdbd 4735 0e3d
00000030: 88b0 b2bc 35bc 253d 455d 4dbd 2702 d9bd
00000040: 00ba 02be 0ac0 96bd 2f1d 793e 2173 3dbe
00000050: caa1 07be 246b 283e 52ff b13d 8240 89bd
00000060: 3cfc 36be d172 883e 9018 b93d 1413 f1bc
00000070: 46d8 00be 1b97 87be 62c6 0ebe 82f6 973d
00000080: b1f0 573e dfed 6dbe 28f7 5ebe 447c b4bb
00000090: a683 fcbb c678 983a b608 513d 6806 253c
000000a0: f0f1 c4bc f608 723d 8ae3 98bc c143 60bd
000000b0: a731 723e ddaa 903c 719d 0f3e 96ac cf3d
000000c0: a6b6 fcbd ad90 9cbd 0713 1f3e 04b8 a1bc
000000d0: 35f7 bf3d a96d abbc dbc2 f63d 375d f23d
000000e0: bbdb a6bc e119 d3bb 3082 883d cb62 81bd
000000f0: aa2b 143e 38cd c53d cfdf 15bc 732d 9d3d
00000100: dfe4 9cbd 7fe9 7bbd e58f babb 02eb 0b3e
00000110: 4707 393c 9e38 82be 83ee b4bd 6210 493d
00000120: 7868 3c3e bbfa ec3c 63b5 563d 6efd c3bd
00000130: 44db 19be e6ba 913c f314 3ebd 5f12 963d
00000140: f35c 7c3e 262c 083b 7709 743e 21ef cfbc
00000150: 2fce f83c 9359 dfbd e527 99bd 718e 843d
00000160: 5253 bbbd 22b1 10be e13f 04be 35ea 633d
00000170: c4fb 94ba 28f0 763e c17f bfbd 93e0 7f3d
00000180: 616f 85bd e459 203d b3a5 6d3c 2c94 03be
00000190: cfbd 06be 8d70 1abd fdc3 bb3d ff0f bfbc
000001a0: 43d7 19bd 6613 473d dc9a 5abd c34e 9c3d
000001b0: 6550 893d 0332 d0bd 3927 a83c 37c6 643e
000001c0: 9baa b03d 0355 72bd e1fb 5abc fe2b 023e
000001d0: ccd2 a03a 7867 92bd 191b 253e ae00 23be
000001e0: 4336 90bc f246 04be 3ad3 0c3e 7c3e 4a3d
000001f0: 474e 2dbd 8a02 163e 5420 99bd b825 18bd
00000200: 7e8f 00bd 1ba1 b0bc 27de d03d 2f35 82be
00000210: 1034 0c3e aca6 063e dd7c 3f3e a39d 883d
00000220: fe27 c53d 2702 213b eb3c 853c 184b a23d
00000230: e526 1dbd 278a e43d 9cc7 de3d b104 90bd
00000240: 9fab 29be e683 e93c 85bb 033e f74c 78bd
00000250: f7df 01be 9068 28bd d78b 1d3e 020d 7f3d
00000260: f750 2ebd 3948 b03d 389c 183e cb39 d43c
00000270: c604 f0bd c1bd d0bd cb07 903d 97cf a4bc
00000280: f51e c2bc 4a36 adbd ccd1 40be 2489 b6bc
00000290: f273 96bc 1f37 8d3b 65d6 263e 9837 a1bd
000002a0: ad26 1bbd 65fc d8bc e0c6 88be 9b19 26bd
000002b0: 224b 423b 2ce6 a63c d914 053e f76b 3cbd
000002c0: aa4d 843c ec60 36be df6c 50be df9b 63be
000002d0: ab90 243d 928c 7abd 6407 d63c 7860 423c
000002e0: e234 083d 817f 81ba 2b08 e33d 9963 63bd
000002f0: 12d5 3f3d 069c d83d 7363 f1bc 3c18 8bbd
00000300: 2d64 3c3e aa06 e9bd a554 093e 919d de3d
00000310: 5b86 8bbd 010c 50bc f790 4cbc 3c00 4539
00000320: 086f 193d 0630 a33c d3b5 b83d 8518 a2bd
00000330: 9824 88bd 97d0 ff3d 556f 3bbd cad1 ce3d
00000340: dc92 eb3d e8e1 61be a9a5 a13d a849 47be
00000350: 1b02 84be 4fd8 6ebd 9224 593d e5ae ca3d
00000360: e0d0 6ebe f708 1ebb 4f8b 10be a1ca 673e
00000370: acbd 803d 2b89 19bd 2dc9 01be b66b 9b3d
00000380: 3cbe febc 91af 063e 1095 f2bd 8388 50be
00000390: 57ab b3bc bdf1 8ebd 5126 b73c 315c 9a3d
000003a0: 6962 5a3d f655 f13c 4d86 efbd 810b efbd
000003b0: e28e 4839 f8f0 4cbe bd0d 603d 5c96 ef3c
000003c0: 85b8 b63d 4014 0fbe 8a45 ffbd d5b9 bd3d
000003d0: 84b1 183e c70e a1bd bf45 cd3d 6812 593b
000003e0: 1236 2abe ab70 67bc 37b3 733d 14c3 883e
000003f0: 0fe3 1d3e f08f 41bc 5ef2 a2bd d819 943d
