Foosbots_MultiRod/results/train_1_1/Foosbots_MultiRod.onnx (onnx, 308209 bytes, 7 tensors)

action_model._continuous_distribution.log_sigma f4 [1, 8]
0	0x00000000	0.0
1	0x00000000	0.0
2	0x00000000	0.0
3	0x00000000	0.0
4	0x00000000	0.0
5	0x00000000	0.0
6	0x00000000	0.0
7	0x00000000	0.0

action_model._continuous_distribution.mu.bias f4 [8]
0	0x00000000	0.0
1	0x00000000	0.0
2	0x00000000	0.0
3	0x00000000	0.0
4	0x00000000	0.0
5	0x00000000	0.0
6	0x00000000	0.0
7	0x00000000	0.0

action_model._continuous_distribution.mu.weight f4 [8, 256]
0	0x3c4f10a3	0.012638244
1	0xbb535f20	-0.0032252744
2	0xbc97743b	-0.01848804
3	0x3cf6c5d3	0.030123627
4	0x3c3b2f4c	0.011424851
5	0x3b76715a	0.0037604184
6	0xbc7d5d28	-0.015464105
7	0x3c2661ae	0.010155125
8	0x3c46cee1	0.012134285
9	0xbc829deb	-0.015944442
10	0xbba04903	-0.004891516
11	0x3cf3f833	0.029781437
12	0x3ca7ef1b	0.020499757
13	0x3c9f0231	0.019410225
14	0xbc05d323	-0.008168015
15	0xbc964a79	-0.018346058
16	0xbc8ff757	-0.017573996
17	0xbc8c5c67	-0.017133905
18	0x3c2ab7cc	0.010419797
19	0xba6f0b9f	-0.0009118858
20	0x3ccc4cfe	0.024939056
21	0xbbc02c23	-0.0058646365
22	0x3b95a7cf	0.0045671235
23	0xbc5400f8	-0.012939684
24	0x3c3b0e93	0.011417049
25	0x3c5e5780	0.013570666
26	0xbbc9e783	-0.0061616316
27	0xbc0a5113	-0.008442181
28	0x3c09e6d3	0.008416849
29	0xbc3dce65	-0.011584853
30	0x3c1a0ead	0.009402913
31	0x3b201c75	0.0024431024
32	0x3bad5b7f	0.005290448
33	0xba83863b	-0.0010034511
34	0xbcce819a	-0.025208283
35	0x3bd9af22	0.006643192
36	0x3c204253	0.009781438
37	0x3c8075bf	0.015681146
38	0xbc53cdf8	-0.012927525
39	0xbb00853a	-0.001961066
40	0x3c526cca	0.01284332
41	0x3b4b29e3	0.0031000308
42	0xbc1d8c7e	-0.0096160155
43	0xbc21ae03	-0.009868148
44	0xbcc9ea60	-0.024647892
45	0x3c188fe0	0.009311646
46	0x3c846869	0.016163068
47	0xbc36336b	-0.011120657
48	0xbc1d9ef1	-0.009620414
49	0xbbe0b117	-0.0068570483
50	0x3c155d97	0.009116552
51	0xbc4f0cf8	-0.012637369
52	0xbc3ecc09	-0.011645325
53	0x3c34ab77	0.0110272085
54	0xbc965b37	-0.018354042
55	0x3bc02d60	0.005864784
56	0x3c4428f5	0.011972656
57	0x3c90716f	0.017632214
58	0xbc567265	-0.013088797
59	0xbc9fdbad	-0.01951393
60	0xbc09ba98	-0.008406304
61	0x3aa84858	0.0012838943
62	0xba8742f3	-0.0010319635
63	0xba833648	-0.0010010684
64	0x3c57ed10	0.013179079
65	0xbae415cd	-0.0017401517
66	0x3aba78ef	0.0014226715
67	0x39f44052	0.0004658723
68	0xbbdd690f	-0.0067569087
69	0x3c0043d8	0.007828675
70	0x3c7207a0	0.014772326
71	0xbc905e5f	-0.017623125
72	0x3c04ab91	0.008097545
73	0xbc4d386b	-0.012525658
74	0xbae6a080	-0.001759544
75	0x3b49331f	0.0030700637
76	0xba5347d8	-0.0008059717
77	0xbc8e5f0f	-0.017379312
78	0xbc1aa1c5	-0.009437983
79	0xba067dc4	-0.0005130435
80	0xbca446b9	-0.020053254
81	0xbce7c6da	-0.028293062
82	0x3c882beb	0.016622504
83	0xbba1a43f	-0.0049329097
84	0x3abaaaa7	0.0014241532
85	0x3c8e170f	0.01734498
86	0xba9a62f3	-0.0011778757
87	0xbc604b9d	-0.013689903
88	0x3b991968	0.004672218
89	0x3b86cb50	0.004113592
90	0xbc6698dd	-0.014074531
91	0x3bd80a4a	0.0065930234
92	0x3bc56363	0.0060238107
93	0x3aeb03ab	0.001793017
94	0xbc314067	-0.010818577
95	0xbc334631	-0.010942028
96	0x3c579f38	0.013160519
97	0xbac43cce	-0.0014971734
98	0xbcb481fe	-0.022034641
99	0x3c5a715d	0.013332692
100	0xbb3cd9fe	-0.0028816457
101	0xbb7e8348	-0.0038835574
102	0x3bb8c6e4	0.005638944
103	0x3b7ce6aa	0.0038589635
104	0x3be9a08d	0.007129735
105	0x3c1fd786	0.009755975
106	0xbc22e86b	-0.009943108
107	0x3b3ed9f7	0.0029121616
108	0xbc44f80f	-0.012022032
109	0x3c3624b7	0.011117152
110	0x3c262cc1	0.010142506
111	0x3b38512d	0.0028124556
112	0x3bf952cb	0.0076087466
113	0x3c090fd4	0.00836559
114	0xbb987bab	-0.0046534142
115	0x3cb9a9c5	0.02266396
116	0xbb685cb8	-0.0035455655
117	0xbbcb60eb	-0.006206622
118	0x3c8568bc	0.016285293
119	0xbb4cfd35	-0.0031278853
120	0x3c3a244b	0.011361192
121	0x3b5d54d7	0.0033772492
122	0xbc8cc791	-0.017185004
123	0x3bf300ef	0.007415883
124	0x3b72cf92	0.003704999
125	0x3c53c587	0.012925512
126	0x3b97569f	0.0046184803
127	0xbc0d7b79	-0.008635395
128	0x3c3bd27f	0.01146376
129	0x39a64800	0.00031715631
130	0xbc131db0	-0.008979246
131	0xbb8d2f73	-0.004308635
132	0x3c20ef26	0.009822642
133	0x3c3f016d	0.011658055
134	0xb9c84931	-0.00038201505
135	0x3c76ee13	0.01507141
136	0xbbc13de0	-0.0058972687
137	0x3cbb4677	0.022860749
138	0xbbc022d5	-0.0058635273
139	0x3be1a49d	0.0068860785
140	0xbb901022	-0.0043964544
141	0x3c2a79b2	0.010404991
142	0x3c054451	0.008133964
143	0xbc8b716f	-0.017021863
144	0xb96225e3	-0.00021567153
145	0xbae0fe3a	-0.0017165609
146	0xbc2a068c	-0.010377537
147	0xbc7791d5	-0.015110453
148	0xbbcf83ab	-0.0063328347
149	0x3bc81d03	0.006106974
150	0xba81889f	-0.0009882635
151	0xbbbdff03	-0.005798222
152	0xbb0384c4	-0.0020068148
153	0xba91cda8	-0.0011123912
154	0xbc81069e	-0.015750226
155	0x3aff739d	0.0019489411
156	0xbc39171c	-0.011297014
157	0x3ba84c3b	0.0051360405
158	0xbb9d5841	-0.0048017805
159	0xbaa21237	-0.0012365048
160	0xbb4c4ad3	-0.0031172528
161	0xbd0066bb	-0.03134797
162	0x3c887533	0.016657447
163	0x3b604d0b	0.0034225609
164	0x3bb3e935	0.005490447
165	0xbba83ace	-0.005133963
166	0xbc155bd5	-0.009116133
167	0x3c83fcbf	0.01611173
168	0x3bc0d42a	0.005884667
169	0x3c9dd592	0.019266877
170	0xbb93518b	-0.0044958047
171	0x3c2dfc36	0.010619214
172	0x3c1eaaf1	0.00968431
173	0xbae3aedd	-0.0017370839
174	0xbc0b1850	-0.008489683
175	0x3cd0a82d	0.025470817
176	0xbc3c2853	-0.011484223
177	0x3b67738a	0.003531667
178	0xbbeb4368	-0.0071796663
179	0xbc35d67d	-0.011098501
180	0xbc0a1664	-0.00842819
181	0x3bb0bb4b	0.005393421
182	0x3c02060a	0.00793601
183	0xbcc2d5ec	-0.023783647
184	0x3a990840	0.0011675432
185	0x3c2bd122	0.010486873
186	0xbb4436ef	-0.002993997
187	0x3b452b41	0.0030085596
188	0xbc20b946	-0.009809798
189	0xbc9e8a92	-0.019353185
190	0xbc4c0e92	-0.012454646
191	0x393d2afe	0.0001804046
192	0x3ccccd22	0.025000159
193	0x3ac77993	0.0015218727
194	0xbadad50b	-0.0016695572
195	0xba72620d	-0.0009246178
196	0x3b0f883a	0.0021901266
197	0xbb54f8d5	-0.0032496948
198	0xbc5edf28	-0.013603009
199	0xbce67c60	-0.028135478
200	0x3bafee58	0.005368989
201	0x3babf2fb	0.0052474714
202	0xbb74f08b	-0.003737482
203	0x3b03b1e8	0.0020095054
204	0xbc6dff9b	-0.014526273
205	0x3c37007a	0.011169547
206	0xbb93d040	-0.0045109093
207	0x3c5c786d	0.013456446
208	0x39ff6768	0.00048714434
209	0x3c80168d	0.015635753
210	0x3be73c8a	0.0070567774
211	0x3b9d8b25	0.004807847
212	0xbc60e435	-0.013726284
213	0xbc210568	-0.009827949
214	0xbb8a3fe7	-0.0042190435
215	0x3ad17bc5	0.0015982321
216	0xbc78218d	-0.015144718
217	0xbcb18465	-0.021669576
218	0xbc3ea39f	-0.01163569
219	0xba7169cd	-0.0009209186
220	0x3bfcaad0	0.007710792
221	0x3b0e747c	0.002173691
222	0x3bf72038	0.0075416826
223	0x3ba268a4	0.004956322
224	0xb98dcecf	-0.000270477
225	0x3b24b2ba	0.0025130943
226	0xbbe8b268	-0.007101346
227	0x3c95034c	0.018190049
228	0xbc8fb7b0	-0.017543644
229	0xbc86e7a3	-0.016467875
230	0x3ad5b5d5	0.00163048
231	0x3ba7d370	0.005121641
232	0x3c54b6a7	0.012983001
233	0xbc8c9f97	-0.017165942
234	0xbcb9cd86	-0.022681009
235	0xbb559f65	-0.0032596227
236	0xbc3f008e	-0.011657847
237	0xbca49980	-0.020092726
238	0xbaf627b8	-0.0018780148
239	0xbba366b2	-0.0049866075
240	0xbc085feb	-0.00832365
241	0xbbf2538f	-0.007395215
242	0xbc3c73a5	-0.011502181
243	0x3bdd630d	0.0067561925
244	0xbc90486d	-0.01761266
245	0x3b7ffd97	0.0039061063
246	0xbca5287a	-0.020160902
247	0x3b826327	0.003979105
248	0xbc9baac1	-0.01900232
249	0x3c65fb13	0.014036912
250	0x3ba2a978	0.00496405
251	0xbc382045	-0.011238162
252	0xbaf65d8d	-0.0018796191
253	0xbb9d1edb	-0.004794938
254	0x3c328474	0.010895837
255	0x3c9efaa3	0.019406622

network_body._body_endoder.seq_layers.0.bias f4 [256]
0	0x00000000	0.0
1	0x00000000	0.0
2	0x00000000	0.0
3	0x00000000	0.0
4	0x00000000	0.0
5	0x00000000	0.0
6	0x00000000	0.0
7	0x00000000	0.0
8	0x00000000	0.0
9	0x00000000	0.0
10	0x00000000	0.0
11	0x00000000	0.0
12	0x00000000	0.0
13	0x00000000	0.0
14	0x00000000	0.0
15	0x00000000	0.0
16	0x00000000	0.0
17	0x00000000	0.0
18	0x00000000	0.0
19	0x00000000	0.0
20	0x00000000	0.0
21	0x00000000	0.0
22	0x00000000	0.0
23	0x00000000	0.0
24	0x00000000	0.0
25	0x00000000	0.0
26	0x00000000	0.0
27	0x00000000	0.0
28	0x00000000	0.0
29	0x00000000	0.0
30	0x00000000	0.0
31	0x00000000	0.0
32	0x00000000	0.0
33	0x00000000	0.0
34	0x00000000	0.0
35	0x00000000	0.0
36	0x00000000	0.0
37	0x00000000	0.0
38	0x00000000	0.0
39	0x00000000	0.0
40	0x00000000	0.0
41	0x00000000	0.0
42	0x00000000	0.0
43	0x00000000	0.0
44	0x00000000	0.0
45	0x00000000	0.0
46	0x00000000	0.0
47	0x00000000	0.0
48	0x00000000	0.0
49	0x00000000	0.0
50	0x00000000	0.0
51	0x00000000	0.0
52	0x00000000	0.0
53	0x00000000	0.0
54	0x00000000	0.0
55	0x00000000	0.0
56	0x00000000	0.0
57	0x00000000	0.0
58	0x00000000	0.0
59	0x00000000	0.0
60	0x00000000	0.0
61	0x00000000	0.0
62	0x00000000	0.0
63	0x00000000	0.0
64	0x00000000	0.0
65	0x00000000	0.0
66	0x00000000	0.0
67	0x00000000	0.0
68	0x00000000	0.0
69	0x00000000	0.0
70	0x00000000	0.0
71	0x00000000	0.0
72	0x00000000	0.0
73	0x00000000	0.0
74	0x00000000	0.0
75	0x00000000	0.0
76	0x00000000	0.0
77	0x00000000	0.0
78	0x00000000	0.0
79	0x00000000	0.0
80	0x00000000	0.0
81	0x00000000	0.0
82	0x00000000	0.0
83	0x00000000	0.0
84	0x00000000	0.0
85	0x00000000	0.0
86	0x00000000	0.0
87	0x00000000	0.0
88	0x00000000	0.0
89	0x00000000	0.0
90	0x00000000	0.0
91	0x00000000	0.0
92	0x00000000	0.0
93	0x00000000	0.0
94	0x00000000	0.0
95	0x00000000	0.0
96	0x00000000	0.0
97	0x00000000	0.0
98	0x00000000	0.0
99	0x00000000	0.0
100	0x00000000	0.0
101	0x00000000	0.0
102	0x00000000	0.0
103	0x00000000	0.0
104	0x00000000	0.0
105	0x00000000	0.0
106	0x00000000	0.0
107	0x00000000	0.0
108	0x00000000	0.0
109	0x00000000	0.0
110	0x00000000	0.0
111	0x00000000	0.0
112	0x00000000	0.0
113	0x00000000	0.0
114	0x00000000	0.0
115	0x00000000	0.0
116	0x00000000	0.0
117	0x00000000	0.0
118	0x00000000	0.0
119	0x00000000	0.0
120	0x00000000	0.0
121	0x00000000	0.0
122	0x00000000	0.0
123	0x00000000	0.0
124	0x00000000	0.0
125	0x00000000	0.0
126	0x00000000	0.0
127	0x00000000	0.0
128	0x00000000	0.0
129	0x00000000	0.0
130	0x00000000	0.0
131	0x00000000	0.0
132	0x00000000	0.0
133	0x00000000	0.0
134	0x00000000	0.0
135	0x00000000	0.0
136	0x00000000	0.0
137	0x00000000	0.0
138	0x00000000	0.0
139	0x00000000	0.0
140	0x00000000	0.0
141	0x00000000	0.0
142	0x00000000	0.0
143	0x00000000	0.0
144	0x00000000	0.0
145	0x00000000	0.0
146	0x00000000	0.0
147	0x00000000	0.0
148	0x00000000	0.0
149	0x00000000	0.0
150	0x00000000	0.0
151	0x00000000	0.0
152	0x00000000	0.0
153	0x00000000	0.0
154	0x00000000	0.0
155	0x00000000	0.0
156	0x00000000	0.0
157	0x00000000	0.0
158	0x00000000	0.0
159	0x00000000	0.0
160	0x00000000	0.0
161	0x00000000	0.0
162	0x00000000	0.0
163	0x00000000	0.0
164	0x00000000	0.0
165	0x00000000	0.0
166	0x00000000	0.0
167	0x00000000	0.0
168	0x00000000	0.0
169	0x00000000	0.0
170	0x00000000	0.0
171	0x00000000	0.0
172	0x00000000	0.0
173	0x00000000	0.0
174	0x00000000	0.0
175	0x00000000	0.0
176	0x00000000	0.0
177	0x00000000	0.0
178	0x00000000	0.0
179	0x00000000	0.0
180	0x00000000	0.0
181	0x00000000	0.0
182	0x00000000	0.0
183	0x00000000	0.0
184	0x00000000	0.0
185	0x00000000	0.0
186	0x00000000	0.0
187	0x00000000	0.0
188	0x00000000	0.0
189	0x00000000	0.0
190	0x00000000	0.0
191	0x00000000	0.0
192	0x00000000	0.0
193	0x00000000	0.0
194	0x00000000	0.0
195	0x00000000	0.0
196	0x00000000	0.0
197	0x00000000	0.0
198	0x00000000	0.0
199	0x00000000	0.0
200	0x00000000	0.0
201	0x00000000	0.0
202	0x00000000	0.0
203	0x00000000	0.0
204	0x00000000	0.0
205	0x00000000	0.0
206	0x00000000	0.0
207	0x00000000	0.0
208	0x00000000	0.0
209	0x00000000	0.0
210	0x00000000	0.0
211	0x00000000	0.0
212	0x00000000	0.0
213	0x00000000	0.0
214	0x00000000	0.0
215	0x00000000	0.0
216	0x00000000	0.0
217	0x00000000	0.0
218	0x00000000	0.0
219	0x00000000	0.0
220	0x00000000	0.0
221	0x00000000	0.0
222	0x00000000	0.0
223	0x00000000	0.0
224	0x00000000	0.0
225	0x00000000	0.0
226	0x00000000	0.0
227	0x00000000	0.0
228	0x00000000	0.0
229	0x00000000	0.0
230	0x00000000	0.0
231	0x00000000	0.0
232	0x00000000	0.0
233	0x00000000	0.0
234	0x00000000	0.0
235	0x00000000	0.0
236	0x00000000	0.0
237	0x00000000	0.0
238	0x00000000	0.0
239	0x00000000	0.0
240	0x00000000	0.0
241	0x00000000	0.0
242	0x00000000	0.0
243	0x00000000	0.0
244	0x00000000	0.0
245	0x00000000	0.0
246	0x00000000	0.0
247	0x00000000	0.0
248	0x00000000	0.0
249	0x00000000	0.0
250	0x00000000	0.0
251	0x00000000	0.0
252	0x00000000	0.0
253	0x00000000	0.0
254	0x00000000	0.0
255	0x00000000	0.0

network_body._body_endoder.seq_layers.0.weight f4 [256, 33]
0	0x3dacd84c	0.08439693
1	0xbdd87e0e	-0.10570918
2	0xbe1aa121	-0.15100528
3	0xbd89cf47	-0.06728988
4	0xbe304950	-0.17215466
5	0x3e757025	0.23968561
6	0xbe08ed2e	-0.13371727
7	0x3e3da6d3	0.1852067
8	0xbc47b791	-0.012189762
9	0x3bf1632c	0.0073665585
10	0xbce04c3d	-0.027380103
11	0xbe055cf8	-0.13023746
12	0xbebf5931	-0.37372735
13	0x3dbd5a3e	0.09245728
14	0x3eb85666	0.36003417
15	0x3e0e247d	0.13881107
16	0xbe598f25	-0.21246012
17	0x3e2f4546	0.1711627
18	0x3e5d2d39	0.21599282
19	0xbe456dd2	-0.19280174
20	0x3db19f7a	0.08672996
21	0x3db3c200	0.08777237
22	0xbe365adc	-0.17808098
23	0xbd8ae135	-0.06781236
24	0x3e6f8766	0.23391494
25	0xbed4a04b	-0.41528544
26	0x3e272c96	0.16325602
27	0x3e075d1f	0.13219117
28	0xbeaa88c6	-0.33307475
29	0x3ebaaf7a	0.36462003
30	0xbc823a6a	-0.015896995
31	0xbe747083	-0.23871045
32	0x3ce9d834	0.028545476
33	0xbd6a5c90	-0.05721718
34	0x3d2bf122	0.04197801
35	0x3d8ed12b	0.069734894
36	0xbe489210	-0.19586968
37	0xbee64c4a	-0.4498008
38	0xbdf5fa85	-0.120106734
39	0xbd8f3440	-0.06992388
40	0x3e403d6d	0.18773432
41	0xbd975e08	-0.07390982
42	0xbd3c3d9c	-0.045957193
43	0x3e4e66b3	0.20156364
44	0xbd3773c1	-0.044788126
45	0x3da0c94f	0.078508966
46	0x3e8ffd87	0.28123114
47	0x3e15f93a	0.14645854
48	0xbe9c985a	-0.30584985
49	0x3e2a76cf	0.16646884
50	0xbdb7a82b	-0.08967622
51	0xbe42d7fc	-0.19027704
52	0xbe2a43e2	-0.16627458
53	0xbe81b73a	-0.25335103
54	0xbdc02e68	-0.09383851
55	0x3d983c1f	0.07433342
56	0x3e83e338	0.25759292
57	0x3c455e06	0.012046343
58	0x3dc037fb	0.093856774
59	0x3e4f3df7	0.20238481
60	0xbd7358d7	-0.059410896
61	0x3de710ed	0.11282525
62	0x3e38d6b4	0.18050653
63	0xbd915f6a	-0.07098277
64	0xbe0c8c4f	-0.13725398
65	0x396bf82f	0.00022503802
66	0xbea7f0db	-0.32800946
67	0x3d192c27	0.037395623
68	0xbebd97bd	-0.3702983
69	0x3e21cf53	0.15801744
70	0x3d9ae49d	0.07563136
71	0x3cf77325	0.030206272
72	0xbd025c57	-0.031826343
73	0x3e5b0dca	0.21391979
74	0xbcae916a	-0.021309573
75	0x3de72390	0.1128608
76	0x3dae9920	0.085253
77	0xbdebe899	-0.11518974
78	0x3df1b652	0.11802353
79	0xbda82ff2	-0.0821227
80	0xb9f53320	-0.00046768133
81	0xbeb017a3	-0.34393033
82	0xbabff4db	-0.0014645116
83	0x3e67168c	0.22567195
84	0xbe1a5128	-0.15070021
85	0xbe628ef5	-0.22124846
86	0xbc76f9fe	-0.015074251
87	0x3e343f9f	0.17602395
88	0xbe0b7189	-0.13617529
89	0x3e973fd6	0.2954089
90	0x3d9bdaae	0.07610069
91	0x3d8d429c	0.0689747
92	0x3cadbeb3	0.021209097
93	0x3e3b4c51	0.18290831
94	0x3dcc6a8c	0.0998126
95	0xbe028627	-0.12746488
96	0x3e800400	0.25003052
97	0xbdbc57a6	-0.09196405
98	0x3e8d2852	0.27569824
99	0xbea29a7f	-0.31758496
100	0x3d39f810	0.045402586
101	0x3e949c5e	0.2902555
102	0xbe7c961d	-0.24666639
103	0xbc32eb76	-0.010920396
104	0x3e487bca	0.19578472
105	0x3de81814	0.113327175
106	0xbd83a17a	-0.064272836
107	0xbe11ead5	-0.14249738
108	0xbe16a910	-0.1471293
109	0xbc9ca73c	-0.019122712
110	0x3db228e1	0.08699203
111	0x3e479d61	0.19493629
112	0x3cbd6aed	0.023122275
113	0x3e26e0fa	0.16296759
114	0x3d89b022	0.06723048
115	0xbd6fe945	-0.058572073
116	0xbc861044	-0.016365178
117	0xbe6bef4a	-0.230405
118	0x3e0b9fff	0.13635252
119	0xbd26fc3e	-0.0407679
120	0x3dd95278	0.10611433
121	0x3d6496b2	0.055807777
122	0xbd3097f0	-0.04311365
123	0x3cf3cb33	0.029759979
124	0x3ea7cfa6	0.3277561
125	0xbdcdf967	-0.10057335
126	0x39da311b	0.00041616787
127	0xbe02e930	-0.12784266
128	0xbe451883	-0.19247632
129	0x3e9716f1	0.2950969
130	0x3e33a2c1	0.17542554
131	0x3de7f074	0.1132516
132	0xbe7e2518	-0.24818838
133	0xbd46eca1	-0.04856551
134	0x3dd951c0	0.10611296
135	0x3e09c81c	0.13455242
136	0xbe36bd28	-0.17845595
137	0x3ebeef4f	0.37291953
138	0xbdfce1c7	-0.12347751
139	0xbd9e732f	-0.07736813
140	0xbda70de9	-0.0815695
141	0x3e4e6446	0.20155439
142	0x3eeef153	0.4666849
143	0x3e29d070	0.16583419
144	0xbcb0ab3e	-0.02156603
145	0x3e60a768	0.2193886
146	0x3e2caff1	0.16863991
147	0x3dba0c65	0.09084395
148	0xbd66961b	-0.056295495
149	0xbbc8b8ef	-0.0061255614
150	0x3d16ddd7	0.036832657
151	0x3d5d3443	0.05400492
152	0xbdc45de7	-0.09588223
153	0xbdcb3973	-0.09923067
154	0xbdb43cfa	-0.08800693
155	0xbeadd75f	-0.33953378
156	0xbc0a0791	-0.0084246555
157	0x3c9c18d3	0.019054806
158	0x3debd0fc	0.1151447
159	0x3e1f79b0	0.15573764
160	0xbec0dfc6	-0.37670726
161	0xbe8a52ad	-0.27016202
162	0x3c0302d6	0.007996282
163	0x3e2e9d29	0.1705214
164	0x3d8179fa	0.06322093
165	0xbd1bb2db	-0.038012367
166	0x3b43b289	0.0029861054
167	0xbe6e97ac	-0.23300046
168	0x3d67767b	0.056509476
169	0x3e300f03	0.17193227
170	0xbe753900	-0.23947525
171	0xbd82d595	-0.06388394
172	0x3e6b17ff	0.22958373
173	0x3dc4b61f	0.09605049
174	0x3e97f5b9	0.2967966
175	0x3d33c8cc	0.043892667
176	0x3cf3197b	0.029675236
177	0xbc457288	-0.012051232
178	0x3ed11003	0.40832528
179	0xbe17b375	-0.14814551
180	0xbe0b04ea	-0.13576093
181	0x3e7bbea1	0.24584438
182	0x3e497c00	0.19676208
183	0x3be50d8a	0.0069901394
184	0x3e837e41	0.25682262
185	0x3ca9db3c	0.020734422
186	0x3e7e02f7	0.24805818
187	0x3e6301b9	0.22168626
188	0x3e17bd69	0.14818348
189	0x3cee9105	0.029121885
190	0xbe843f20	-0.2582941
191	0x3ea4207b	0.3205603
192	0x3d6a4569	0.0571951
193	0xbd9eafb8	-0.077483594
194	0xbe8b34a0	-0.27188587
195	0x3e229bf7	0.15879808
196	0x3e7e0647	0.24807082
197	0x3dca269d	0.09870646
198	0x3d274530	0.040837467
199	0xbe23940a	-0.15974441
200	0x3e83458a	0.25638992
201	0xbdac6808	-0.0841828
202	0xbe09c1d9	-0.13452853
203	0xbde19b29	-0.110159226
204	0x3dfc9ccc	0.12334594
205	0xbe51bb82	-0.20481685
206	0x3c88c62d	0.01669606
207	0xbe0175ce	-0.12642595
208	0x3dfbe996	0.12300412
209	0x3e650dbc	0.2236852
210	0x3e857f43	0.26073655
211	0x3e2e40e3	0.1701694
212	0x3e15b1c2	0.1461859
213	0x3d70eb4f	0.058818158
214	0x3d23f9e0	0.04003322
215	0x3da906a1	0.082532175
216	0xbd7adc71	-0.061245386
217	0xbe7cdf84	-0.2469464
218	0x3e378dd5	0.17925198
219	0xbd2a4039	-0.041565154
220	0xbec900ac	-0.39258325
221	0xbe818f2c	-0.25304544
222	0xbe4bd9db	-0.19907324
223	0xbd217fb0	-0.039428413
224	0xbe31c84f	-0.17361568
225	0xbdcec162	-0.100954786
226	0xbe73094f	-0.2373402
227	0xbd90c5a2	-0.070689455
228	0x3c76afed	0.015056592
229	0x3e396499	0.18104781
230	0xbd2610af	-0.040543254
231	0xbea18b15	-0.31551424
232	0xbe29f8dd	-0.1659884
233	0x3ca2c6e7	0.019870235
234	0xbe394cee	-0.18095753
235	0xbe85066c	-0.25981462
236	0xbe079d95	-0.13243707
237	0x3de33608	0.1109429
238	0xbec2334d	-0.37929764
239	0xbd50b3cd	-0.05095272
240	0x3e514d69	0.20439686
241	0xbd4e71f3	-0.05040164
242	0xbd337b12	-0.04381854
243	0xbe8da95a	-0.27668267
244	0xbe4d126c	-0.20026559
245	0xbd36ae86	-0.044600032
246	0xbba4345f	-0.005011126
247	0xbda3cd11	-0.07998098
248	0xbcb2db41	-0.021833064
249	0x3d51599c	0.05111085
250	0xbcc4f61a	-0.024043132
251	0xbdb193fa	-0.086708024
252	0x3e68e905	0.2274514
253	0x3e16e0ab	0.14734142
254	0xbef53db9	-0.47898653
255	0xbe992d95	-0.2991759

network_body._body_endoder.seq_layers.2.bias f4 [256]
0	0x00000000	0.0
1	0x00000000	0.0
2	0x00000000	0.0
3	0x00000000	0.0
4	0x00000000	0.0
5	0x00000000	0.0
6	0x00000000	0.0
7	0x00000000	0.0
8	0x00000000	0.0
9	0x00000000	0.0
10	0x00000000	0.0
11	0x00000000	0.0
12	0x00000000	0.0
13	0x00000000	0.0
14	0x00000000	0.0
15	0x00000000	0.0
16	0x00000000	0.0
17	0x00000000	0.0
18	0x00000000	0.0
19	0x00000000	0.0
20	0x00000000	0.0
21	0x00000000	0.0
22	0x00000000	0.0
23	0x00000000	0.0
24	0x00000000	0.0
25	0x00000000	0.0
26	0x00000000	0.0
27	0x00000000	0.0
28	0x00000000	0.0
29	0x00000000	0.0
30	0x00000000	0.0
31	0x00000000	0.0
32	0x00000000	0.0
33	0x00000000	0.0
34	0x00000000	0.0
35	0x00000000	0.0
36	0x00000000	0.0
37	0x00000000	0.0
38	0x00000000	0.0
39	0x00000000	0.0
40	0x00000000	0.0
41	0x00000000	0.0
42	0x00000000	0.0
43	0x00000000	0.0
44	0x00000000	0.0
45	0x00000000	0.0
46	0x00000000	0.0
47	0x00000000	0.0
48	0x00000000	0.0
49	0x00000000	0.0
50	0x00000000	0.0
51	0x00000000	0.0
52	0x00000000	0.0
53	0x00000000	0.0
54	0x00000000	0.0
55	0x00000000	0.0
56	0x00000000	0.0
57	0x00000000	0.0
58	0x00000000	0.0
59	0x00000000	0.0
60	0x00000000	0.0
61	0x00000000	0.0
62	0x00000000	0.0
63	0x00000000	0.0
64	0x00000000	0.0
65	0x00000000	0.0
66	0x00000000	0.0
67	0x00000000	0.0
68	0x00000000	0.0
69	0x00000000	0.0
70	0x00000000	0.0
71	0x00000000	0.0
72	0x00000000	0.0
73	0x00000000	0.0
74	0x00000000	0.0
75	0x00000000	0.0
76	0x00000000	0.0
77	0x00000000	0.0
78	0x00000000	0.0
79	0x00000000	0.0
80	0x00000000	0.0
81	0x00000000	0.0
82	0x00000000	0.0
83	0x00000000	0.0
84	0x00000000	0.0
85	0x00000000	0.0
86	0x00000000	0.0
87	0x00000000	0.0
88	0x00000000	0.0
89	0x00000000	0.0
90	0x00000000	0.0
91	0x00000000	0.0
92	0x00000000	0.0
93	0x00000000	0.0
94	0x00000000	0.0
95	0x00000000	0.0
96	0x00000000	0.0
97	0x00000000	0.0
98	0x00000000	0.0
99	0x00000000	0.0
100	0x00000000	0.0
101	0x00000000	0.0
102	0x00000000	0.0
103	0x00000000	0.0
104	0x00000000	0.0
105	0x00000000	0.0
106	0x00000000	0.0
107	0x00000000	0.0
108	0x00000000	0.0
109	0x00000000	0.0
110	0x00000000	0.0
111	0x00000000	0.0
112	0x00000000	0.0
113	0x00000000	0.0
114	0x00000000	0.0
115	0x00000000	0.0
116	0x00000000	0.0
117	0x00000000	0.0
118	0x00000000	0.0
119	0x00000000	0.0
120	0x00000000	0.0
121	0x00000000	0.0
122	0x00000000	0.0
123	0x00000000	0.0
124	0x00000000	0.0
125	0x00000000	0.0
126	0x00000000	0.0
127	0x00000000	0.0
128	0x00000000	0.0
129	0x00000000	0.0
130	0x00000000	0.0
131	0x00000000	0.0
132	0x00000000	0.0
133	0x00000000	0.0
134	0x00000000	0.0
135	0x00000000	0.0
136	0x00000000	0.0
137	0x00000000	0.0
138	0x00000000	0.0
139	0x00000000	0.0
140	0x00000000	0.0
141	0x00000000	0.0
142	0x00000000	0.0
143	0x00000000	0.0
144	0x00000000	0.0
145	0x00000000	0.0
146	0x00000000	0.0
147	0x00000000	0.0
148	0x00000000	0.0
149	0x00000000	0.0
150	0x00000000	0.0
151	0x00000000	0.0
152	0x00000000	0.0
153	0x00000000	0.0
154	0x00000000	0.0
155	0x00000000	0.0
156	0x00000000	0.0
157	0x00000000	0.0
158	0x00000000	0.0
159	0x00000000	0.0
160	0x00000000	0.0
161	0x00000000	0.0
162	0x00000000	0.0
163	0x00000000	0.0
164	0x00000000	0.0
165	0x00000000	0.0
166	0x00000000	0.0
167	0x00000000	0.0
168	0x00000000	0.0
169	0x00000000	0.0
170	0x00000000	0.0
171	0x00000000	0.0
172	0x00000000	0.0
173	0x00000000	0.0
174	0x00000000	0.0
175	0x00000000	0.0
176	0x00000000	0.0
177	0x00000000	0.0
178	0x00000000	0.0
179	0x00000000	0.0
180	0x00000000	0.0
181	0x00000000	0.0
182	0x00000000	0.0
183	0x00000000	0.0
184	0x00000000	0.0
185	0x00000000	0.0
186	0x00000000	0.0
187	0x00000000	0.0
188	0x00000000	0.0
189	0x00000000	0.0
190	0x00000000	0.0
191	0x00000000	0.0
192	0x00000000	0.0
193	0x00000000	0.0
194	0x00000000	0.0
195	0x00000000	0.0
196	0x00000000	0.0
197	0x00000000	0.0
198	0x00000000	0.0
199	0x00000000	0.0
200	0x00000000	0.0
201	0x00000000	0.0
202	0x00000000	0.0
203	0x00000000	0.0
204	0x00000000	0.0
205	0x00000000	0.0
206	0x00000000	0.0
207	0x00000000	0.0
208	0x00000000	0.0
209	0x00000000	0.0
210	0x00000000	0.0
211	0x00000000	0.0
212	0x00000000	0.0
213	0x00000000	0.0
214	0x00000000	0.0
215	0x00000000	0.0
216	0x00000000	0.0
217	0x00000000	0.0
218	0x00000000	0.0
219	0x00000000	0.0
220	0x00000000	0.0
221	0x00000000	0.0
222	0x00000000	0.0
223	0x00000000	0.0
224	0x00000000	0.0
225	0x00000000	0.0
226	0x00000000	0.0
227	0x00000000	0.0
228	0x00000000	0.0
229	0x00000000	0.0
230	0x00000000	0.0
231	0x00000000	0.0
232	0x00000000	0.0
233	0x00000000	0.0
234	0x00000000	0.0
235	0x00000000	0.0
236	0x00000000	0.0
237	0x00000000	0.0
238	0x00000000	0.0
239	0x00000000	0.0
240	0x00000000	0.0
241	0x00000000	0.0
242	0x00000000	0.0
243	0x00000000	0.0
244	0x00000000	0.0
245	0x00000000	0.0
246	0x00000000	0.0
247	0x00000000	0.0
248	0x00000000	0.0
249	0x00000000	0.0
250	0x00000000	0.0
251	0x00000000	0.0
252	0x00000000	0.0
253	0x00000000	0.0
254	0x00000000	0.0
255	0x00000000	0.0

network_body._body_endoder.seq_layers.2.weight f4 [256, 256]
0	0xbdb082fe	-0.08618735
1	0xbd1ff07f	-0.039047714
2	0xbde6e964	-0.112749845
3	0x3d80b69f	0.06284832
4	0xbda9de9b	-0.08294412
5	0x3cc1e289	0.02366759
6	0x3d93a967	0.07210045
7	0x3cc02d4e	0.023459103
8	0x3d150aae	0.036387138
9	0xbcd37800	-0.025814056
10	0xbac66cc2	-0.0015138614
11	0xbd08c347	-0.033389356
12	0x3c9ee08a	0.019394178
13	0x3d3de5f7	0.04636189
14	0xbaf83844	-0.0018937667
15	0x3e06fceb	0.13182418
16	0xbbd410a3	-0.00647171
17	0x3badba32	0.005301737
18	0x3dfc0fa3	0.1230767
19	0x3d1f613b	0.038911086
20	0x3c73c343	0.014878097
21	0x3bb7ff32	0.0056151384
22	0xbd627afd	-0.055293072
23	0x3b940af0	0.0045179054
24	0x3d0fa7bd	0.035072077
25	0xbcfc3f7c	-0.03079199
26	0xbd48f594	-0.049062327
27	0xbc3020e3	-0.010750028
28	0x3bb5cbe7	0.0055479887
29	0xbccf287e	-0.025287863
30	0xbb7a3fc4	-0.003818498
31	0x3dcb8176	0.09936802
32	0xbd1aacea	-0.03776256
33	0xbddf1b09	-0.108938284
34	0x3d01ad65	0.031659503
35	0xbd2a699c	-0.041604623
36	0xbdc14d2d	-0.09438548
37	0xbcc38c95	-0.023870746
38	0xbcd540b7	-0.026031835
39	0xbd1a4e3d	-0.03767227
40	0xbd1c7863	-0.038200747
41	0x3d176162	0.036958106
42	0x3c9c5959	0.019085573
43	0xbca4c9e4	-0.0201158
44	0xbd6f8bd0	-0.058482945
45	0x3d2dcd6e	0.04243224
46	0xbc745cf8	-0.014914744
47	0xbd528eb4	-0.051405624
48	0xbe06f2b8	-0.13178527
49	0x3dbc9dfb	0.0920982
50	0xbd2fe0ca	-0.042938985
51	0xbd781822	-0.06056989
52	0xbd8680ad	-0.06567512
53	0x3de76364	0.11298254
54	0xbaa793fd	-0.0012785193
55	0xbd4da82e	-0.050209217
56	0xbd0f66b4	-0.035010055
57	0xbc44ac34	-0.012003947
58	0x3b1892f6	0.0023280955
59	0x3db4ef3d	0.088346936
60	0x3da4e0c3	0.080506824
61	0x3e011958	0.12607324
62	0xbd5f8303	-0.054568302
63	0xbe0287e9	-0.12747158
64	0xbd63e2a6	-0.05563607
65	0x3d89ae41	0.067226894
66	0x3db7a281	0.08966542
67	0xbb91565c	-0.0044353437
68	0x3d7b872d	0.06140821
69	0xbd95e9bb	-0.07319971
70	0x3de5b434	0.11216012
71	0x3bf0887e	0.00734049
72	0x3c02f528	0.00799302
73	0xbc79d33a	-0.015248114
74	0x3d7611d4	0.060075596
75	0x3d49cb4f	0.049266156
76	0x3d5a3718	0.053275198
77	0xbd0519a4	-0.032495156
78	0xbce157f9	-0.027507769
79	0xbd2745eb	-0.040838163
80	0x3cdba458	0.026811764
81	0xbcdb213e	-0.02674925
82	0xbcd11d1a	-0.025526572
83	0x3d98cb82	0.07460691
84	0x3bda4e3b	0.006662158
85	0x3ca81ba2	0.020520989
86	0xbcc69bda	-0.024244238
87	0xbd8d1dbc	-0.06890437
88	0xbd54fd27	-0.051999237
89	0xbc81f968	-0.015865996
90	0xbd0e540f	-0.034748133
91	0x3d931584	0.07181838
92	0x3cc5d4e7	0.024149371
93	0x3d861de0	0.06548667
94	0x3dda0775	0.106459536
95	0xbdb56076	-0.08856289
96	0xbdec9ab6	-0.11552946
97	0x3d2c6d1c	0.042096242
98	0x3d2f0799	0.042731855
99	0xbb2f14c0	-0.0026715249
100	0xbd9d3445	-0.07675985
101	0x3d3459a9	0.04403082
102	0xbdc8ac76	-0.09798519
103	0x3ce09e44	0.027419217
104	0x3d3a3e49	0.045469556
105	0xbd000344	-0.031253114
106	0x3d2d51a5	0.04231419
107	0xbcdcd685	-0.02695776
108	0xbd3efbe3	-0.046626937
109	0xbceb56c7	-0.028727902
110	0x3c7b305d	0.015331355
111	0x3d3690d5	0.044571716
112	0xbd763eda	-0.060118534
113	0x3d6aada3	0.0572945
114	0xbd2b981c	-0.04189311
115	0xbd979089	-0.07400615
116	0xbe3981d4	-0.18115932
117	0x3e580fc8	0.2109977
118	0x3d82917e	0.06375407
119	0x3d8c52ac	0.06851706
120	0xbdaa5d56	-0.08318584
121	0xbd9d22d4	-0.076726586
122	0xbb16fb1c	-0.0023037856
123	0xbd822247	-0.06354194
124	0x3ba19421	0.0049309884
125	0x3dce74ab	0.100808464
126	0xbc9032dd	-0.017602379
127	0xbc7bbb5d	-0.015364495
128	0x3d20326e	0.039110593
129	0x3da8a08b	0.08233746
130	0xbd33136b	-0.04371969
131	0xbdda8ff9	-0.10671992
132	0x3d0fea2a	0.035135426
133	0x3b9ae720	0.0047272593
134	0xbd44b8bb	-0.048027735
135	0x3c29ee4f	0.010371759
136	0x3ce4bb07	0.027921213
137	0xbd0724ef	-0.032994207
138	0x3dc6bd93	0.09704127
139	0xbcbb735a	-0.022882152
140	0xbd2ddfe1	-0.042449836
141	0xbc1635d5	-0.009168108
142	0xbd6237ad	-0.055228878
143	0x3dcad671	0.09904183
144	0xbdd1f556	-0.10251872
145	0xbd93751b	-0.072000705
146	0x3c9460df	0.018112598
147	0xbd230d47	-0.039807584
148	0xbcdd7e6d	-0.027037824
149	0x3dd91562	0.105997816
150	0xbd81becc	-0.0633522
151	0x3d72e163	0.059296977
152	0xbdd42ee4	-0.10360506
153	0xbdfd4a7c	-0.123677224
154	0xbd615a70	-0.05501789
155	0xbd66adae	-0.056317978
156	0x3ce33728	0.027736261
157	0xbd25e060	-0.040497184
158	0xbd51838e	-0.05115085
159	0x3d2846b5	0.041083056
160	0xbba2545e	-0.004953905
161	0x3cdd74d1	0.027033241
162	0xbd85df24	-0.06536701
163	0xbd2127ed	-0.039344717
164	0x3d814a5c	0.06313011
165	0x3d99af94	0.07504192
166	0xbc274074	-0.010208238
167	0x3b784045	0.0037880105
168	0x3cc6b5fe	0.024256703
169	0xbdf384cb	-0.118905626
170	0x3d42da27	0.047571328
171	0xbcd53ca9	-0.026029902
172	0x3ccd6795	0.025073806
173	0x3b1841d0	0.0023232587
174	0x3d49a498	0.049229234
175	0xbc8211da	-0.015877653
176	0x3d93b7fc	0.072128266
177	0x3d9cd419	0.07657642
178	0x3db357a7	0.08756953
179	0x3d0bc07c	0.034119114
180	0x3cb6aaf1	0.022298308
181	0x3cbd2c95	0.023092547
182	0xbcdb52fb	-0.026772967
183	0xbc9f6ef0	-0.019462079
184	0x3d15ac48	0.036541253
185	0xbd1f3f1a	-0.038878538
186	0xbd5ff66c	-0.054678366
187	0xbda04497	-0.078255825
188	0xbd43988b	-0.0477529
189	0x3dd46203	0.10370257
190	0xbd872ce3	-0.06600358
191	0x3b850f41	0.0040606563
192	0xbd1b3ace	-0.037897877
193	0x3cf3502b	0.029701313
194	0xbd33edcd	-0.043927956
195	0xbd2d0201	-0.04223824
196	0xbd1985ee	-0.03748124
197	0xbcbe18da	-0.02320521
198	0x3cd1fb55	0.02563254
199	0x3decc4bf	0.11560964
200	0x3e125261	0.14289238
201	0xbc7cd8c4	-0.01543254
202	0xbd93aaea	-0.07210334
203	0x3c75b793	0.014997381
204	0x3db44187	0.08801561
205	0xbbe2a83a	-0.006917027
206	0x3c831e7d	0.016005749
207	0xbdbeb24b	-0.093113504
208	0xbd4ea5ea	-0.050451197
209	0xbd0bb4c7	-0.03410795
210	0xbd87c4f2	-0.06629361
211	0x3d631484	0.055439487
212	0x3ce70794	0.028201856
213	0xbc3be38b	-0.011467825
214	0x3cebdd75	0.028792122
215	0x3daab4d9	0.08335275
216	0xbd3e7961	-0.046502475
217	0x3d0ff3ec	0.03514473
218	0xbc2760f5	-0.010215987
219	0xbc9781dd	-0.01849454
220	0x3dcc096e	0.09962736
221	0xbd8d1919	-0.068895526
222	0x3cc3de17	0.023909612
223	0x3d404b5d	0.046946872
224	0xbd88d94b	-0.0668207
225	0xbd8c1e26	-0.06841688
226	0xbcea80d8	-0.02862589
227	0xbca19b05	-0.01972724
228	0x3dc7298d	0.09724722
229	0xbc406093	-0.011741775
230	0x3d97a86a	0.07405169
231	0xbd146f5d	-0.036239017
232	0xbc4327ff	-0.011911391
233	0x3e01a561	0.12660743
234	0xbcf0a136	-0.029373746
235	0x3cf35b2a	0.029706556
236	0xbc1abde2	-0.009444686
237	0xbdf964da	-0.12177439
238	0xbd1da7b8	-0.038490027
239	0xbdc777f7	-0.09739678
240	0x3c972ba6	0.01845343
241	0xbe00e7f2	-0.1258848
242	0xbd8888b9	-0.06666703
243	0xbd18579e	-0.037192933
244	0x3d8d7c3a	0.0690846
245	0x3d12e4ed	0.035862852
246	0x3d243ef4	0.0400991
247	0xbe12f994	-0.14353019
248	0xbcbf6ce7	-0.023367358
249	0x3a9eba63	0.0012109991
250	0xbc798858	-0.015230261
251	0x3d07ae93	0.03312547
252	0xbd527daf	-0.051389392
253	0xbd82b2ca	-0.063817576
254	0xbd629d3e	-0.05532574
255	0x3bcb5bb0	0.0062059984
