Foosbots_working/results/foosballTraining2/Foosbots_working/Foosbots_working-16064.onnx (onnx, 74687 bytes, 7 tensors)

action_model._continuous_distribution.log_sigma f4 [1, 2]
0	0xbc90ea96	-0.017689984
1	0xbd5e9769	-0.054343615

action_model._continuous_distribution.mu.bias f4 [2]
0	0x3cab4f52	0.020911846
1	0xbdc559a1	-0.09636236

action_model._continuous_distribution.mu.weight f4 [2, 128]
0	0xbc4d7207	-0.012539393
1	0x3d56310e	0.052292876
2	0xbd4f0132	-0.05053825
3	0x3d43747f	0.04771852
4	0x3d9cd097	0.07656973
5	0x3db6244c	0.08893642
6	0x3d556985	0.052102584
7	0x3d643606	0.055715583
8	0xbd84ca2a	-0.06483872
9	0xbc936725	-0.01799352
10	0x3b9d9ddb	0.0048100776
11	0x3d9742a1	0.07385755
12	0x3d3c23f2	0.045932718
13	0x3d455848	0.048179895
14	0xbd4917e5	-0.049095053
15	0xbd5e5a0c	-0.054285094
16	0xbb98e23a	-0.00466564
17	0xbd8c1384	-0.0683966
18	0xbd722f41	-0.059127096
19	0xbd5dc932	-0.054146953
20	0xbd79c98b	-0.060983222
21	0x3c996fe5	0.018730113
22	0xbd0a6c25	-0.03379454
23	0x3ca4b6f0	0.020106763
24	0x3d6d473c	0.057929263
25	0x3d0f4b35	0.034983832
26	0x3d83dbcc	0.06438407
27	0x3d9553e5	0.07291392
28	0xbcd5fbb7	-0.026121004
29	0xbd4e6c56	-0.050396286
30	0x3d4c20b6	0.049835883
31	0xbc242bb7	-0.010020188
32	0x3d7760b7	0.06039497
33	0xbcebbef7	-0.028777583
34	0xbd3acd54	-0.045605972
35	0xbcf5fa32	-0.030026529
36	0xbca6e29a	-0.020371724
37	0xbb92765a	-0.004469675
38	0xbd47dec1	-0.04879642
39	0x3b73d15f	0.0037203652
40	0xbd34c540	-0.044133425
41	0xbd0bffd4	-0.034179524
42	0xbd1261f1	-0.035737935
43	0xbd637d50	-0.05553943
44	0xbd47453a	-0.048650004
45	0xbd083042	-0.033249147
46	0xbd43df12	-0.04782016
47	0xbd22cbe8	-0.03974524
48	0xbc24a657	-0.010049424
49	0xbcfa3def	-0.03054711
50	0xbaed0ead	-0.0018086039
51	0x3d86c4c9	0.065805025
52	0x3d8495f1	0.064739116
53	0x3d2d76c4	0.04234959
54	0xbd3d2c61	-0.0461849
55	0x3c871444	0.016489156
56	0xbd2d9a01	-0.042383198
57	0x3da54e83	0.080716155
58	0xbd309c2f	-0.0431177
59	0x3d4ad2b5	0.049517352
60	0x3d7c6bdb	0.061626296
61	0xbcd91fd3	-0.026504433
62	0xbd3b82cb	-0.04577903
63	0xbd8aa917	-0.067705326
64	0x3da2bb98	0.07945937
65	0x3d3a34d7	0.04546055
66	0x3c7dc989	0.015489944
67	0x3d646a73	0.05576558
68	0x3d38eba2	0.045146592
69	0x3da954d9	0.082681365
70	0xbd0f39bb	-0.034967165
71	0xbca878fd	-0.020565504
72	0xbba8cb3e	-0.0051511815
73	0xbd064168	-0.03277722
74	0xbd1e83e8	-0.038700014
75	0x3d4c614a	0.04989747
76	0xbd56759c	-0.052358255
77	0x3d8f2dda	0.06991167
78	0xbd5b24da	-0.05350194
79	0x3d7dc408	0.061954528
80	0xbba6d267	-0.005091
81	0xbdc48e6a	-0.09597476
82	0xbd2977b1	-0.041373912
83	0x3d88d2d6	0.06680839
84	0xbcf41db2	-0.029799316
85	0x3d165c7f	0.036709305
86	0x3d5adfdb	0.05343614
87	0x3d96bf9b	0.073607646
88	0x3c804c42	0.015661363
89	0xbd83508c	-0.064118475
90	0xbcd1438e	-0.025544908
91	0xbd4e69bb	-0.0503938
92	0xbcdd3c0b	-0.02700617
93	0xbd1cc1c1	-0.038270716
94	0xbd6fe4b1	-0.058567706
95	0xbd804b23	-0.06264331
96	0x3d307f56	0.043090187
97	0xbcf1bf15	-0.02951006
98	0xbd89aa67	-0.06721955
99	0x3d69661d	0.05698215
100	0x3c671ece	0.0141064655
101	0x3daa0c69	0.08303148
102	0xbd4c9c2c	-0.049953625
103	0x3d9e5e7d	0.07732866
104	0x3daaf0e0	0.083467245
105	0x3d658502	0.05603505
106	0x3d908a65	0.07057647
107	0xbcc19449	-0.023630278
108	0xbc94715c	-0.01812046
109	0xbd539a00	-0.051660538
110	0xbd9b57c0	-0.07585096
111	0x3dbe4d6a	0.09292109
112	0x3d8194e3	0.06327226
113	0x3ce7c129	0.028290348
114	0xbd0dfac6	-0.034662984
115	0xbd499a50	-0.04921943
116	0xbd84aef6	-0.06478684
117	0x3d67ec0d	0.0566216
118	0x3d67a297	0.056551542
119	0xbcc795b3	-0.024363374
120	0xbc51b809	-0.012800225
121	0x3d9c39be	0.07628201
122	0x3d905dbd	0.07049129
123	0xbd3c64d5	-0.0459946
124	0xbd61a5c4	-0.055089727
125	0xbc48fb5b	-0.012266959
126	0x3d7db58c	0.061940715
127	0x3cbb60a8	0.022873238
128	0xbdad1390	-0.08450997
129	0x3d287e55	0.041136105
130	0x3d4856df	0.04891097
131	0xbd396b5d	-0.045268405
132	0xbc840284	-0.01611448
133	0xbd2bb3ef	-0.041919645
134	0xbda29a5a	-0.079395965
135	0xbc9fbc4a	-0.019498963
136	0xbd117af7	-0.03551766
137	0xbdae7432	-0.08518256
138	0xbdf37606	-0.118877456
139	0xbd3673e0	-0.0445441
140	0xbc3309b0	-0.010927603
141	0xbd621675	-0.055197198
142	0xbc73868e	-0.014863623
143	0x3db46747	0.08808761
144	0x3db7df30	0.089781165
145	0xbd0937a9	-0.033500347
146	0xbca9643f	-0.020677684
147	0x3b3a723b	0.0028449434
148	0xbca9f9d0	-0.020749003
149	0xbe1969f1	-0.1498182
150	0xbd441a35	-0.047876555
151	0x3dc9d20d	0.09854517
152	0xbc63943e	-0.013890324
153	0x3d32bc8d	0.043636847
154	0xbd871681	-0.06596089
155	0xbd5e8f96	-0.054336153
156	0xbd6c9590	-0.05775982
157	0x3c557830	0.013029143
158	0x3c5692b0	0.013096496
159	0xbd28943e	-0.041157
160	0x3c8df2e3	0.017327731
161	0xbd1e09fe	-0.038583748
162	0xbb85cf1b	-0.004083527
163	0xbd9c508e	-0.07632552
164	0xbd4828ed	-0.048867155
165	0x3e083fc4	0.13305575
166	0xbcdeed6e	-0.027212825
167	0xbddb586e	-0.10710226
168	0xbda66571	-0.08124817
169	0x3d10f7ab	0.035392445
170	0x3b70177f	0.0036635099
171	0x3ba6b788	0.0050877966
172	0xbb83d309	-0.00402296
173	0xbd6f3a03	-0.058404934
174	0xbbf1b196	-0.007375906
175	0xbb8675a7	-0.0041033807
176	0x3dd2fbde	0.10301946
177	0xbc80749c	-0.015680604
178	0x3d81fa12	0.06346525
179	0x3c8b9be8	0.017042115
180	0xbd39d3ce	-0.04536801
181	0x3d39c217	0.045351114
182	0xbcc618b4	-0.024181701
183	0x3d921aad	0.07133994
184	0xbc899692	-0.01679543
185	0xbd2035a4	-0.039113656
186	0xbd2243d9	-0.039615486
187	0xbc38b932	-0.011274623
188	0x3d7b11f0	0.061296403
189	0xbda759ad	-0.08171401
190	0xbd6f761a	-0.05846224
191	0xbcf586d6	-0.029971521
192	0xbc3aacae	-0.011393709
193	0x3d29312d	0.041306663
194	0x3db60105	0.08886913
195	0xbd05970d	-0.032614756
196	0x3d3bea2e	0.045877628
197	0xbd6a8811	-0.05725867
198	0x3db831b5	0.08993856
199	0xbd1cee0e	-0.038312964
200	0xbd9c2b74	-0.076254755
201	0x3b73c8a5	0.003719845
202	0xbd113f0e	-0.035460524
203	0xbcfec4da	-0.031099726
204	0xbd9220c9	-0.071351595
205	0xbccda907	-0.025105013
206	0xbd32d183	-0.043656837
207	0xbd402061	-0.04690588
208	0x3df8ff76	0.121581
209	0xbc2452b8	-0.010029487
210	0xbd46ba2e	-0.0485174
211	0xbc7fd63e	-0.015615044
212	0xbc27acb9	-0.010234051
213	0x3d9609a8	0.073260605
214	0xbcc4142f	-0.023935406
215	0xbda166d4	-0.07880941
216	0x3dd8037e	0.10547541
217	0xbcc7689e	-0.024341878
218	0xbd195eaa	-0.037443794
219	0xbbfe853a	-0.0077673467
220	0xbbfdade5	-0.007741677
221	0xbc0a4db8	-0.008441381
222	0x3c71f1b0	0.014767095
223	0xbd507162	-0.05088938
224	0xbd9fe443	-0.07807209
225	0xbd3e1140	-0.04640317
226	0x3c9f52ae	0.019448604
227	0x3d1c9288	0.03822568
228	0xbdfdd715	-0.12394539
229	0xbcfd711d	-0.030937726
230	0x3cbe578f	0.02323511
231	0x3d1581c1	0.036500696
232	0xbd3c3957	-0.04595312
233	0x3cafeb20	0.021474421
234	0xbcf578be	-0.0299648
235	0xbdbb4171	-0.09143341
236	0xbd9976f8	-0.074933946
237	0xbc305213	-0.0107617555
238	0x3c9f2f5b	0.01943176
239	0xbd96f31a	-0.07370587
240	0xbd06d99e	-0.03292238
241	0x3da72373	0.08161058
242	0xbcdc95b7	-0.026926858
243	0xbb9e1073	-0.0048237382
244	0x3d1b6013	0.03793342
245	0x3c454ddb	0.012042488
246	0xbd4bf383	-0.049792778
247	0xbda34156	-0.07971446
248	0x3dcc5ec4	0.099790126
249	0xbd1faefd	-0.03898524
250	0xb87d60cb	-6.0410046e-05
251	0xbca183e3	-0.019716209
252	0xbd4bc5c1	-0.04974914
253	0xbdccdcd6	-0.100030586
254	0xbcf29252	-0.029610787
255	0x3dbbc574	0.091685206

network_body._body_endoder.seq_layers.0.bias f4 [128]
0	0xbc31be51	-0.010848598
1	0xbdd52b4a	-0.10408647
2	0xbd42fb45	-0.04760291
3	0x3de4b87e	0.111680016
4	0xbc34fd10	-0.011046663
5	0x3d949fda	0.07257052
6	0xbc843c1b	-0.016141942
7	0x3d3e5c18	0.046474546
8	0x3c97c8e5	0.018528411
9	0xbc1e02b3	-0.009644198
10	0x3c610240	0.013733447
11	0xbb319b07	-0.002710046
12	0x3d1fc474	0.03900571
13	0x3d248d7e	0.040174
14	0xbae958af	-0.0017802919
15	0x3dbac1da	0.091190055
16	0x3d1271d3	0.035753082
17	0xbdb55efe	-0.08856009
18	0x3cb87e40	0.022521138
19	0x3cffcece	0.031226542
20	0x3d817609	0.063213415
21	0xbd98519d	-0.074374415
22	0x3b9d4ec4	0.0048006494
23	0xbd0a61a0	-0.03378451
24	0x3ce64e59	0.028113531
25	0x3d701113	0.058610033
26	0x3d405c60	0.046963096
27	0x3c9a4386	0.018831026
28	0x3dd5f617	0.104473285
29	0xbd3c475c	-0.04596649
30	0x3caf34b9	0.021387445
31	0xbc5942a1	-0.0132605145
32	0x3b1ac9a7	0.002361873
33	0xbc0c0c6e	-0.008547885
34	0xb9a485c5	-0.00031380184
35	0x3cc789a5	0.024357626
36	0x3d054f1f	0.03254616
37	0x3d083668	0.03325501
38	0x3d8b8c3b	0.06813856
39	0x3d6bd4a6	0.057575844
40	0xbdb7eb73	-0.08980455
41	0xbd2c4fd4	-0.042068318
42	0xbc836481	-0.016039135
43	0x3d74a8d3	0.059731316
44	0xbd505421	-0.05086148
45	0xbc3d93f8	-0.011570923
46	0xbc2202a1	-0.009888322
47	0x3d4f9bab	0.050685566
48	0x3d7fe9a9	0.062478695
49	0x3d20168c	0.039084002
50	0x3ce0f8b6	0.027462345
51	0xbdaf7a6f	-0.08568274
52	0xbc7a5613	-0.015279311
53	0x3d16b1ba	0.036790587
54	0x398b234c	0.00026538444
55	0x3c312597	0.010812185
56	0xbc96bcc7	-0.018400563
57	0x3cce33cc	0.025171183
58	0xbdc49b21	-0.09599901
59	0x3e021ebf	0.12707041
60	0x3d298506	0.041386627
61	0x3d8606a8	0.06544238
62	0xbd314776	-0.04328104
63	0xbcb3019b	-0.021851351
64	0x3d9cb474	0.07651606
65	0x3c1a8f7b	0.0094336225
66	0x3d98d870	0.07463157
67	0x3c39b595	0.011334796
68	0xbcaeaaae	-0.02132162
69	0x3d77c0ee	0.060486726
70	0x3cced637	0.02524863
71	0x3d9ae062	0.07562329
72	0xbd9625b7	-0.07331412
73	0x3cd988ed	0.02655455
74	0x3c273a56	0.010206779
75	0xbd224e1c	-0.039625272
76	0x3d9ca0cc	0.07647857
77	0x3c2ff2e2	0.01073906
78	0xbbeff450	-0.0073228255
79	0x3d425e0d	0.047452975
80	0x3bf69d25	0.0075260573
81	0xbc5586cb	-0.013032625
82	0x3d85131e	0.06497787
83	0xbd617612	-0.05504424
84	0x3d859b70	0.06523788
85	0x3d0b1f9b	0.03396569
86	0x3d4eff4e	0.050536446
87	0x3d485f6c	0.048919126
88	0xbc78010f	-0.015136971
89	0xbd04724c	-0.032335564
90	0xbe0dda61	-0.13852836
91	0x3cf1737b	0.02947401
92	0x3d163d09	0.0366793
93	0xbdc73a9e	-0.09727977
94	0xbcec7dbd	-0.02886855
95	0x3d424941	0.04743314
96	0xbc8b1fe4	-0.01698298
97	0x3cfdeff6	0.030998211
98	0xbce565f4	-0.028002717
99	0xbbbda13e	-0.005787044
100	0x3d251875	0.040306527
101	0x3d1d110c	0.038346335
102	0x3cf2cddb	0.029639175
103	0x3d624612	0.055242606
104	0x3d9fbc9c	0.07799646
105	0x3cc5d753	0.024150526
106	0x3d483e91	0.048887793
107	0x3d5a7337	0.053332534
108	0x3cc2ff45	0.023803363
109	0x3dafb367	0.0857914
110	0x3dd12c34	0.10213509
111	0xbc2dfd9b	-0.010619546
112	0x3c0d61f7	0.008629314
113	0x3c194995	0.009355922
114	0x3cacecca	0.021109004
115	0x3d819df4	0.06328955
116	0x3cc3b423	0.023889607
117	0xbd85f126	-0.06540136
118	0xbabb7ab7	-0.001430354
119	0xbd9b4b07	-0.0758267
120	0x3c2393d6	0.009983977
121	0x3ca5e475	0.020250538
122	0x3c6c7375	0.014431824
123	0xbcf25fe1	-0.029586734
124	0x3d5148de	0.051094882
125	0x3d175977	0.036950555
126	0x3d2194e4	0.039448634
127	0xbdaaa453	-0.083321236

network_body._body_endoder.seq_layers.0.weight f4 [128, 10]
0	0xbe6af973	-0.2294672
1	0xbe4e80c4	-0.20166308
2	0xbf5d6783	-0.8648607
3	0x3ed348e4	0.4126655
4	0x3e383076	0.17987236
5	0x3e89599f	0.26826188
6	0xbd5a7244	-0.05333163
7	0xbe19c953	-0.15018205
8	0xbdc539fc	-0.096302
9	0xbd20d114	-0.039261892
10	0xbd197011	-0.03746039
11	0xbd8b840c	-0.06812295
12	0xbba3de80	-0.0050008893
13	0x3e147056	0.14495978
14	0x3d0831dd	0.03325068
15	0x3e8309e9	0.25593498
16	0xbefcc123	-0.49366102
17	0xbf1cd635	-0.61264354
18	0xbf421dae	-0.7582654
19	0x3d8bc48b	0.06824597
20	0xbe7f6479	-0.24940671
21	0x3d1c549c	0.038166627
22	0xbd3c8873	-0.046028566
23	0xbed7915f	-0.42103097
24	0x3e91d73d	0.28484526
25	0x3dfe7670	0.12424934
26	0x3e8e3042	0.27771193
27	0xbd959cc7	-0.073052935
28	0xbe52fab6	-0.20603451
29	0x3e327d64	0.17430645
30	0xbd0e75bb	-0.034780245
31	0x3d9a67b0	0.07539308
32	0x3efad622	0.48991495
33	0x3ea3e17b	0.32007965
34	0x3f19c208	0.60061693
35	0xbd8b82ae	-0.068120345
36	0xbeab7cdb	-0.33493695
37	0xbe6498bb	-0.22323887
38	0x3e3386c5	0.17531879
39	0x3e087335	0.13325198
40	0xbe280cb9	-0.16411103
41	0xbc816ed3	-0.015799915
42	0x3e121157	0.14264427
43	0xbdba3493	-0.09092059
44	0x3e08e938	0.13370216
45	0xbebbbfbb	-0.36669716
46	0x3df6c7e3	0.12049844
47	0x3d82c111	0.06384481
48	0xbed45e57	-0.41478226
49	0xbf26991d	-0.6507738
50	0xbe9fd338	-0.31215835
51	0x3d685075	0.056717355
52	0xbe83ae0b	-0.25718722
53	0xbc6c2b29	-0.014414587
54	0x3f273b8a	0.65325224
55	0x3efc3ee6	0.49266738
56	0x3eb40db1	0.35166696
57	0xbe88932f	-0.26674792
58	0x3ea9286e	0.33038658
59	0xbe3b68bb	-0.1830167
60	0x3e8d7e72	0.27635533
61	0xbdc44287	-0.095830016
62	0x3d18c65d	0.03729855
63	0xbe5d1dca	-0.21593395
64	0x3d9c4746	0.07630782
65	0xbf0fe432	-0.56207573
66	0x3b06afe5	0.0020551619
67	0xbd0268e5	-0.031838316
68	0xbda6978d	-0.08134375
69	0xbedb749d	-0.42862406
70	0xbeda8388	-0.42678475
71	0x3e084e2d	0.13311072
72	0x3ecef0aa	0.40417987
73	0xbe8e639e	-0.27810377
74	0xbec855fd	-0.39128104
75	0xbe8d89c5	-0.27644172
76	0x3e84e520	0.25956059
77	0xbd799621	-0.06093419
78	0x3edbfbe5	0.42965618
79	0x3e60bf79	0.21948041
80	0xbeee58ee	-0.46552223
81	0x3ea11425	0.31460682
82	0xbcde959a	-0.027170945
83	0xbdbdf96e	-0.092760906
84	0xbe530568	-0.20607531
85	0x3e8823c7	0.26589796
86	0xbd9bd5b4	-0.0760912
87	0x3e8724c7	0.26395246
88	0x3df6e184	0.120547324
89	0xbbff4960	-0.0077907294
90	0xbded77ea	-0.115951374
91	0x3e6e570a	0.2327539
92	0xbe37e80a	-0.1795961
93	0x3eb955ec	0.36198366
94	0xbe1ff742	-0.15621665
95	0x3f238bc9	0.6388517
96	0xbbdd4c2b	-0.0067534647
97	0x3e4093a9	0.18806328
98	0x3ea9c26f	0.33156154
99	0x3f27dbda	0.6556984
100	0xbe1fdad8	-0.15610826
101	0xbd35ff08	-0.04443267
102	0x3f06d17b	0.5266339
103	0x3e6306f7	0.22170626
104	0x3e0a7c86	0.13524064
105	0xbe0f7061	-0.14007713
106	0x3e6a4823	0.2287908
107	0x3e7f8d5b	0.24956267
108	0x3ee916ea	0.45525295
109	0xbeda07d2	-0.4258409
110	0x3ea6d14a	0.3258155
111	0x3e1f42af	0.15552782
112	0x3d998b91	0.07497323
113	0x3d7f6ae6	0.062357806
114	0xbeaa8b42	-0.3330937
115	0xbe03fb6f	-0.12888883
116	0x3e3704b5	0.1787289
117	0xbe8e2a56	-0.27766675
118	0xbd80c077	-0.0628671
119	0x3d97c9c0	0.07411528
120	0x3e33ec53	0.1757062
121	0x3f055821	0.520876
122	0x3ec984c0	0.39359093
123	0x3decb61f	0.11558174
124	0x3f0f2af8	0.5592494
125	0x3d142e6d	0.036177088
126	0x3f1df3b0	0.6169996
127	0x3e6eac6e	0.23307964
128	0xbd15bd52	-0.036557503
129	0xbdc119d5	-0.09428755
130	0x3ecde3cf	0.40212867
131	0x3edf399a	0.43598634
132	0x3dae1391	0.08499826
133	0xbd5bde40	-0.05367875
134	0x3edb1a86	0.42793673
135	0x3e0c43a9	0.13697685
136	0xbde17e2c	-0.110103935
137	0xbdc4fb24	-0.09618214
138	0xbeb2afcc	-0.34899747
139	0xbe581c12	-0.21104458
140	0xbdc6b072	-0.09701623
141	0x3d6c0bf8	0.0576286
142	0x3e54c14e	0.20776865
143	0xbe8f1a27	-0.2794964
144	0xbf3ef89d	-0.74598104
145	0xbd892dcf	-0.066981904
146	0xbe5e2dc7	-0.2169715
147	0xbe668fef	-0.22515844
148	0x3e49b001	0.19696046
149	0xbe3f7d42	-0.18700126
150	0xbf1dd078	-0.61646223
151	0x3e03eb67	0.12882768
152	0x3ec319cd	0.38105622
153	0xbe04eb5a	-0.12980404
154	0x3e8a050f	0.26956984
155	0xbe99452c	-0.29935586
156	0xbf0b97bc	-0.54528403
157	0x3f078ac1	0.52946097
158	0x3e454cdf	0.19267605
159	0x3ecf9661	0.40544418
160	0x3de67537	0.11252826
161	0x3e62080d	0.22073384
162	0x3dafb87e	0.08580111
163	0xbd8fa814	-0.0701448
164	0x3cad8039	0.021179305
165	0x3e1e1415	0.15437348
166	0x3cba8a77	0.022771103
167	0x3c83d57f	0.016093014
168	0xbea906a0	-0.33012867
169	0x3eb4a8a7	0.35284922
170	0x3dcb1604	0.099163085
171	0xbec7af82	-0.3900109
172	0x3cfe27d1	0.031024845
173	0xbf0c1c20	-0.54730415
174	0xbe4bd2b4	-0.19904596
175	0xbe4018f5	-0.1875952
176	0xbef38152	-0.475596
177	0xbec56fa1	-0.3856173
178	0xbe2b50fa	-0.16730109
179	0x3f023d8b	0.5087516
180	0xbea585de	-0.32328695
181	0x3dd050c5	0.101716556
182	0xbc6c20c8	-0.0144121125
183	0x3f253889	0.6453939
184	0xbdabf52a	-0.08396371
185	0x3eed36fe	0.46331018
186	0x3e108162	0.14111856
187	0x3e491c3d	0.19639678
188	0x3e9a2a23	0.30110273
189	0xbe5dd1c2	-0.21662048
190	0x3e2e6144	0.17029291
191	0xbc2ac451	-0.010422782
192	0x3e9f6bb0	0.31136847
193	0xbd65d9c0	-0.056115866
194	0x3c3689ec	0.011141282
195	0xbe0eca3f	-0.13944338
196	0x3daf4895	0.08558766
197	0xbeb770ff	-0.35828397
198	0xbd960d25	-0.07326726
199	0xbea1f871	-0.31634858
200	0xbf29f54e	-0.6638993
201	0x3ed0e0ee	0.40796608
202	0xbdd3a260	-0.10333705
203	0xbe26a823	-0.16275077
204	0xbd4e7bc5	-0.050411005
205	0x3f569a19	0.83828884
206	0xbf0348c1	-0.5128289
207	0xbeff23c2	-0.4983197
208	0xb9439745	-0.00018653001
209	0xbe795290	-0.24347901
210	0xbda04b0e	-0.078268155
211	0x3dea86eb	0.11451515
212	0xbf1ab95a	-0.60439074
213	0xbed7bfe1	-0.4213858
214	0xbe9351dc	-0.2877339
215	0xbecb68ba	-0.39728338
216	0x3d473f3c	0.04864429
217	0xbdffaa53	-0.12483659
218	0xbe7ace1e	-0.2449269
219	0xbe4cafa6	-0.1998888
220	0x3ed8d178	0.42347312
221	0xbd1c93f4	-0.038227037
222	0xbe6e8b55	-0.23295338
223	0x3f464b97	0.7745909
224	0x3e79db3c	0.24400038
225	0xbe403a83	-0.1877232
226	0xbd6693f6	-0.05629345
227	0x3e3e5721	0.18587925
228	0xbcd0df64	-0.025497146
229	0x3e4f2648	0.20229447
230	0x3db990df	0.09060835
231	0x3e9cee0d	0.30650368
232	0xbe3783f4	-0.1792143
233	0xbcd55e81	-0.02604604
234	0x3e9e1936	0.3087861
235	0xbea37715	-0.3192679
236	0xbdf49b7b	-0.11943718
237	0xbee24663	-0.44194326
238	0x3da89d07	0.082330756
239	0x3dabe2af	0.08392846
240	0x3f1246b1	0.57139117
241	0xbefa6880	-0.48907852
242	0x3f06d164	0.52663255
243	0xbe78e5f8	-0.24306476
244	0xbd9bc8d1	-0.07606662
245	0xbf8d5857	-1.1042584
246	0xbdbc8152	-0.092043534
247	0xbee199bb	-0.440626
248	0x3d5f8a45	0.054575223
249	0xbeb655ab	-0.35612234
250	0x3db778e5	0.08958606
251	0xbda298dc	-0.07939312
252	0xbe6287de	-0.22122142
253	0xbe8570ee	-0.2606272
254	0x3e3bf738	0.18356025
255	0x3d2f295f	0.042764064

network_body._body_endoder.seq_layers.2.bias f4 [128]
0	0x3e12b4ba	0.14326754
1	0xbd55393e	-0.052056544
2	0xbd847034	-0.064667135
3	0x3d2e20b5	0.04251166
4	0x3c9dae12	0.019248042
5	0x3d4335a3	0.047658574
6	0x3dc3f29f	0.09567761
7	0x3cb51618	0.022105262
8	0x3cb2735b	0.021783521
9	0x3decc2ed	0.11560617
10	0x3e03439a	0.12818757
11	0x3d59be26	0.053159855
12	0x3aa92713	0.0012905322
13	0x3d957d67	0.07299309
14	0x3bec0f60	0.0072039813
15	0xbd94f665	-0.072735585
16	0xbe0a0b8b	-0.13480966
17	0x3c8fb72b	0.017543396
18	0x3ba1ee05	0.004941704
19	0xbbfde30d	-0.007748014
20	0x3c267ccf	0.010161593
21	0x3e04d5bb	0.12972157
22	0x3d96a3e1	0.07355476
23	0xbe0f8e61	-0.14019157
24	0x3ce39ded	0.027785266
25	0xbdae8300	-0.0852108
26	0x3da4f884	0.08055213
27	0x3d7005da	0.05859933
28	0x3db8768b	0.09006985
29	0xbced8e74	-0.028998591
30	0xbd1ffff6	-0.039062463
31	0x3dae8611	0.08521665
32	0xbd04458d	-0.03229289
33	0x3da17965	0.07884482
34	0x3be49dd0	0.0069768205
35	0x3dc967a0	0.09834218
36	0x3dd24795	0.102675594
37	0xbe07188a	-0.13192955
38	0x3c69ae14	0.014262695
39	0x3de93e7f	0.11388873
40	0x3da95a8e	0.08269225
41	0xbd595432	-0.05305881
42	0xbc25ed71	-0.010127411
43	0xbcab719b	-0.020928195
44	0x3c133545	0.008984868
45	0x3da54de6	0.080714986
46	0xbbc2755e	-0.0059344014
47	0x3cf8e7e5	0.030384013
48	0xbdfbc252	-0.12292923
49	0x3cc48a68	0.023991778
50	0xbdc25601	-0.0948906
51	0xbcb9ee06	-0.022696506
52	0x3d842266	0.064518735
53	0xbd8e3dc2	-0.06945373
54	0x3d2bdcb1	0.041958515
55	0xbdf4fdf1	-0.11962498
56	0x3c13c519	0.00901916
57	0x3d448e0c	0.04798703
58	0x3d35db20	0.044398427
59	0x3c405f24	0.011741433
60	0xbd76098a	-0.06006769
61	0x3dd13295	0.10214726
62	0x3d85f003	0.06539919
63	0x3c2fdff3	0.010734546
64	0x3c1ce4c3	0.009576025
65	0xbd7d2392	-0.0618015
66	0xbde03a91	-0.10948671
67	0x3cdea903	0.0271802
68	0xbd911b2b	-0.0708526
69	0x3d879c7d	0.06621645
70	0xbdcab2aa	-0.09897359
71	0x3dbea2b5	0.09308378
72	0x3e0aca5a	0.13553753
73	0xbb2b9b0b	-0.0026184942
74	0x3cc1e0fe	0.023666855
75	0x3d32af8f	0.043624457
76	0x3d8a8869	0.067642994
77	0x3d293203	0.04130746
78	0x3d115ad2	0.035487004
79	0x3d6ae25e	0.057344787
80	0xbe091217	-0.13385807
81	0xbc508e34	-0.012729216
82	0x3d885dea	0.06658538
83	0x3d1506af	0.036383327
84	0x3b9008d9	0.004395586
85	0xbdd58c4d	-0.10427151
86	0x3c4ea21e	0.012611894
87	0x3da9ce4a	0.082913
88	0xbdf9cc40	-0.12197161
89	0x3c3f3afd	0.011671779
90	0x3d94dc67	0.07268601
91	0xbc144282	-0.00904906
92	0xbae72005	-0.0017633444
93	0xbc838f89	-0.016059654
94	0xbcde4b79	-0.027135598
95	0x3d1f72f2	0.03892798
96	0x3dc4a310	0.09601414
97	0x3d9d3617	0.076763324
98	0xbcbedaf1	-0.023297759
99	0xbd50b550	-0.050954163
100	0x3df18db5	0.117946066
101	0x3d0b7f3f	0.0340569
102	0xbd47a42c	-0.04874055
103	0xbcccacea	-0.024984796
104	0x3d656298	0.05600223
105	0xbd0b4327	-0.03399959
106	0x3d02d2bb	0.03193925
107	0x3ded3d51	0.11583961
108	0x3dac178c	0.08402929
109	0x39c09aa7	0.0003673632
110	0xbcd34b41	-0.02579272
111	0x3d8cca10	0.06874478
112	0x3cf69536	0.030100446
113	0xbdcde8e3	-0.10054185
114	0x3cc52970	0.02406761
115	0xbbc57d42	-0.006026895
116	0xbd3e39e6	-0.046441935
117	0xbc98068f	-0.018557815
118	0x3d4b7e41	0.049680952
119	0x3dea6953	0.1144587
120	0xbddeba94	-0.10875431
121	0x3d609e7a	0.054838635
122	0x3ba8a6cd	0.0051468373
123	0x3bc15f4b	0.0059012524
124	0x3d622bd7	0.05521759
125	0x3e09bffd	0.13452144
126	0x3d308a76	0.043100797
127	0xbe061387	-0.13093387

network_body._body_endoder.seq_layers.2.weight f4 [128, 128]
0	0xbd35d628	-0.04439369
1	0xbe9a8605	-0.30180374
2	0x3bd4396a	0.006476571
3	0x3d378f42	0.044814356
4	0x3e556d69	0.20842518
5	0x3d25faac	0.040522262
6	0x3d974b46	0.07387404
7	0x3e2383f6	0.15968308
8	0xbd68ebdb	-0.056865554
9	0xbd042ea1	-0.03227103
10	0x3d425331	0.04744262
11	0xbd87d8a6	-0.06633119
12	0x3cd9807d	0.026550526
13	0x3c070728	0.008241452
14	0x3ca4ec59	0.02013223
15	0xbbb06030	-0.00538256
16	0xbdc21d5e	-0.094782576
17	0xbd528d9f	-0.05140459
18	0xbde6513b	-0.11245962
19	0x3d26b235	0.040697295
20	0x3e136101	0.14392473
21	0xbd6e4ec4	-0.058180586
22	0xbdd7c40a	-0.10535438
23	0xbde65025	-0.11245755
24	0x3d8aa979	0.067706056
25	0x3e160a2a	0.14652315
26	0x3ca9ead8	0.020741865
27	0xbd182bf6	-0.0371513
28	0x3e7a42d0	0.2443955
29	0x3db5a784	0.08869842
30	0xba2fb81a	-0.00067031535
31	0x3cf458e3	0.02982754
32	0xbe0e740b	-0.13911454
33	0x3dc3d4d6	0.095620796
34	0x3d8bf362	0.06833531
35	0xbcc3a13b	-0.023880592
36	0x3d8a84ef	0.06763636
37	0xbd82d907	-0.06389051
38	0xbb4a8f75	-0.003090826
39	0x3e27efde	0.16400096
40	0x3d4fad1a	0.050702192
41	0xbe2d3c3c	-0.16917509
42	0x3e02ceb0	0.12774158
43	0x3cb3a56c	0.021929465
44	0xbe484ef8	-0.19561374
45	0x3d2ed5d4	0.04268439
46	0xbc52596f	-0.012838705
47	0x3de8b778	0.11363119
48	0x3dfca7cc	0.12336692
49	0x3d690bb4	0.056895927
50	0x3d65cd54	0.05610402
51	0xbe938cc9	-0.28818348
52	0xbdc5b6b8	-0.096539915
53	0x3d4c72d2	0.04991419
54	0xbd49a9f5	-0.04923435
55	0x3dd21674	0.10258189
56	0x3d997608	0.07493216
57	0x3d1fc4d6	0.039006077
58	0xbbd22e0a	-0.0064141797
59	0x3e4e48c6	0.20144948
60	0x3d898d2f	0.06716382
61	0xbd901345	-0.07034925
62	0x3dcc8279	0.09985823
63	0xbe0fc50e	-0.14040014
64	0x3e0cda7e	0.13755223
65	0x3d72e094	0.059296206
66	0xbc157fa4	-0.00912467
67	0xbdbf8739	-0.093519635
68	0x3d660830	0.056160152
69	0xbd8e5e4b	-0.06951579
70	0x3d72dc9a	0.059292413
71	0x3e2440f3	0.16040401
72	0x3d169734	0.036765292
73	0xbc5e7d45	-0.013579671
74	0xba9544cd	-0.0011388302
75	0xbe18c521	-0.14918949
76	0x3d09dd61	0.03365839
77	0x3d9ae070	0.07562339
78	0xbd7064f6	-0.058690034
79	0x3d9ab238	0.07553524
80	0xbdf20ebd	-0.11819217
81	0xbccd68e6	-0.025074434
82	0x3dd867e1	0.10566688
83	0x3ca125f4	0.019671418
84	0x3e25da00	0.16196442
85	0xbc9a3d64	-0.018828101
86	0x3e099e94	0.13439399
87	0x3db9e5f4	0.09077063
88	0xbdc381e0	-0.09546256
89	0x3d0e75ad	0.034780193
90	0xbe17d50d	-0.14827366
91	0x3e61d7d1	0.22054984
92	0xbd770c8b	-0.060314696
93	0xbcb4f8c7	-0.022091283
94	0xbddd9088	-0.10818583
95	0x3d96b851	0.07359374
96	0xbdb830c4	-0.08993676
97	0xbe08b5c6	-0.13350591
98	0x3d8d5cce	0.06902467
99	0x3c6f777b	0.014615889
100	0x3d97612e	0.073915824
101	0xbc05ac82	-0.008158805
102	0x3e1d2634	0.15346605
103	0x3d79e6b6	0.06101104
104	0x3ca16ff8	0.019706711
105	0x3df2a07c	0.11847016
106	0x3c80d544	0.015726693
107	0x3dd68218	0.10474032
108	0x3e044aa2	0.12919095
109	0x3e2372c7	0.15961753
110	0xbd305127	-0.043046143
111	0x3dd08394	0.101813465
112	0xbd8c6a5e	-0.068562254
113	0x3cb4d3bb	0.022073617
114	0x3e241d04	0.16026694
115	0x3da35995	0.07976071
116	0x3dcdbc97	0.10045736
117	0xbe421621	-0.18953754
118	0xbd4ec188	-0.050477535
119	0x3d742c8c	0.059612796
120	0x3e125f38	0.14294136
121	0xbd1d5059	-0.038406704
122	0x3d8325b5	0.064036764
123	0xbc0a5d0d	-0.008445037
124	0xbc448411	-0.011994378
125	0x3d5552ea	0.052081026
126	0xbddc00d3	-0.10742345
127	0xbd8f47e2	-0.069961324
128	0xbd0a1d57	-0.033719387
129	0x3cd2c598	0.025728986
130	0xbd00f3bb	-0.03148244
131	0xbd6c70fe	-0.057724945
132	0x3d16a569	0.03677884
133	0xbe07a2f7	-0.1324576
134	0xbd5aa5ee	-0.0533809
135	0xbdd1c67c	-0.10242936
136	0xbdbca6bd	-0.0921149
137	0xbb84556b	-0.004038503
138	0x3b906d6b	0.004407575
139	0x3cb1e90a	0.021717567
140	0x3d0bbd21	0.034115914
141	0x3cb51c8c	0.022108339
142	0xbe14d60d	-0.14534779
143	0xbdc2ceb8	-0.09512085
144	0x3d2abd93	0.0416847
145	0x3dfe5a72	0.12419595
146	0xbd0dc28c	-0.034609362
147	0x3d376d4c	0.044781968
148	0xbd2d3907	-0.042290714
149	0x3dd6eea1	0.104947336
150	0x3e0e4203	0.13892369
151	0x3de32384	0.110907584
152	0xbe242ef1	-0.16033532
153	0xbd9d41b9	-0.07678551
154	0xbc941fd3	-0.018081581
155	0xbd97d90f	-0.074144475
156	0xbdf0a9c6	-0.11751132
157	0x3cbbefe3	0.022941535
158	0x3e246b35	0.16056521
159	0xbce95f99	-0.028487967
160	0xbcd03923	-0.02541787
161	0x383f8322	4.5660076e-05
162	0x3bb0e189	0.0053979796
163	0xbd686868	-0.056740195
164	0xbd1c37bd	-0.038139094
165	0x3c54eb65	0.012995576
166	0xbd560d4a	-0.052258767
167	0xbe7068c6	-0.23477468
168	0x3de51327	0.11185294
169	0x3d7bc432	0.061466403
170	0x3c37835b	0.011200751
171	0xbdc06cee	-0.09395777
172	0x3e1b9919	0.15195121
173	0xbcaab7a5	-0.020839522
174	0xbba4c757	-0.005028646
175	0xbd4a09c3	-0.049325716
176	0xbdc87e67	-0.09789734
177	0xbd441e28	-0.04788032
178	0x3e0e57db	0.13900702
179	0x3e30a8e7	0.17251931
180	0xbdc579e9	-0.09642393
181	0xbda9d980	-0.08293438
182	0x3d805f8e	0.062682256
183	0xbd490d53	-0.049084973
184	0xbd178632	-0.036993213
185	0x3cec9188	0.028877988
186	0x3c866077	0.01640342
187	0xbe1fad3c	-0.15593427
188	0x3db6e66a	0.08930667
189	0xbd1a91e0	-0.037736773
190	0xbdb7c47d	-0.08973024
191	0x3d0afe40	0.033933878
192	0x3bc198d2	0.00590811
193	0xbd740a28	-0.05958
194	0xbb81fb9c	-0.0039667618
195	0xbba2daa2	-0.0049699107
196	0x3d5d928a	0.05409483
197	0xbc2bac27	-0.010478056
198	0xbbf8baf4	-0.007590646
199	0xbe0f1eb2	-0.13976553
200	0xbd7db07a	-0.06193588
201	0xbd876a83	-0.066121124
202	0x3e657efb	0.2241172
203	0x3ce06093	0.0273898
204	0xbe11ed62	-0.1425071
205	0xbd21de60	-0.039518714
206	0xbd5a77cc	-0.053336903
207	0x3e18a1a9	0.14905418
208	0xbd4deaca	-0.05027274
209	0xba5e1f7f	-0.0008473321
210	0xbe11ca4e	-0.1423733
211	0x3e17e2b3	0.14832573
212	0xbdaf5f22	-0.08563067
213	0x3dc47da1	0.09594274
214	0xbcffd048	-0.031227246
215	0xbd70f5c5	-0.058828134
216	0x3cd2551c	0.025675349
217	0x3ddd2894	0.10798755
218	0xbc10688d	-0.008813989
219	0xbdf3b142	-0.118990436
220	0xbc2100ab	-0.009826819
221	0x3dfde772	0.1239766
222	0x3d06da27	0.03292289
223	0xbdf06c3e	-0.117393956
224	0xbd058eed	-0.032607008
225	0xbc677145	-0.014126127
226	0xbdaff39d	-0.085913874
227	0x3ce3f5d0	0.027827173
228	0x3c7f0853	0.0155659495
229	0xbe472843	-0.19448952
230	0xbdd9a650	-0.10627425
231	0x3d9d3647	0.07676368
232	0xbe11c26c	-0.14234322
233	0xbcc8744a	-0.024469513
234	0x3d226551	0.039647404
235	0xbe4ccfde	-0.2000117
236	0x3daabb89	0.08336551
237	0x3b3997e6	0.0028319298
238	0x3d814744	0.06312421
239	0x38bba66a	8.947852e-05
240	0xbdbb33aa	-0.091407135
241	0x3e01098a	0.12601295
242	0x3df30584	0.118662864
243	0xbe0e9e4c	-0.13927573
244	0x3da09e75	0.07842723
245	0x3dbfcce8	0.09365255
246	0x3c8220f9	0.015884863
247	0x3c61db54	0.013785202
248	0xbca9bfee	-0.020721402
249	0x3dbd9576	0.09257023
250	0xbd91bd9e	-0.07116245
251	0x3e199e22	0.15001729
252	0x3d9d7266	0.076878354
253	0xbc867e20	-0.016417563
254	0xbdd32a6e	-0.10310827
255	0xbd0135ee	-0.031545572
