Foosbots_MultiRod/results/train_1_1/Foosbots_MultiRod/Foosbots_MultiRod-3333.onnx (onnx, 308209 bytes, 7 tensors)

action_model._continuous_distribution.log_sigma f4 [1, 8]
0	0x00000000	0.0
1	0x00000000	0.0
2	0x00000000	0.0
3	0x00000000	0.0
4	0x00000000	0.0
5	0x00000000	0.0
6	0x00000000	0.0
7	0x00000000	0.0

action_model._continuous_distribution.mu.bias f4 [8]
0	0x00000000	0.0
1	0x00000000	0.0
2	0x00000000	0.0
3	0x00000000	0.0
4	0x00000000	0.0
5	0x00000000	0.0
6	0x00000000	0.0
7	0x00000000	0.0

action_model._continuous_distribution.mu.weight f4 [8, 256]
0	0xbca9c4a7	-0.020723654
1	0x3c0707e3	0.008241626
2	0x3b803a89	0.003913228
3	0x3c9c309d	0.01906615
4	0xbbc4d037	-0.0060062665
5	0xbabb3633	-0.001428312
6	0xbb93484f	-0.004494704
7	0xbaa91c31	-0.0012902078
8	0x3b94bac7	0.004538867
9	0x3c13ea46	0.009028023
10	0xbab1a9ac	-0.0013554594
11	0xbc8c8b23	-0.01715619
12	0xbc8157a0	-0.015788853
13	0xbadee118	-0.0017004339
14	0x3c69c4cb	0.0142681105
15	0xbc33ae5f	-0.010966866
16	0xbc3f235b	-0.011666144
17	0xbc885521	-0.016642155
18	0xbc0d506c	-0.008625131
19	0x3b01a2f8	0.0019780975
20	0x3c491882	0.0122739095
21	0xbb2d9e5b	-0.0026492092
22	0x3ba025a6	0.0048873005
23	0x3c59764f	0.013272836
24	0xbc8009d0	-0.015629679
25	0x3d024908	0.03180793
26	0x3a6e5270	0.00090912636
27	0xbc8fb210	-0.017540962
28	0xbcc367c0	-0.023853183
29	0x3c7f208b	0.015571724
30	0xbc37baa6	-0.011213934
31	0x3be3a7f8	0.0069475137
32	0x3bfb4115	0.0076676705
33	0xbc83c9bd	-0.016087407
34	0xbc534a25	-0.012896095
35	0xbc51cf92	-0.012805836
36	0x3c0938db	0.008375372
37	0x3c5a3a0b	0.013319503
38	0xbbaadf82	-0.0052146325
39	0xbbf18830	-0.007370971
40	0xbc58d02f	-0.013233229
41	0x3a178d07	0.00057812076
42	0xbb94d2d8	-0.004541736
43	0x3b36f712	0.0027918261
44	0xbb881f4a	-0.0041541206
45	0xbca21c6f	-0.019788949
46	0x3cabb57a	0.020960558
47	0x3c763b22	0.015028747
48	0xbcd3038f	-0.025758533
49	0x3c861c7e	0.016371008
50	0xbc18ceee	-0.00932668
51	0xbc518565	-0.012788151
52	0x3c59d7c2	0.01329607
53	0x3cec2f68	0.028831199
54	0x3c3e3955	0.011610349
55	0x3cb310be	0.02185857
56	0x3c3b07b8	0.0114154145
57	0xbc05aae7	-0.008158422
58	0xbc85184f	-0.016246943
59	0xbca85b05	-0.020551214
60	0xbcaa91ff	-0.02082157
61	0x3bbf6e25	0.0058419877
62	0xbc7ee69f	-0.015557914
63	0xbb9f924f	-0.0048697363
64	0x3c7aa8ff	0.015299081
65	0xbb909b77	-0.004413064
66	0x3b9b48b9	0.004738894
67	0x3c1e9107	0.009678132
68	0xba0f1f11	-0.00054596463
69	0xbb7b0c18	-0.003830677
70	0xbcb1c0d2	-0.02169839
71	0xba8c1989	-0.0010688762
72	0xbbe84a3b	-0.007088927
73	0xbb1623de	-0.0022909562
74	0x3c44213c	0.011970814
75	0xbc397036	-0.011318257
76	0xbc50087a	-0.0126973335
77	0xbc6a35e3	-0.014295074
78	0x3bd36e57	0.0064523625
79	0xba2fbf31	-0.000670421
80	0x3c1b91c1	0.0094952
81	0x3bcd1738	0.0062588714
82	0xbbdc3c83	-0.0067210807
83	0xbc044cc4	-0.008074943
84	0x3c6b2ae0	0.014353484
85	0xbcaaa4d5	-0.020830551
86	0xbca0be7b	-0.019622078
87	0x39951aa9	0.00028439358
88	0xbb6aa88b	-0.0035806026
89	0xbbdbfb13	-0.00671328
90	0x3cd2e57d	0.025744194
91	0x3bce888b	0.0063028983
92	0xbb853645	-0.0040653073
93	0xbc4e0c7d	-0.01257622
94	0xbca100b0	-0.019653648
95	0x3c7163b8	0.014733247
96	0x3becee5a	0.007230562
97	0xbb86c40e	-0.004112727
98	0x3c963746	0.018336903
99	0xbaeb40c3	-0.0017948378
100	0xbca827ea	-0.020526845
101	0xb981acdf	-0.00024733596
102	0xbc297d2e	-0.010344787
103	0x3c04c6b3	0.008104014
104	0x3c62c418	0.013840698
105	0xbba07066	-0.0048962114
106	0x3b0829a8	0.0020776782
107	0x3a303e84	0.0006723183
108	0xbc2b672b	-0.010461609
109	0xbd45622d	-0.04818933
110	0xbba65ae3	-0.0050767525
111	0x3c8b601e	0.017013606
112	0xbbddb8d8	-0.00676642
113	0xbcc76af7	-0.024342997
114	0x3c3cc950	0.011522606
115	0x3acd56e0	0.001566615
116	0xbbebef0d	-0.007200128
117	0x3c2f726d	0.010708434
118	0xbc5bdafa	-0.013418907
119	0xba3beb4f	-0.00071685476
120	0xbc89ddae	-0.016829338
121	0x3c87ef52	0.016593609
122	0x3c8e24a7	0.017351462
123	0xbbd6e630	-0.006558202
124	0x3b68b83d	0.0035510205
125	0x3b95d847	0.0045729014
126	0x3bdccbdd	0.0067381696
127	0xbc30d8d8	-0.010793887
128	0x39dddec7	0.00042318387
129	0x3c3bffee	0.011474593
130	0x3ba48d13	0.0050217
131	0x3b65cbab	0.0035064023
132	0xbc794eb8	-0.015216522
133	0x3c491a5f	0.012274354
134	0x3c0a16ef	0.008428319
135	0xbbfac308	-0.007652644
136	0x3c8d8c43	0.017278796
137	0x3994e049	0.00028395865
138	0xbcdb8eba	-0.026801456
139	0xbcc17150	-0.023613602
140	0xbc4f0138	-0.012634568
141	0x3bd66213	0.006542453
142	0x3adaf32d	0.0016704552
143	0x3c7d0b62	0.015444608
144	0x3c0c5389	0.008564838
145	0x3c4fcc9d	0.012683061
146	0x39f9e8a3	0.0004766631
147	0xbc0f9ea6	-0.008765852
148	0xbc14b1bb	-0.009075577
149	0xba05c55b	-0.00051029556
150	0xb9467387	-0.00018925789
151	0xbcad0195	-0.021118918
152	0x3be30c82	0.0069289813
153	0x3a8b8407	0.0010644206
154	0xbc6ebb4a	-0.01457102
155	0xbc929927	-0.017895294
156	0x3bdcac42	0.006734402
157	0xbb44a9bf	-0.0030008403
158	0xbb9b6ba2	-0.0047430554
159	0xbb5a00ba	-0.0033264593
160	0xbc05e38b	-0.008171926
161	0x3b65458b	0.0034984078
162	0xbb813447	-0.0039429995
163	0x3bb4f1e9	0.005522002
164	0xbcab4a2d	-0.020909393
165	0x3c61e860	0.013788313
166	0xbc99c193	-0.018769061
167	0x3bb5fd5b	0.005553884
168	0xbc8514c9	-0.016245263
169	0xbc5d02ba	-0.01348942
170	0x3cd1af32	0.025596235
171	0x3ab96577	0.0014144619
172	0x3c35dae1	0.011099548
173	0xbc302c57	-0.010752759
174	0xbb03a0f7	-0.0020084956
175	0x3c315690	0.010823861
176	0x3b73b98d	0.0037189454
177	0x3b859062	0.0040760497
178	0x3bf00d9d	0.0073258416
179	0x3bd673e5	0.0065445774
180	0x3cbef974	0.023312308
181	0xbaf3990b	-0.0018585039
182	0x3b0b9b8a	0.0021302425
183	0x3a002f72	0.00048898824
184	0xbb6efae2	-0.0036465456
185	0xbc09c559	-0.008408868
186	0x3cb8f31f	0.022576867
187	0x3b520a93	0.003204976
188	0x3c69d6ad	0.014272374
189	0xbb14fa39	-0.0022732152
190	0xbbab986f	-0.0052366774
191	0xbca58903	-0.020206934
192	0x3c65a4f7	0.014016381
193	0x3c625ea2	0.0138165075
194	0xbc34c33a	-0.011032874
195	0xbc388c1c	-0.011263873
196	0xbb7afd97	-0.0038298124
197	0x3c362f5d	0.011119691
198	0xbca50062	-0.020141784
199	0x3b8d579a	0.0043134214
200	0x3c273f77	0.010208002
201	0x3c8f0e6d	0.017462933
202	0x3b5e7ad2	0.0033947718
203	0xbcfcc770	-0.030856818
204	0xbc6b1e43	-0.014350477
205	0x3b356a5d	0.0027681806
206	0x3c91e4b3	0.017809248
207	0xbbc57192	-0.0060255015
208	0x3c18da13	0.009329337
209	0x3c2feb49	0.010737249
210	0xbba3114e	-0.004976428
211	0x3c19fc6a	0.009398559
212	0x3b79d9ca	0.0038124197
213	0x3b2cabaa	0.0026347437
214	0xbb590e8a	-0.0033120238
215	0xbb8c0f83	-0.00427431
216	0x3beeb2d5	0.007284502
217	0x3c5c9887	0.0134641
218	0x3c891acf	0.016736416
219	0x3cc00e49	0.023444312
220	0xbc4933c2	-0.012280406
221	0xbada0c50	-0.001663575
222	0x3c607290	0.013699189
223	0xbc3cca78	-0.011522882
224	0xbc3d5daf	-0.01155798
225	0xbc7b6a15	-0.015345116
226	0x3b993f4b	0.0046767346
227	0x3bdfd437	0.006830718
228	0x3c1136b5	0.008863141
229	0x3be012d0	0.00683818
230	0x3d57d530	0.052693546
231	0x3a04ff54	0.0005073447
232	0x3ca0cd8f	0.019629268
233	0x3c97d88b	0.018535873
234	0xbb9f5609	-0.004862551
235	0xbb9e55fa	-0.0048320265
236	0xbb00ca9d	-0.0019652017
237	0x391194be	0.00013883688
238	0xbc9e5c83	-0.019331222
239	0xbc0bb387	-0.008526689
240	0x39b424b0	0.0003435961
241	0x3cd8e8c5	0.02647818
242	0xbc0fbf17	-0.008773587
243	0x3cd766f0	0.026294202
244	0xbc412238	-0.011787944
245	0xbce7c975	-0.028294304
246	0x3bcf4e8b	0.0063265017
247	0xbcafff4d	-0.021484042
248	0x3b897b4f	0.0041956077
249	0x3cbf8c1f	0.023382245
250	0x3b1ebb9c	0.002422071
251	0xbb9dc828	-0.0048151202
252	0x3c397bba	0.011321003
253	0x3ceff0ca	0.029289622
254	0x3c942da8	0.018088177
255	0xba462eee	-0.00075600937

network_body._body_endoder.seq_layers.0.bias f4 [256]
0	0x00000000	0.0
1	0x00000000	0.0
2	0x00000000	0.0
3	0x00000000	0.0
4	0x00000000	0.0
5	0x00000000	0.0
6	0x00000000	0.0
7	0x00000000	0.0
8	0x00000000	0.0
9	0x00000000	0.0
10	0x00000000	0.0
11	0x00000000	0.0
12	0x00000000	0.0
13	0x00000000	0.0
14	0x00000000	0.0
15	0x00000000	0.0
16	0x00000000	0.0
17	0x00000000	0.0
18	0x00000000	0.0
19	0x00000000	0.0
20	0x00000000	0.0
21	0x00000000	0.0
22	0x00000000	0.0
23	0x00000000	0.0
24	0x00000000	0.0
25	0x00000000	0.0
26	0x00000000	0.0
27	0x00000000	0.0
28	0x00000000	0.0
29	0x00000000	0.0
30	0x00000000	0.0
31	0x00000000	0.0
32	0x00000000	0.0
33	0x00000000	0.0
34	0x00000000	0.0
35	0x00000000	0.0
36	0x00000000	0.0
37	0x00000000	0.0
38	0x00000000	0.0
39	0x00000000	0.0
40	0x00000000	0.0
41	0x00000000	0.0
42	0x00000000	0.0
43	0x00000000	0.0
44	0x00000000	0.0
45	0x00000000	0.0
46	0x00000000	0.0
47	0x00000000	0.0
48	0x00000000	0.0
49	0x00000000	0.0
50	0x00000000	0.0
51	0x00000000	0.0
52	0x00000000	0.0
53	0x00000000	0.0
54	0x00000000	0.0
55	0x00000000	0.0
56	0x00000000	0.0
57	0x00000000	0.0
58	0x00000000	0.0
59	0x00000000	0.0
60	0x00000000	0.0
61	0x00000000	0.0
62	0x00000000	0.0
63	0x00000000	0.0
64	0x00000000	0.0
65	0x00000000	0.0
66	0x00000000	0.0
67	0x00000000	0.0
68	0x00000000	0.0
69	0x00000000	0.0
70	0x00000000	0.0
71	0x00000000	0.0
72	0x00000000	0.0
73	0x00000000	0.0
74	0x00000000	0.0
75	0x00000000	0.0
76	0x00000000	0.0
77	0x00000000	0.0
78	0x00000000	0.0
79	0x00000000	0.0
80	0x00000000	0.0
81	0x00000000	0.0
82	0x00000000	0.0
83	0x00000000	0.0
84	0x00000000	0.0
85	0x00000000	0.0
86	0x00000000	0.0
87	0x00000000	0.0
88	0x00000000	0.0
89	0x00000000	0.0
90	0x00000000	0.0
91	0x00000000	0.0
92	0x00000000	0.0
93	0x00000000	0.0
94	0x00000000	0.0
95	0x00000000	0.0
96	0x00000000	0.0
97	0x00000000	0.0
98	0x00000000	0.0
99	0x00000000	0.0
100	0x00000000	0.0
101	0x00000000	0.0
102	0x00000000	0.0
103	0x00000000	0.0
104	0x00000000	0.0
105	0x00000000	0.0
106	0x00000000	0.0
107	0x00000000	0.0
108	0x00000000	0.0
109	0x00000000	0.0
110	0x00000000	0.0
111	0x00000000	0.0
112	0x00000000	0.0
113	0x00000000	0.0
114	0x00000000	0.0
115	0x00000000	0.0
116	0x00000000	0.0
117	0x00000000	0.0
118	0x00000000	0.0
119	0x00000000	0.0
120	0x00000000	0.0
121	0x00000000	0.0
122	0x00000000	0.0
123	0x00000000	0.0
124	0x00000000	0.0
125	0x00000000	0.0
126	0x00000000	0.0
127	0x00000000	0.0
128	0x00000000	0.0
129	0x00000000	0.0
130	0x00000000	0.0
131	0x00000000	0.0
132	0x00000000	0.0
133	0x00000000	0.0
134	0x00000000	0.0
135	0x00000000	0.0
136	0x00000000	0.0
137	0x00000000	0.0
138	0x00000000	0.0
139	0x00000000	0.0
140	0x00000000	0.0
141	0x00000000	0.0
142	0x00000000	0.0
143	0x00000000	0.0
144	0x00000000	0.0
145	0x00000000	0.0
146	0x00000000	0.0
147	0x00000000	0.0
148	0x00000000	0.0
149	0x00000000	0.0
150	0x00000000	0.0
151	0x00000000	0.0
152	0x00000000	0.0
153	0x00000000	0.0
154	0x00000000	0.0
155	0x00000000	0.0
156	0x00000000	0.0
157	0x00000000	0.0
158	0x00000000	0.0
159	0x00000000	0.0
160	0x00000000	0.0
161	0x00000000	0.0
162	0x00000000	0.0
163	0x00000000	0.0
164	0x00000000	0.0
165	0x00000000	0.0
166	0x00000000	0.0
167	0x00000000	0.0
168	0x00000000	0.0
169	0x00000000	0.0
170	0x00000000	0.0
171	0x00000000	0.0
172	0x00000000	0.0
173	0x00000000	0.0
174	0x00000000	0.0
175	0x00000000	0.0
176	0x00000000	0.0
177	0x00000000	0.0
178	0x00000000	0.0
179	0x00000000	0.0
180	0x00000000	0.0
181	0x00000000	0.0
182	0x00000000	0.0
183	0x00000000	0.0
184	0x00000000	0.0
185	0x00000000	0.0
186	0x00000000	0.0
187	0x00000000	0.0
188	0x00000000	0.0
189	0x00000000	0.0
190	0x00000000	0.0
191	0x00000000	0.0
192	0x00000000	0.0
193	0x00000000	0.0
194	0x00000000	0.0
195	0x00000000	0.0
196	0x00000000	0.0
197	0x00000000	0.0
198	0x00000000	0.0
199	0x00000000	0.0
200	0x00000000	0.0
201	0x00000000	0.0
202	0x00000000	0.0
203	0x00000000	0.0
204	0x00000000	0.0
205	0x00000000	0.0
206	0x00000000	0.0
207	0x00000000	0.0
208	0x00000000	0.0
209	0x00000000	0.0
210	0x00000000	0.0
211	0x00000000	0.0
212	0x00000000	0.0
213	0x00000000	0.0
214	0x00000000	0.0
215	0x00000000	0.0
216	0x00000000	0.0
217	0x00000000	0.0
218	0x00000000	0.0
219	0x00000000	0.0
220	0x00000000	0.0
221	0x00000000	0.0
222	0x00000000	0.0
223	0x00000000	0.0
224	0x00000000	0.0
225	0x00000000	0.0
226	0x00000000	0.0
227	0x00000000	0.0
228	0x00000000	0.0
229	0x00000000	0.0
230	0x00000000	0.0
231	0x00000000	0.0
232	0x00000000	0.0
233	0x00000000	0.0
234	0x00000000	0.0
235	0x00000000	0.0
236	0x00000000	0.0
237	0x00000000	0.0
238	0x00000000	0.0
239	0x00000000	0.0
240	0x00000000	0.0
241	0x00000000	0.0
242	0x00000000	0.0
243	0x00000000	0.0
244	0x00000000	0.0
245	0x00000000	0.0
246	0x00000000	0.0
247	0x00000000	0.0
248	0x00000000	0.0
249	0x00000000	0.0
250	0x00000000	0.0
251	0x00000000	0.0
252	0x00000000	0.0
253	0x00000000	0.0
254	0x00000000	0.0
255	0x00000000	0.0

network_body._body_endoder.seq_layers.0.weight f4 [256, 33]
0	0x3e9e8a10	0.30964708
1	0xbe301439	-0.17195214
2	0xbda2a686	-0.07941918
3	0x3e588357	0.21143852
4	0xbd11a6a3	-0.035559308
5	0x3dac5556	0.08414714
6	0xbe836acb	-0.25667414
7	0x3d7efc24	0.06225218
8	0x3c48f20c	0.01226474
9	0x3dfcdaa6	0.123463914
10	0x3e865232	0.26234585
11	0xbde582a9	-0.11206562
12	0x3e9fcc4a	0.31210548
13	0xbe97c98c	-0.29645956
14	0x3e19e8d8	0.15030229
15	0x3dda8d4b	0.10671481
16	0x3e405c69	0.18785252
17	0xbe8455e1	-0.2584677
18	0xbb602721	-0.003420301
19	0xbe47aa0c	-0.19498461
20	0xbd464771	-0.048407976
21	0x3e27014f	0.16309093
22	0x3d2a0a0e	0.041513495
23	0x3e30a150	0.17249036
24	0xbe3fc130	-0.18726039
25	0xbe514938	-0.20438087
26	0xbe88ceed	-0.26720372
27	0xbe23d44d	-0.15998955
28	0xbe01c888	-0.12674153
29	0xbdf03012	-0.11727919
30	0x3e003835	0.12521441
31	0x3d4743cd	0.048648644
32	0x3cd5dee9	0.026107268
33	0xbd1a20a0	-0.03762877
34	0xbe60400f	-0.21899436
35	0xbd06892c	-0.03284566
36	0xbe51861a	-0.20461312
37	0x3e82ad7f	0.25522992
38	0x3d81e37e	0.06342219
39	0xbe45b71f	-0.19308136
40	0xbc7161d8	-0.0147328
41	0x3e4a0970	0.19730163
42	0x3da13ae8	0.078725636
43	0x3e54006c	0.20703286
44	0xbc902b9c	-0.01759892
45	0x3d5b67eb	0.0535659
46	0x3e078d63	0.13237529
47	0xbe087c8e	-0.13328764
48	0x3b728ac7	0.0037008987
49	0x3e8161ab	0.25269827
50	0x3da0480c	0.07826242
51	0x3cbe0610	0.02319625
52	0xbcd0f539	-0.025507556
53	0x3e7c9568	0.24666369
54	0xbdeda775	-0.116042055
55	0xbc5385c7	-0.012910313
56	0x3e5e2216	0.2169269
57	0xbe53f255	-0.20697911
58	0x3dbd9433	0.092567824
59	0xbc9b575f	-0.01896256
60	0xbe844226	-0.25831717
61	0xbc4f4799	-0.012651348
62	0xbe29d983	-0.1658688
63	0xbc9bc088	-0.019012704
64	0x3e0fbcc9	0.1403686
65	0xbdadc403	-0.08484652
66	0xbd578db3	-0.05262537
67	0xbe87d0bd	-0.26526442
68	0x3d4be414	0.04977806
69	0x3d63d9f4	0.05562778
70	0xbdadc8c2	-0.08485557
71	0xbdce527f	-0.10074329
72	0xbd7804af	-0.06055134
73	0xbe17d7c6	-0.14828405
74	0x3cefd1c8	0.029274836
75	0x3edcced9	0.43126562
76	0x3ecf9132	0.40540463
77	0xbe2008ec	-0.15628403
78	0x3e7deae3	0.24796633
79	0xbc9ab396	-0.018884461
80	0x3de5ad85	0.11214737
81	0x3d192a3a	0.037393786
82	0x3e2bf6b1	0.16793324
83	0xbed920d4	-0.42407858
84	0x3e5cbdab	0.21556728
85	0xbdd5b6f2	-0.10435285
86	0xbe299d00	-0.16563797
87	0x3dcf668a	0.1012698
88	0xbe254f9b	-0.16143648
89	0x3cc0030a	0.02343895
90	0xbe616d53	-0.2201436
91	0x3df598d0	0.11992037
92	0x3ecb8fb3	0.3975807
93	0x3e4c9a60	0.19980764
94	0xbeb86be4	-0.36019814
95	0xbce4d872	-0.02793524
96	0x3c7819a3	0.015142831
97	0x3e5e99b4	0.2173832
98	0x3eba5b51	0.36397794
99	0x3d696b41	0.05698705
100	0x3d84554d	0.06461582
101	0xbdc4d5c4	-0.09611085
102	0xbe7e0d7e	-0.24809834
103	0x3e2dd20f	0.16974662
104	0xbe158082	-0.14599803
105	0xb998f2b0	-0.00029172515
106	0xbe31b358	-0.1735357
107	0x3dcc1d3f	0.09966516
108	0x3d1e222a	0.0386068
109	0xbd2a4763	-0.041571986
110	0x3d511dfe	0.051053993
111	0x3e3181f3	0.17334728
112	0xbe3b9a9f	-0.18320702
113	0x3e84464e	0.25834888
114	0xbc807370	-0.015680045
115	0x3c98d40f	0.018655805
116	0xbe04425a	-0.12915936
117	0x3e0b9e1d	0.13634534
118	0xbe2240e6	-0.1584507
119	0xbe66421b	-0.22486155
120	0xbde0bf6f	-0.10974013
121	0xbdc92c0f	-0.09822857
122	0xbe428c78	-0.18998897
123	0xbe45ed76	-0.19328865
124	0x3e4434bc	0.19160742
125	0xbdb4510a	-0.088045195
126	0x3dd1ba52	0.10240616
127	0x3d3c42f8	0.045962304
128	0xbe4f7e77	-0.20263086
129	0xbc744e89	-0.014911302
130	0xbd7c7767	-0.06163731
131	0xbe054912	-0.13016155
132	0x3e667e6b	0.22509162
133	0x3d49623e	0.049165957
134	0xbe250f5b	-0.16119139
135	0xbe63ad7d	-0.2223415
136	0x3d574a73	0.052561235
137	0x3e5cacf6	0.21550354
138	0x3d7feaa1	0.06247962
139	0xbdf0fedc	-0.117673606
140	0x3d966b73	0.07344713
141	0x3c00dd4d	0.007865262
142	0xbe5b8173	-0.214361
143	0xbd556697	-0.05209979
144	0xbe64693c	-0.22305769
145	0x3e4f775f	0.2026038
146	0x3e25b3ca	0.16181865
147	0x3dcebb12	0.100942746
148	0xbef173a9	-0.47158554
149	0x3dbcc406	0.09217076
150	0x3da7977f	0.081831925
151	0xbca7baa9	-0.020474749
152	0xbe77087c	-0.2412433
153	0xbe44c505	-0.19215782
154	0xbcd3b90b	-0.025845071
155	0xbdd333be	-0.103126034
156	0xbdc7d395	-0.09757153
157	0x3ca1d6bc	0.019755714
158	0x3ea81ba4	0.32833588
159	0xbdb91966	-0.090380475
160	0xbebe9b95	-0.37228075
161	0x3ec79585	0.38981262
162	0xbdc5f3ef	-0.09665667
163	0xbe170b66	-0.14750442
164	0x3dc2514b	0.09488162
165	0xbe4c0dde	-0.19927165
166	0xbde9d85c	-0.114182204
167	0x3e4d1a8e	0.20029661
168	0xbe52548f	-0.20540069
169	0x3cd88e77	0.02643512
170	0x3ea2eb31	0.31820062
171	0xbe80782f	-0.25091693
172	0x3cef57a0	0.029216588
173	0x3e6773da	0.22602788
174	0x3da05537	0.078287534
175	0xbdb3a790	-0.087721944
176	0x3ce9a7d6	0.028522413
177	0xbdc2cb75	-0.095114626
178	0x3e20a241	0.15686895
179	0x3e094439	0.13404931
180	0x3eb32197	0.34986565
181	0x3dff163a	0.12455411
182	0xbdd0b567	-0.1019085
183	0xbe57f8be	-0.21090981
184	0x3d185fb0	0.03720063
185	0xbd8e249d	-0.06940577
186	0x3dc5575a	0.096358016
187	0x3daac633	0.08338585
188	0x3d073de5	0.03301801
189	0x3e81d74b	0.25359568
190	0x3c8bb71a	0.017055083
191	0xbe35242e	-0.17689583
192	0x3e355b4d	0.1771061
193	0xbec0bf0b	-0.37645754
194	0x3db97eda	0.09057398
195	0xbe4a01bb	-0.19727223
196	0x3ce6efea	0.028190572
197	0x3e8200b4	0.2539116
198	0xbdc33ebf	-0.09533452
199	0x3e1b662e	0.15175697
200	0x3e9d0459	0.3066738
201	0x3f0e7d09	0.5565954
202	0x3e4288e6	0.18997535
203	0x3dde3cbc	0.10851428
204	0xbe182a02	-0.14859775
205	0x3e6ade11	0.22936274
206	0x3e434f8b	0.19073312
207	0xbe9e8420	-0.30960178
208	0xbdf5ad10	-0.119959
209	0xbe1179a2	-0.14206555
210	0x3e216792	0.15762165
211	0xbe495463	-0.19661097
212	0x3cc234d4	0.023706831
213	0xbe3126f6	-0.17300019
214	0x3e25ec5b	0.16203444
215	0xbddb9458	-0.10721654
216	0xbe513e51	-0.20433928
217	0xbe559337	-0.2085694
218	0x3dc5ec0e	0.096641645
219	0x3def828b	0.11694821
220	0xbe234325	-0.15943582
221	0xbdb98708	-0.09058958
222	0x3e6b5fef	0.22985815
223	0xbd6e0940	-0.05811429
224	0xbef90f91	-0.4864469
225	0xbec01812	-0.37518364
226	0x3d93c479	0.072152086
227	0xbe1a7dcf	-0.15087055
228	0xbe08bb3d	-0.13352676
229	0x3e08db84	0.13364989
230	0x3df3ce76	0.11904614
231	0x3dd42f76	0.10360615
232	0x3c60f855	0.013731082
233	0xbe16e1b7	-0.14734541
234	0xbe0847c1	-0.13308622
235	0xbe926255	-0.28590646
236	0x3d26cffd	0.040725697
237	0xbd51d7dc	-0.05123125
238	0x3d07dc6c	0.033169195
239	0xbd7789e0	-0.060434222
240	0xbe90542c	-0.28189218
241	0xbca7a366	-0.020463657
242	0xbe28b79e	-0.16476294
243	0xbd76e72e	-0.060279064
244	0x3e0a8cf5	0.13530333
245	0xbc81404d	-0.015777731
246	0x3ddb1176	0.1069669
247	0xbe17cf79	-0.14825238
248	0xbdd9b79c	-0.10630724
249	0xbd27b4b3	-0.040943813
250	0x3d96f421	0.07370783
251	0xbd5d70f3	-0.054062795
252	0xbed70829	-0.41998413
253	0xbd663466	-0.056202315
254	0xbea28039	-0.3173845
255	0x3e1d3893	0.15353613

network_body._body_endoder.seq_layers.2.bias f4 [256]
0	0x00000000	0.0
1	0x00000000	0.0
2	0x00000000	0.0
3	0x00000000	0.0
4	0x00000000	0.0
5	0x00000000	0.0
6	0x00000000	0.0
7	0x00000000	0.0
8	0x00000000	0.0
9	0x00000000	0.0
10	0x00000000	0.0
11	0x00000000	0.0
12	0x00000000	0.0
13	0x00000000	0.0
14	0x00000000	0.0
15	0x00000000	0.0
16	0x00000000	0.0
17	0x00000000	0.0
18	0x00000000	0.0
19	0x00000000	0.0
20	0x00000000	0.0
21	0x00000000	0.0
22	0x00000000	0.0
23	0x00000000	0.0
24	0x00000000	0.0
25	0x00000000	0.0
26	0x00000000	0.0
27	0x00000000	0.0
28	0x00000000	0.0
29	0x00000000	0.0
30	0x00000000	0.0
31	0x00000000	0.0
32	0x00000000	0.0
33	0x00000000	0.0
34	0x00000000	0.0
35	0x00000000	0.0
36	0x00000000	0.0
37	0x00000000	0.0
38	0x00000000	0.0
39	0x00000000	0.0
40	0x00000000	0.0
41	0x00000000	0.0
42	0x00000000	0.0
43	0x00000000	0.0
44	0x00000000	0.0
45	0x00000000	0.0
46	0x00000000	0.0
47	0x00000000	0.0
48	0x00000000	0.0
49	0x00000000	0.0
50	0x00000000	0.0
51	0x00000000	0.0
52	0x00000000	0.0
53	0x00000000	0.0
54	0x00000000	0.0
55	0x00000000	0.0
56	0x00000000	0.0
57	0x00000000	0.0
58	0x00000000	0.0
59	0x00000000	0.0
60	0x00000000	0.0
61	0x00000000	0.0
62	0x00000000	0.0
63	0x00000000	0.0
64	0x00000000	0.0
65	0x00000000	0.0
66	0x00000000	0.0
67	0x00000000	0.0
68	0x00000000	0.0
69	0x00000000	0.0
70	0x00000000	0.0
71	0x00000000	0.0
72	0x00000000	0.0
73	0x00000000	0.0
74	0x00000000	0.0
75	0x00000000	0.0
76	0x00000000	0.0
77	0x00000000	0.0
78	0x00000000	0.0
79	0x00000000	0.0
80	0x00000000	0.0
81	0x00000000	0.0
82	0x00000000	0.0
83	0x00000000	0.0
84	0x00000000	0.0
85	0x00000000	0.0
86	0x00000000	0.0
87	0x00000000	0.0
88	0x00000000	0.0
89	0x00000000	0.0
90	0x00000000	0.0
91	0x00000000	0.0
92	0x00000000	0.0
93	0x00000000	0.0
94	0x00000000	0.0
95	0x00000000	0.0
96	0x00000000	0.0
97	0x00000000	0.0
98	0x00000000	0.0
99	0x00000000	0.0
100	0x00000000	0.0
101	0x00000000	0.0
102	0x00000000	0.0
103	0x00000000	0.0
104	0x00000000	0.0
105	0x00000000	0.0
106	0x00000000	0.0
107	0x00000000	0.0
108	0x00000000	0.0
109	0x00000000	0.0
110	0x00000000	0.0
111	0x00000000	0.0
112	0x00000000	0.0
113	0x00000000	0.0
114	0x00000000	0.0
115	0x00000000	0.0
116	0x00000000	0.0
117	0x00000000	0.0
118	0x00000000	0.0
119	0x00000000	0.0
120	0x00000000	0.0
121	0x00000000	0.0
122	0x00000000	0.0
123	0x00000000	0.0
124	0x00000000	0.0
125	0x00000000	0.0
126	0x00000000	0.0
127	0x00000000	0.0
128	0x00000000	0.0
129	0x00000000	0.0
130	0x00000000	0.0
131	0x00000000	0.0
132	0x00000000	0.0
133	0x00000000	0.0
134	0x00000000	0.0
135	0x00000000	0.0
136	0x00000000	0.0
137	0x00000000	0.0
138	0x00000000	0.0
139	0x00000000	0.0
140	0x00000000	0.0
141	0x00000000	0.0
142	0x00000000	0.0
143	0x00000000	0.0
144	0x00000000	0.0
145	0x00000000	0.0
146	0x00000000	0.0
147	0x00000000	0.0
148	0x00000000	0.0
149	0x00000000	0.0
150	0x00000000	0.0
151	0x00000000	0.0
152	0x00000000	0.0
153	0x00000000	0.0
154	0x00000000	0.0
155	0x00000000	0.0
156	0x00000000	0.0
157	0x00000000	0.0
158	0x00000000	0.0
159	0x00000000	0.0
160	0x00000000	0.0
161	0x00000000	0.0
162	0x00000000	0.0
163	0x00000000	0.0
164	0x00000000	0.0
165	0x00000000	0.0
166	0x00000000	0.0
167	0x00000000	0.0
168	0x00000000	0.0
169	0x00000000	0.0
170	0x00000000	0.0
171	0x00000000	0.0
172	0x00000000	0.0
173	0x00000000	0.0
174	0x00000000	0.0
175	0x00000000	0.0
176	0x00000000	0.0
177	0x00000000	0.0
178	0x00000000	0.0
179	0x00000000	0.0
180	0x00000000	0.0
181	0x00000000	0.0
182	0x00000000	0.0
183	0x00000000	0.0
184	0x00000000	0.0
185	0x00000000	0.0
186	0x00000000	0.0
187	0x00000000	0.0
188	0x00000000	0.0
189	0x00000000	0.0
190	0x00000000	0.0
191	0x00000000	0.0
192	0x00000000	0.0
193	0x00000000	0.0
194	0x00000000	0.0
195	0x00000000	0.0
196	0x00000000	0.0
197	0x00000000	0.0
198	0x00000000	0.0
199	0x00000000	0.0
200	0x00000000	0.0
201	0x00000000	0.0
202	0x00000000	0.0
203	0x00000000	0.0
204	0x00000000	0.0
205	0x00000000	0.0
206	0x00000000	0.0
207	0x00000000	0.0
208	0x00000000	0.0
209	0x00000000	0.0
210	0x00000000	0.0
211	0x00000000	0.0
212	0x00000000	0.0
213	0x00000000	0.0
214	0x00000000	0.0
215	0x00000000	0.0
216	0x00000000	0.0
217	0x00000000	0.0
218	0x00000000	0.0
219	0x00000000	0.0
220	0x00000000	0.0
221	0x00000000	0.0
222	0x00000000	0.0
223	0x00000000	0.0
224	0x00000000	0.0
225	0x00000000	0.0
226	0x00000000	0.0
227	0x00000000	0.0
228	0x00000000	0.0
229	0x00000000	0.0
230	0x00000000	0.0
231	0x00000000	0.0
232	0x00000000	0.0
233	0x00000000	0.0
234	0x00000000	0.0
235	0x00000000	0.0
236	0x00000000	0.0
237	0x00000000	0.0
238	0x00000000	0.0
239	0x00000000	0.0
240	0x00000000	0.0
241	0x00000000	0.0
242	0x00000000	0.0
243	0x00000000	0.0
244	0x00000000	0.0
245	0x00000000	0.0
246	0x00000000	0.0
247	0x00000000	0.0
248	0x00000000	0.0
249	0x00000000	0.0
250	0x00000000	0.0
251	0x00000000	0.0
252	0x00000000	0.0
253	0x00000000	0.0
254	0x00000000	0.0
255	0x00000000	0.0

network_body._body_endoder.seq_layers.2.weight f4 [256, 256]
0	0xbded523e	-0.11587952
1	0x3db62301	0.08893395
2	0xbd93041d	-0.07178519
3	0xbd2bcd7e	-0.04194402
4	0x3c8be124	0.017075129
5	0x3da1049b	0.078622065
6	0x3d69890e	0.05701547
7	0xbd9a78e4	-0.07542589
8	0xbddac816	-0.106826946
9	0x3d6f6ee4	0.058455363
10	0x3d09c490	0.033634722
11	0xbd9bbbe4	-0.07604197
12	0xbd2c3f21	-0.042052392
13	0xbdbcb3ec	-0.09214005
14	0x3d03b507	0.032155063
15	0x3cf5e113	0.03001455
16	0xbd7b5a10	-0.061365187
17	0x3cb7e0a8	0.022445992
18	0xbbc3e33c	-0.005978016
19	0x3d14bb41	0.03631139
20	0x3d279a06	0.040918373
21	0xbc559af6	-0.013037434
22	0xbdfc2520	-0.123117685
23	0x3d996854	0.07490602
24	0xbd3ca45e	-0.04605519
25	0xbc661cd0	-0.014044955
26	0xbb5eee9a	-0.003401673
27	0x3cd05047	0.025428904
28	0xbd3820ef	-0.044953283
29	0x3dca530a	0.0987912
30	0x3db47353	0.08811059
31	0x3da07491	0.07834733
32	0xbd8dc968	-0.06923181
33	0x3c294f3a	0.0103338305
34	0x3dbd3859	0.09239263
35	0x3d61e020	0.055145383
36	0x3d6e93e4	0.05824651
37	0x3d38d4f5	0.045124967
38	0x3cdc3710	0.026881725
39	0xbd3c2f0a	-0.045943297
40	0xbd5fdba1	-0.054652814
41	0xbd4c6ea1	-0.04991019
42	0xbc65523f	-0.01399666
43	0xbdc7c709	-0.0975476
44	0x3d5a9a2c	0.053369686
45	0x3b815c92	0.003947803
46	0xbd95ddc1	-0.07317687
47	0xbd139dc0	-0.036039114
48	0xbd96df19	-0.07366771
49	0xbcb734e3	-0.022364086
50	0xbdd625da	-0.10456438
51	0xbd1fdfff	-0.03903198
52	0x3cc03643	0.023463374
53	0xbdcd14e1	-0.10013748
54	0x3d8a39ca	0.06749304
55	0x3daa44e5	0.08313922
56	0xbe2e16f7	-0.17000948
57	0xbd4b9568	-0.04970303
58	0xbc5fb942	-0.013655009
59	0xbdbbed77	-0.09176152
60	0xbcd7b6b3	-0.026332235
61	0x3c0d9eb2	0.008643793
62	0xbde2f132	-0.110811606
63	0xbb190bda	-0.0023353011
64	0xbd090928	-0.033455998
65	0xbd8695a3	-0.0657151
66	0x3be595b8	0.0070063733
67	0x3d67f904	0.056633964
68	0xbcaec8d8	-0.021336004
69	0x3c8c9f89	0.017165916
70	0x3d3f555f	0.046712276
71	0x3ca961a2	0.020676438
72	0xbce68350	-0.028138787
73	0xbc4c166b	-0.012456517
74	0xbd2345e2	-0.039861567
75	0xbd61e26e	-0.05514758
76	0x3d948d8f	0.07253563
77	0x38cd9f2f	9.804812e-05
78	0xbca4bc63	-0.020109361
79	0x3bdb1b6e	0.0066866195
80	0xbcceb547	-0.025232924
81	0xbd7ed7ff	-0.06221771
82	0x3cf59619	0.029978799
83	0xbce54eae	-0.027991619
84	0x3dcad734	0.09904328
85	0x3d1b6605	0.03793909
86	0xbcb563ed	-0.022142375
87	0x3c443c9d	0.011977342
88	0x3e00a51d	0.12562986
89	0x3aae6c2c	0.0013307384
90	0x3c475a8f	0.012167587
91	0xbcf6e50b	-0.030138513
92	0x3d883b0e	0.06651889
93	0xbceda54a	-0.02900948
94	0xbd43f83e	-0.047844164
95	0xbbdeb137	-0.006796028
96	0x3cbbbea3	0.022918051
97	0xbd9ffc9b	-0.078118525
98	0x3da0ccd3	0.07851567
99	0x3c11c88c	0.008897912
100	0xbcc0e61d	-0.023547227
101	0xbc8bbfeb	-0.017059287
102	0x3c71f3bf	0.014767586
103	0xbc7a0da4	-0.015262041
104	0x3d4064dd	0.04697119
105	0x3d31f73d	0.043448675
106	0x3d4e1afd	0.050318707
107	0x3d472586	0.04861977
108	0xbd21c641	-0.03949571
109	0xbcd4d1e7	-0.025978995
110	0xbe085eb1	-0.13317372
111	0x3d2e830f	0.042605456
112	0xbdc5f7a0	-0.09666371
113	0x3dab3f8b	0.08361729
114	0x3cab3806	0.020900737
115	0xbcac309a	-0.021019269
116	0x3d594636	0.053045474
117	0xbd7b9f61	-0.061431292
118	0x3d82cd32	0.06386794
119	0x3d1eec1f	0.0387994
120	0x3d26e346	0.04074409
121	0x3cbba265	0.022904584
122	0x3c202de4	0.009776566
123	0xbd0c0448	-0.03418377
124	0xbd9f4566	-0.077769086
125	0xbd0bf968	-0.0341734
126	0x3d36b177	0.044602837
127	0xbba6478d	-0.0050744475
128	0x3d0705a8	0.03296438
129	0x3d9a5395	0.07535473
130	0xbd5e4da7	-0.054273274
131	0xbc5b99d7	-0.0134033775
132	0x3d98b365	0.07456092
133	0xbbb2017d	-0.0054323063
134	0xbda8a8d8	-0.082353294
135	0x3d3f78ff	0.04674625
136	0x3d83d36b	0.06436809
137	0xbddaad73	-0.10677614
138	0xbd207474	-0.03917356
139	0xbd47f7fd	-0.048820484
140	0xbd688e37	-0.05677625
141	0x3d6e1c11	0.058132235
142	0xbd3e2cc9	-0.04642943
143	0xbdb33e63	-0.08752134
144	0x3c206f79	0.009792202
145	0xbcf90543	-0.030398017
146	0xbdcfc52a	-0.10145028
147	0x3d144199	0.03619537
148	0xbd7feb93	-0.06248052
149	0xbd0fd3d0	-0.03511411
150	0xbcb4bb47	-0.022061957
151	0xbd7cdf89	-0.061736617
152	0x3caeb59d	0.021326834
153	0xbde5b86e	-0.11216818
154	0x3be7889e	0.0070658466
155	0x3dd897a4	0.10575798
156	0x3c68a004	0.014198307
157	0x3d11f9a9	0.035638485
158	0xbc0c61ca	-0.008568237
159	0xbda5af7a	-0.0809011
160	0x3dee3f41	0.116331585
161	0xbd6233d7	-0.05522522
162	0xbdac9a81	-0.08427907
163	0xbd39dca9	-0.045376454
164	0x3c33a9dd	0.0109657915
165	0x3d344f01	0.044020656
166	0x3d5332dd	0.05156218
167	0x3d86b620	0.06577706
168	0xbc32e077	-0.010917774
169	0xbd37d07b	-0.044876557
170	0xbd63a63e	-0.055578463
171	0x3a85f4c7	0.0010220044
172	0x3db92540	0.09040308
173	0xbcd1877e	-0.025577303
174	0xbd8e2e85	-0.06942467
175	0x3a833ab1	0.0010011998
176	0xbd0994f2	-0.03358931
177	0xbd2b76b1	-0.04186124
178	0xbb6d3ecd	-0.0036200762
179	0x3dce6c4e	0.10079251
180	0xba437edb	-0.00074575626
181	0xbbff10ab	-0.0077839694
182	0x3d54d53b	0.051961165
183	0xbb6c3310	-0.0036041178
184	0xbdb06d05	-0.08614544
185	0xbbe21116	-0.0068990095
186	0xbcbf675c	-0.023364715
187	0xbd9b4c1c	-0.07582876
188	0xbd5e7a97	-0.05431613
189	0xbca9f069	-0.02074452
190	0xbdb874fc	-0.09006688
191	0xbdd2360c	-0.10264215
192	0x3d298741	0.041388754
193	0xbc7d6774	-0.01546656
194	0xbd878cfc	-0.066186875
195	0x3d2badda	0.041913845
196	0x3d0c5d7c	0.03426884
197	0xbd97956b	-0.07401546
198	0x3e0f6eb4	0.14007074
199	0xbd19fa5a	-0.03759227
200	0xbd7b24fd	-0.06131457
201	0x3d635797	0.055503454
202	0xbd1bcb1a	-0.03803549
203	0xbddf0b19	-0.108907886
204	0x3d88f72e	0.06687771
205	0x3cc57df8	0.024107918
206	0x3d75f0f5	0.060044248
207	0x3c195626	0.009358918
208	0xbd1d66a4	-0.038427964
209	0xbc05b639	-0.008161121
210	0x3ca80e87	0.02051474
211	0xbd3a3a5d	-0.045465816
212	0x3c5fabca	0.013651798
213	0xbe272eae	-0.163264
214	0x3c40d472	0.011769401
215	0x3d8f9d15	0.07012383
216	0x3da6d21b	0.08145543
217	0xbdad8cd1	-0.08474124
218	0xbce6cd0c	-0.028173946
219	0x3c7bdab4	0.015371967
220	0x3d1cbb1f	0.03826439
221	0xbb9feeb4	-0.0048807506
222	0x3cee395f	0.029080091
223	0xbd07aeba	-0.033125617
224	0x3dfc3a54	0.12315813
225	0xbd8461bd	-0.064639546
226	0x3a5ae6f3	0.0008350454
227	0x3d982cad	0.07430396
228	0x3da8a93b	0.08235403
229	0xbd1d6d2d	-0.038434196
230	0x3e0bb29e	0.13642356
231	0x3e2ca1c1	0.16858579
232	0x3de146f1	0.10999859
233	0x3dd3b633	0.10337486
234	0x3dcf0aaa	0.10109456
235	0x3d526862	0.05136908
236	0x3bf68fcf	0.0075244675
237	0x3c5cf147	0.013485259
238	0xbd6c7fe6	-0.05773916
239	0x3daec4de	0.08533643
240	0x3c6981ba	0.014252121
241	0xbc6914ce	-0.014226152
242	0x3d5dfefc	0.05419825
243	0x3987f172	0.00025929097
244	0xbdb28253	-0.087162636
245	0x3d25958e	0.04042583
246	0x3d84b55d	0.06479905
247	0x3d7ea944	0.062173143
248	0x3d388fe6	0.045059107
249	0xbe1d58ae	-0.1536586
250	0x3c8b470a	0.017001648
251	0xbd1787a7	-0.036994603
252	0xbde140b2	-0.10998668
253	0x3d7a49f5	0.061105687
254	0x3d4258ed	0.047448087
255	0x3d512214	0.05105789
