Foosbots_MultiRod/results/train_1_1/Foosbots_MultiRod/Foosbots_MultiRod-8000.onnx (onnx, 308209 bytes, 7 tensors)

action_model._continuous_distribution.log_sigma f4 [1, 8]
00000000: 0000 0000 0000 0000 0000 0000 0000 0000
00000010: 0000 0000 0000 0000 0000 0000 0000 0000
0.0 0.0 0.0 0.0 0.0 0.0 0.0 0.0

action_model._continuous_distribution.mu.bias f4 [8]
00000000: 0000 0000 0000 0000 0000 0000 0000 0000
00000010: 0000 0000 0000 0000 0000 0000 0000 0000
0.0 0.0 0.0 0.0 0.0 0.0 0.0 0.0

action_model._continuous_distribution.mu.weight f4 [8, 256]
00000000: 17ef 943c eb52 83bc 39ca 19bc f5c1 f0bb
00000010: 685d 543c bf77 fdba 96fe be39 0c8a a93c
00000020: 677d 8fbc 7f35 eb3c b6ff b33c 1c66 2eb8
00000030: 4305 6cbc bc24 093c 8f2e ba3c 2660 88bb
00000040: 9677 233c 4c9d 233b 2913 87bb 6738 3bbb
00000050: f78d cf3b 9b30 283c 87ac d4ba 5f08 c3bb
00000060: 61c8 3bbc 6d84 743b a785 c538 72d9 993c
00000070: 3325 ce3b c695 26bc d9a0 243c 3240 063b
00000080: ef5f d13b 2a12 09bc 0141 453b 3acc 523b
00000090: fce7 b8bb 63c2 1d3c 7bb0 93bc 8f9e 6a3c
000000a0: cb3c 1a3c 1328 c2bc 97cd 553c ab78 6f3c
000000b0: 5f17 f63b 0c08 43bb b69b 853c fe44 08bc
000000c0: 1d02 e8bb 5eda 9e3b 0fc0 a93b 62e1 77bb
000000d0: 773a 8eb9 6feb 0e3c d30b 11bb 437c a33b
000000e0: 16ca 3d3c 62d4 683b fd3c cbbc 4260 ffb9
000000f0: c780 5d3b 67fd 25bc 9a94 ffbb 77c1 14bb
00000100: 9768 16bc 77b8 9c3b e370 183c ea44 26ba
00000110: 6dcd c93c 721a fab9 0b12 bb3b d781 1d3c
00000120: 72ea dbbb e2eb e0bb 87ba 123c 55fd 263c
00000130: c7f8 c3bb e87b b8bc 40c4 84bc 1697 823b
00000140: 4567 23bc 7d4b 573c 578a 993c 52df 753c
00000150: 6868 76bc 101f 68bb 31f0 83bb 1fcd 4b3b
00000160: bfb2 0f3c 631e fbbc 026a 7abc e6d0 86bc
00000170: b80f 1ebc 3c65 a03c ba99 45ba a0d0 e7ba
00000180: 7071 723b 1da7 cbbb 443c a53c a44e 1cbb
00000190: 7d79 4d3c aa9f d73a 2fd9 4fbb 67ab 8dbc
000001a0: 90f3 6fbc d0a0 043d 2866 8b3c 3fbe 3bbc
000001b0: 0d2d 263c 965c 9fbb 7d7f 693c 3d63 2c3c
000001c0: ef75 143b 6136 b73c 6005 4d3c fb88 0dbc
000001d0: fb1c ab3b bef9 44bc d073 123c 8a76 06bc
000001e0: f2e0 a83b 700b eebc c3f9 1e3a 1f51 03b9
000001f0: c0cb 9e3b 75d2 223c 1a81 883c 5b1a 8fbc
00000200: 87e5 0a3c bfea 233c a798 123c a7f3 3bbc
00000210: f8d6 e23c c088 e4bb 7380 6e3c 4898 833a
00000220: 419f 313c 5072 6bbb b384 0fbc 8204 953c
00000230: 85f5 ef3b 46f8 06bc 1359 e9bb 9b73 45bc
00000240: 1a78 bd3b a3c7 93bc 9942 023c 5ac0 acbb
00000250: ab82 a23c a6cc c6ba 1d8b 56bb e79b 1b3c
00000260: cfa1 833c f430 86bc bcb2 3abc 98df a8ba
00000270: c341 deb8 60f1 843c f622 2d3c 3b05 60bb
00000280: 5873 393b 0615 10bc 4a11 f73b 1f50 17bc
00000290: f201 0f3c 94ac b03c c07d 943b ff74 6abc
000002a0: fe57 c7bc a7b8 f9bb 6a43 0439 4eb2 3dbb
000002b0: 0e5e 83bc 9113 0bbb 1f17 853c aa9c fcbc
000002c0: 7418 073b 8920 493c 7d23 5bbc 9038 253c
000002d0: c682 ba3b 923a 683c 6869 fd3b 28c4 0f3c
000002e0: 839b 063c d673 bdbc bbdb 503b c848 b1ba
000002f0: c7d7 7e3c a784 8d3b 7f49 733a 8b65 7ebc
00000300: 25f8 75bb e357 fd3b 8bfc ac3b a0ad 153a
00000310: 5396 ba3b 699b 153b 07b5 57bc b32a f53b
00000320: e911 a7b9 7249 293c 6375 513c 02fa 26bb
00000330: ea96 edba b4e7 87bb d15e 043b 253b 983a
00000340: e3c1 82bc 2c6b 1e3c 6769 a83a 09f8 c53c
00000350: 15f2 dabc 702e 573c 3397 4e3c d625 1dba
00000360: 3541 8c3c 33d6 103c cf44 75bc 6b06 093a
00000370: 3f68 7abb d8f0 cdbb 2518 2dbb ba9d a6bb
00000380: 4ed9 a13b 0d4e 8ebc d89e bbb9 12d3 72bc
00000390: 027a ab3c c69f aabb 7349 1a3c e8b4 9f3c
000003a0: d7f9 953c f93e 333c 75db 86bc 4b27 033d
000003b0: 1587 6c3a 1033 7bbc 638b f6bb d75c 74bc
000003c0: 9a2c 663c 10b6 993c fb08 72bc 8dc6 60bc
000003d0: 237a 87bc 8ff0 40bb fbbf 943b 6ae2 bf3b
000003e0: 2827 e7bc 89a6 c43c 31d2 3c3c 5bef cc3b
000003f0: eabd 0ebd c376 66bb fb48 813b 3ffb fe3b
0.018180413 -0.01603075 -0.009386593 -0.00734734 0.012961723 -0.0019338055 0.00036429305 0.020695709
-0.017515851 0.028712032 0.021972518 -4.157993e-05 -0.014405551 0.008370575 0.022727279 -0.0041618524
0.009977242 0.0024965582 -0.004122157 -0.0028567554 0.006334062 0.010265495 -0.0016225734 -0.0059519256
-0.011461348 0.0037310377 9.418587e-05 0.018780444 0.0062910556 -0.010167545 0.010048115 0.002048504
0.00638961 -0.008366147 0.003009856 0.0032165186 -0.005642889 0.009628865 -0.018028488 0.01432003
0.009413908 -0.02370075 0.013049505 0.014616172 0.0075101103 -0.0029759435 0.0163096 -0.00831723
-0.00708033 0.0048478087 0.005180366 -0.0037823548 -0.0002712791 0.008723124 -0.0022132292 0.0049891784
0.011583826 0.003552698 -0.024809355 -0.00048709108 0.003379868 -0.010131217 -0.007799697 -0.0022698322
-0.00918021 0.004782732 0.009304258 -0.00063426665 0.024634087 -0.0004770342 0.005708938 0.009613476
-0.0067112977 -0.006864057 0.008955604 0.010192235 -0.0059805843 -0.02252002 -0.01620686 0.003985296
-0.009973352 0.013140556 0.018742723 0.015006857 -0.015039541 -0.0035418905 -0.004026436 0.0031097603
0.008770644 -0.030654138 -0.015284063 -0.016457032 -0.009647302 0.019579522 -0.00075378607 -0.0017686076
0.0036993884 -0.00621499 0.020170338 -0.0023850584 0.012541172 0.0016450782 -0.0031715145 -0.017293645
-0.014645472 0.032379925 0.017016485 -0.011458932 0.010142577 -0.004863332 0.014251587 0.010521707
0.0022653302 0.022364797 0.0125134885 -0.008638616 0.0052219606 -0.012022434 0.008938745 -0.008206973
0.0051537687 -0.029058188 0.0006064439 -0.00012523354 0.0048460662 0.009937872 0.016663123 -0.017468622
0.008477575 0.010004698 0.008947528 -0.011471665 0.027690396 -0.0069743097 0.014556992 0.001003989
0.010841192 -0.003592629 -0.008759665 0.018190626 0.0073229694 -0.008237904 -0.007121214 -0.012051488
0.0057821395 -0.01803953 0.007950448 -0.0052719535 0.019837698 -0.0015167191 -0.0032736727 0.009497619
0.016068367 -0.016380765 -0.011395153 -0.0012884019 -0.00010598034 0.016228378 0.010567417 -0.0034182805
0.002829751 -0.008794075 0.007539903 -0.009235411 0.008728491 0.021566667 0.004531592 -0.014310121
-0.02433395 -0.007620889 0.00012613615 -0.002894539 -0.01603606 -0.002122138 0.016246377 -0.030836422
0.002061394 0.012275823 -0.01337516 0.010084286 0.005691859 0.0141741205 0.0077335127 0.008774795
0.008215788 -0.023126524 0.003186925 -0.0013525719 0.015554375 0.004318792 0.0009280666 -0.015527139
-0.003753194 0.007731424 0.005279129 0.0005709771 0.0056941896 0.0022828227 -0.013165719 0.007481897
-0.00031866066 0.010332452 0.012784335 -0.0025478606 -0.0018126641 -0.004147494 0.0020198117 0.0011614306
-0.015961593 0.009669106 0.0012848795 0.024166124 -0.026726762 0.01313363 0.012609291 -0.00059947127
0.017120937 0.008840132 -0.0149700185 0.00052270916 -0.0038209108 -0.0062848143 -0.0026412096 -0.0050847204
0.004939235 -0.017371202 -0.00035785767 -0.014820831 0.020932201 -0.0052070348 0.009416926 0.019495443
0.01830761 0.010940307 -0.016462067 0.032019895 0.00090228143 -0.0153319985 -0.0075239404 -0.014914713
0.01404872 0.018763572 -0.014772649 -0.013719213 -0.016537732 -0.002944026 0.0045394874 0.005855848
-0.028216913 0.024005191 0.011524723 0.0062541193 -0.034849085 -0.0035166002 0.0039454675 0.0077814157

network_body._body_endoder.seq_layers.0.bias f4 [256]
00000000: 0000 0000 0000 0000 0000 0000 0000 0000
00000010: 0000 0000 0000 0000 0000 0000 0000 0000
00000020: 0000 0000 0000 0000 0000 0000 0000 0000
00000030: 0000 0000 0000 0000 0000 0000 0000 0000
00000040: 0000 0000 0000 0000 0000 0000 0000 0000
00000050: 0000 0000 0000 0000 0000 0000 0000 0000
00000060: 0000 0000 0000 0000 0000 0000 0000 0000
00000070: 0000 0000 0000 0000 0000 0000 0000 0000
00000080: 0000 0000 0000 0000 0000 0000 0000 0000
00000090: 0000 0000 0000 0000 0000 0000 0000 0000
000000a0: 0000 0000 0000 0000 0000 0000 0000 0000
000000b0: 0000 0000 0000 0000 0000 0000 0000 0000
000000c0: 0000 0000 0000 0000 0000 0000 0000 0000
000000d0: 0000 0000 0000 0000 0000 0000 0000 0000
000000e0: 0000 0000 0000 0000 0000 0000 0000 0000
000000f0: 0000 0000 0000 0000 0000 0000 0000 0000
00000100: 0000 0000 0000 0000 0000 0000 0000 0000
00000110: 0000 0000 0000 0000 0000 0000 0000 0000
00000120: 0000 0000 0000 0000 0000 0000 0000 0000
00000130: 0000 0000 0000 0000 0000 0000 0000 0000
00000140: 0000 0000 0000 0000 0000 0000 0000 0000
00000150: 0000 0000 0000 0000 0000 0000 0000 0000
00000160: 0000 0000 0000 0000 0000 0000 0000 0000
00000170: 0000 0000 0000 0000 0000 0000 0000 0000
00000180: 0000 0000 0000 0000 0000 0000 0000 0000
00000190: 0000 0000 0000 0000 0000 0000 0000 0000
000001a0: 0000 0000 0000 0000 0000 0000 0000 0000
000001b0: 0000 0000 0000 0000 0000 0000 0000 0000
000001c0: 0000 0000 0000 0000 0000 0000 0000 0000
000001d0: 0000 0000 0000 0000 0000 0000 0000 0000
000001e0: 0000 0000 0000 0000 0000 0000 0000 0000
000001f0: 0000 0000 0000 0000 0000 0000 0000 0000
00000200: 0000 0000 0000 0000 0000 0000 0000 0000
00000210: 0000 0000 0000 0000 0000 0000 0000 0000
00000220: 0000 0000 0000 0000 0000 0000 0000 0000
00000230: 0000 0000 0000 0000 0000 0000 0000 0000
00000240: 0000 0000 0000 0000 0000 0000 0000 0000
00000250: 0000 0000 0000 0000 0000 0000 0000 0000
00000260: 0000 0000 0000 0000 0000 0000 0000 0000
00000270: 0000 0000 0000 0000 0000 0000 0000 0000
00000280: 0000 0000 0000 0000 0000 0000 0000 0000
00000290: 0000 0000 0000 0000 0000 0000 0000 0000
000002a0: 0000 0000 0000 0000 0000 0000 0000 0000
000002b0: 0000 0000 0000 0000 0000 0000 0000 0000
000002c0: 0000 0000 0000 0000 0000 0000 0000 0000
000002d0: 0000 0000 0000 0000 0000 0000 0000 0000
000002e0: 0000 0000 0000 0000 0000 0000 0000 0000
000002f0: 0000 0000 0000 0000 0000 0000 0000 0000
00000300: 0000 0000 0000 0000 0000 0000 0000 0000
00000310: 0000 0000 0000 0000 0000 0000 0000 0000
00000320: 0000 0000 0000 0000 0000 0000 0000 0000
00000330: 0000 0000 0000 0000 0000 0000 0000 0000
00000340: 0000 0000 0000 0000 0000 0000 0000 0000
00000350: 0000 0000 0000 0000 0000 0000 0000 0000
00000360: 0000 0000 0000 0000 0000 0000 0000 0000
00000370: 0000 0000 0000 0000 0000 0000 0000 0000
00000380: 0000 0000 0000 0000 0000 0000 0000 0000
00000390: 0000 0000 0000 0000 0000 0000 0000 0000
000003a0: 0000 0000 0000 0000 0000 0000 0000 0000
000003b0: 0000 0000 0000 0000 0000 0000 0000 0000
000003c0: 0000 0000 0000 0000 0000 0000 0000 0000
000003d0: 0000 0000 0000 0000 0000 0000 0000 0000
000003e0: 0000 0000 0000 0000 0000 0000 0000 0000
000003f0: 0000 0000 0000 0000 0000 0000 0000 0000
0.0 0.0 0.0 0.0 0.0 0.0 0.0 0.0
0.0 0.0 0.0 0.0 0.0 0.0 0.0 0.0
0.0 0.0 0.0 0.0 0.0 0.0 0.0 0.0
0.0 0.0 0.0 0.0 0.0 0.0 0.0 0.0
0.0 0.0 0.0 0.0 0.0 0.0 0.0 0.0
0.0 0.0 0.0 0.0 0.0 0.0 0.0 0.0
0.0 0.0 0.0 0.0 0.0 0.0 0.0 0.0
0.0 0.0 0.0 0.0 0.0 0.0 0.0 0.0
0.0 0.0 0.0 0.0 0.0 0.0 0.0 0.0
0.0 0.0 0.0 0.0 0.0 0.0 0.0 0.0
0.0 0.0 0.0 0.0 0.0 0.0 0.0 0.0
0.0 0.0 0.0 0.0 0.0 0.0 0.0 0.0
0.0 0.0 0.0 0.0 0.0 0.0 0.0 0.0
0.0 0.0 0.0 0.0 0.0 0.0 0.0 0.0
0.0 0.0 0.0 0.0 0.0 0.0 0.0 0.0
0.0 0.0 0.0 0.0 0.0 0.0 0.0 0.0
0.0 0.0 0.0 0.0 0.0 0.0 0.0 0.0
0.0 0.0 0.0 0.0 0.0 0.0 0.0 0.0
0.0 0.0 0.0 0.0 0.0 0.0 0.0 0.0
0.0 0.0 0.0 0.0 0.0 0.0 0.0 0.0
0.0 0.0 0.0 0.0 0.0 0.0 0.0 0.0
0.0 0.0 0.0 0.0 0.0 0.0 0.0 0.0
0.0 0.0 0.0 0.0 0.0 0.0 0.0 0.0
0.0 0.0 0.0 0.0 0.0 0.0 0.0 0.0
0.0 0.0 0.0 0.0 0.0 0.0 0.0 0.0
0.0 0.0 0.0 0.0 0.0 0.0 0.0 0.0
0.0 0.0 0.0 0.0 0.0 0.0 0.0 0.0
0.0 0.0 0.0 0.0 0.0 0.0 0.0 0.0
0.0 0.0 0.0 0.0 0.0 0.0 0.0 0.0
0.0 0.0 0.0 0.0 0.0 0.0 0.0 0.0
0.0 0.0 0.0 0.0 0.0 0.0 0.0 0.0
0.0 0.0 0.0 0.0 0.0 0.0 0.0 0.0

network_body._body_endoder.seq_layers.0.weight f4 [256, 33]
00000000: 56bd da3d 3d7e b8bd b072 9bbd 40f5 d63d
00000010: 2194 e23d 901b 15bd 7a86 fcbd 424e 093f
00000020: 1915 803c 7f1e dfbd 8263 d9bd b349 2cbd
00000030: 45c5 073e 4d36 4e3e 3660 2dbe fc56 08be
00000040: 539b 9ebd c7ea 713e 9c39 d93d 5525 a8bd
00000050: 6ee1 4a3e f2f6 66be 764f c53d 3ba2 043e
00000060: aba8 e0bc 969f a8bb 73c0 90be 51c2 f43c
00000070: 1622 00bd 4756 afbd bca6 e83d 6f99 2abd
00000080: 27fb 813d bce8 833e 9bd4 143e e54f 6f3d
00000090: 3632 3ebd a269 413e ec48 0ebe 9ea3 6ebd
000000a0: 7e1c d73c 0a2f 49be 13f4 183e 8237 fc3c
000000b0: 7fbc 403c e2da 1fbe 6cab 1abe 63c2 63bd
000000c0: 0abc 9abc f4fe 98be 2ea3 6f3e 943e 8dbc
000000d0: 62d1 82be 5e3c 833d 5fc6 4abe 7ce1 aa3d
000000e0: fbe4 923e 3f2c a63b 7a78 83be 4520 a8bc
000000f0: 0981 bd3e 6f28 cabd bc86 d93d ed74 6cbc
00000100: b4d9 703d ce4a 303e 03f7 96bd 0077 0b3e
00000110: be79 35be 418c e63d 48a7 053e 835e 853d
00000120: a674 c1bd 5257 b6be 87de 81be bd57 e53c
00000130: fe54 803e fe17 a33d d257 4d3d 11f2 90bc
00000140: ce95 b8be 57c7 4fbd c37a a23d 17b4 be3e
00000150: 1516 94be 7563 7bbd 9bb9 763e 2178 babe
00000160: 47c9 82bd 7633 a83e 9a44 71be 4269 3ebc
00000170: 4b46 d1bc 58c7 3ebe 084f 7cbe 3016 e4bd
00000180: daeb 94be da43 913c 25c1 53be 8008 4abc
00000190: 0e48 05be c96c b7bb 8ebe babd 3396 693d
000001a0: 6ca8 9c3d e87f 42be 1fa8 2fbd d1cf f53d
000001b0: 43bb 3ebe c0ca 7abe 8a2f f3bd bc5a 3abc
000001c0: 3fed 3fbe 096b 1c3e 979d 2dbe 4766 ed3d
000001d0: eaa4 d83d 916c e63d f610 5d3e c546 ac3d
000001e0: d115 5c3c cad2 1c3e fcf0 d03d ffa0 87be
000001f0: d3ad 52be 6dc9 a23d 6540 bcbd e377 c3bd
00000200: f71f afbd f4f8 e1bd 3c5f 2fbd a8d2 293d
00000210: be77 b4bc 531c 923e 7f8a 66bd c86a 07be
00000220: 60d2 31bd 5efd 6e3c 2a87 3dbe f2ed 033e
00000230: 9fad 103d 1725 cabe d00b 9c3e 9ffe cebd
00000240: 2ab6 bdbd 008a cabd 33b2 273d 6b56 24be
00000250: 9636 043e b0bc 8e3d e861 e3bc cef9 c93c
00000260: cf78 3f3e 66ef 4abb 0bff 073e 3d33 bf3d
00000270: 3bf7 4dbe db1b 6a3c 50b8 04bc 00dc 363d
00000280: f9ba 333d 3a37 2c3b a792 42be 2023 483e
00000290: a9b2 de3d 5f26 c93d 59d6 46bd d01f 003e
000002a0: 1656 dd3d 0ec6 4cbc d235 863d feed 28be
000002b0: a722 9c3e ef5a 263c 5e69 1ebd 3f22 ba3e
000002c0: e0cf 873e 2fd8 983e 8cc6 d6be 0dd2 643e
000002d0: 5dcc 1ebd 7a4e 81bc 9ddb 153e 33f1 d93e
000002e0: b161 283d a693 923d fe02 0cbe b790 f5bd
000002f0: 5879 873e 4995 603d 4133 173c d407 bbbd
00000300: c0e9 51bd 09c0 663e 8f47 023e b77c 31bc
00000310: abcf 6ebc 5427 a93d acc8 29be d68b 8fbd
00000320: f3bf fabc 6e65 d63c a628 85be 0e97 6b3e
00000330: 29fc 8cbe ba09 183e d18c 95be 6e19 0c3e
00000340: 4d0e fdbd a4f3 13be 0cba e2bc 9802 8abe
00000350: 2634 903c 7ab2 dcbb b310 513c e960 92bd
00000360: b3fe 00bd 0a86 af3b 112e 11bd 903a d8be
00000370: a7b3 c03c 1b6e 383e cfca 98be 5eb2 483d
00000380: 33f5 1a3d 4796 a9bd 2ac3 06be 55ca cabc
00000390: 7aea 50be aaf4 85be 56d0 df3d 8bbd 71be
000003a0: 5b93 b63c 9913 033d 7897 db3d cba4 a1bd
000003b0: 4788 96bc 9584 263e b139 493b 02e6 5bbe
000003c0: 1235 81be 824f 963e 3d34 a4bd 37bb 0ebe
000003d0: 91ce 0dbe 421b 10bd fbca 563e c4eb 003e
000003e0: db2a 47be 8c2b 593d c1a3 343e 0fdb 7bbe
000003f0: 6ea0 493e 05c9 a7bd 307a eebc 9170 853e
0.10680644 -0.09008453 -0.07590234 0.104959965 0.110634096 -0.03640324 -0.12330337 0.53635037
0.01563506 -0.108944885 -0.10614683 -0.042062473 0.13258846 0.20137902 -0.16931233 -0.13314432
-0.077444695 0.23624717 0.10606691 -0.082102455 0.19812557 -0.2255514 0.096342966 0.12952511
-0.027424177 -0.0051459773 -0.28271827 0.029877814 -0.031282507 -0.08561378 0.11359927 -0.041650232
0.06346732 0.257635 0.14534228 0.058425803 -0.046434604 0.18887952 -0.13895005 -0.058261506
0.026258703 -0.1964685 0.14936857 0.030788187 0.011763691 -0.15610841 -0.15104455 -0.055605303
-0.018888492 -0.29882014 0.23402092 -0.017241754 -0.2555037 0.064079985 -0.19802235 0.08343789
0.28690323 0.0050711925 -0.25677854 -0.0205232 0.3701251 -0.09870993 0.10621402 -0.014432174
0.058801368 0.17216036 -0.073713325 0.13619614 -0.17722222 0.1125722 0.13052094 0.06512167
-0.09446077 -0.35613495 -0.25365087 0.027995938 0.25064844 0.079635605 0.05013258 -0.017693551
-0.36051792 -0.050727215 0.07933571 0.37246773 -0.28923097 -0.061374146 0.2409424 -0.36419776
-0.06386047 0.32851762 -0.23561326 -0.011621775 -0.025546214 -0.18630731 -0.24639523 -0.111370444
-0.2908619 0.01773255 -0.20679148 -0.012331128 -0.13015768 -0.005597685 -0.09118377 0.057028007
0.076493114 -0.18994105 -0.042884942 0.120025285 -0.18626122 -0.24491405 -0.11874302 -0.011374172
-0.18742846 0.15275206 -0.16954647 0.115917735 0.1057833 0.11251176 0.21588501 0.08411936
0.013432936 0.15314785 0.10202214 -0.26490018 -0.20574121 0.07948575 -0.0919197 -0.09544351
-0.08551019 -0.11033812 -0.042815432 0.041460663 -0.022029754 0.28537235 -0.056284424 -0.13224328
-0.04341352 0.014586775 -0.18508592 0.12883738 0.035321828 -0.39481422 0.30477762 -0.10107159
-0.09263261 -0.09889603 0.04094143 -0.16048591 0.12911448 0.06969583 -0.027756646 0.024655249
0.18698429 -0.0030965446 0.13280885 0.09335945 -0.20113842 0.014288868 -0.008100584 0.044643402
0.043879483 0.0026278035 -0.19001256 0.19544649 0.108739205 0.09821772 -0.04854426 0.12512136
0.10807435 -0.012498392 0.06553234 -0.16497037 0.30495188 0.010153516 -0.038674705 0.36354253
0.26525784 0.29852435 -0.41948354 0.22345753 -0.038769115 -0.01578449 0.14634557 0.42566833
0.04110879 0.07157068 -0.13673016 -0.11990493 0.26459765 0.05482987 0.0092285285 -0.091323525
-0.051248312 0.22534193 0.1272261 -0.010832957 -0.014575879 0.08259454 -0.16580456 -0.070090935
-0.030609107 0.026171412 -0.26007575 0.23006842 -0.27536133 0.1484746 -0.29208997 0.13681576
-0.12356243 -0.1444841 -0.027676605 -0.26955104 0.017602991 -0.0067351433 0.012760329 -0.071473904
-0.0314929 0.005356555 -0.035444323 -0.4223218 0.023523165 0.18010752 -0.2984223 0.04899823
0.037831496 -0.08280616 -0.13160387 -0.024754683 -0.20401946 -0.26163226 0.10928409 -0.23607461
0.022287061 0.03200111 0.1072225 -0.0789276 -0.018375529 0.16261514 0.0030704553 -0.2147446
-0.25235802 0.29357535 -0.08017776 -0.13938604 -0.1384833 -0.035182245 0.20975868 0.12589937
-0.19449942 0.053020045 0.17640592 -0.24595283 0.19690105 -0.08192638 -0.029110998 0.26062444

network_body._body_endoder.seq_layers.2.bias f4 [256]
00000000: 0000 0000 0000 0000 0000 0000 0000 0000
00000010: 0000 0000 0000 0000 0000 0000 0000 0000
00000020: 0000 0000 0000 0000 0000 0000 0000 0000
00000030: 0000 0000 0000 0000 0000 0000 0000 0000
00000040: 0000 0000 0000 0000 0000 0000 0000 0000
00000050: 0000 0000 0000 0000 0000 0000 0000 0000
00000060: 0000 0000 0000 0000 0000 0000 0000 0000
00000070: 0000 0000 0000 0000 0000 0000 0000 0000
00000080: 0000 0000 0000 0000 0000 0000 0000 0000
00000090: 0000 0000 0000 0000 0000 0000 0000 0000
000000a0: 0000 0000 0000 0000 0000 0000 0000 0000
000000b0: 0000 0000 0000 0000 0000 0000 0000 0000
000000c0: 0000 0000 0000 0000 0000 0000 0000 0000
000000d0: 0000 0000 0000 0000 0000 0000 0000 0000
000000e0: 0000 0000 0000 0000 0000 0000 0000 0000
000000f0: 0000 0000 0000 0000 0000 0000 0000 0000
00000100: 0000 0000 0000 0000 0000 0000 0000 0000
00000110: 0000 0000 0000 0000 0000 0000 0000 0000
00000120: 0000 0000 0000 0000 0000 0000 0000 0000
00000130: 0000 0000 0000 0000 0000 0000 0000 0000
00000140: 0000 0000 0000 0000 0000 0000 0000 0000
00000150: 0000 0000 0000 0000 0000 0000 0000 0000
00000160: 0000 0000 0000 0000 0000 0000 0000 0000
00000170: 0000 0000 0000 0000 0000 0000 0000 0000
00000180: 0000 0000 0000 0000 0000 0000 0000 0000
00000190: 0000 0000 0000 0000 0000 0000 0000 0000
000001a0: 0000 0000 0000 0000 0000 0000 0000 0000
000001b0: 0000 0000 0000 0000 0000 0000 0000 0000
000001c0: 0000 0000 0000 0000 0000 0000 0000 0000
000001d0: 0000 0000 0000 0000 0000 0000 0000 0000
000001e0: 0000 0000 0000 0000 0000 0000 0000 0000
000001f0: 0000 0000 0000 0000 0000 0000 0000 0000
00000200: 0000 0000 0000 0000 0000 0000 0000 0000
00000210: 0000 0000 0000 0000 0000 0000 0000 0000
00000220: 0000 0000 0000 0000 0000 0000 0000 0000
00000230: 0000 0000 0000 0000 0000 0000 0000 0000
00000240: 0000 0000 0000 0000 0000 0000 0000 0000
00000250: 0000 0000 0000 0000 0000 0000 0000 0000
00000260: 0000 0000 0000 0000 0000 0000 0000 0000
00000270: 0000 0000 0000 0000 0000 0000 0000 0000
00000280: 0000 0000 0000 0000 0000 0000 0000 0000
00000290: 0000 0000 0000 0000 0000 0000 0000 0000
000002a0: 0000 0000 0000 0000 0000 0000 0000 0000
000002b0: 0000 0000 0000 0000 0000 0000 0000 0000
000002c0: 0000 0000 0000 0000 0000 0000 0000 0000
000002d0: 0000 0000 0000 0000 0000 0000 0000 0000
000002e0: 0000 0000 0000 0000 0000 0000 0000 0000
000002f0: 0000 0000 0000 0000 0000 0000 0000 0000
00000300: 0000 0000 0000 0000 0000 0000 0000 0000
00000310: 0000 0000 0000 0000 0000 0000 0000 0000
00000320: 0000 0000 0000 0000 0000 0000 0000 0000
00000330: 0000 0000 0000 0000 0000 0000 0000 0000
00000340: 0000 0000 0000 0000 0000 0000 0000 0000
00000350: 0000 0000 0000 0000 0000 0000 0000 0000
00000360: 0000 0000 0000 0000 0000 0000 0000 0000
00000370: 0000 0000 0000 0000 0000 0000 0000 0000
00000380: 0000 0000 0000 0000 0000 0000 0000 0000
00000390: 0000 0000 0000 0000 0000 0000 0000 0000
000003a0: 0000 0000 0000 0000 0000 0000 0000 0000
000003b0: 0000 0000 0000 0000 0000 0000 0000 0000
000003c0: 0000 0000 0000 0000 0000 0000 0000 0000
000003d0: 0000 0000 0000 0000 0000 0000 0000 0000
000003e0: 0000 0000 0000 0000 0000 0000 0000 0000
000003f0: 0000 0000 0000 0000 0000 0000 0000 0000
0.0 0.0 0.0 0.0 0.0 0.0 0.0 0.0
0.0 0.0 0.0 0.0 0.0 0.0 0.0 0.0
0.0 0.0 0.0 0.0 0.0 0.0 0.0 0.0
0.0 0.0 0.0 0.0 0.0 0.0 0.0 0.0
0.0 0.0 0.0 0.0 0.0 0.0 0.0 0.0
0.0 0.0 0.0 0.0 0.0 0.0 0.0 0.0
0.0 0.0 0.0 0.0 0.0 0.0 0.0 0.0
0.0 0.0 0.0 0.0 0.0 0.0 0.0 0.0
0.0 0.0 0.0 0.0 0.0 0.0 0.0 0.0
0.0 0.0 0.0 0.0 0.0 0.0 0.0 0.0
0.0 0.0 0.0 0.0 0.0 0.0 0.0 0.0
0.0 0.0 0.0 0.0 0.0 0.0 0.0 0.0
0.0 0.0 0.0 0.0 0.0 0.0 0.0 0.0
0.0 0.0 0.0 0.0 0.0 0.0 0.0 0.0
0.0 0.0 0.0 0.0 0.0 0.0 0.0 0.0
0.0 0.0 0.0 0.0 0.0 0.0 0.0 0.0
0.0 0.0 0.0 0.0 0.0 0.0 0.0 0.0
0.0 0.0 0.0 0.0 0.0 0.0 0.0 0.0
0.0 0.0 0.0 0.0 0.0 0.0 0.0 0.0
0.0 0.0 0.0 0.0 0.0 0.0 0.0 0.0
0.0 0.0 0.0 0.0 0.0 0.0 0.0 0.0
0.0 0.0 0.0 0.0 0.0 0.0 0.0 0.0
0.0 0.0 0.0 0.0 0.0 0.0 0.0 0.0
0.0 0.0 0.0 0.0 0.0 0.0 0.0 0.0
0.0 0.0 0.0 0.0 0.0 0.0 0.0 0.0
0.0 0.0 0.0 0.0 0.0 0.0 0.0 0.0
0.0 0.0 0.0 0.0 0.0 0.0 0.0 0.0
0.0 0.0 0.0 0.0 0.0 0.0 0.0 0.0
0.0 0.0 0.0 0.0 0.0 0.0 0.0 0.0
0.0 0.0 0.0 0.0 0.0 0.0 0.0 0.0
0.0 0.0 0.0 0.0 0.0 0.0 0.0 0.0
0.0 0.0 0.0 0.0 0.0 0.0 0.0 0.0

network_body._body_endoder.seq_layers.2.weight f4 [256, 256]
00000000: 1539 183c 8aef 1abe ffc0 333d 1af2 3d3d
00000010: 52a1 9fbd 7d9e b63d 4403 cc3b 334d f7bc
00000020: c7d2 d03b 51dd 023d d2a7 893c 1ab4 753c
00000030: ab15 6bbc 2677 3a3b 491b 5d3d 33ed 3ebd
00000040: f329 18bd ccf6 9a3d 0cda a8bd 6f57 7cbd
00000050: 19e0 aebd 3f23 ac3d b30c ad3d c116 9a3d
00000060: d3dc 6e3b 0021 fa3d 31e5 ee3c 04d3 393d
00000070: e419 df3c 2556 61bb 84de 30bd 72d9 533d
00000080: 2031 933c 944e bbbd dd68 573d 399a 7cbd
00000090: 9637 c0bd ffd4 103d d180 1e3e bc70 b73c
000000a0: 04dc 743c 6b0a 033d 258c 4ebd f4d7 003d
000000b0: a111 1a3d 69bf 06bd e828 eebc 2d70 b43b
000000c0: 968a ac3c e3fe 58bd 7509 68bd 496c 643d
000000d0: e76d a43d 8740 d5bd 08bc 56bc 13ca 1b3d
000000e0: 0357 e63d c2d6 3f3d 34f1 3b3c 1cc6 07bd
000000f0: 28a8 1ebe 64a9 8bbd f136 573d 7dcb 3cbd
00000100: 2482 c3bc 31f9 9fbd 21c7 983d 3624 863d
00000110: 0a78 413d 70cc ccbd df64 a03c 4c06 ff3d
00000120: 5bec 7f3d 459f a0bc ad47 313c a13c 18bd
00000130: 9d62 eb3c 3778 2b3d 662f 1b3e 59cb f1ba
00000140: bb30 353c 52cc 0a3d 4e0c 103d ed54 febc
00000150: f8ea 21bd 40fa 02bc 93cb 3ebc 96b4 ffbb
00000160: a0bc e8bd 8502 a5ba 1332 973d 3da2 0e3c
00000170: 4984 65bb c175 5b3d 4443 e23c 7686 953d
00000180: d020 1c3d 8a87 92bd 7486 16bd 4be6 6cbd
00000190: b1e6 cabd 885b c63c 8a4b afbb 7f89 46bd
000001a0: 521c 42bd 256b f83d c6c7 3f3b 7bb3 533d
000001b0: 7ffd 7cbc fa76 6ebc 7b93 d43d 98d6 b53b
000001c0: 49e6 24bb 9d1a 40bd 80f2 8fbd 7e74 c8bd
000001d0: f039 a33c a8c3 b5bd a04b c13c c94f a43c
000001e0: 82d3 333d 3feb 473d 327f b83b cf6a a9bc
000001f0: 682b 5abd 71f8 4fbd 5fc0 2dbb afbd bbbb
00000200: 2fe5 12bd 6775 c6bc c4ec 873c d276 c4bd
00000210: b341 d0bd 7c64 ccbc 0f98 01be c2ae 59bc
00000220: d030 0cbd 5e42 303d a460 053d fbaa b6bc
00000230: 338a 3b3d 34f2 ab3d fcdc 923d e81c 16bd
00000240: 84a7 103e c6cf a8bc c5a2 693c 1e03 c23c
00000250: 90e9 943c 884f 903c a54e 8cbc 0e00 bfbc
00000260: afcf 4abe 15a2 a53b a760 eabb 4f51 2a3e
00000270: e0ba c7bb 70bb a23d d5a7 2bbd e600 7abd
00000280: 8275 c73d f911 08bd 857b 0d3d bbdb 3e3d
00000290: 1095 70bd 067d c63b 688b dabd bea0 7b3d
000002a0: 28a0 8b3d 4770 05bd c470 69bb 9b48 fbbc
000002b0: 90e4 0f3e b62d 8a3a 7d68 1fbd 0c16 84bd
000002c0: 8eb6 853c 115d 133c f426 aabc 61af d93d
000002d0: ceba 1f3d aed5 6e3d c300 683d 380e b23b
000002e0: 128d cabc efe2 e0bd 6d59 f2ba 76c7 44bd
000002f0: e6db 8bbc 93d3 7dbd 9124 8fbd 9bc4 28bc
00000300: 0c5e 8f3c 0781 083c f0a5 38bc 5328 5bbb
00000310: 226d 35bc 5266 8d3c 6800 233d 3206 053d
00000320: 95dd 823d a854 1b3e 15a9 54bb d962 3cbd
00000330: a98f 13bd c116 edbc 653d 603d b0e7 39bd
00000340: 31b0 bd3b 8c42 a8bc 43d8 4ebd f29c 84bd
00000350: e529 693d 5337 043e c06e 11be a4ef b53c
00000360: 91b6 57bd 9617 203b d9f6 c4bc 8baa 8bbd
00000370: 588d a73d 8621 e83d 693b 02bd fc43 c93c
00000380: 0c41 1d3c 0370 f13b 0aab cabc 668d f8bc
00000390: 0a30 a33d 9360 b2bd 1f91 873d 7bda 91bc
000003a0: f5c1 e23c 8173 213d 88c2 773d 766c 98bd
000003b0: 9846 1abc b1e5 fb3d 72e2 5d3d 0532 943c
000003c0: 6de1 a2bd 65d0 6dbc d169 fa3c 26be dd3c
000003d0: 2203 9ebd 307d 0f3d fbbc 4abd de95 8e3c
000003e0: 747e 5abd 92ae b73c 7b33 b2bd a59d 80bd
000003f0: ea71 373d b70e 2ebd b2e7 5ebd 45b1 90bd
0.009290953 -0.1513044 0.043885227 0.046373464 -0.07794441 0.08916948 0.006225975 -0.030188179
0.006372783 0.031949345 0.016803656 0.014996553 -0.014348428 0.0028452366 0.0539811 -0.04661293
-0.03714938 0.07566604 -0.08244714 -0.06160682 -0.08538837 0.0840516 0.08449688 0.07523871
0.003644754 0.122133255 0.029162021 0.045367256 0.027234025 -0.0034383622 -0.043180957 0.051721044
0.01796776 -0.09145847 0.05259024 -0.061670516 -0.09385602 0.03535938 0.15478827 0.022392623
0.014945034 0.031992357 -0.05042662 0.03145595 0.03761447 -0.032897387 -0.02907224 0.0055065365
0.021062177 -0.052977454 -0.056649644 0.05576733 0.08028775 -0.10412698 -0.013106354 0.03803451
0.11247065 0.04683567 0.0114710815 -0.033147916 -0.15493834 -0.06819418 0.05254263 -0.0460925
-0.023865767 -0.07811201 0.07459856 0.065498754 0.04723362 -0.09999931 0.01957935 0.12452373
0.062481266 -0.019607196 0.0108203115 -0.037167195 0.028733546 0.041862693 0.151548 -0.0018447443
0.0110589815 0.03388626 0.035167985 -0.031046355 -0.039530724 -0.007994235 -0.011645216 -0.00780351
-0.11364102 -0.0012589252 0.07382598 0.008705673 -0.0035021475 0.053579096 0.027619965 0.07301037
0.03811723 -0.07154758 -0.03674932 -0.057836812 -0.09907282 0.024213567 -0.005349581 -0.04847097
-0.04739029 0.12129811 0.0029263361 0.051684838 -0.015441298 -0.014554733 0.10379692 0.005549263
-0.0025161675 -0.04690038 -0.07028675 -0.09787844 0.019925088 -0.08875209 0.023595631 0.020057576
0.04390288 0.048808333 0.0056303972 -0.020680813 -0.05326405 -0.05077404 -0.0026512367 -0.005729399
-0.035863098 -0.024225904 0.01659239 -0.09592976 -0.10168781 -0.024950258 -0.12655662 -0.013286294
-0.03422624 0.043032043 0.032562867 -0.022298327 0.045786094 0.08395806 0.07171056 -0.03664866
0.14126402 -0.020606887 0.014259999 0.023683127 0.018177778 0.017616048 -0.017127344 -0.023315456
-0.19805788 0.005054722 -0.007152635 0.1663258 -0.0060952753 0.07945907 -0.041908104 -0.061036013
0.0973921 -0.033220265 0.034541626 0.04659627 -0.058735907 0.0060573844 -0.10671121 0.061432593
0.06817657 -0.03257778 -0.0035620192 -0.03067427 0.14052033 0.0010542187 -0.038918007 -0.064495176
0.0163224 0.008994357 -0.020770527 0.10629154 0.03899651 0.05830925 0.05664135 0.005433824
-0.02472547 -0.10980784 -0.0018489786 -0.048041783 -0.01707263 -0.06196935 -0.06989396 -0.010300781
0.0175009 0.008331544 -0.011270031 -0.0033440783 -0.011073383 0.017260704 0.03979531 0.03247661
0.0638992 0.15169013 -0.0032449414 -0.045992706 -0.036025677 -0.028941514 0.05474605 -0.04538697
0.005788826 -0.020539545 -0.050499212 -0.064752474 0.05692472 0.1291173 -0.14202404 0.022208996
-0.052664343 0.002442812 -0.024043487 -0.06819638 0.08181256 0.11334519 -0.03179494 0.02456855
0.009598028 0.007368089 -0.02473976 -0.030340862 0.07968147 -0.08709826 0.066194765 -0.017804375
0.027680377 0.039416794 0.060488254 -0.07442562 -0.009416245 0.122996695 0.054171033 0.018090257
-0.07953153 -0.014515017 0.030568035 0.027068209 -0.07715441 0.035031497 -0.049496632 0.017405447
-0.05334325 0.022422109 -0.08701225 -0.06280068 0.04478637 -0.042494502 -0.05442018 -0.070650615
