Foosbots_MultiRod/results/train_1_1/Foosbots_MultiRod/Foosbots_MultiRod-2100.pt (torch, 613903 bytes, 12 tensors)

network_body._body_endoder.seq_layers.0.weight f4 [256, 33]
0.08439693 -0.10570918 -0.15100528 -0.06728988 -0.17215466 0.23968561 -0.13371727 0.1852067
-0.012189762 0.0073665585 -0.027380103 -0.13023746 -0.37372735 0.09245728 0.36003417 0.13881107
-0.21246012 0.1711627 0.21599282 -0.19280174 0.08672996 0.08777237 -0.17808098 -0.06781236
0.23391494 -0.41528544 0.16325602 0.13219117 -0.33307475 0.36462003 -0.015896995 -0.23871045
0.028545476 -0.05721718 0.04197801 0.069734894 -0.19586968 -0.4498008 -0.120106734 -0.06992388
0.18773432 -0.07390982 -0.045957193 0.20156364 -0.044788126 0.078508966 0.28123114 0.14645854
-0.30584985 0.16646884 -0.08967622 -0.19027704 -0.16627458 -0.25335103 -0.09383851 0.07433342
0.25759292 0.012046343 0.093856774 0.20238481 -0.059410896 0.11282525 0.18050653 -0.07098277
-0.13725398 0.00022503802 -0.32800946 0.037395623 -0.3702983 0.15801744 0.07563136 0.030206272
-0.031826343 0.21391979 -0.021309573 0.1128608 0.085253 -0.11518974 0.11802353 -0.0821227
-0.00046768133 -0.34393033 -0.0014645116 0.22567195 -0.15070021 -0.22124846 -0.015074251 0.17602395
-0.13617529 0.2954089 0.07610069 0.0689747 0.021209097 0.18290831 0.0998126 -0.12746488
0.25003052 -0.09196405 0.27569824 -0.31758496 0.045402586 0.2902555 -0.24666639 -0.010920396
0.19578472 0.113327175 -0.064272836 -0.14249738 -0.1471293 -0.019122712 0.08699203 0.19493629
0.023122275 0.16296759 0.06723048 -0.058572073 -0.016365178 -0.230405 0.13635252 -0.0407679
0.10611433 0.055807777 -0.04311365 0.029759979 0.3277561 -0.10057335 0.00041616787 -0.12784266
-0.19247632 0.2950969 0.17542554 0.1132516 -0.24818838 -0.04856551 0.10611296 0.13455242
-0.17845595 0.37291953 -0.12347751 -0.07736813 -0.0815695 0.20155439 0.4666849 0.16583419
-0.02156603 0.2193886 0.16863991 0.09084395 -0.056295495 -0.0061255614 0.036832657 0.05400492
-0.09588223 -0.09923067 -0.08800693 -0.33953378 -0.0084246555 0.019054806 0.1151447 0.15573764
-0.37670726 -0.27016202 0.007996282 0.1705214 0.06322093 -0.038012367 0.0029861054 -0.23300046
0.056509476 0.17193227 -0.23947525 -0.06388394 0.22958373 0.09605049 0.2967966 0.043892667
0.029675236 -0.012051232 0.40832528 -0.14814551 -0.13576093 0.24584438 0.19676208 0.0069901394
0.25682262 0.020734422 0.24805818 0.22168626 0.14818348 0.029121885 -0.2582941 0.3205603
0.0571951 -0.077483594 -0.27188587 0.15879808 0.24807082 0.09870646 0.040837467 -0.15974441
0.25638992 -0.0841828 -0.13452853 -0.110159226 0.12334594 -0.20481685 0.01669606 -0.12642595
0.12300412 0.2236852 0.26073655 0.1701694 0.1461859 0.058818158 0.04003322 0.082532175
-0.061245386 -0.2469464 0.17925198 -0.041565154 -0.39258325 -0.25304544 -0.19907324 -0.039428413
-0.17361568 -0.100954786 -0.2373402 -0.070689455 0.015056592 0.18104781 -0.040543254 -0.31551424
-0.1659884 0.019870235 -0.18095753 -0.25981462 -0.13243707 0.1109429 -0.37929764 -0.05095272
0.20439686 -0.05040164 -0.04381854 -0.27668267 -0.20026559 -0.044600032 -0.005011126 -0.07998098
-0.021833064 0.05111085 -0.024043132 -0.086708024 0.2274514 0.14734142 -0.47898653 -0.2991759
00000000: 4cd8 ac3d 0e7e d8bd 21a1 1abe 47cf 89bd
00000010: 5049 30be 2570 753e 2eed 08be d3a6 3d3e
00000020: 91b7 47bc 2c63 f13b 3d4c e0bc f85c 05be
00000030: 3159 bfbe 3e5a bd3d 6656 b83e 7d24 0e3e
00000040: 258f 59be 4645 2f3e 392d 5d3e d26d 45be
00000050: 7a9f b13d 00c2 b33d dc5a 36be 35e1 8abd
00000060: 6687 6f3e 4ba0 d4be 962c 273e 1f5d 073e
00000070: c688 aabe 7aaf ba3e 6a3a 82bc 8370 74be
00000080: 34d8 e93c 905c 6abd 22f1 2b3d 2bd1 8e3d
00000090: 1092 48be 4a4c e6be 85fa f5bd 4034 8fbd
000000a0: 6d3d 403e 085e 97bd 9c3d 3cbd b366 4e3e
000000b0: c173 37bd 4fc9 a03d 87fd 8f3e 3af9 153e
000000c0: 5a98 9cbe cf76 2a3e 2ba8 b7bd fcd7 42be
000000d0: e243 2abe 3ab7 81be 682e c0bd 1f3c 983d
000000e0: 38e3 833e 065e 453c fb37 c03d f73d 4f3e
000000f0: d758 73bd ed10 e73d b4d6 383e 6a5f 91bd
00000100: 4f8c 0cbe 2ff8 6b39 dbf0 a7be 272c 193d
00000110: bd97 bdbe 53cf 213e 9de4 9a3d 2573 f73c
00000120: 575c 02bd ca0d 5b3e 6a91 aebc 9023 e73d
00000130: 2099 ae3d 99e8 ebbd 52b6 f13d f22f a8bd
00000140: 2033 f5b9 a317 b0be dbf4 bfba 8c16 673e
00000150: 2851 1abe f58e 62be fef9 76bc 9f3f 343e
00000160: 8971 0bbe d63f 973e aeda 9b3d 9c42 8d3d
00000170: b3be ad3c 514c 3b3e 8c6a cc3d 2786 02be
00000180: 0004 803e a657 bcbd 5228 8d3e 7f9a a2be
00000190: 10f8 393d 5e9c 943e 1d96 7cbe 76eb 32bc
000001a0: ca7b 483e 1418 e83d 7aa1 83bd d5ea 11be
000001b0: 10a9 16be 3ca7 9cbc e128 b23d 619d 473e
000001c0: ed6a bd3c fae0 263e 22b0 893d 45e9 6fbd
000001d0: 4410 86bc 4aef 6bbe ff9f 0b3e 3efc 26bd
000001e0: 7852 d93d b296 643d f097 30bd 33cb f33c
000001f0: a6cf a73e 67f9 cdbd 1b31 da39 30e9 02be
00000200: 8318 45be f116 973e c1a2 333e 74f0 e73d
00000210: 1825 7ebe a1ec 46bd c051 d93d 1cc8 093e
00000220: 28bd 36be 4fef be3e c7e1 fcbd 2f73 9ebd
00000230: e90d a7bd 4664 4e3e 53f1 ee3e 70d0 293e
00000240: 3eab b0bc 68a7 603e f1af 2c3e 650c ba3d
00000250: 1b96 66bd efb8 c8bb d7dd 163d 4334 5d3d
00000260: e75d c4bd 7339 cbbd fa3c b4bd 5fd7 adbe
00000270: 9107 0abc d318 9c3c fcd0 eb3d b079 1f3e
00000280: c6df c0be ad52 8abe d602 033c 299d 2e3e
00000290: fa79 813d dbb2 1bbd 89b2 433b ac97 6ebe
000002a0: 7b76 673d 030f 303e 0039 75be 95d5 82bd
000002b0: ff17 6b3e 1fb6 c43d b9f5 973e ccc8 333d
000002c0: 7b19 f33c 8872 45bc 0310 d13e 75b3 17be
000002d0: ea04 0bbe a1be 7b3e 007c 493e 8a0d e53b
000002e0: 417e 833e 3cdb a93c f702 7e3e b901 633e
000002f0: 69bd 173e 0591 ee3c 203f 84be 7b20 a43e
00000300: 6945 6a3d b8af 9ebd a034 8bbe f79b 223e
00000310: 4706 7e3e 9d26 ca3d 3045 273d 0a94 23be
00000320: 8a45 833e 0868 acbd d9c1 09be 299b e1bd
00000330: cc9c fc3d 82bb 51be 2dc6 883c ce75 01be
00000340: 96e9 fb3d bc0d 653e 437f 853e e340 2e3e
00000350: c2b1 153e 4feb 703d e0f9 233d a106 a93d
00000360: 71dc 7abd 84df 7cbe d58d 373e 3940 2abd
00000370: ac00 c9be 2c8f 81be dbd9 4bbe b07f 21bd
00000380: 4fc8 31be 62c1 cebd 4f09 73be a2c5 90bd
00000390: edaf 763c 9964 393e af10 26bd 158b a1be
000003a0: ddf8 29be e7c6 a23c ee4c 39be 6c06 85be
000003b0: 959d 07be 0836 e33d 4d33 c2be cdb3 50bd
000003c0: 694d 513e f371 4ebd 127b 33bd 5aa9 8dbe
000003d0: 6c12 4dbe 86ae 36bd 5f34 a4bb 11cd a3bd
000003e0: 41db b2bc 9c59 513d 1af6 c4bc fa93 b1bd
000003f0: 05e9 683e abe0 163e b93d f5be 952d 99be

network_body._body_endoder.seq_layers.0.bias f4 [256]
0.0 0.0 0.0 0.0 0.0 0.0 0.0 0.0
0.0 0.0 0.0 0.0 0.0 0.0 0.0 0.0
0.0 0.0 0.0 0.0 0.0 0.0 0.0 0.0
0.0 0.0 0.0 0.0 0.0 0.0 0.0 0.0
0.0 0.0 0.0 0.0 0.0 0.0 0.0 0.0
0.0 0.0 0.0 0.0 0.0 0.0 0.0 0.0
0.0 0.0 0.0 0.0 0.0 0.0 0.0 0.0
0.0 0.0 0.0 0.0 0.0 0.0 0.0 0.0
0.0 0.0 0.0 0.0 0.0 0.0 0.0 0.0
0.0 0.0 0.0 0.0 0.0 0.0 0.0 0.0
0.0 0.0 0.0 0.0 0.0 0.0 0.0 0.0
0.0 0.0 0.0 0.0 0.0 0.0 0.0 0.0
0.0 0.0 0.0 0.0 0.0 0.0 0.0 0.0
0.0 0.0 0.0 0.0 0.0 0.0 0.0 0.0
0.0 0.0 0.0 0.0 0.0 0.0 0.0 0.0
0.0 0.0 0.0 0.0 0.0 0.0 0.0 0.0
0.0 0.0 0.0 0.0 0.0 0.0 0.0 0.0
0.0 0.0 0.0 0.0 0.0 0.0 0.0 0.0
0.0 0.0 0.0 0.0 0.0 0.0 0.0 0.0
0.0 0.0 0.0 0.0 0.0 0.0 0.0 0.0
0.0 0.0 0.0 0.0 0.0 0.0 0.0 0.0
0.0 0.0 0.0 0.0 0.0 0.0 0.0 0.0
0.0 0.0 0.0 0.0 0.0 0.0 0.0 0.0
0.0 0.0 0.0 0.0 0.0 0.0 0.0 0.0
0.0 0.0 0.0 0.0 0.0 0.0 0.0 0.0
0.0 0.0 0.0 0.0 0.0 0.0 0.0 0.0
0.0 0.0 0.0 0.0 0.0 0.0 0.0 0.0
0.0 0.0 0.0 0.0 0.0 0.0 0.0 0.0
0.0 0.0 0.0 0.0 0.0 0.0 0.0 0.0
0.0 0.0 0.0 0.0 0.0 0.0 0.0 0.0
0.0 0.0 0.0 0.0 0.0 0.0 0.0 0.0
0.0 0.0 0.0 0.0 0.0 0.0 0.0 0.0
00000000: 0000 0000 0000 0000 0000 0000 0000 0000
00000010: 0000 0000 0000 0000 0000 0000 0000 0000
00000020: 0000 0000 0000 0000 0000 0000 0000 0000
00000030: 0000 0000 0000 0000 0000 0000 0000 0000
00000040: 0000 0000 0000 0000 0000 0000 0000 0000
00000050: 0000 0000 0000 0000 0000 0000 0000 0000
00000060: 0000 0000 0000 0000 0000 0000 0000 0000
00000070: 0000 0000 0000 0000 0000 0000 0000 0000
00000080: 0000 0000 0000 0000 0000 0000 0000 0000
00000090: 0000 0000 0000 0000 0000 0000 0000 0000
000000a0: 0000 0000 0000 0000 0000 0000 0000 0000
000000b0: 0000 0000 0000 0000 0000 0000 0000 0000
000000c0: 0000 0000 0000 0000 0000 0000 0000 0000
000000d0: 0000 0000 0000 0000 0000 0000 0000 0000
000000e0: 0000 0000 0000 0000 0000 0000 0000 0000
000000f0: 0000 0000 0000 0000 0000 0000 0000 0000
00000100: 0000 0000 0000 0000 0000 0000 0000 0000
00000110: 0000 0000 0000 0000 0000 0000 0000 0000
00000120: 0000 0000 0000 0000 0000 0000 0000 0000
00000130: 0000 0000 0000 0000 0000 0000 0000 0000
00000140: 0000 0000 0000 0000 0000 0000 0000 0000
00000150: 0000 0000 0000 0000 0000 0000 0000 0000
00000160: 0000 0000 0000 0000 0000 0000 0000 0000
00000170: 0000 0000 0000 0000 0000 0000 0000 0000
00000180: 0000 0000 0000 0000 0000 0000 0000 0000
00000190: 0000 0000 0000 0000 0000 0000 0000 0000
000001a0: 0000 0000 0000 0000 0000 0000 0000 0000
000001b0: 0000 0000 0000 0000 0000 0000 0000 0000
000001c0: 0000 0000 0000 0000 0000 0000 0000 0000
000001d0: 0000 0000 0000 0000 0000 0000 0000 0000
000001e0: 0000 0000 0000 0000 0000 0000 0000 0000
000001f0: 0000 0000 0000 0000 0000 0000 0000 0000
00000200: 0000 0000 0000 0000 0000 0000 0000 0000
00000210: 0000 0000 0000 0000 0000 0000 0000 0000
00000220: 0000 0000 0000 0000 0000 0000 0000 0000
00000230: 0000 0000 0000 0000 0000 0000 0000 0000
00000240: 0000 0000 0000 0000 0000 0000 0000 0000
00000250: 0000 0000 0000 0000 0000 0000 0000 0000
00000260: 0000 0000 0000 0000 0000 0000 0000 0000
00000270: 0000 0000 0000 0000 0000 0000 0000 0000
00000280: 0000 0000 0000 0000 0000 0000 0000 0000
00000290: 0000 0000 0000 0000 0000 0000 0000 0000
000002a0: 0000 0000 0000 0000 0000 0000 0000 0000
000002b0: 0000 0000 0000 0000 0000 0000 0000 0000
000002c0: 0000 0000 0000 0000 0000 0000 0000 0000
000002d0: 0000 0000 0000 0000 0000 0000 0000 0000
000002e0: 0000 0000 0000 0000 0000 0000 0000 0000
000002f0: 0000 0000 0000 0000 0000 0000 0000 0000
00000300: 0000 0000 0000 0000 0000 0000 0000 0000
00000310: 0000 0000 0000 0000 0000 0000 0000 0000
00000320: 0000 0000 0000 0000 0000 0000 0000 0000
00000330: 0000 0000 0000 0000 0000 0000 0000 0000
00000340: 0000 0000 0000 0000 0000 0000 0000 0000
00000350: 0000 0000 0000 0000 0000 0000 0000 0000
00000360: 0000 0000 0000 0000 0000 0000 0000 0000
00000370: 0000 0000 0000 0000 0000 0000 0000 0000
00000380: 0000 0000 0000 0000 0000 0000 0000 0000
00000390: 0000 0000 0000 0000 0000 0000 0000 0000
000003a0: 0000 0000 0000 0000 0000 0000 0000 0000
000003b0: 0000 0000 0000 0000 0000 0000 0000 0000
000003c0: 0000 0000 0000 0000 0000 0000 0000 0000
000003d0: 0000 0000 0000 0000 0000 0000 0000 0000
000003e0: 0000 0000 0000 0000 0000 0000 0000 0000
000003f0: 0000 0000 0000 0000 0000 0000 0000 0000

network_body._body_endoder.seq_layers.2.weight f4 [256, 256]
-0.08618735 -0.039047714 -0.112749845 0.06284832 -0.08294412 0.02366759 0.07210045 0.023459103
0.036387138 -0.025814056 -0.0015138614 -0.033389356 0.019394178 0.04636189 -0.0018937667 0.13182418
-0.00647171 0.005301737 0.1230767 0.038911086 0.014878097 0.0056151384 -0.055293072 0.0045179054
0.035072077 -0.03079199 -0.049062327 -0.010750028 0.0055479887 -0.025287863 -0.003818498 0.09936802
-0.03776256 -0.108938284 0.031659503 -0.041604623 -0.09438548 -0.023870746 -0.026031835 -0.03767227
-0.038200747 0.036958106 0.019085573 -0.0201158 -0.058482945 0.04243224 -0.014914744 -0.051405624
-0.13178527 0.0920982 -0.042938985 -0.06056989 -0.06567512 0.11298254 -0.0012785193 -0.050209217
-0.035010055 -0.012003947 0.0023280955 0.088346936 0.080506824 0.12607324 -0.054568302 -0.12747158
-0.05563607 0.067226894 0.08966542 -0.0044353437 0.06140821 -0.07319971 0.11216012 0.00734049
0.00799302 -0.015248114 0.060075596 0.049266156 0.053275198 -0.032495156 -0.027507769 -0.040838163
0.026811764 -0.02674925 -0.025526572 0.07460691 0.006662158 0.020520989 -0.024244238 -0.06890437
-0.051999237 -0.015865996 -0.034748133 0.07181838 0.024149371 0.06548667 0.106459536 -0.08856289
-0.11552946 0.042096242 0.042731855 -0.0026715249 -0.07675985 0.04403082 -0.09798519 0.027419217
0.045469556 -0.031253114 0.04231419 -0.02695776 -0.046626937 -0.028727902 0.015331355 0.044571716
-0.060118534 0.0572945 -0.04189311 -0.07400615 -0.18115932 0.2109977 0.06375407 0.06851706
-0.08318584 -0.076726586 -0.0023037856 -0.06354194 0.0049309884 0.100808464 -0.017602379 -0.015364495
0.039110593 0.08233746 -0.04371969 -0.10671992 0.035135426 0.0047272593 -0.048027735 0.010371759
0.027921213 -0.032994207 0.09704127 -0.022882152 -0.042449836 -0.009168108 -0.055228878 0.09904183
-0.10251872 -0.072000705 0.018112598 -0.039807584 -0.027037824 0.105997816 -0.0633522 0.059296977
-0.10360506 -0.123677224 -0.05501789 -0.056317978 0.027736261 -0.040497184 -0.05115085 0.041083056
-0.004953905 0.027033241 -0.06536701 -0.039344717 0.06313011 0.07504192 -0.010208238 0.0037880105
0.024256703 -0.118905626 0.047571328 -0.026029902 0.025073806 0.0023232587 0.049229234 -0.015877653
0.072128266 0.07657642 0.08756953 0.034119114 0.022298308 0.023092547 -0.026772967 -0.019462079
0.036541253 -0.038878538 -0.054678366 -0.078255825 -0.0477529 0.10370257 -0.06600358 0.0040606563
-0.037897877 0.029701313 -0.043927956 -0.04223824 -0.03748124 -0.02320521 0.02563254 0.11560964
0.14289238 -0.01543254 -0.07210334 0.014997381 0.08801561 -0.006917027 0.016005749 -0.093113504
-0.050451197 -0.03410795 -0.06629361 0.055439487 0.028201856 -0.011467825 0.028792122 0.08335275
-0.046502475 0.03514473 -0.010215987 -0.01849454 0.09962736 -0.068895526 0.023909612 0.046946872
-0.0668207 -0.06841688 -0.02862589 -0.01972724 0.09724722 -0.011741775 0.07405169 -0.036239017
-0.011911391 0.12660743 -0.029373746 0.029706556 -0.009444686 -0.12177439 -0.038490027 -0.09739678
0.01845343 -0.1258848 -0.06666703 -0.037192933 0.0690846 0.035862852 0.0400991 -0.14353019
-0.023367358 0.0012109991 -0.015230261 0.03312547 -0.051389392 -0.063817576 -0.05532574 0.0062059984
00000000: fe82 b0bd 7ff0 1fbd 64e9 e6bd 9fb6 803d
00000010: 9bde a9bd 89e2 c13c 67a9 933d 4e2d c03c
00000020: ae0a 153d 0078 d3bc c26c c6ba 47c3 08bd
00000030: 8ae0 9e3c f7e5 3d3d 4438 f8ba ebfc 063e
00000040: a310 d4bb 32ba ad3b a30f fc3d 3b61 1f3d
00000050: 43c3 733c 32ff b73b fd7a 62bd f00a 943b
00000060: bda7 0f3d 7c3f fcbc 94f5 48bd e320 30bc
00000070: e7cb b53b 7e28 cfbc c43f 7abb 7681 cb3d
00000080: eaac 1abd 091b dfbd 65ad 013d 9c69 2abd
00000090: 2d4d c1bd 958c c3bc b740 d5bc 3d4e 1abd
000000a0: 6378 1cbd 6261 173d 5959 9c3c e4c9 a4bc
000000b0: d08b 6fbd 6ecd 2d3d f85c 74bc b48e 52bd
000000c0: b8f2 06be fb9d bc3d cae0 2fbd 2218 78bd
000000d0: ad80 86bd 6463 e73d fd93 a7ba 2ea8 4dbd
000000e0: b466 0fbd 34ac 44bc f692 183b 3def b43d
000000f0: c3e0 a43d 5819 013e 0383 5fbd e987 02be
00000100: a6e2 63bd 41ae 893d 81a2 b73d 5c56 91bb
00000110: 2d87 7b3d bbe9 95bd 34b4 e53d 7e88 f03b
00000120: 28f5 023c 3ad3 79bc d411 763d 4fcb 493d
00000130: 1837 5a3d a419 05bd f957 e1bc eb45 27bd
00000140: 58a4 db3c 3e21 dbbc 1a1d d1bc 82cb 983d
00000150: 3b4e da3b a21b a83c da9b c6bc bc1d 8dbd
00000160: 27fd 54bd 68f9 81bc 0f54 0ebd 8415 933d
00000170: e7d4 c53c e01d 863d 7507 da3d 7660 b5bd
00000180: b69a ecbd 1c6d 2c3d 9907 2f3d c014 2fbb
00000190: 4534 9dbd a959 343d 76ac c8bd 449e e03c
000001a0: 493e 3a3d 4403 00bd a551 2d3d 85d6 dcbc
000001b0: e3fb 3ebd c756 ebbc 5d30 7b3c d590 363d
000001c0: da3e 76bd a3ad 6a3d 1c98 2bbd 8990 97bd
000001d0: d481 39be c80f 583e 7e91 823d ac52 8c3d
000001e0: 565d aabd d422 9dbd 1cfb 16bb 4722 82bd
000001f0: 2194 a13b ab74 ce3d dd32 90bc 5dbb 7bbc
00000200: 6e32 203d 8ba0 a83d 6b13 33bd f98f dabd
00000210: 2aea 0f3d 20e7 9a3b bbb8 44bd 4fee 293c
00000220: 07bb e43c ef24 07bd 93bd c63d 5a73 bbbc
00000230: e1df 2dbd d535 16bc ad37 62bd 71d6 ca3d
00000240: 56f5 d1bd 1b75 93bd df60 943c 470d 23bd
00000250: 6d7e ddbc 6215 d93d ccbe 81bd 63e1 723d
00000260: e42e d4bd 7c4a fdbd 705a 61bd aead 66bd
00000270: 2837 e33c 60e0 25bd 8e83 51bd b546 283d
00000280: 5e54 a2bb d174 dd3c 24df 85bd ed27 21bd
00000290: 5c4a 813d 94af 993d 7440 27bc 4540 783b
000002a0: feb5 c63c cb84 f3bd 27da 423d a93c d5bc
000002b0: 9567 cd3c d041 183b 98a4 493d da11 82bc
000002c0: fcb7 933d 19d4 9c3d a757 b33d 7cc0 0b3d
000002d0: f1aa b63c 952c bd3c fb52 dbbc f06e 9fbc
000002e0: 48ac 153d 1a3f 1fbd 6cf6 5fbd 9744 a0bd
000002f0: 8b98 43bd 0362 d43d e32c 87bd 410f 853b
00000300: ce3a 1bbd 2b50 f33c cded 33bd 0102 2dbd
00000310: ee85 19bd da18 bebc 55fb d13c bfc4 ec3d
00000320: 6152 123e c4d8 7cbc eaaa 93bd 93b7 753c
00000330: 8741 b43d 3aa8 e2bb 7d1e 833c 4bb2 bebd
00000340: eaa5 4ebd c7b4 0bbd f2c4 87bd 8414 633d
00000350: 9407 e73c 8be3 3bbc 75dd eb3c d9b4 aa3d
00000360: 6179 3ebd ecf3 0f3d f560 27bc dd81 97bc
00000370: 6e09 cc3d 1919 8dbd 17de c33c 5d4b 403d
00000380: 4bd9 88bd 261e 8cbd d880 eabc 059b a1bc
00000390: 8d29 c73d 9360 40bc 6aa8 973d 5d6f 14bd
000003a0: ff27 43bc 61a5 013e 36a1 f0bc 2a5b f33c
000003b0: e2bd 1abc da64 f9bd b8a7 1dbd f777 c7bd
000003c0: a62b 973c f2e7 00be b988 88bd 9e57 18bd
000003d0: 3a7c 8d3d ede4 123d f43e 243d 94f9 12be
000003e0: e76c bfbc 63ba 9e3a 5888 79bc 93ae 073d
000003f0: af7d 52bd cab2 82bd 3e9d 62bd b05b cb3b

network_body._body_endoder.seq_layers.2.bias f4 [256]
0.0 0.0 0.0 0.0 0.0 0.0 0.0 0.0
0.0 0.0 0.0 0.0 0.0 0.0 0.0 0.0
0.0 0.0 0.0 0.0 0.0 0.0 0.0 0.0
0.0 0.0 0.0 0.0 0.0 0.0 0.0 0.0
0.0 0.0 0.0 0.0 0.0 0.0 0.0 0.0
0.0 0.0 0.0 0.0 0.0 0.0 0.0 0.0
0.0 0.0 0.0 0.0 0.0 0.0 0.0 0.0
0.0 0.0 0.0 0.0 0.0 0.0 0.0 0.0
0.0 0.0 0.0 0.0 0.0 0.0 0.0 0.0
0.0 0.0 0.0 0.0 0.0 0.0 0.0 0.0
0.0 0.0 0.0 0.0 0.0 0.0 0.0 0.0
0.0 0.0 0.0 0.0 0.0 0.0 0.0 0.0
0.0 0.0 0.0 0.0 0.0 0.0 0.0 0.0
0.0 0.0 0.0 0.0 0.0 0.0 0.0 0.0
0.0 0.0 0.0 0.0 0.0 0.0 0.0 0.0
0.0 0.0 0.0 0.0 0.0 0.0 0.0 0.0
0.0 0.0 0.0 0.0 0.0 0.0 0.0 0.0
0.0 0.0 0.0 0.0 0.0 0.0 0.0 0.0
0.0 0.0 0.0 0.0 0.0 0.0 0.0 0.0
0.0 0.0 0.0 0.0 0.0 0.0 0.0 0.0
0.0 0.0 0.0 0.0 0.0 0.0 0.0 0.0
0.0 0.0 0.0 0.0 0.0 0.0 0.0 0.0
0.0 0.0 0.0 0.0 0.0 0.0 0.0 0.0
0.0 0.0 0.0 0.0 0.0 0.0 0.0 0.0
0.0 0.0 0.0 0.0 0.0 0.0 0.0 0.0
0.0 0.0 0.0 0.0 0.0 0.0 0.0 0.0
0.0 0.0 0.0 0.0 0.0 0.0 0.0 0.0
0.0 0.0 0.0 0.0 0.0 0.0 0.0 0.0
0.0 0.0 0.0 0.0 0.0 0.0 0.0 0.0
0.0 0.0 0.0 0.0 0.0 0.0 0.0 0.0
0.0 0.0 0.0 0.0 0.0 0.0 0.0 0.0
0.0 0.0 0.0 0.0 0.0 0.0 0.0 0.0
00000000: 0000 0000 0000 0000 0000 0000 0000 0000
00000010: 0000 0000 0000 0000 0000 0000 0000 0000
00000020: 0000 0000 0000 0000 0000 0000 0000 0000
00000030: 0000 0000 0000 0000 0000 0000 0000 0000
00000040: 0000 0000 0000 0000 0000 0000 0000 0000
00000050: 0000 0000 0000 0000 0000 0000 0000 0000
00000060: 0000 0000 0000 0000 0000 0000 0000 0000
00000070: 0000 0000 0000 0000 0000 0000 0000 0000
00000080: 0000 0000 0000 0000 0000 0000 0000 0000
00000090: 0000 0000 0000 0000 0000 0000 0000 0000
000000a0: 0000 0000 0000 0000 0000 0000 0000 0000
000000b0: 0000 0000 0000 0000 0000 0000 0000 0000
000000c0: 0000 0000 0000 0000 0000 0000 0000 0000
000000d0: 0000 0000 0000 0000 0000 0000 0000 0000
000000e0: 0000 0000 0000 0000 0000 0000 0000 0000
000000f0: 0000 0000 0000 0000 0000 0000 0000 0000
00000100: 0000 0000 0000 0000 0000 0000 0000 0000
00000110: 0000 0000 0000 0000 0000 0000 0000 0000
00000120: 0000 0000 0000 0000 0000 0000 0000 0000
00000130: 0000 0000 0000 0000 0000 0000 0000 0000
00000140: 0000 0000 0000 0000 0000 0000 0000 0000
00000150: 0000 0000 0000 0000 0000 0000 0000 0000
00000160: 0000 0000 0000 0000 0000 0000 0000 0000
00000170: 0000 0000 0000 0000 0000 0000 0000 0000
00000180: 0000 0000 0000 0000 0000 0000 0000 0000
00000190: 0000 0000 0000 0000 0000 0000 0000 0000
000001a0: 0000 0000 0000 0000 0000 0000 0000 0000
000001b0: 0000 0000 0000 0000 0000 0000 0000 0000
000001c0: 0000 0000 0000 0000 0000 0000 0000 0000
000001d0: 0000 0000 0000 0000 0000 0000 0000 0000
000001e0: 0000 0000 0000 0000 0000 0000 0000 0000
000001f0: 0000 0000 0000 0000 0000 0000 0000 0000
00000200: 0000 0000 0000 0000 0000 0000 0000 0000
00000210: 0000 0000 0000 0000 0000 0000 0000 0000
00000220: 0000 0000 0000 0000 0000 0000 0000 0000
00000230: 0000 0000 0000 0000 0000 0000 0000 0000
00000240: 0000 0000 0000 0000 0000 0000 0000 0000
00000250: 0000 0000 0000 0000 0000 0000 0000 0000
00000260: 0000 0000 0000 0000 0000 0000 0000 0000
00000270: 0000 0000 0000 0000 0000 0000 0000 0000
00000280: 0000 0000 0000 0000 0000 0000 0000 0000
00000290: 0000 0000 0000 0000 0000 0000 0000 0000
000002a0: 0000 0000 0000 0000 0000 0000 0000 0000
000002b0: 0000 0000 0000 0000 0000 0000 0000 0000
000002c0: 0000 0000 0000 0000 0000 0000 0000 0000
000002d0: 0000 0000 0000 0000 0000 0000 0000 0000
000002e0: 0000 0000 0000 0000 0000 0000 0000 0000
000002f0: 0000 0000 0000 0000 0000 0000 0000 0000
00000300: 0000 0000 0000 0000 0000 0000 0000 0000
00000310: 0000 0000 0000 0000 0000 0000 0000 0000
00000320: 0000 0000 0000 0000 0000 0000 0000 0000
00000330: 0000 0000 0000 0000 0000 0000 0000 0000
00000340: 0000 0000 0000 0000 0000 0000 0000 0000
00000350: 0000 0000 0000 0000 0000 0000 0000 0000
00000360: 0000 0000 0000 0000 0000 0000 0000 0000
00000370: 0000 0000 0000 0000 0000 0000 0000 0000
00000380: 0000 0000 0000 0000 0000 0000 0000 0000
00000390: 0000 0000 0000 0000 0000 0000 0000 0000
000003a0: 0000 0000 0000 0000 0000 0000 0000 0000
000003b0: 0000 0000 0000 0000 0000 0000 0000 0000
000003c0: 0000 0000 0000 0000 0000 0000 0000 0000
000003d0: 0000 0000 0000 0000 0000 0000 0000 0000
000003e0: 0000 0000 0000 0000 0000 0000 0000 0000
000003f0: 0000 0000 0000 0000 0000 0000 0000 0000

action_model._continuous_distribution.log_sigma f4 [1, 8]
0.0 0.0 0.0 0.0 0.0 0.0 0.0 0.0
00000000: 0000 0000 0000 0000 0000 0000 0000 0000
00000010: 0000 0000 0000 0000 0000 0000 0000 0000

action_model._continuous_distribution.mu.weight f4 [8, 256]
0.012638244 -0.0032252744 -0.01848804 0.030123627 0.011424851 0.0037604184 -0.015464105 0.010155125
0.012134285 -0.015944442 -0.004891516 0.029781437 0.020499757 0.019410225 -0.008168015 -0.018346058
-0.017573996 -0.017133905 0.010419797 -0.0009118858 0.024939056 -0.0058646365 0.0045671235 -0.012939684
0.011417049 0.013570666 -0.0061616316 -0.008442181 0.008416849 -0.011584853 0.009402913 0.0024431024
0.005290448 -0.0010034511 -0.025208283 0.006643192 0.009781438 0.015681146 -0.012927525 -0.001961066
0.01284332 0.0031000308 -0.0096160155 -0.009868148 -0.024647892 0.009311646 0.016163068 -0.011120657
-0.009620414 -0.0068570483 0.009116552 -0.012637369 -0.011645325 0.0110272085 -0.018354042 0.005864784
0.011972656 0.017632214 -0.013088797 -0.01951393 -0.008406304 0.0012838943 -0.0010319635 -0.0010010684
0.013179079 -0.0017401517 0.0014226715 0.0004658723 -0.0067569087 0.007828675 0.014772326 -0.017623125
0.008097545 -0.012525658 -0.001759544 0.0030700637 -0.0008059717 -0.017379312 -0.009437983 -0.0005130435
-0.020053254 -0.028293062 0.016622504 -0.0049329097 0.0014241532 0.01734498 -0.0011778757 -0.013689903
0.004672218 0.004113592 -0.014074531 0.0065930234 0.0060238107 0.001793017 -0.010818577 -0.010942028
0.013160519 -0.0014971734 -0.022034641 0.013332692 -0.0028816457 -0.0038835574 0.005638944 0.0038589635
0.007129735 0.009755975 -0.009943108 0.0029121616 -0.012022032 0.011117152 0.010142506 0.0028124556
0.0076087466 0.00836559 -0.0046534142 0.02266396 -0.0035455655 -0.006206622 0.016285293 -0.0031278853
0.011361192 0.0033772492 -0.017185004 0.007415883 0.003704999 0.012925512 0.0046184803 -0.008635395
0.01146376 0.00031715631 -0.008979246 -0.004308635 0.009822642 0.011658055 -0.00038201505 0.01507141
-0.0058972687 0.022860749 -0.0058635273 0.0068860785 -0.0043964544 0.010404991 0.008133964 -0.017021863
-0.00021567153 -0.0017165609 -0.010377537 -0.015110453 -0.0063328347 0.006106974 -0.0009882635 -0.005798222
-0.0020068148 -0.0011123912 -0.015750226 0.0019489411 -0.011297014 0.0051360405 -0.0048017805 -0.0012365048
-0.0031172528 -0.03134797 0.016657447 0.0034225609 0.005490447 -0.005133963 -0.009116133 0.01611173
0.005884667 0.019266877 -0.0044958047 0.010619214 0.00968431 -0.0017370839 -0.008489683 0.025470817
-0.011484223 0.003531667 -0.0071796663 -0.011098501 -0.00842819 0.005393421 0.00793601 -0.023783647
0.0011675432 0.010486873 -0.002993997 0.0030085596 -0.009809798 -0.019353185 -0.012454646 0.0001804046
0.025000159 0.0015218727 -0.0016695572 -0.0009246178 0.0021901266 -0.0032496948 -0.013603009 -0.028135478
0.005368989 0.0052474714 -0.003737482 0.0020095054 -0.014526273 0.011169547 -0.0045109093 0.013456446
0.00048714434 0.015635753 0.0070567774 0.004807847 -0.013726284 -0.009827949 -0.0042190435 0.0015982321
-0.015144718 -0.021669576 -0.01163569 -0.0009209186 0.007710792 0.002173691 0.0075416826 0.004956322
-0.000270477 0.0025130943 -0.007101346 0.018190049 -0.017543644 -0.016467875 0.00163048 0.005121641
0.012983001 -0.017165942 -0.022681009 -0.0032596227 -0.011657847 -0.020092726 -0.0018780148 -0.0049866075
-0.00832365 -0.007395215 -0.011502181 0.0067561925 -0.01761266 0.0039061063 -0.020160902 0.003979105
-0.01900232 0.014036912 0.00496405 -0.011238162 -0.0018796191 -0.004794938 0.010895837 0.019406622
00000000: a310 4f3c 205f 53bb 3b74 97bc d3c5 f63c
00000010: 4c2f 3b3c 5a71 763b 285d 7dbc ae61 263c
00000020: e1ce 463c eb9d 82bc 0349 a0bb 33f8 f33c
00000030: 1bef a73c 3102 9f3c 23d3 05bc 794a 96bc
00000040: 57f7 8fbc 675c 8cbc ccb7 2a3c 9f0b 6fba
00000050: fe4c cc3c 232c c0bb cfa7 953b f800 54bc
00000060: 930e 3b3c 8057 5e3c 83e7 c9bb 1351 0abc
00000070: d3e6 093c 65ce 3dbc ad0e 1a3c 751c 203b
00000080: 7f5b ad3b 3b86 83ba 9a81 cebc 22af d93b
00000090: 5342 203c bf75 803c f8cd 53bc 3a85 00bb
000000a0: ca6c 523c e329 4b3b 7e8c 1dbc 03ae 21bc
000000b0: 60ea c9bc e08f 183c 6968 843c 6b33 36bc
000000c0: f19e 1dbc 17b1 e0bb 975d 153c f80c 4fbc
000000d0: 09cc 3ebc 77ab 343c 375b 96bc 602d c03b
000000e0: f528 443c 6f71 903c 6572 56bc addb 9fbc
000000f0: 98ba 09bc 5848 a83a f342 87ba 4836 83ba
00000100: 10ed 573c cd15 e4ba ef78 ba3a 5240 f439
00000110: 0f69 ddbb d843 003c a007 723c 5f5e 90bc
00000120: 91ab 043c 6b38 4dbc 80a0 e6ba 1f33 493b
00000130: d847 53ba 0f5f 8ebc c5a1 1abc c47d 06ba
00000140: b946 a4bc dac6 e7bc eb2b 883c 3fa4 a1bb
00000150: a7aa ba3a 0f17 8e3c f362 9aba 9d4b 60bc
00000160: 6819 993b 50cb 863b dd98 66bc 4a0a d83b
00000170: 6363 c53b ab03 eb3a 6740 31bc 3146 33bc
00000180: 389f 573c ce3c c4ba fe81 b4bc 5d71 5a3c
00000190: fed9 3cbb 4883 7ebb e4c6 b83b aae6 7c3b
000001a0: 8da0 e93b 86d7 1f3c 6be8 22bc f7d9 3e3b
000001b0: 0ff8 44bc b724 363c c12c 263c 2d51 383b
000001c0: cb52 f93b d40f 093c ab7b 98bb c5a9 b93c
000001d0: b85c 68bb eb60 cbbb bc68 853c 35fd 4cbb
000001e0: 4b24 3a3c d754 5d3b 91c7 8cbc ef00 f33b
000001f0: 92cf 723b 87c5 533c 9f56 973b 797b 0dbc
00000200: 7fd2 3b3c 0048 a639 b01d 13bc 732f 8dbb
00000210: 26ef 203c 6d01 3f3c 3149 c8b9 13ee 763c
00000220: e03d c1bb 7746 bb3c d522 c0bb 9da4 e13b
00000230: 2210 90bb b279 2a3c 5144 053c 6f71 8bbc
00000240: e325 62b9 3afe e0ba 8c06 2abc d591 77bc
00000250: ab83 cfbb 031d c83b 9f88 81ba 03ff bdbb
00000260: c484 03bb a8cd 91ba 9e06 81bc 9d73 ff3a
00000270: 1c17 39bc 3b4c a83b 4158 9dbb 3712 a2ba
00000280: d34a 4cbb bb66 00bd 3375 883c 0b4d 603b
00000290: 35e9 b33b ce3a a8bb d55b 15bc bffc 833c
000002a0: 2ad4 c03b 92d5 9d3c 8b51 93bb 36fc 2d3c
000002b0: f1aa 1e3c ddae e3ba 5018 0bbc 2da8 d03c
000002c0: 5328 3cbc 8a73 673b 6843 ebbb 7dd6 35bc
000002d0: 6416 0abc 4bbb b03b 0a06 023c ecd5 c2bc
000002e0: 4008 993a 22d1 2b3c ef36 44bb 412b 453b
000002f0: 46b9 20bc 928a 9ebc 920e 4cbc fe2a 3d39
00000300: 22cd cc3c 9379 c73a 0bd5 daba 0d62 72ba
00000310: 3a88 0f3b d5f8 54bb 28df 5ebc 607c e6bc
00000320: 58ee af3b fbf2 ab3b 8bf0 74bb e8b1 033b
00000330: 9bff 6dbc 7a00 373c 40d0 93bb 6d78 5c3c
00000340: 6867 ff39 8d16 803c 8a3c e73b 258b 9d3b
00000350: 35e4 60bc 6805 21bc e73f 8abb c57b d13a
00000360: 8d21 78bc 6584 b1bc 9fa3 3ebc cd69 71ba
00000370: d0aa fc3b 7c74 0e3b 3820 f73b a468 a23b
00000380: cfce 8db9 bab2 243b 68b2 e8bb 4c03 953c
00000390: b0b7 8fbc a3e7 86bc d5b5 d53a 70d3 a73b
000003a0: a7b6 543c 979f 8cbc 86cd b9bc 659f 55bb
000003b0: 8e00 3fbc 8099 a4bc b827 f6ba b266 a3bb
000003c0: eb5f 08bc 8f53 f2bb a573 3cbc 0d63 dd3b
000003d0: 6d48 90bc 97fd 7f3b 7a28 a5bc 2763 823b
000003e0: c1aa 9bbc 13fb 653c 78a9 a23b 4520 38bc
000003f0: 8d5d f6ba db1e 9dbb 7484 323c a3fa 9e3c

action_model._continuous_distribution.mu.bias f4 [8]
0.0 0.0 0.0 0.0 0.0 0.0 0.0 0.0
00000000: 0000 0000 0000 0000 0000 0000 0000 0000
00000010: 0000 0000 0000 0000 0000 0000 0000 0000

network_body._body_endoder.seq_layers.0.weight f4 [256, 33]
-0.07917453 -0.24422684 -0.07724441 -0.19448477 -0.0002974415 0.31216794 -0.06543435 0.076799266
-0.09304002 0.18946843 -0.0880443 0.091553 -0.026671514 -0.088672794 -0.1085814 -0.057341363
0.026884995 0.013468974 0.08006315 -0.06373186 0.006723955 0.009895352 0.014589436 -0.023074185
-0.18753417 -0.31799057 -0.011952598 -0.037223026 -0.10494727 0.3681029 0.15885703 -0.016048763
0.17238425 0.00899897 -0.025738014 -0.28947017 -0.38760358 0.11618022 0.18421304 -0.045724757
0.33811474 0.20498912 -0.022994326 0.13504487 -0.05025103 -0.117115416 0.24831893 -0.028113244
0.10912006 0.11710669 -0.21698089 0.088449486 0.008675765 -0.20177372 -0.22229783 0.077954
0.024658957 -0.020060144 -0.32526964 -0.039970372 -0.20097598 -0.24079463 -0.2129304 -0.09169
-0.08338654 0.0050473115 -0.13388965 0.00904966 -0.22869974 -0.08130171 -0.19458693 -0.21477985
-0.2910851 0.21885777 -0.27468845 -0.110644065 -0.0030605334 -0.08347907 -0.18355237 -0.16502845
0.0012339961 -0.33086532 0.31572977 -0.0103035 -0.21628456 -0.0985326 -0.22557713 -0.117194004
-0.001911726 0.034110952 -0.19379254 -0.10486503 0.027227301 -0.039859254 0.06481371 0.18405685
0.03605021 0.2842112 0.12363109 0.04797468 0.1705082 0.029865934 -0.0025183738 -0.38028556
0.09678316 0.0064183334 0.055512566 -0.09436226 0.22587374 0.020018809 -0.11670083 0.017266044
-0.07623302 -0.13729529 -0.1161489 -0.07697631 -0.040163685 -0.4425683 0.11525823 0.21843155
0.23122951 0.14300257 -0.14724074 0.12499883 -0.054465037 -0.118566 0.14334916 0.05124769
-0.020259034 0.24474072 0.14899108 0.24543929 -0.123444475 -0.003917521 0.15522568 0.042995077
0.09832245 -0.113327 0.23626013 0.0083071245 0.009787964 -0.16194996 0.16255197 -0.092531174
0.112810865 0.23803264 0.16725476 0.034172647 -0.057338838 0.10688415 -0.2563632 0.028145006
0.44886968 0.25394687 0.0928457 -0.076165624 0.22148089 -0.074132524 0.26713222 0.14310387
0.30695146 -0.07913334 -0.16887106 0.09922122 -0.03563954 -0.22457924 -0.053787924 0.060223736
-0.11644344 -0.076334976 0.026509948 0.1832384 0.015108545 -0.3539621 0.26864687 0.030503962
-0.087789014 -0.16113345 -0.10826972 0.1255124 -0.09433795 -0.054793954 0.0636237 0.2647144
-0.12670594 -0.24315521 0.30010295 0.07626298 -0.39617407 0.12434342 -0.3347638 0.15437399
0.11940782 -0.112667285 0.25447914 0.119684264 -0.050584856 -0.071245946 0.34740007 -0.10604897
-0.28204322 -0.108533785 0.509073 0.08330369 -0.033310756 -0.030547539 0.1402449 0.028071929
-0.052166183 -0.36981493 -0.035706386 -0.15994227 -0.17830864 -0.06693603 -0.37489322 -0.13825396
0.05244781 0.2078575 -0.1271991 0.12631635 -0.09169018 -0.08629962 0.058519084 -0.0014031983
0.1711244 0.071989805 -0.04675101 -0.41332075 0.003346116 -0.014831576 -0.20478514 0.06256395
-0.050961893 0.21308415 0.14464183 -0.08226032 0.3059873 -0.13159895 -0.17033455 -0.14232548
-0.3098958 0.32058144 -0.02273192 0.15432669 0.07996842 0.104094446 -0.025465107 -0.10397851
-0.03345186 0.06198093 0.067291364 0.029473536 0.041058354 0.24868524 -0.037091833 0.012211471
00000000: 4226 a2bd 9a16 7abe 5132 9ebd 0427 47be
00000010: ecf1 9bb9 7ad4 9f3e 7202 86bd ef48 9d3d
00000020: c48b bebd 0304 423e 9250 b4bd 2480 bb3d
00000030: 387e dabc 159a b5bd ed5f debd c7de 6abd
00000040: ec3d dc3c f9ac 5c3c 26f8 a33d d985 82bd
00000050: 9f54 dc3b 1d20 223c 8808 6f3c 1306 bdbc
00000060: f508 40be a9cf a2be d4d4 43bc 2c77 18bd
00000070: 98ee d6bd fc77 bc3e 6bab 223e b278 83bc
00000080: 7f85 303e 6a70 133c 87d8 d2bc 6f35 94be
00000090: fa73 c6be e5ef ed3d 58a2 3c3e e249 3bbd
000000a0: 601d ad3e abe8 513e 995e bcbc 3449 0a3e
000000b0: 06d4 4dbd 35da efbd 5147 7e3e bf4d e6bc
000000c0: 577a df3d a2d5 ef3d 3d30 5ebe 0125 b53d
000000d0: cc24 0e3c c59d 4ebe 0ba2 63be 59a6 9f3d
000000e0: 9501 ca3c 2c55 a4bc be89 a6be f9b7 23bd
000000f0: a6cc 4dbe de92 76be 6d0a 5abe f7c7 bbbd
00000100: 90c6 aabd eb63 a53b 5e1a 09be 0645 143c
00000110: 4430 6abe 8381 a6bd cc41 47be 40ef 5bbe
00000120: 1b09 95be 401c 603e f7a3 8cbe 5b99 e2bd
00000130: 3b93 48bb 13f7 aabd 27f5 3bbe 38fd 28be
00000140: 0abe a13a 2e67 a9be 55a7 a13e 03d0 28bc
00000150: b379 5dbe 76cb c9bd b1fd 66be 6903 f0bd
00000160: e192 faba edb7 0b3d 8d71 46be 7ac3 d6bd
00000170: ca0b df3c 7543 23bd 0dbd 843d 6679 3c3e
00000180: 63a9 133d 2184 913e 4c32 fd3d 1981 443d
00000190: b499 2e3e 67a9 f43c 4d0b 25bb cab4 c2be
000001a0: 4036 c63d e250 d23b 2561 633d 0041 c1bd
000001b0: 724b 673e 7cfe a33c d800 efbd 8571 8d3c
000001c0: 0f20 9cbd 2397 0cbe 79df edbd c1a5 9dbd
000001d0: ad82 24bd 5098 e2be 820c ec3d 85ac 5f3e
000001e0: 6ec7 6c3e 446f 123e 47c6 16be 63ff ff3d
000001f0: bb16 5fbd bbd2 f2bd 1fca 123e 19e9 513d
00000200: 46f6 a5bc 509d 7a3e 1e91 183e 7054 7b3e
00000210: 75d0 fcbd 8c5e 80bb 7bf3 1e3e 9b1b 303d
00000220: 485d c93d fc17 e8bd 2dee 713e 9b1a 083c
00000230: b25d 203c 36d6 25be 0674 263e fc80 bdbd
00000240: 6209 e73d d4be 733e d544 2b3e 9ef8 0b3d
00000250: 21dc 6abd 14e6 da3d 0a42 83be 5b90 e63c
00000260: 3fd2 e53e 5305 823e e325 be3d b9fc 9bbd
00000270: e3cb 623e cbd2 97bd 8ec5 883e d289 123e
00000280: be28 9d3e a910 a2bd 89ec 2cbe 7f34 cb3d
00000290: c4fa 11bd 1af8 65be ba50 5cbd 2aad 763d
000002a0: e679 eebd 8355 9cbd 642b d93c d9a2 3b3e
000002b0: d589 773c 853a b5be 158c 893e 72e3 f93c
000002c0: baca b3bd 2b00 25be 84bc ddbd 5386 003e
000002d0: 4134 c1bd a06f 60bd 244d 823d a588 873e
000002e0: 34bf 01be aefd 78be 18a7 993e c42f 9c3d
000002f0: 54d7 cabe c3a7 fe3d 2966 abbe 3714 1e3e
00000300: 168c f43d 1bbe e6bd 174b 823e 061d f53d
00000310: 1132 4fbd 65e9 91bd 6cde b13e 3430 d9bd
00000320: f867 90be f646 debd 9c52 023f 209b aa3d
00000330: dc70 08bd d53e fabc 5c9c 0f3e 1af7 e53c
00000340: 35ac 55bd 6258 bdbe dc40 12bd e8c7 23be
00000350: 8a96 36be c215 89bd 01f2 bfbe 7292 0dbe
00000360: 84d3 563d 99d8 543e 7b40 02be 1359 013e
00000370: 10c8 bbbd dbbd b0bd b5b1 6f3d 86eb b7ba
00000380: 3c3b 2f3e 646f 933d fd7d 3fbd c79e d3be
00000390: 834a 5b3b 2300 73bc 32b3 51be 8721 803d
000003a0: 6bbd 50bd bb32 5a3e fd1c 143e 1978 a8bd
000003b0: 5eaa 9c3e e0c1 06be 2e6c 2ebe c5bd 11be
000003c0: aaaa 9ebe 4023 a43e 4b38 babc d107 1e3e
000003d0: 7cc6 a33d 782f d53d 339c d0bc aff2 d4bd
000003e0: d104 09bd b7df 7d3d 0ed0 893d 7c72 f13c
000003f0: ce2c 283d 58a7 7e3e 9bed 17bd 9f12 483c

network_body._body_endoder.seq_layers.0.bias f4 [256]
0.0 0.0 0.0 0.0 0.0 0.0 0.0 0.0
0.0 0.0 0.0 0.0 0.0 0.0 0.0 0.0
0.0 0.0 0.0 0.0 0.0 0.0 0.0 0.0
0.0 0.0 0.0 0.0 0.0 0.0 0.0 0.0
0.0 0.0 0.0 0.0 0.0 0.0 0.0 0.0
0.0 0.0 0.0 0.0 0.0 0.0 0.0 0.0
0.0 0.0 0.0 0.0 0.0 0.0 0.0 0.0
0.0 0.0 0.0 0.0 0.0 0.0 0.0 0.0
0.0 0.0 0.0 0.0 0.0 0.0 0.0 0.0
0.0 0.0 0.0 0.0 0.0 0.0 0.0 0.0
0.0 0.0 0.0 0.0 0.0 0.0 0.0 0.0
0.0 0.0 0.0 0.0 0.0 0.0 0.0 0.0
0.0 0.0 0.0 0.0 0.0 0.0 0.0 0.0
0.0 0.0 0.0 0.0 0.0 0.0 0.0 0.0
0.0 0.0 0.0 0.0 0.0 0.0 0.0 0.0
0.0 0.0 0.0 0.0 0.0 0.0 0.0 0.0
0.0 0.0 0.0 0.0 0.0 0.0 0.0 0.0
0.0 0.0 0.0 0.0 0.0 0.0 0.0 0.0
0.0 0.0 0.0 0.0 0.0 0.0 0.0 0.0
0.0 0.0 0.0 0.0 0.0 0.0 0.0 0.0
0.0 0.0 0.0 0.0 0.0 0.0 0.0 0.0
0.0 0.0 0.0 0.0 0.0 0.0 0.0 0.0
0.0 0.0 0.0 0.0 0.0 0.0 0.0 0.0
0.0 0.0 0.0 0.0 0.0 0.0 0.0 0.0
0.0 0.0 0.0 0.0 0.0 0.0 0.0 0.0
0.0 0.0 0.0 0.0 0.0 0.0 0.0 0.0
0.0 0.0 0.0 0.0 0.0 0.0 0.0 0.0
0.0 0.0 0.0 0.0 0.0 0.0 0.0 0.0
0.0 0.0 0.0 0.0 0.0 0.0 0.0 0.0
0.0 0.0 0.0 0.0 0.0 0.0 0.0 0.0
0.0 0.0 0.0 0.0 0.0 0.0 0.0 0.0
0.0 0.0 0.0 0.0 0.0 0.0 0.0 0.0
00000000: 0000 0000 0000 0000 0000 0000 0000 0000
00000010: 0000 0000 0000 0000 0000 0000 0000 0000
00000020: 0000 0000 0000 0000 0000 0000 0000 0000
00000030: 0000 0000 0000 0000 0000 0000 0000 0000
00000040: 0000 0000 0000 0000 0000 0000 0000 0000
00000050: 0000 0000 0000 0000 0000 0000 0000 0000
00000060: 0000 0000 0000 0000 0000 0000 0000 0000
00000070: 0000 0000 0000 0000 0000 0000 0000 0000
00000080: 0000 0000 0000 0000 0000 0000 0000 0000
00000090: 0000 0000 0000 0000 0000 0000 0000 0000
000000a0: 0000 0000 0000 0000 0000 0000 0000 0000
000000b0: 0000 0000 0000 0000 0000 0000 0000 0000
000000c0: 0000 0000 0000 0000 0000 0000 0000 0000
000000d0: 0000 0000 0000 0000 0000 0000 0000 0000
000000e0: 0000 0000 0000 0000 0000 0000 0000 0000
000000f0: 0000 0000 0000 0000 0000 0000 0000 0000
00000100: 0000 0000 0000 0000 0000 0000 0000 0000
00000110: 0000 0000 0000 0000 0000 0000 0000 0000
00000120: 0000 0000 0000 0000 0000 0000 0000 0000
00000130: 0000 0000 0000 0000 0000 0000 0000 0000
00000140: 0000 0000 0000 0000 0000 0000 0000 0000
00000150: 0000 0000 0000 0000 0000 0000 0000 0000
00000160: 0000 0000 0000 0000 0000 0000 0000 0000
00000170: 0000 0000 0000 0000 0000 0000 0000 0000
00000180: 0000 0000 0000 0000 0000 0000 0000 0000
00000190: 0000 0000 0000 0000 0000 0000 0000 0000
000001a0: 0000 0000 0000 0000 0000 0000 0000 0000
000001b0: 0000 0000 0000 0000 0000 0000 0000 0000
000001c0: 0000 0000 0000 0000 0000 0000 0000 0000
000001d0: 0000 0000 0000 0000 0000 0000 0000 0000
000001e0: 0000 0000 0000 0000 0000 0000 0000 0000
000001f0: 0000 0000 0000 0000 0000 0000 0000 0000
00000200: 0000 0000 0000 0000 0000 0000 0000 0000
00000210: 0000 0000 0000 0000 0000 0000 0000 0000
00000220: 0000 0000 0000 0000 0000 0000 0000 0000
00000230: 0000 0000 0000 0000 0000 0000 0000 0000
00000240: 0000 0000 0000 0000 0000 0000 0000 0000
00000250: 0000 0000 0000 0000 0000 0000 0000 0000
00000260: 0000 0000 0000 0000 0000 0000 0000 0000
00000270: 0000 0000 0000 0000 0000 0000 0000 0000
00000280: 0000 0000 0000 0000 0000 0000 0000 0000
00000290: 0000 0000 0000 0000 0000 0000 0000 0000
000002a0: 0000 0000 0000 0000 0000 0000 0000 0000
000002b0: 0000 0000 0000 0000 0000 0000 0000 0000
000002c0: 0000 0000 0000 0000 0000 0000 0000 0000
000002d0: 0000 0000 0000 0000 0000 0000 0000 0000
000002e0: 0000 0000 0000 0000 0000 0000 0000 0000
000002f0: 0000 0000 0000 0000 0000 0000 0000 0000
00000300: 0000 0000 0000 0000 0000 0000 0000 0000
00000310: 0000 0000 0000 0000 0000 0000 0000 0000
00000320: 0000 0000 0000 0000 0000 0000 0000 0000
00000330: 0000 0000 0000 0000 0000 0000 0000 0000
00000340: 0000 0000 0000 0000 0000 0000 0000 0000
00000350: 0000 0000 0000 0000 0000 0000 0000 0000
00000360: 0000 0000 0000 0000 0000 0000 0000 0000
00000370: 0000 0000 0000 0000 0000 0000 0000 0000
00000380: 0000 0000 0000 0000 0000 0000 0000 0000
00000390: 0000 0000 0000 0000 0000 0000 0000 0000
000003a0: 0000 0000 0000 0000 0000 0000 0000 0000
000003b0: 0000 0000 0000 0000 0000 0000 0000 0000
000003c0: 0000 0000 0000 0000 0000 0000 0000 0000
000003d0: 0000 0000 0000 0000 0000 0000 0000 0000
000003e0: 0000 0000 0000 0000 0000 0000 0000 0000
000003f0: 0000 0000 0000 0000 0000 0000 0000 0000

network_body._body_endoder.seq_layers.2.weight f4 [256, 256]
-0.078463264 0.047959376 0.02305209 -0.06398499 -0.06976575 -0.09990576 -0.078041136 -0.024427671
0.058921527 -0.004152788 -0.04228899 -0.022178633 0.040947545 -0.0012875225 0.04813951 -0.06729931
0.015018389 0.028512673 0.106481686 -0.023570467 -0.07965542 -0.028044097 0.08064143 -0.054878548
-0.007053288 -0.03696076 -0.05516779 0.04498313 0.14444725 -0.07679885 0.075688094 0.0041336315
-0.0034231886 0.021847637 0.037945867 0.09661403 -0.0030848503 0.051543437 -0.012869595 0.0054781134
-0.072666734 -0.045433465 0.058675535 0.019407362 -0.009146485 -0.04216791 -0.10817654 -0.11929362
0.013802528 -0.015156563 0.03636617 -0.0011724844 0.08628019 -0.011858385 -0.08144847 0.084615804
0.0076594884 -0.043234743 -0.004726474 -0.0014474563 0.016212415 -0.023601444 0.090166695 -0.0005044281
-0.026142722 0.065160856 0.025493598 -0.014457093 0.03342212 0.012720012 -0.036005937 0.14909492
0.048923384 0.0074518607 0.044126526 0.0413132 0.019755496 -0.07507248 -0.031683207 0.0007839064
-0.06275928 -0.07729676 -0.07832349 -0.024740806 -0.04565885 0.055230536 -0.029094193 0.05074895
-0.088857 0.035204843 -0.040447228 -0.03478407 -0.07379613 -0.009242499 0.020742116 -0.054356124
0.011100403 0.04864238 0.08606812 -0.012737774 0.012480693 0.015415568 0.052553646 0.044592634
-0.023400785 -0.060297795 0.008169489 -0.08720834 0.038052842 -0.04984952 0.024141468 0.094773285
0.07561874 -0.029941259 0.08387926 -0.028625762 -0.020419484 0.07799159 0.06840078 -0.035519104
-0.03509588 -0.0074650277 -0.010347736 0.028366111 0.0051856274 -0.0782373 -0.006696863 0.073665
-0.03301191 0.030514354 0.09325789 -0.046702866 -0.012944206 0.03049742 0.12176424 -0.0772427
-0.08036508 0.009391454 -0.07175007 0.08173382 0.041678246 0.12982115 0.056502692 -0.010142918
0.120389834 0.01899922 0.012607351 0.035145655 -0.04013795 0.1902403 0.07618355 0.020521851
0.08987166 -0.15634114 -0.1434354 0.015486903 0.032733325 0.0403193 0.112844564 -0.031232102
-0.0059839496 -0.012665115 -0.009263345 0.030242119 0.05142772 -0.11125983 -0.1116952 -0.014226985
-0.06834446 -0.024640981 -0.03198422 -0.03979327 0.031352617 0.053778946 0.06586366 0.114374384
-0.010680786 -0.072839946 -0.017422872 -0.0059300624 -0.021580838 0.03504336 -0.03197589 0.08599845
0.048208904 -0.12226406 0.12309927 0.008443363 0.03958205 -0.056888506 0.075263344 0.100474216
0.035260502 -0.06171536 -0.043294232 -0.097950414 0.034155287 -0.028394515 0.050420914 0.043869007
0.0201931 -0.049932435 0.07921795 0.016460339 -0.06536693 0.046151303 0.010283151 0.037972175
-0.018452138 -0.077129304 -0.016055766 -0.06443859 0.07969113 -0.09342306 0.092159145 -0.004186885
0.06854237 0.029445881 -0.06538013 0.005711996 -0.049774926 -0.027431779 0.03670011 0.077941
-0.017518444 0.07587289 -0.11461215 -0.060815636 -0.042890243 -0.018647552 -0.057528067 0.026906995
0.022288991 -0.041297883 0.046288386 0.07088555 0.115277 0.02202788 -0.012709946 0.013902853
-0.09723396 -0.015967006 -0.014062191 0.056802064 -0.082691945 0.0005481726 -0.08092083 0.032214407
-0.0045020515 0.07107547 0.0186228 -0.0081020435 0.033369366 -0.027722152 -0.022469547 0.032546263
00000000: 59b1 a0bd 0d71 443d bdd7 bc3c 900a 83bd
00000010: 58e1 8ebd 649b ccbd 08d4 9fbd 8a1c c8bc
00000020: b357 713d 1c14 88bb 3837 2dbd f7af b5bc
00000030: 9db8 273d 16c2 a8ba ef2d 453d 38d4 89bd
00000040: b00f 763c 6993 e93c 1213 da3d da16 c1bc
00000050: 6122 a3bd bcbc e5bc 5627 a53d 54c8 60bd
00000060: 451f e7bb 2a64 17bd 9ff7 61bd 3b40 383d
00000070: fbe9 133e b748 9dbd 5c02 9b3d 6a73 873b
00000080: 9357 60bb d1f9 b23c 206d 1b3d 94dd c53d
00000090: 332b 4abb 361f 533d feda 52bc bf81 b33b
000000a0: 4cd2 94bd 7118 3abd c255 703d 30fc 9e3c
000000b0: 23db 15bc 42b8 2cbd a98b ddbd 3750 f4bd
000000c0: 0024 623c 3c53 78bc b1f4 143d 0cae 99ba
000000d0: abb3 b03d ac49 42bc 75ce a6bd 0d4b ad3d
000000e0: 72fc fa3b ea16 31bd 8ae0 9abb 93b8 bdba
000000f0: e6cf 843c d157 c1bc 51a9 b83d 993b 04ba
00000100: 4329 d6bc 0e73 853d f3d7 d03c 71dd 6cbc
00000110: a2e5 083d 9967 503c f67a 13bd 57ac 183e
00000120: e363 483d bd2e f43b 04be 343d 0838 293d
00000130: 47d6 a13c 9abf 99bd 40c6 01bd 117f 4d3a
00000140: f087 80bd c44d 9ebd 1168 a0bd 3bad cabc
00000150: c604 3bbd 6a39 623d f256 eebc 22de 4f3d
00000160: a9fa b5bd f432 103d feab 25bd be79 0ebd
00000170: 6d22 97bd da6d 17bc 5feb a93c 87a4 5ebd
00000180: 77de 353c 3b3d 473d 7c44 b03d 19b2 50bc
00000190: d27b 4c3c 9491 7c3c 7e42 573d c4a6 363d
000001a0: 01b3 bfbc d2fa 76bd 52d9 053c 499a b2bd
000001b0: 4cdd 1b3d 032f 4cbd 54c4 c53c 7f18 c23d
000001c0: ffdd 9a3d 5f47 f5bc e4c8 ab3d 9380 eabc
000001d0: c346 a7bc 0eba 9f3d b515 8c3d 7b7c 11bd
000001e0: b3c0 0fbd 319d f4bb 8d89 29bc 0c60 e83c
000001f0: 32ec a93b e13a a0bd 5c71 dbbb addd 963d
00000200: 7f37 07bd 3df9 f93c fefd be3d 814b 3fbd
00000210: ef13 54bc bad5 f93c 885f f93d 6c31 9ebd
00000220: 7296 a4bd 9dde 193c b3f1 92bd 1064 a73d
00000230: cfb6 2a3d d6ef 043e 5e6f 673d 7b2e 26bc
00000240: f28e f63d 41a4 9b3c 108f 4e3c e4f4 0f3d
00000250: b167 24bd 5ace 423e 1f06 9c3d 711d a83c
00000260: a20e b83d e417 20be bbe0 12be c7bc 7d3c
00000270: 6113 063d da25 253d 0d1b e73d 77da ffbc
00000280: 0215 c4bb 5881 4fbc 49c5 17bc 52be f73c
00000290: dfa5 523d 32dc e3bd 74c0 e4bd 4d18 69bc
000002a0: 2ef8 8bbd e2db c9bc e301 03bd 45fe 22bd
000002b0: 9a6b 003d 5047 5c3d 87e3 863d 1e3d ea3d
000002c0: 77fe 2ebc 1c2d 95bd 69ba 8ebc f850 c2bb
000002d0: 4cca b0bc a089 0f3d 27f9 02bd f51f b03d
000002e0: b376 453d 9465 fabd 781b fc3d 0856 0a3c
000002f0: ca20 223d ec03 69bd ab23 9a3d 6dc5 cd3d
00000300: 516d 103d 3fc9 7cbd 4b55 31bd 3a9a c8bd
00000310: 6ae6 0b3d 9d9b e8bc 2986 4e3d fdaf 333d
00000320: 006c a53c f485 4cbd 053d a23d d5d7 863c
00000330: 19df 85bd 2609 3d3d a97a 283c b688 1b3d
00000340: f028 97bc f8f5 9dbd 6287 83bc 61f8 83bd
00000350: 1a35 a33d 9754 bfbd efbd bc3d 2332 89bb
00000360: f15f 8c3d 7d38 f13c 05e6 85bd b22b bb3b
00000370: cbe0 4bbd 9cb8 e0bc db52 163d 889f 9f3d
00000380: d782 8fbc 3f63 9b3d c6b9 eabd d119 79bd
00000390: aead 2fbd c0c2 98bc 8da2 6bbd 0f6c dc3c
000003a0: 6797 b63c f827 29bd e498 3d3d 712c 913d
000003b0: 5916 ec3d d073 b43c 613d 50bc cbc8 633c
000003c0: 9922 c7bd 3dcd 82bc 1b65 66bc 48a9 683d
000003d0: 655a a9bd 3eb3 0f3a d2b9 a5bd 41f3 033d
000003e0: f285 93bb 0490 913d d88e 983c 6fbe 04bc
000003f0: 51ae 083d 9119 e3bc 0e12 b8bc 3b4f 053d

network_body._body_endoder.seq_layers.2.bias f4 [256]
0.0 0.0 0.0 0.0 0.0 0.0 0.0 0.0
0.0 0.0 0.0 0.0 0.0 0.0 0.0 0.0
0.0 0.0 0.0 0.0 0.0 0.0 0.0 0.0
0.0 0.0 0.0 0.0 0.0 0.0 0.0 0.0
0.0 0.0 0.0 0.0 0.0 0.0 0.0 0.0
0.0 0.0 0.0 0.0 0.0 0.0 0.0 0.0
0.0 0.0 0.0 0.0 0.0 0.0 0.0 0.0
0.0 0.0 0.0 0.0 0.0 0.0 0.0 0.0
0.0 0.0 0.0 0.0 0.0 0.0 0.0 0.0
0.0 0.0 0.0 0.0 0.0 0.0 0.0 0.0
0.0 0.0 0.0 0.0 0.0 0.0 0.0 0.0
0.0 0.0 0.0 0.0 0.0 0.0 0.0 0.0
0.0 0.0 0.0 0.0 0.0 0.0 0.0 0.0
0.0 0.0 0.0 0.0 0.0 0.0 0.0 0.0
0.0 0.0 0.0 0.0 0.0 0.0 0.0 0.0
0.0 0.0 0.0 0.0 0.0 0.0 0.0 0.0
0.0 0.0 0.0 0.0 0.0 0.0 0.0 0.0
0.0 0.0 0.0 0.0 0.0 0.0 0.0 0.0
0.0 0.0 0.0 0.0 0.0 0.0 0.0 0.0
0.0 0.0 0.0 0.0 0.0 0.0 0.0 0.0
0.0 0.0 0.0 0.0 0.0 0.0 0.0 0.0
0.0 0.0 0.0 0.0 0.0 0.0 0.0 0.0
0.0 0.0 0.0 0.0 0.0 0.0 0.0 0.0
0.0 0.0 0.0 0.0 0.0 0.0 0.0 0.0
0.0 0.0 0.0 0.0 0.0 0.0 0.0 0.0
0.0 0.0 0.0 0.0 0.0 0.0 0.0 0.0
0.0 0.0 0.0 0.0 0.0 0.0 0.0 0.0
0.0 0.0 0.0 0.0 0.0 0.0 0.0 0.0
0.0 0.0 0.0 0.0 0.0 0.0 0.0 0.0
0.0 0.0 0.0 0.0 0.0 0.0 0.0 0.0
0.0 0.0 0.0 0.0 0.0 0.0 0.0 0.0
0.0 0.0 0.0 0.0 0.0 0.0 0.0 0.0
00000000: 0000 0000 0000 0000 0000 0000 0000 0000
00000010: 0000 0000 0000 0000 0000 0000 0000 0000
00000020: 0000 0000 0000 0000 0000 0000 0000 0000
00000030: 0000 0000 0000 0000 0000 0000 0000 0000
00000040: 0000 0000 0000 0000 0000 0000 0000 0000
00000050: 0000 0000 0000 0000 0000 0000 0000 0000
00000060: 0000 0000 0000 0000 0000 0000 0000 0000
00000070: 0000 0000 0000 0000 0000 0000 0000 0000
00000080: 0000 0000 0000 0000 0000 0000 0000 0000
00000090: 0000 0000 0000 0000 0000 0000 0000 0000
000000a0: 0000 0000 0000 0000 0000 0000 0000 0000
000000b0: 0000 0000 0000 0000 0000 0000 0000 0000
000000c0: 0000 0000 0000 0000 0000 0000 0000 0000
000000d0: 0000 0000 0000 0000 0000 0000 0000 0000
000000e0: 0000 0000 0000 0000 0000 0000 0000 0000
000000f0: 0000 0000 0000 0000 0000 0000 0000 0000
00000100: 0000 0000 0000 0000 0000 0000 0000 0000
00000110: 0000 0000 0000 0000 0000 0000 0000 0000
00000120: 0000 0000 0000 0000 0000 0000 0000 0000
00000130: 0000 0000 0000 0000 0000 0000 0000 0000
00000140: 0000 0000 0000 0000 0000 0000 0000 0000
00000150: 0000 0000 0000 0000 0000 0000 0000 0000
00000160: 0000 0000 0000 0000 0000 0000 0000 0000
00000170: 0000 0000 0000 0000 0000 0000 0000 0000
00000180: 0000 0000 0000 0000 0000 0000 0000 0000
00000190: 0000 0000 0000 0000 0000 0000 0000 0000
000001a0: 0000 0000 0000 0000 0000 0000 0000 0000
000001b0: 0000 0000 0000 0000 0000 0000 0000 0000
000001c0: 0000 0000 0000 0000 0000 0000 0000 0000
000001d0: 0000 0000 0000 0000 0000 0000 0000 0000
000001e0: 0000 0000 0000 0000 0000 0000 0000 0000
000001f0: 0000 0000 0000 0000 0000 0000 0000 0000
00000200: 0000 0000 0000 0000 0000 0000 0000 0000
00000210: 0000 0000 0000 0000 0000 0000 0000 0000
00000220: 0000 0000 0000 0000 0000 0000 0000 0000
00000230: 0000 0000 0000 0000 0000 0000 0000 0000
00000240: 0000 0000 0000 0000 0000 0000 0000 0000
00000250: 0000 0000 0000 0000 0000 0000 0000 0000
00000260: 0000 0000 0000 0000 0000 0000 0000 0000
00000270: 0000 0000 0000 0000 0000 0000 0000 0000
00000280: 0000 0000 0000 0000 0000 0000 0000 0000
00000290: 0000 0000 0000 0000 0000 0000 0000 0000
000002a0: 0000 0000 0000 0000 0000 0000 0000 0000
000002b0: 0000 0000 0000 0000 0000 0000 0000 0000
000002c0: 0000 0000 0000 0000 0000 0000 0000 0000
000002d0: 0000 0000 0000 0000 0000 0000 0000 0000
000002e0: 0000 0000 0000 0000 0000 0000 0000 0000
000002f0: 0000 0000 0000 0000 0000 0000 0000 0000
00000300: 0000 0000 0000 0000 0000 0000 0000 0000
00000310: 0000 0000 0000 0000 0000 0000 0000 0000
00000320: 0000 0000 0000 0000 0000 0000 0000 0000
00000330: 0000 0000 0000 0000 0000 0000 0000 0000
00000340: 0000 0000 0000 0000 0000 0000 0000 0000
00000350: 0000 0000 0000 0000 0000 0000 0000 0000
00000360: 0000 0000 0000 0000 0000 0000 0000 0000
00000370: 0000 0000 0000 0000 0000 0000 0000 0000
00000380: 0000 0000 0000 0000 0000 0000 0000 0000
00000390: 0000 0000 0000 0000 0000 0000 0000 0000
000003a0: 0000 0000 0000 0000 0000 0000 0000 0000
000003b0: 0000 0000 0000 0000 0000 0000 0000 0000
000003c0: 0000 0000 0000 0000 0000 0000 0000 0000
000003d0: 0000 0000 0000 0000 0000 0000 0000 0000
000003e0: 0000 0000 0000 0000 0000 0000 0000 0000
000003f0: 0000 0000 0000 0000 0000 0000 0000 0000
