Foosbots_working/results/train1/Foosbots_working/checkpoint.pt (torch, 451487 bytes, 36 tensors)

network_body._body_endoder.seq_layers.0.weight f4 [128, 10]
0.44582802 0.05772955 0.27258497 0.12241267 -0.38444874 0.39471668 0.6963103 -0.13087985
0.46161938 -0.07012154 0.104310505 0.17488973 -0.0118959015 -0.22324201 -0.31799597 0.35512635
0.48000404 0.25633547 -0.048646085 0.15362811 -0.17212078 -0.155025 0.05146191 -0.34798023
0.1415424 -0.25461364 -0.19766463 -0.280643 0.17347553 0.43503582 0.24613667 -0.14137784
0.2059264 0.18342435 -0.2331403 -0.59078443 0.46506545 0.3906725 0.29295063 0.17702197
-0.13700645 -0.44241735 0.020060286 0.19643155 -0.17877774 0.15459658 0.08210299 0.06872819
0.6819763 0.55883753 -0.0689429 0.732156 -0.023342501 0.108002074 -0.17836806 0.32087702
-0.0030250195 0.20771505 0.4345806 0.24294032 0.07812433 0.21075916 0.13098599 -0.36002964
0.23682414 -0.1087497 -0.787444 0.4082306 0.3712634 0.46186718 0.64195776 0.1370396
-0.34794506 0.17824125 -0.028030558 -1.0135804 0.06974503 -0.2924315 0.21925636 0.1560856
0.4778586 0.35002896 0.18527615 -0.4394163 -0.107454 -0.44713926 0.18799154 -0.12370846
-0.3056626 -0.4096513 -0.024578847 -0.012396749 -0.19933139 -0.5789623 -0.27431583 -0.30143535
-0.070743755 -0.016861217 -0.07920457 -0.33722916 0.013371255 0.29466075 -0.042924307 0.15433042
-0.29601553 0.31784716 0.14839633 -0.05930514 -0.41232836 0.05738551 -0.20032683 -0.057810564
-0.3247497 0.1747321 -0.0030726697 0.31754327 0.36917302 0.11183511 -0.650529 0.24627657
0.07271215 0.22556172 -0.21714537 -0.0417759 -0.027502028 0.68460155 0.03666626 0.29681474
-0.5366246 0.10663068 0.5240203 0.13305166 0.06733775 -0.19764835 0.0012410883 0.19846782
0.31521192 -0.1977291 -0.3876327 -0.22956863 -0.23732133 -0.13762243 0.6446415 0.17271145
0.54060024 0.03960058 -0.8958215 -0.40020493 -0.30557737 0.57718265 -0.07745135 -0.3138551
0.08718469 0.32216686 -0.5839104 -0.003919298 0.14195043 -0.3804314 -0.03723654 0.38715065
-0.40809014 0.011345231 -0.5522113 -0.28304955 0.3660008 0.14391889 0.4709653 0.64329624
0.31926283 -0.39268184 0.50013673 -0.13422613 0.32255283 0.5673421 0.092969924 -0.039403994
-0.047050368 0.25431526 -0.047938734 0.0021877165 0.10973456 -0.25151488 -0.109294884 0.14879209
-0.5005735 -0.9237444 0.29469228 -0.24507588 0.44268492 -0.21164142 -0.111742795 0.49834895
0.16590165 -0.1558665 0.25738698 0.36279115 0.22522719 0.28303388 -0.01170799 0.7341641
-0.026426954 0.04698764 0.58187217 0.013273443 -0.4851494 -0.6420117 0.065091796 -0.18294746
0.520549 0.17470747 0.06187202 -0.32851827 -0.39375508 -0.31207702 -0.015804822 0.7276
0.5687089 0.1097663 -0.18780209 -0.2602645 -0.4693867 -0.18822443 -0.09035094 0.66865337
-0.43923193 -0.018515965 0.02553262 -0.08971841 0.07717937 0.100199014 0.2986182 -0.15675832
0.32739028 0.29404446 0.017892087 -0.039178208 -0.07131318 -0.4610253 0.06734599 -0.12220767
0.1520905 -0.10333096 -0.59186774 -0.11248924 0.2293831 0.14657849 -0.18248203 0.3458854
0.23928459 0.22359028 -0.09369189 -0.04719278 0.046623636 0.18789357 -0.08296498 0.29343566
00000000: 9243 e43e d275 6c3d 4290 8b3e 7eb3 fa3d
00000010: 77d6 c4be 4e18 ca3e 6441 323f 5e05 06be
00000020: 6059 ec3e e29b 8fbd bfa0 d53d 4b16 333e
00000030: 07e7 42bc 8e99 64be 5ed0 a2be 1fd3 b53e
00000040: 17c3 f53e 673e 833e 1e41 47bd b050 1d3e
00000050: 6e40 30be e0be 1ebe b9c9 523d 772a b2be
00000060: 7ef0 103e b85c 82be 9968 4abe 70b0 8fbe
00000070: 92a3 313e 04bd de3e 400b 7c3e 5ac5 10be
00000080: 5fde 523e 98d3 3b3e 55bc 6ebe a63d 17bf
00000090: 0f1d ee3e 3a06 c83e a0fd 953e 3f45 353e
000000a0: 6b4b 0cbe 8784 e2be 7855 a43c 5a25 493e
000000b0: 8311 37be 914e 1e3e 9d25 a83d 5ec1 8c3d
000000c0: 0096 2e3f fa0f 0f3f ef31 8dbd 936e 3b3f
000000d0: c638 bfbc 3130 dd3d 1ea6 36be fe49 a43e
000000e0: 683f 46bb 41b3 543e 5981 de3e 59c5 783e
000000f0: a6ff 9f3d 40d1 573e 3121 063e ce55 b8be
00000100: 0782 723e 2ab8 debd ee95 49bf 9a03 d13e
00000110: 3d16 be3e db79 ec3e 5857 243f 1c54 0c3e
00000120: db25 b2be e084 363e 57a0 e5bc 01bd 81bf
00000130: 7bd6 8e3d 95b9 95be bd84 603e e7d4 1f3e
00000140: e2a9 f43e ff36 b33e 08b9 3d3e 2cfb e0be
00000150: d810 dcbd 70ef e4be db80 403e dc5a fdbd
00000160: cf7f 9cbe d1bd d1be 9459 c9bc bc1b 4bbc
00000170: 871d 4cbe e036 14bf 2073 8cbe bc55 9abe
00000180: 1ae2 90bd 8920 8abc 0136 a2bd 4da9 acbe
00000190: 1c13 5b3c c6dd 963e 66d1 2fbd cb08 1e3e
000001a0: 598f 97be ddbc a23e 35f5 173e f2e9 72bd
000001b0: b41c d3be 120d 6b3d 7a22 4dbe c5ca 6cbd
000001c0: 9845 a6be f9ec 323e d85e 49bb 0895 a23e
000001d0: 3f04 bd3e ce09 e53d 1289 26bf ed2f 7c3e
000001e0: 1cea 943d a7f9 663e 5b5b 5ebe 351d 2bbd
000001f0: ef4b e1bc 0c42 2f3f 5c2f 163d 1af8 973e
00000200: 3b60 09bf 3061 da3d 3226 063f b23e 083e
00000210: 60e8 893d 5464 4abe 03ac a23a 263b 4b3e
00000220: 7563 a13e 7f79 4abe cb77 c6be 0a14 6bbe
00000230: 5d04 73be e5ec 0cbe 3a07 253f 45db 303e
00000240: c764 0a3f 3834 223d 8f54 65bf a9e7 ccbe
00000250: a374 9cbe 3ec2 133f d09e 9ebd 9eb1 a0be
00000260: e38d b23d 0ef3 a43e 277b 15bf 746d 80bb
00000270: 745b 113e e8c7 c2be 5885 18bd 9c38 c63e
00000280: 31f1 d0be 59e1 393c b85d 0dbf dfeb 90be
00000290: 7564 bb3e 795f 133e 5d22 f13e 10af 243f
000002a0: 6b76 a33e 980d c9be f608 003f 9372 09be
000002b0: a525 a53e 553d 113f 0467 be3d 1566 21bd
000002c0: e3b7 40bd 9c35 823e 685b 44bd cb5f 0f3b
000002d0: 83bc e03d 8fc6 80be ffd5 dfbd f45c 183e
000002e0: 9625 00bf 837a 6cbf e8e1 963e 2cf5 7abe
000002f0: 99a7 e23e 87b8 58be 68d9 e4bd 9827 ff3e
00000300: 1fe2 293e 789b 1fbe 3ac8 833e c3bf b93e
00000310: f5a1 663e d1e9 903e dfd2 3fbc 2ef2 3b3f
00000320: 577d d8bc 1d76 403d 93f5 143f db78 593c
00000330: 8165 f8be e15a 24bf d94e 853d 9456 3bbe
00000340: b342 053f 84e6 323e 846d 7d3d 8c33 a8be
00000350: 449a c9be 8fc8 9fbe 1d79 81bc fe43 3a3f
00000360: e896 113f 27cd e03d 314f 40be 6341 85be
00000370: 7453 f0be e8bd 40be ea09 b9bd de2c 2b3f
00000380: 02e3 e0be cbae 97bc c929 d13c 49be b7bd
00000390: 3810 9e3d 2435 cd3d 7ce4 983e 4185 20be
000003a0: b39f a73e ff8c 963e 6d92 923c 5479 20bd
000003b0: a50c 92bd 820b ecbe b2ec 893d 0448 fabd
000003c0: 9dbd 1b3e 2f9f d3bd a584 17bf c260 e6bd
000003d0: 67e3 6a3e ac18 163e 92dc 3abe e417 b13e
000003e0: 0507 753e daf4 643e 89e1 bfbd 374d 41bd
000003f0: 6df8 3e3d 2c67 403e 8be9 a9bd 333d 963e

network_body._body_endoder.seq_layers.0.bias f4 [128]
-0.007997157 -0.049112104 0.021530058 -0.056367733 -0.027813338 0.02316571 -0.008982733 -0.011703709
-0.007629226 -0.014656324 -0.028574206 0.0038908229 0.011405898 -0.06040858 -0.01795746 -0.002469232
0.018120112 -0.008661266 -0.022147257 -0.014805193 0.008069683 -0.023795389 -0.02425114 -0.072814226
-0.055325065 0.031018429 -0.047005832 -0.008750103 -0.04906309 0.001672126 -0.015230943 -0.033547588
-0.013524188 -0.060383372 0.013542752 0.02955023 -0.01875051 0.021553416 -0.031103289 -0.027980598
-0.0037022813 -0.042071015 -0.016796742 -0.019666625 -0.0067567257 -0.0027126875 -0.042289287 0.0062766615
-0.006406703 -0.0067159245 0.005478336 -0.0032521624 -0.050515793 0.032459337 -0.05554389 0.00015454747
-0.0030426034 0.0079457 -0.0028762324 -0.015008315 -0.024163531 -0.011693715 0.024520501 -0.0063311704
0.016076792 0.036811605 -0.004202271 -0.0019347634 -0.00039052143 -0.033283174 -0.051395804 -0.02600108
-0.040055703 -0.043310717 0.0064297966 -0.012735478 -0.0013479384 -0.013679381 0.023290114 0.0059502213
-0.035602752 -0.027468327 0.0348445 0.023450231 0.004005558 -0.0006183996 -0.019296456 -0.033300824
0.019914422 -0.040273644 0.0015161523 -0.022454638 0.009508106 0.024740985 -0.041977163 -0.040564276
0.0038720476 0.024158377 -0.01075464 -0.018686783 -0.0021662598 -0.016621599 -0.04714755 -0.0029819685
-0.028263822 0.0060407044 -0.014343309 -0.038369387 -0.0072927666 0.022777144 -0.042872835 -0.016255824
-0.024061844 0.015091207 -0.005390584 -0.007640748 0.0070740264 -0.03738102 -0.0040782792 -0.044655383
0.0148673095 -0.015702188 0.0018840365 -0.020492706 -0.036214046 0.015547614 -0.015415202 -0.004445548
00000000: 8206 03bc c629 49bd ce5f b03c dae1 66bd
00000010: ccd8 e3bc 04c6 bd3c 502c 13bc eac0 3fbc
00000020: 96fe f9bb 1421 70bc 7414 eabc 2dfd 7e3b
00000030: cedf 3a3c fd6e 77bd 861b 93bc d7d2 21bb
00000040: a170 943c fce7 0dbc 2a6e b5bc 7b91 72bc
00000050: b436 043c 8cee c2bc 54aa c6bc a01f 95bd
00000060: 899c 62bd 5c1a fe3c 3089 40bd 985c 0fbc
00000070: 61f6 48bd 3d2b db3a 358b 79bc 3269 09bd
00000080: 8e94 5dbc 8e54 77bd 6be2 5d3c 5313 f23c
00000090: ab9a 99bc ca90 b03c 53cc febc 9137 e5bc
000000a0: f9a1 72bb a852 2cbd 5299 89bc e71b a1bc
000000b0: 8667 ddbb 58c7 31bb 8837 2dbd 74ac cd3b
000000c0: 52ef d1bb 4211 dcbb 9d83 b33b 3b22 55bb
000000d0: a6e9 4ebd 15f4 043d fd81 63bd 050e 2239
000000e0: 6a66 47bb ae2e 023c 2c7f 3cbb 70e5 75bc
000000f0: 99f2 c5bc ff96 3fbc 38df c83c b575 cfbb
00000100: 7ab3 833c c4c7 163d 34b3 89bb e397 fdba
00000110: e6be ccb9 f053 08bd 6884 52bd 3800 d5bc
00000120: 7311 24bd 9466 31bd 0bb1 d23b 77a8 50bc
00000130: 4fad b0ba 7c1f 60bc e9ca be3c 13fa c23b
00000140: 31d4 11bd 4205 e1bc 1bb9 0e3d b31a c03c
00000150: 0e41 833b 181c 22ba 9a13 9ebc 7266 08bd
00000160: 9223 a33c faf5 24bd a1b9 c63a caf2 b7bc
00000170: e3c7 1b3c 9bad ca3c 3ff0 2bbd ba26 26bd
00000180: 2ec2 7d3b cae7 c53c 3b34 30bc 0615 99bc
00000190: cff7 0dbb 052a 88bc ca1d 41bd 216d 43bb
000001a0: 8889 e7bc 1af1 c53b 3300 6bbc 3829 1dbd
000001b0: 29f8 eebb 2297 ba3c 6d9b 2fbd ef2a 85bc
000001c0: 581d c5bc 1c41 773c 7fa3 b0bb 3d5f fabb
000001d0: 3ccd e73b d71c 19bd 16a3 85bb 90e8 36bd
000001e0: 0496 733c e0a1 80bc c6f1 f63a 52e0 a7bc
000001f0: 2e55 14bd 6bbb 7e3c 0b90 7cbc f6ab 91bb

network_body._body_endoder.seq_layers.2.weight f4 [128, 128]
-0.14263418 -0.041476768 -0.027177967 -0.0065633873 -0.10316388 0.13930793 0.0034085277 -0.11539062
0.042968065 0.04308127 -0.034707494 0.11070877 0.016558122 -0.052413072 -0.17527467 0.047090743
-0.16726667 -0.21150209 -0.11826188 -0.010307325 -0.06369545 0.0781329 -0.00073120446 0.005777432
-0.08173131 -0.08041901 -0.04008066 0.037410088 -0.19703868 -0.035343923 -0.015504988 0.016128395
-0.06322227 -0.03677457 0.17183572 -0.07382156 0.018208724 0.19400726 -0.10978661 0.05758451
-0.09699534 -0.06832419 0.0019130569 0.12928952 -0.22178493 0.007546592 0.052411195 0.0044357884
-0.023683447 0.12725456 0.07401598 0.033711456 0.08357671 0.11400455 0.08421607 -0.117688656
-0.038029846 -0.048580777 -0.045134086 -0.018679876 -0.14262852 -0.041778196 -0.16065265 -0.09094601
0.019136203 0.20622164 -0.1401269 0.083357714 -0.08823217 0.054950766 -0.0948294 -0.036903918
-0.0006086424 -0.021998845 0.04297432 -0.024219774 0.046448182 -0.01146878 -0.02260668 0.0752608
-0.022959353 0.06441558 -0.06440068 0.08613048 -0.008017485 0.10390699 -0.03447365 0.08782904
-0.014326755 0.09272193 -0.05562523 -0.12915297 -0.09284065 -0.0545536 0.056656566 -0.0045897295
-0.24364628 0.056448348 -0.10195786 -0.07005721 0.016298585 -0.074454114 0.039967757 -0.06625052
0.019108696 0.044181757 -0.092498206 -0.032858398 0.059946463 0.03208694 -0.026246365 -0.105525956
-0.025122069 -0.006751418 0.059886437 -0.062128644 0.060685944 0.0034266114 -0.046304196 -0.08871844
0.011811165 0.14793362 -0.021586817 0.03136737 0.040659938 -0.032695405 -0.11145418 0.010195946
-0.07760125 0.07679415 -0.06293218 -0.004199396 0.0017092065 0.01791279 0.012310469 0.019922236
0.064714365 -0.1424709 -0.08950237 -0.09992149 -0.09677533 -0.0206066 0.0708569 -0.0088185435
-0.032079 0.01701569 -0.0053267684 -0.15614001 0.15078223 0.069259934 -0.18813625 -0.013024077
0.09041048 0.028185312 -0.03379506 -0.00012668817 0.0042337617 0.023769699 -0.03965585 0.03592092
-0.03302745 0.0047345366 -0.10553411 -0.03118341 0.12617166 -0.12798859 0.1281452 0.10678131
0.032146562 0.066392876 0.013036616 -0.044085875 -0.1643917 -0.083353326 -0.12622209 -0.10737983
0.075300835 0.18075916 0.019913008 0.018714158 0.045678925 0.045552533 0.13991989 0.029342704
0.022563662 -0.06963152 0.03527244 -0.065723635 -0.016700674 -0.05240395 0.037606295 0.07635398
-0.051230583 -0.0682235 0.0710831 0.1542511 0.049675092 0.017738052 -0.03898646 0.040930472
-0.0699031 -0.022646923 0.17700306 0.076463565 -0.09377473 0.007931621 -0.16964233 -0.016837655
0.0087587405 -0.032015275 -0.056359585 -0.06251598 0.050401162 -0.16035168 -0.03324298 -0.05911276
-0.16216974 -0.0005912128 -0.033256065 0.0942445 0.103358164 -0.043476563 0.054416258 0.004424623
0.1008727 -0.029295972 -0.040235277 -0.063159466 0.015520861 0.20753092 -0.09611375 0.098995686
0.09647915 -0.15669216 -0.09472363 0.09758905 -0.006665486 0.1281344 0.142763 0.12971132
0.021210307 -0.04790571 0.11447937 -0.057043664 -0.096942805 -0.07473487 0.06919932 0.043809406
-0.018374255 0.10079671 0.021968978 0.023740644 -0.09283334 0.048947033 -0.14690006 -0.02127192
00000000: b20e 12be 8be3 29bd 54a4 debc af11 d7bb
00000010: 9647 d3bd bda6 0e3e 9b61 5f3b eb51 ecbd
00000020: 48ff 2f3d fc75 303d 7229 0ebd 48bb e23d
00000030: e6a4 873c 17af 56bd 347b 33be 39e2 403d
00000040: f447 2bbe 0194 58be 4933 f2bd 0ee0 28bc
00000050: c372 82bd 2404 a03d 4dae 3fba 9d50 bd3b
00000060: bf62 a7bd b9b2 a4bd 9e2b 24bd 523b 193d
00000070: 82c4 49be cac4 10bd a208 7ebc b21f 843c
00000080: ad7a 81bd eea0 16bd b4f5 2f3e c22f 97bd
00000090: 762a 953c d7a9 463e cdd7 e0bd bcdd 6b3d
000000a0: 7ea5 c6bd 8eed 8bbd 8abf fa3a 7964 043e
000000b0: 971b 63be 6749 f73b 1fad 563d 175a 913b
000000c0: ca03 c2bc 054f 023e b195 973d 0615 0a3d
000000d0: 442a ab3d 387b e93d 7a79 ac3d c006 f1bd
000000e0: 2fc5 1bbd a3fc 46bd 85de 38bd 8a06 99bc
000000f0: 360d 12be 9d1f 2bbd 2182 24be e741 babd
00000100: 87c3 9c3c c42b 533e 6d7d 0fbe 73b7 aa3d
00000110: 11b3 b4bd 0e14 613d eb35 c2bd 9028 17bd
00000120: 4d8d 1fba ec36 b4bc d705 303d 8c68 c6bc
00000130: 7340 3e3d 8de7 3bbc a531 b9bc 5622 9a3d
00000140: 4115 bcbc 51ec 833d 81e4 83bd 2d65 b03d
00000150: c55b 03bc 30cd d43d 3e34 0dbd b6df b33d
00000160: c4ba 6abc ffe4 bd3d 48d7 63bd ad40 04be
00000170: 3d23 bebd 9873 5fbd b710 683d 7165 96bb
00000180: 697e 79be 6236 673d 48cf d0bd 287a 8fbd
00000190: 9c84 853c 667b 98bd 3bb5 233d 5aae 87bd
000001a0: d789 9c3c eef7 343d b36f bdbd 8796 06bd
000001b0: 6c8a 753d 986d 033d 9e02 d7bc fe1d d8bd
000001c0: cccc cdbc 003b ddbb 7b4b 753d 9b7a 7ebd
000001d0: d391 783d 0091 603b 78a9 3dbd 03b2 b5bd
000001e0: 9e83 413c e97b 173e d6d6 b0bc 127b 003d
000001f0: 098b 263d 9eeb 05bd 1742 e4bd e60c 273c
00000200: 67ed 9ebd 4046 9d3d 96e2 80bd 169b 89bb
00000210: 7407 e03a d8bd 923c d9b1 493c f533 a33c
00000220: f788 843d e4e3 11be 054d b7bd a3a3 ccbd
00000230: 2532 c6bd 2ccf a8bc 6c1d 913d a77b 10bc
00000240: 4565 03bd 7d64 8b3c 2c8c aebb 2be3 1fbe
00000250: a866 1a3e 27d8 8d3d caa6 40be f062 55bc
00000260: 2129 b93d e2e4 e63c b06c 0abd 99d7 04b9
00000270: 5ebb 8a3b acb8 c23c 2c6e 22bd d121 133d
00000280: cb47 07bd 2c24 9b3b 4422 d8bd 5a74 ffbc
00000290: 2533 013e 710f 03be 7f38 033e 29b0 da3d
000002a0: 1dac 033d fdf8 873d 8897 553c 6493 34bd
000002b0: 4c56 28be 26b5 aabd 5d40 01be f5e9 dbbd
000002c0: 5337 9a3d ee18 393e 9b20 a33c 6f4e 993c
000002d0: d319 3b3d 4b95 3a3d 2947 0f3e 1c60 f03c
000002e0: 6ed7 b83c f89a 8ebd d679 103d 1d9a 86bd
000002f0: dacf 88bc 86a5 56bd 0f09 1a3d 7a5f 9c3d
00000300: 29d7 51bd c3b8 8bbd 0494 913d 00f4 1d3e
00000310: 1c78 4b3d 644f 913c 44b0 1fbd b6a6 273d
00000320: 5b29 8fbd 0a86 b9bc 4a40 353e ee98 9c3d
00000330: f70c c0bd a1f3 013c b8b6 2dbe 1fef 89bc
00000340: d280 0f3c 7322 03bd 4fd9 66bd 6108 80bd
00000350: 7371 4e3d 3b33 24be ca29 08bd 3920 72bd
00000360: d30f 26be 9ffb 1aba 8337 08bd 4303 c13d
00000370: 72ad d33d 7b14 32bd 95e3 5e3d 6efc 903b
00000380: 5996 ce3d 1bfe efbc bfcd 24bd c059 81bd
00000390: 364b 7e3c fc82 543e 49d7 c4bd 40be ca3d
000003a0: dc96 c53d e973 20be 76fe c1bd c5dc c73d
000003b0: 266a dabb aa35 033e 7730 123e 0bd3 043e
000003c0: 3dc1 ad3c c738 44bd 2974 ea3d 9ea6 69bd
000003d0: f389 c6bd 980e 99bd 60b8 8d3d 7e71 333d
000003e0: 9b85 96bc 816e ce3d 49f8 b33c bd7b c23c
000003f0: 681f bebd af7c 483d f86c 16be 7342 aebc

network_body._body_endoder.seq_layers.2.bias f4 [128]
0.0031698616 -2.9768815e-05 -0.007049612 -0.0014191053 -0.032042395 -0.025816424 -0.037769247 -0.013000919
-0.00648059 -0.033717018 0.024002736 0.0013780339 0.013024015 0.04267708 0.035936374 0.024024008
-0.013496474 0.014738468 0.00259916 0.029267529 0.022615455 -0.011351407 -0.017826725 -0.034492645
0.018182335 0.022790689 0.011710776 -0.0066233487 0.017308133 0.024354048 0.004567625 -0.03197727
-0.027061317 -0.01367905 -0.015385698 0.011009984 0.014394042 0.02359966 -0.012593344 -0.044805117
-0.043699905 -0.0067069917 0.030215686 -0.0051560802 -0.021792866 0.015461349 0.0028259917 0.035945665
-0.037909314 -0.015272859 0.017305918 -0.0030332063 -0.04242616 -0.0032524685 0.02545708 -0.026695956
-0.00690979 0.0054460615 0.032543145 0.021762658 -0.0029959683 0.031592403 -0.0023650622 0.0347861
-0.03808535 0.01207265 0.02496311 0.020944694 -0.01233401 0.054590754 -0.03928287 0.029488798
0.009427292 -0.0122946445 0.029956719 0.036108807 0.011054007 0.0060952855 0.013051589 -0.03180941
-0.016406652 0.003790323 -0.012217526 -0.0043891724 -0.0033926435 0.020361219 -0.022983665 -0.0084953485
-0.0131950695 0.03692953 -0.024331335 -0.0037978208 0.020375252 0.029476866 -0.040980536 -0.039867572
-0.00038374995 -0.03695011 0.023701964 -0.00718556 -0.012255201 0.041410416 -0.010656647 0.020627111
-0.0024445988 0.044644613 0.038763497 0.031123772 -0.005479066 0.022787072 -0.016299825 0.025033226
0.003260819 0.003924139 -0.008590237 0.02806917 0.019996218 0.011123172 0.013289012 -0.03817328
-0.018808654 -0.021041758 0.034830324 -0.006198385 0.0025455507 -0.0001542702 -0.0006540738 -0.018763145
00000000: 74bd 4f3b 0bb8 f9b7 6e00 e7bb 4601 baba
00000010: e33e 03bd f77c d3bc edb3 1abd ce01 55bc
00000020: 215b d4bb db1a 0abd 63a1 c43c 259f b43a
00000030: ae62 553c 29ce 2e3d 0532 133d ffcd c43c
00000040: 5120 5dbc 9e79 713c ab56 2a3b 75c2 ef3c
00000050: 0c44 b93c 40fb 39bc 5a09 92bc 2948 0dbd
00000060: 1ff3 943c 8ab3 ba3c 8ede 3f3c ad08 d9bb
00000070: c9c9 8d3c 2482 c73c 04ac 953b 99fa 02bd
00000080: b2af ddbc 181e 60bc 4b14 7cbc 3863 343c
00000090: fdd4 6b3c 1354 c13c 5054 4ebc 9285 37bd
000000a0: acfe 32bd 53c6 dbbb e386 f73c 56f4 a8bb
000000b0: f486 b2bc 9951 7d3c 4634 393b c33b 133d
000000c0: cc46 1bbd 033b 7abc 24c5 8d3c c2c8 46bb
000000d0: 0ec7 2dbd 5e27 55bb 5e8b d03c 7ab1 dabc
000000e0: 856b e2bb e074 b23b f64b 053d 9a47 b23c
000000f0: 0258 44bb 0967 013d 29ff 1abb df7b 0e3d
00000100: 62ff 1bbd 5dcc 453c 707f cc3c 3594 ab3c
00000110: 9614 4abc 8e9a 5f3d 13e7 20bd 7e92 f13c
00000120: ee74 1a3c 7a6f 49bc cb67 f53c d4e6 133d
00000130: de1b 353c f6ba c73b 55d6 553c 954a 02bd
00000140: 3e67 86bc 1167 783b 052c 48bc 0cd3 8fbb
00000150: 1d57 5ebb 92cc a63c 3d48 bcbc 1330 0bbc
00000160: 2230 58bc 6b43 173d 8252 c7bc dce4 78bb
00000170: 00ea a63c 7879 f13c 35db 27bd 2e4c 23bd
00000180: 0c32 c9b9 0059 17bd 9f2a c23c d974 ebbb
00000190: 0aca 48bc f89d 293d 3899 2ebc 30fa a83c
000001a0: 9035 20bb 45dd 363d 79c6 1e3d 48f7 fe3c
000001b0: bd89 b3bb f4ab ba3c 3687 85bc 7b12 cd3c
000001c0: 77b3 553b 1096 803b 11be 0cbc 51f1 e53c
000001d0: 1ccf a33c f73d 363c 28ba 593c 965b 1cbd
000001e0: 9b14 9abc c45f acbc 3eaa 0e3d d21b cbbb
000001f0: 41d3 263b 97c3 21b9 2676 2bba 2bb5 99bc

action_model._continuous_distribution.log_sigma f4 [1, 2]
-0.03505566 0.014554198
00000000: 8696 0fbd bb74 6e3c

action_model._continuous_distribution.mu.weight f4 [2, 128]
0.009961987 -0.016516395 -0.010694291 0.01793117 0.02503337 0.040069252 0.0005064345 -0.011193487
-0.019220298 0.015603855 -0.017612092 -0.022012308 -0.029644454 0.0015876148 -0.018401004 -0.014928215
0.0184275 0.0052394453 -0.02547173 -0.014531533 -0.04749007 -0.012943375 0.008195196 0.024988052
0.00023746099 0.006837596 0.001619088 0.008137936 -0.019893007 0.0065708607 0.00853972 0.015668921
0.0391481 0.00044527245 0.013584043 0.005963326 -0.0041261967 -0.019998968 0.01431772 0.0047101197
0.015257994 0.022181265 -0.017909275 -0.010016096 0.00807019 -0.022857783 -0.022744365 0.005181604
-0.0043617412 -0.014251341 0.0027181439 -0.021728488 0.02426393 -0.016816156 -0.021348357 0.014936696
-0.011358495 -0.024511408 0.003884139 -0.04372662 -0.014621937 -0.017768081 0.0153232 -0.002177061
0.032899283 0.0028511663 -0.018845452 -0.015550311 0.027956394 0.00028909015 0.031731643 -0.021341763
0.011109947 -0.01061547 -0.028502734 -0.017670183 -0.0104009975 0.0028252793 -0.0343529 0.0129284775
-0.025849333 0.003958721 0.0021199712 -0.012031119 0.018686099 -0.002451156 0.016301427 0.019878963
0.042345244 -0.014246465 0.005276547 0.013276714 -0.03657391 -0.012125223 0.019175682 0.006472082
-0.023711927 0.011997311 -0.034588397 -0.010834453 0.020525312 -0.015102173 -0.0057077603 -0.0052106795
0.016231384 -0.024739245 -0.0032216439 -0.0028760778 0.023778377 -0.002694952 0.016670471 -0.038685817
0.00719319 -0.030498823 0.018532144 -0.0007504665 -0.0052743223 -0.0032454818 -0.041608475 0.0136435
0.016707918 0.027705505 -0.006861113 -0.022239147 0.004850868 -0.023454564 -0.022917762 0.003881474
0.04269225 -0.014421249 -0.018168712 0.016240424 -0.017809406 0.010117956 -0.018976824 -0.017290993
-0.0073202085 -0.017044527 0.019487828 -0.0058226897 -0.004788596 0.018919878 0.0072700833 0.030942958
0.01641203 0.023200653 -0.029040432 0.015774451 7.669059e-05 -0.008887984 0.008376815 -0.027118051
0.04160681 0.032105874 0.030781543 0.0007987265 0.04469255 0.026807157 0.031767122 -0.02547408
-0.009347971 0.006259003 -0.025917128 0.03040738 -0.004825396 0.0040554195 0.022466598 -0.015169785
-0.02107129 0.025406955 0.005376977 -0.038822126 -0.032976042 -0.008107481 -0.026179098 0.028795183
-0.021168713 -0.016329322 0.02792572 -0.008027443 -0.009931149 -0.01388367 0.0139543405 -0.03456903
-0.03159023 -0.004821505 -0.005901484 0.007908349 -0.014397334 0.029665396 0.040110208 0.026231408
-0.022582088 0.021086197 -0.008198225 0.0104277 -0.0028609866 0.0128873745 -0.031662557 0.0011931895
0.0291001 -0.012027663 0.02056311 0.0047358335 0.057538126 -0.0063187517 -0.011756989 0.025456317
0.01463502 0.06620313 -0.033042513 -0.011333711 0.022556202 0.023646072 0.02329236 0.040439736
0.006423347 0.016875353 -0.021229703 0.02756549 -0.003522857 0.027593954 0.008181948 -0.017369173
-0.021952989 -0.025254684 0.006824067 -0.021226607 0.009354693 0.020660607 -0.02875837 0.031435013
0.041458305 -0.00020481934 0.025800634 0.027277488 0.06445405 0.02450602 0.018337704 0.03549406
0.031715564 -0.019849235 0.03979846 0.024372712 0.025076555 0.038108915 0.004072324 -0.011848107
0.018083388 -0.011520768 0.016090691 -0.008438558 0.029038813 -0.0066683446 -0.01060775 -0.030502047
00000000: 9a37 233c 644d 87bc 1c37 2fbc 64e4 923c
00000010: c812 cd3c a81f 243d 3ec2 043a e364 37bc
00000020: e373 9dbc 50a7 7f3c 3c47 90bc 2853 b4bc
00000030: edd8 f2bc 8317 d03a b4bd 96bc 7995 74bc
00000040: 45f5 963c a7af ab3b 17aa d0bc ab15 6ebc
00000050: f384 42bd 7310 54bc 2545 063c beb3 cc3c
00000060: f3fe 7839 ea0d e03b 9437 d43a fa54 053c
00000070: a9f6 a2bc 6050 d73b 2fea 0b3c 1c5c 803c
00000080: c259 203d 7573 e939 9b8f 5e3c 0168 c33b
00000090: 0c35 87bb e0d4 a3bc df94 6a3c 5957 9a3b
000000a0: aafc 793c 7cb5 b53c 79b6 92bc 8d1a 24bc
000000b0: d538 043c 3f40 bbbc 6452 babc 72ca a93b
000000c0: f0ec 8ebb 757e 69bc e322 323b f1ff b1bc
000000d0: 26c5 c63c 09c2 89bc c0e2 aebc 0bb9 743c
000000e0: fb18 3abc 26cc c8bc 0a8d 7e3b af1a 33bd
000000f0: d990 6fbc 5e8e 91bc 290e 7b3c 06ad 0ebb
00000100: 66c1 063d a2da 3a3b c761 9abc bbc6 7ebc
00000110: cf04 e53c 0691 9739 0af9 013d ecd4 aebc
00000120: 7f06 363c 82ec 2dbc 917e e9bc 0fc1 90bc
00000130: f268 2abc 5228 393b a0b5 0cbd f7d1 533c
00000140: fbc1 d3bc 29b8 813b 37ef 0a3b 2c1e 45bc
00000150: 9713 993c 93a3 20bb 928a 853c 35d9 a23c
00000160: 3572 2d3d 016a 69bc e2e6 ac3b 9386 593c
00000170: 86ce 15bd dfa8 46bc 5216 9d3c c213 d43b
00000180: 843f c2bc 5f90 443c 90ac 0dbd fd82 31bc
00000190: b324 a83c 1b6f 77bc 2a08 bbbb 59be aabb
000001a0: aef7 843c f5a9 cabc 3722 53bb 947c 3cbb
000001b0: dfca c23c cb9d 30bb 8390 883c 0575 1ebd
000001c0: dab4 eb3b abd8 f9bc b9d0 973c f4ba 44ba
000001d0: 39d4 acbb 26b2 54bb a66d 2abd fd88 5f3c
000001e0: 0bdf 883c a8f6 e23c 30d3 e0bb df2e b6bc
000001f0: 08f4 9e3b c923 c0bc 08be bbbc 5460 7e3b
00000200: 12de 2e3d 1a47 6cbc 8dd6 94bc a30a 853c
00000210: 08e5 91bc c9c5 253c 4975 9bbc d7a5 8dbc
00000220: 5cde efbb f7a0 8bbc f0a4 9f3c 43cc bebb
00000230: a8e9 9cbb dcfd 9a3c e139 ee3b 167c fd3c
00000240: 8672 863c 4c0f be3c 33e6 edbc 6c39 813c
00000250: f2d4 a038 e89e 11bc e93e 093c ad26 debc
00000260: e76b 2a3d 7381 033d 9329 fc3c a161 513a
00000270: 890f 373d af9a db3c 3e1e 023d 05af d0bc
00000280: 3b28 19bc 5318 cd3b 2850 d4bc e618 f93c
00000290: 5b1e 9ebb 53e3 843b df0b b83c b18a 78bc
000002a0: b39d acbc 3f22 d03c 5a31 b03b f303 1fbd
000002b0: e311 07bd 3dd5 04bc 8c75 d6bc e0e3 eb3c
000002c0: 026a adbc 12c5 85bc 7bc4 e43c 8985 03bc
000002d0: 42b6 22bc 5578 63bc bfa0 643c 4198 0dbd
000002e0: c264 01bd b7fd 9dbb 3c61 c1bb 0592 013c
000002f0: cce2 6bbc d804 f33c 9a4a 243d 40e3 d63c
00000300: 12fe b8bc f6bc ac3c d951 06bc f2d8 2a3c
00000310: 647f 3bbb 9125 533c 99b0 01bd cc64 9c3a
00000320: 5563 ee3c ad0f 45bc f873 a83c 0d2f 9b3b
00000330: 19ad 6b3d 880d cfbb 63a0 40bc c489 d03c
00000340: b9c7 6f3c 8295 873d 9657 07bd 08b1 39bc
00000350: c9c7 b83c 68b5 c13c 9fcf be3c 23a4 253d
00000360: f17a d23b 2e3e 8a3c eae9 adbc 06d1 e13c
00000370: bcdf 66bb b70c e23c 940d 063c cc49 8ebc
00000380: c1d6 b3bc e9e2 cebc 6c9c df3b 6ce3 adbc
00000390: 6d44 193c 6f40 a93c ac96 ebbc 00c2 003d
000003a0: 2fd0 293d c6c4 56b9 da5b d33c 0a75 df3c
000003b0: 7c00 843d d9c0 c83c f438 963c 3862 113d
000003c0: 2ee8 013d dd9a a2bc b603 233d 48a9 c73c
000003d0: 596d cd3c 1818 1c3d 2171 853b 901e 42bc
000003e0: 9d23 943c 9ac1 3cbc a0d0 833c e141 0abc
000003f0: cee2 ed3c 2182 dabb 21cc 2dbc 6edf f9bc

action_model._continuous_distribution.mu.bias f4 [2]
-0.028341567 -0.00028349808
00000000: 932c e8bc 78a2 94b9

exp_avg f4 [128, 10]
-1.5865337e-05 6.6663296e-07 1.1073473e-06 2.739725e-07 1.7136522e-06 9.1518683e-07 -1.2723733e-07 1.987086e-06
9.3954606e-07 -4.3197534e-09 -4.1659263e-05 3.3145625e-07 5.506183e-07 1.349806e-07 8.5204414e-07 4.5503975e-07
-6.3263606e-08 9.879982e-07 4.6715124e-07 -2.1478221e-09 -3.323941e-05 9.389248e-09 1.5613818e-08 3.2571374e-09
2.4136025e-08 1.288999e-08 -1.7920806e-09 2.7987225e-08 1.3233091e-08 -6.084175e-11 -9.411264e-06 1.5276802e-07
2.5373754e-07 6.3287764e-08 3.9270674e-07 2.0972763e-07 -2.9158162e-08 4.5536794e-07 2.1530981e-07 -9.8993e-10
-0.00015525283 3.3777393e-08 5.618272e-08 1.0924665e-08 8.682843e-08 4.6371365e-08 -6.4469488e-09 1.00682875e-07
4.7605546e-08 -2.1887617e-10 -1.1151556e-05 -9.31538e-09 -1.5455122e-08 -4.451744e-09 -2.394631e-08 -1.2788649e-08
1.7779899e-09 -2.7767154e-08 -1.3129011e-08 6.036337e-11 3.7501648e-06 3.1977146e-07 5.312087e-07 1.3059048e-07
8.220073e-07 4.3899828e-07 -6.103337e-08 9.5316824e-07 4.5068273e-07 -2.0721047e-09 -8.655715e-05 5.8215994e-07
9.670788e-07 2.3526557e-07 1.4965043e-06 7.9921745e-07 -1.1111424e-07 1.7352893e-06 8.204899e-07 -3.7723673e-09
-4.8200927e-05 6.7746004e-07 1.1253685e-06 2.764295e-07 1.7414841e-06 9.3005076e-07 -1.2930383e-07 2.0193581e-06
9.548054e-07 -4.3899098e-09 -0.00012192637 -6.593064e-08 -1.0945938e-07 -2.964392e-08 -1.6948202e-07 -9.0512906e-08
1.2583904e-08 -1.9652494e-07 -9.292203e-08 4.272278e-10 -8.5437176e-05 3.8642324e-07 6.4197906e-07 1.5574105e-07
9.933428e-07 5.3050104e-07 -7.375491e-08 1.1518424e-06 5.4462106e-07 -2.504005e-09 0.00021228711 -1.3314486e-06
-2.2119602e-06 -5.3952647e-07 -3.4226327e-06 -1.8278791e-06 2.541278e-07 -3.9687548e-06 -1.8765309e-06 8.627728e-09
0.0001323764 -1.1431377e-08 -1.9075484e-08 -1.4843498e-09 -2.9385602e-08 -1.5693642e-08 2.181851e-09 -3.4074784e-08
-1.6111354e-08 7.4074816e-11 -1.7816035e-05 2.7117878e-07 4.5039783e-07 1.1330336e-07 6.97094e-07 3.722878e-07
-5.1758693e-08 8.0832365e-07 3.8219662e-07 -1.7572259e-09 -8.228123e-05 1.943376e-07 3.2288636e-07 7.753436e-08
4.995659e-07 2.667963e-07 -3.709237e-08 5.792775e-07 2.7389754e-07 -1.2592989e-09 -0.00011594213 8.062939e-08
1.3401217e-07 3.0661358e-08 2.0726681e-07 1.1069205e-07 -1.5389375e-08 2.4033866e-07 1.13638386e-07 -5.224752e-10
6.428386e-05 -3.503634e-07 -5.820757e-07 -1.4169729e-07 -9.006472e-07 -4.809965e-07 6.687236e-08 -1.0443564e-06
-4.937989e-07 2.27034e-09 -6.435766e-05 4.0735753e-07 6.767006e-07 1.6525786e-07 1.047156e-06 5.5924045e-07
-7.775053e-08 1.2142428e-06 5.7412547e-07 -2.6396578e-09 -1.626734e-05 3.9762404e-07 6.605658e-07 1.6170297e-07
1.0221357e-06 5.458782e-07 -7.5892785e-08 1.18523e-06 5.6040756e-07 -2.5765865e-09 -0.00011073081 -4.973311e-10
-7.5389167e-10 -2.676545e-09 -1.2783171e-09 -6.826439e-10 9.493029e-11 -1.4825303e-09 -7.009148e-10 3.2228337e-12
2.0373567e-05 -1.2625152e-07 -2.0976053e-07 -5.0649614e-08 -3.2454338e-07 -1.7332448e-07 2.4097094e-08 -3.7632807e-07
-1.7793776e-07 8.1810464e-10 2.84051e-05 -9.1922914e-08 -1.5268269e-07 -3.7893052e-08 -2.3629784e-07 -1.2619637e-07
1.754492e-08 -2.740019e-07 -1.295552e-07 5.9565625e-10 -4.3340857e-05 -1.9501593e-08 -3.2398606e-08 -7.822287e-09
-5.0130716e-08 -2.6772675e-08 3.7221692e-09 -5.8129654e-08 -2.7485235e-08 1.2636887e-10 -1.988289e-05 1.5181634e-07
2.5218898e-07 6.236798e-08 3.902605e-07 2.0842111e-07 -2.8976531e-08 4.5253108e-07 2.1396852e-07 -9.837633e-10
-2.0112759e-05 1.7442211e-07 2.8976876e-07 7.064188e-08 4.4837094e-07 2.394554e-07 -3.3291194e-08 5.199139e-07
2.4582883e-07 -1.1302477e-09 -2.0216547e-05 1.714527e-07 2.8484553e-07 6.9140675e-08 4.4073758e-07 2.3537882e-07
00000000: 8d16 85b7 abf2 3235 2aa0 9435 7e16 9334
00000010: a400 e635 29ab 7535 bb9e 08b4 e159 0536
00000020: 1d35 7c35 f46c 94b1 4bbb 2eb8 00f3 b134
00000030: 34ce 1335 2fef 1034 07b8 6435 304c f434
00000040: 89db 87b3 5c9b 8435 c7cc fa34 e398 13b1
00000050: 8b6a 0bb8 594e 2132 261f 8632 2bd4 5f31
00000060: ae53 cf32 c772 5d32 3b4d f6b0 8f68 f032
00000070: c057 6332 dcca 85ae 12e5 1db7 8e08 2434
00000080: 6c39 8834 d1e8 8733 34d5 d234 7e31 6134
00000090: 7a77 fab2 4b79 f434 e92f 6734 110e 88b0
000000a0: 5dcb 22b9 a312 1133 8e4d 7133 2faf 3b32
000000b0: 6f76 ba33 db29 4733 f683 ddb1 ff36 d833
000000c0: da76 4c33 2aa8 70af 9117 3bb7 7909 20b2
000000d0: 2cc2 84b2 f4f5 98b1 7eb2 cdb2 13b5 5bb2
000000e0: 755d f430 9e84 eeb2 008e 61b2 8ebd 842e
000000f0: 57ab 7b36 0ead ab34 6298 0e35 7038 0c34
00000100: e9a7 5c35 77af eb34 7311 83b3 39dd 7f35
00000110: 5df5 f134 da64 0eb1 0486 b5b8 ba45 1c35
00000120: 93cc 8135 4f9d 7c34 7fdb c835 ce89 5635
00000130: b39d eeb3 16e8 e835 a33f 5c35 189e 81b1
00000140: 5a2b 4ab8 b3da 3535 5e0b 9735 2e68 9434
00000150: f0bc e935 9aa8 7935 c4d6 0ab4 4f84 0736
00000160: dd26 8035 0ed6 96b1 b9b2 ffb8 c195 8db3
00000170: ee0f ebb3 aba3 feb2 ddfa 35b4 ff5f c2b3
00000180: 9830 5832 5d04 53b4 6d8c c7b3 f8de ea2f
00000190: bc2c b3b8 9b75 cf34 7754 2c35 c639 2734
000001a0: 0053 8535 c167 0e35 3163 9eb3 0199 9a35
000001b0: 1332 1235 ec12 2cb1 6399 5e39 3ab4 b2b5
000001c0: 3071 14b6 fad3 10b5 62b0 65b6 7355 f5b5
000001d0: 0f6f 8834 582b 85b6 1cdd fbb5 2639 1432
000001e0: 85ce 0a39 ba63 44b2 6fdb a3b2 ea01 ccb0
000001f0: 9f6b fcb2 afce 86b2 87ef 1531 9f59 12b3
00000200: 3e65 8ab2 6ae4 a22e a573 95b7 8796 9134
00000210: 35ce f134 2e51 f333 ef1f 3b35 d8de c734
00000220: 494d 5eb3 94fb 5835 b430 cd34 e482 f1b0
00000230: 668e acb8 1dab 5034 2a59 ad34 f780 a633
00000240: e819 0635 343c 8f34 7e4f 1fb3 a67f 1b35
00000250: 310c 9334 a413 adb0 f525 f3b8 7a26 ad33
00000260: fce4 0f34 85b0 0333 118d 5e34 99b5 ed33
00000270: 9831 84b2 e507 8134 5d09 f433 ec9d 0fb0
00000280: 22d0 8638 9419 bcb4 f03f 1cb5 7425 18b4
00000290: 01c4 71b5 d41d 01b5 789b 8f33 d02b 8cb5
000002a0: 9a8d 04b5 3e04 1c31 c1f7 86b8 cbb2 da34
000002b0: 83a6 3535 bc71 3134 028c 8c35 b61e 1635
000002c0: cef7 a6b3 11f9 a235 9a1d 1a35 5a65 35b1
000002d0: d975 88b7 0879 d534 bc51 3135 93a0 2d34
000002e0: 5130 8935 7788 1235 80fa a2b3 3114 9f35
000002f0: ea6e 1635 ca0f 31b1 2738 e8b8 91b4 08b0
00000300: 693a 4fb0 47ee 37b1 c9b0 afb0 cba4 3bb0
00000310: 01c1 d02e e6c1 cbb0 7faa 40b0 69c9 622c
00000320: e7e7 aa37 c18f 07b4 893a 61b4 d789 59b3
00000330: e73c aeb4 121b 3ab4 12fe ce32 230a cab4
00000340: 290f 3fb4 ffe0 6030 7d47 ee37 2867 c5b3
00000350: 19f1 23b4 dabf 22b3 0eb9 7db4 9880 07b4
00000360: b0b5 9632 891a 93b4 dd1b 0bb4 95bb 2330
00000370: e4c8 35b8 7584 a7b2 a526 0bb3 c862 06b2
00000380: 4e4f 57b3 bcf9 e5b2 18c9 7f31 3baa 79b3
00000390: ac18 ecb2 adf1 0a2f 2eca a6b7 f502 2334
000003a0: 9764 8734 29ef 8533 ff84 d134 5cca 5f34
000003b0: 11e8 f8b2 66f3 f234 38bf 6534 1835 87b0
000003c0: d2b7 a8b7 c948 3b34 8491 9b34 c9b3 9733
000003d0: a2b7 f034 808e 8034 0efc 0eb3 3690 0b35
000003e0: 75fa 8334 0e57 9bb0 b496 a9b7 8f18 3834
000003f0: dfec 9834 7d7a 9433 839e ec34 70bc 7c34

exp_avg_sq f4 [128, 10]
6.248562e-06 4.9509487e-11 1.3694858e-10 8.968031e-12 3.2204114e-10 9.237838e-11 1.7714033e-12 4.3549492e-10
9.736136e-11 2.058106e-15 3.2383848e-06 2.7048896e-11 7.533614e-11 5.3581996e-12 1.7708282e-10 5.0572768e-11
9.759225e-13 2.3841346e-10 5.330076e-11 1.126716e-15 1.2289629e-06 1.0920456e-11 3.031629e-11 2.06166e-12
7.095749e-11 2.0321333e-11 3.9083865e-13 9.57992e-11 2.1417304e-11 4.527381e-16 2.1489493e-06 1.6569798e-11
4.608738e-11 3.164385e-12 1.0827624e-10 3.092768e-11 5.96876e-13 1.458006e-10 3.2595798e-11 6.8903907e-16
4.3176502e-07 3.6525865e-12 1.0003333e-11 6.032185e-13 2.3609767e-11 6.78915e-12 1.296184e-13 3.2005787e-11
7.1553605e-12 1.5125624e-16 1.0490203e-06 9.436938e-12 2.6255777e-11 1.8072484e-12 6.1551084e-11 1.7579226e-11
3.3931722e-13 8.287285e-11 1.852739e-11 3.9164876e-16 2.2689405e-06 1.9312439e-11 5.3518162e-11 3.6359353e-12
1.252526e-10 3.6016416e-11 6.88514e-13 1.6979045e-10 3.7959153e-11 8.024129e-16 1.2614535e-05 9.71667e-11
2.6870486e-10 1.7762505e-11 6.3128686e-10 1.8120157e-10 3.4710667e-12 8.542307e-10 1.9097578e-10 4.0370103e-15
9.615363e-06 7.2760145e-11 2.0179981e-10 1.3451413e-11 4.744619e-10 1.358685e-10 2.6118816e-12 6.405195e-10
1.4319722e-10 3.027026e-15 4.3596467e-07 3.6746114e-12 1.0005335e-11 6.0651695e-13 2.3727574e-11 6.8380995e-12
1.3026907e-13 3.223659e-11 7.206945e-12 1.5234678e-16 3.7923212e-06 3.2248173e-11 8.983386e-11 6.4871376e-12
2.1125143e-10 6.0329144e-11 1.1641175e-12 2.8440672e-10 6.3583305e-11 1.3440779e-15 1.8587623e-05 1.5522553e-10
4.3122075e-10 3.0413554e-11 1.0145313e-09 2.9030148e-10 5.5874706e-12 1.3685555e-09 3.0596026e-10 6.467654e-15
5.3582613e-07 4.5171466e-12 1.2320237e-11 7.4477853e-13 2.9089297e-11 8.3911385e-12 1.5978995e-13 3.9557805e-11
8.843734e-12 1.8694626e-16 3.1239067e-06 2.2111507e-11 6.1480106e-11 4.089808e-12 1.4457022e-10 4.131069e-11
7.965615e-13 1.9474938e-10 4.3539058e-11 9.203647e-16 2.3495353e-07 2.0780953e-12 5.6624033e-12 3.0528786e-13
1.3225002e-11 3.833784e-12 7.2617754e-14 1.8072994e-11 4.0404798e-12 8.5410964e-17 3.625168e-07 2.8959788e-12
7.884374e-12 4.6255556e-13 1.838643e-11 5.362777e-12 1.0062555e-13 2.528129e-11 5.6520027e-12 1.1947686e-16
4.1315107e-06 3.5178825e-11 9.7920255e-11 7.0526996e-12 2.3014823e-10 6.574197e-11 1.2682626e-12 3.099246e-10
6.9288235e-11 1.4646707e-15 5.8017076e-06 4.6326047e-11 1.2820243e-10 8.5421965e-12 3.009984e-10 8.636252e-11
1.6553617e-12 4.0713607e-10 9.1020996e-11 1.9240845e-15 2.9177406e-06 2.5745704e-11 7.162219e-11 5.0656636e-12
1.6828383e-10 4.8119654e-11 9.27061e-13 2.2684797e-10 5.071518e-11 1.0720608e-15 6.309199e-07 5.4690805e-12
1.5050896e-11 9.370875e-13 3.5384407e-11 1.0163127e-11 1.9446627e-13 4.7911564e-11 1.0711322e-11 2.2642477e-16
1.5301237e-06 1.3044899e-11 3.6074723e-11 2.4259013e-12 8.385349e-11 2.4263654e-11 4.60163e-13 1.1438512e-10
2.5572405e-11 5.4057166e-16 5.3563707e-07 4.849531e-12 1.3436382e-11 9.032698e-13 3.1518822e-11 9.024273e-12
1.7357592e-13 4.254261e-11 9.511049e-12 2.0105257e-16 1.0190755e-06 8.90332e-12 2.4716932e-11 1.7254025e-12
5.7929102e-11 1.6591901e-11 3.1881323e-13 7.821879e-11 1.7486913e-11 3.696536e-16 1.5118411e-06 1.2991168e-11
3.617213e-11 2.5123996e-12 8.49488e-11 2.4246948e-11 4.6845665e-13 1.1430611e-10 2.5554801e-11 5.4019934e-16
2.1590076e-06 1.8724942e-11 5.2128885e-11 3.65121e-12 1.2242624e-10 3.4951746e-11 6.7484397e-13 1.6477125e-10
3.6836964e-11 7.786926e-16 4.6767997e-07 4.2739935e-12 1.1825685e-11 7.5949636e-13 2.7730367e-11 7.937158e-12
00000000: bdaa d136 babe 592e 9993 162f 6cc4 1d2d
00000010: 430b b12f 6824 cb2e 884d f92b 766a ef2f
00000020: 9319 d62e 5b4d 1427 0753 5936 b3ec ed2d
00000030: 7aaa a52e 5f86 bc2c 62b4 422f e06b 5e2e
00000040: 5059 892b b611 832f 526b 6a2e 7c60 a226
00000050: d8f2 a435 5d1d 402d 1c55 052e 9113 112c
00000060: 8409 9c2e 93bf b22d c905 dc2a 28aa d22e
00000070: 7b63 bc2d 2d7e 0226 ab36 1036 debf 912d
00000080: c7b1 4a2e 7eac 5e2c 1b1a ee2e 7905 082e
00000090: 7301 282b 384f 202f 9b5b 0f2e 1c9a 4626
000000a0: 55cd e734 9383 802c 02fb 2f2d 79ca 292b
000000b0: 78ac cf2d 3adf ee2c f6ef 112a 50c3 0c2e
000000c0: c2c1 fb2c f662 2e25 10cc 8c35 3104 262d
000000d0: c1f2 e62d fc58 fe2b 2e5a 872e e6a0 9a2d
000000e0: c404 bf2a 443d b62e f9f7 a22d 28c5 e125
000000f0: 1a44 1836 bfdf a92d 1860 6b2e 30db 7f2c
00000100: 79b7 092f e166 1e2e aacc 412b c3af 3a2f
00000110: 35f2 262e 9f47 6726 04a3 5337 fdab d52e
00000120: d9b8 932f 9b3d 9c2d dd86 2d30 b53b 472f
00000130: 2e41 742c 24cf 6a30 e7fa 512f d972 9127
00000140: ab51 2137 5200 a02e 99e1 5d2f c7a3 6c2d
00000150: 4a6b 0230 9563 152f 7acb 372c 8e10 3030
00000160: 6f72 1d2f c61e 5a27 870e ea34 f549 812c
00000170: 0604 302d 27b8 2a2b bfb5 d02d 2098 f02c
00000180: 81ab 122a 2cc7 0d2e 6492 fd2c d5a4 2f25
00000190: 957f 7e36 37d4 0d2e f88b c52e f13e e42c
000001a0: fe45 682f 4aaa 842e c1d5 a32b b05a 9c2f
000001b0: 38d2 8b2e b9b3 c126 9eec 9b37 1aac 2a2f
000001c0: ed10 ed2f 9ec2 052e a66f 8b30 4d98 9f2f
000001d0: 7697 c42c c417 bc30 1434 a82f 9405 e927
000001e0: b1d5 0f35 d7ee 9e2c 6abd 582d f3a2 512b
000001f0: 46df ff2d 549e 132d 51e8 332a 21fa 2d2e
00000200: a394 1b2d cc88 5725 4fa4 5136 b07e c22d
00000210: 3932 872e b7e5 8f2c e6f4 1e2f b4af 352e
00000220: 4e36 602b 1421 562f 9f7c 3f2e 77a3 8426
00000230: 8947 7c34 a33b 122c 653a c72c 9edc ab2a
00000240: 1da8 682d a8e3 862c 4985 a329 c4f8 9e2d
00000250: 6829 8e2c bcf1 c424 ee9f c234 51c9 4b2c
00000260: 10b4 0a2d a432 022b 8fba a12d 9aaf bc2c
00000270: ae96 e229 6760 de2d b7dc c62c 58bf 0925
00000280: 68a1 8a36 d6b7 1a2e 3454 d72e 1225 f82c
00000290: f80c 7d2f 7091 902e fa7d b22b 0362 aa2f
000002a0: cf5d 982e d014 d326 4aac c236 7ebe 4b2e
000002b0: c7f5 0c2f a246 162d c279 a52f c7e9 bd2e
000002c0: b1f8 e82b 4fd3 df2f 4428 c82e 18a5 0a27
000002d0: 67ce 4336 2c76 e22d b57f 9d2e 713b b22c
000002e0: b007 392f eaa1 532e e578 822b 076c 792f
000002f0: 370c 5f2e 1080 9a26 7c5c 2935 196d c02c
00000300: 9b63 842d 23e2 832b 4d9f 1b2e a8ca 322d
00000310: 16f3 5a2a a0b7 522e 816f 3c2d 6686 8225
00000320: a65e cd35 017d 652d 87a8 1e2e 27b5 2a2c
00000330: 5165 b82e e46c d52d 3d86 012b 1989 fb2e
00000340: f0ef e02d 26cf 1b26 b3c8 0f35 b1a0 aa2c
00000350: 1660 6c2d 733f 7e2b 0a9f 0a2e b6c1 1e2d
00000360: da6d 432a b81a 3b2e f551 272d 3fcc 6725
00000370: 2bc7 8835 fda0 1c2d 9569 d92d 2dd4 f22b
00000380: 5fc6 7e2e a4f1 912d d479 b32a 4401 ac2e
00000390: 07d1 992d 3e17 d525 77ea ca35 058b 642d
000003a0: 3316 1f2e 5ecb 302c eccd ba2e 4647 d52d
000003b0: dcdb 032b 9f5c fb2e 4cc8 e02d adb3 1b26
000003c0: 78e3 1036 d2b4 a42d e843 652e 2d77 802c
000003d0: ec9b 062f 2bb8 192e a2f3 3d2b fc2a 352f
000003e0: bc02 222e 5f71 6026 7215 fb34 b660 962c
000003f0: 270a 502d 7bc7 552b 3ceb f32d c8a1 0b2d

exp_avg f4 [128]
0.00030855372 0.00015341582 4.3458435e-06 7.070928e-05 1.5634057e-05 -4.311668e-06 0.00014800749 0.00026945482
0.00031356493 -3.051626e-05 0.0001788575 -0.0006162662 -5.2910614e-06 0.00012551612 8.994992e-05 3.731963e-05
-0.00016216713 0.00018854692 0.00018404193 -2.3018409e-07 -5.8436042e-05 -4.254686e-05 -9.026353e-06 7.0268805e-05
8.073198e-05 7.935755e-05 0.0001353963 2.9855291e-05 -5.2256342e-05 0.000105507796 0.00018989354 0.00011426108
0.00018563353 9.561316e-05 -1.6034253e-06 -0.00018837604 1.5205218e-05 -0.00015344858 -0.0001427829 -0.00012697883
-2.4512344e-06 -4.585856e-05 -0.00014693274 0.0002572317 -0.00021691206 -0.00022801531 7.229761e-05 -3.873761e-05
3.166958e-05 -7.645805e-05 -3.5974976e-05 0.00045937224 -2.364487e-06 -5.16152e-05 7.9995145e-05 -1.2354735e-05
0.00023691775 -0.0001676442 0.000406327 -0.0002605493 0.00024073792 9.42541e-05 -0.00029870385 0.00037423952
-0.00017146689 -0.00018070875 5.772517e-05 0.00023895844 -0.000121832694 -5.4005027e-06 -2.4712772e-05 3.9055783e-05
9.097314e-05 1.9600006e-05 0.00015774672 5.4437833e-06 -4.341346e-05 0.00010486044 4.1450923e-05 -0.00024123277
0.00015516483 0.00021461827 -0.00018039306 8.858008e-05 -9.483248e-05 -0.00014042626 -4.0429193e-05 0.00012162886
-7.430795e-05 0.00021862854 -5.1549294e-05 -0.000110358385 0.00023774286 -5.1118104e-06 -2.969256e-05 -0.00010813966
-0.00020122482 0.00011483169 0.00028525264 0.000104699444 0.00040361634 8.879155e-05 -3.9543727e-05 -0.00012200029
0.00026686233 -7.2334933e-06 0.00022974933 3.0568484e-05 0.00016036417 -0.0002575023 7.76778e-05 -6.078396e-06
-4.608267e-05 -0.00018821312 -0.0003378853 -0.000104324645 1.7488595e-05 2.4972613e-05 0.00015781642 2.5744737e-05
-0.00034582842 9.501597e-05 0.00040079982 0.00013319364 0.00023400589 -5.0194427e-05 -0.00012392912 -2.7127504e-05
00000000: 61c5 a139 3fde 2039 83d2 9136 c149 9438
00000010: e225 8337 f2ac 90b6 7532 1b39 9d45 8d39
00000020: f965 a439 2bfd ffb7 b28b 3b39 ed8c 21ba
00000030: df89 b1b6 fa9c 0339 7fa3 bc38 a687 1c38
00000040: 680b 2ab9 aeb4 4539 61fb 4039 8528 77b4
00000050: 3919 75b8 5874 32b8 e46f 17b7 475d 9338
00000060: a74e a938 c36c a638 2bf9 0d39 c071 fa37
00000070: d22d 5bb8 1144 dd38 291e 4739 739f ef38
00000080: 9fa6 4239 ed83 c838 4635 d7b5 cf86 45b9
00000090: ea19 7f37 0ae7 20b9 feb7 15b9 9f25 05b9
000000a0: e37f 24b6 4158 40b8 f511 1ab9 0edd 8639
000000b0: e372 63b9 6517 6fb9 7c9e 9738 317a 22b8
000000c0: f4d4 0438 1a58 a0b8 d6e3 16b8 e6d7 f039
000000d0: 94ad 1eb6 667d 58b8 11c3 a738 2f47 4fb7
000000e0: 206d 7839 a6c9 2fb9 4908 d539 569a 88b9
000000f0: 986e 7c39 49aa c538 5a9b 9cb9 9435 c439
00000100: cbcb 33b9 a37c 3db9 ee1d 7238 eb90 7a39
00000110: 6e80 ffb8 f735 b5b6 464e cfb7 d4cf 2338
00000120: d5c8 be38 b16a a437 d068 2539 bea9 b636
00000130: d916 36b8 85e8 db38 97db 2d38 6ef3 7cb9
00000140: beb3 2239 270b 6139 e527 3db9 11c4 b938
00000150: cde0 c6b8 633f 13b9 8492 29b8 ff12 ff38
00000160: c7d5 9bb8 a73f 6539 a236 58b8 3570 e7b8
00000170: 9d4a 7939 1e86 abb6 4914 f9b7 0ac9 e2b8
00000180: e0ff 52b9 cbd1 f038 f68d 9539 1692 db38
00000190: 789c d339 9a35 ba38 c1db 25b8 68da ffb8
000001a0: a8e9 8b39 3cb7 f2b6 dee8 7039 a936 0038
000001b0: 6e27 2839 6001 87b9 f4e6 a238 06f5 cbb6
000001c0: e448 41b8 135b 45b9 3326 b1b9 dec8 dab8
000001d0: 79b4 9237 477c d137 867b 2539 67f6 d737
000001e0: 4e50 b5b9 4f43 c738 7122 d239 e5a9 0b39
000001f0: 7a5f 7539 db87 52b8 f8f2 01b9 df8f e3b7

exp_avg_sq f4 [128]
1.0500538e-05 5.748543e-06 2.3098905e-06 3.5155008e-06 7.717151e-07 1.9982087e-06 4.09394e-06 2.0596986e-05
1.5443999e-05 7.7727816e-07 6.8575396e-06 3.29982e-05 9.538065e-07 4.6957407e-06 4.3577143e-07 6.0957603e-07
7.4728314e-06 9.816734e-06 5.469698e-06 1.1552285e-06 2.7580268e-06 1.0257795e-06 1.8859886e-06 2.7561177e-06
3.9729175e-06 9.021981e-07 1.0442369e-05 5.0911194e-07 2.255827e-06 2.3787009e-06 8.637014e-06 8.570194e-06
6.4979613e-06 2.435558e-06 1.7855522e-06 1.039812e-05 1.7852509e-06 8.071997e-06 5.2366067e-06 2.7447934e-06
6.5404174e-07 2.095344e-06 4.4119706e-06 1.0324874e-05 6.247897e-06 7.466443e-06 7.638591e-06 2.0999178e-06
1.4780118e-06 2.3183347e-06 3.366864e-07 2.2373859e-05 1.6696005e-06 5.6835256e-06 3.1939499e-06 6.0929136e-07
6.4098444e-06 5.8891524e-06 1.7658262e-05 8.795686e-06 9.435616e-06 2.0463742e-06 1.1520684e-05 1.5070894e-05
8.5170395e-06 7.9803785e-06 6.425737e-07 7.262534e-06 3.6062233e-06 1.0665616e-06 2.5067854e-06 6.7715328e-06
2.1270662e-06 5.1581997e-06 3.436617e-06 2.581523e-06 1.4376694e-06 3.6410945e-06 1.096882e-06 9.121811e-06
1.1819751e-05 1.3547446e-05 1.06635625e-05 4.652493e-06 2.6386213e-06 5.789071e-06 2.7980345e-06 6.6066136e-06
5.884858e-07 1.1366917e-05 2.3754915e-06 1.5202194e-06 6.8111863e-06 1.9415468e-06 1.5496935e-06 3.3317237e-06
6.7049455e-06 7.500058e-07 1.0890532e-05 1.9013788e-06 1.7783397e-05 1.1578009e-06 3.886259e-06 3.0921235e-06
1.532242e-05 8.4436056e-07 6.013269e-06 1.1629288e-06 5.0844983e-06 1.2498158e-05 3.360904e-06 1.3678161e-06
2.7458611e-06 5.1014576e-06 1.11094105e-05 2.3483494e-06 1.1162969e-06 1.0594548e-06 4.461169e-06 2.6217376e-06
1.468638e-05 1.1145352e-06 1.2649493e-05 5.5236483e-06 1.1748255e-05 2.792962e-06 2.6920072e-06 1.2625421e-06
00000000: 782b 3037 9ce3 c036 9e03 1b36 d8eb 6b36
00000010: dc27 4f35 f718 0636 ad5e 8936 b1c7 ac37
00000020: bc8d 8137 26a6 5035 d119 e636 8c67 0a38
00000030: 8b04 8035 1b90 9d36 f8f3 e934 bfa1 2335
00000040: 22bf fa36 8db2 2437 5988 b736 590d 9b35
00000050: 8a16 3936 84ad 8935 1322 fd35 bef5 3836
00000060: 1a4f 8536 952e 7235 a231 2f37 e8a9 0835
00000070: d062 1736 c5a1 1f36 b1e7 1037 b4c8 0f37
00000080: 1009 da36 9172 2336 1ba7 ef35 9673 2e37
00000090: c19c ef35 f76c 0737 1cb6 af36 3133 3836
000000a0: 6891 2f35 bc9d 0c36 8a0a 9436 ff38 2d37
000000b0: 07a5 d136 4288 fa36 8027 0037 50ec 0c36
000000c0: 1960 c635 b094 1b36 d4c1 b434 7faf bb37
000000d0: 0917 e035 1db5 be36 a457 5636 2f8e 2335
000000e0: 2514 d736 6f9b c536 d420 9437 2f91 1337
000000f0: aa4d 1e37 7154 0936 f648 4137 ffd8 7c37
00000100: 68e4 0e37 77e3 0537 547d 2c35 b1b0 f336
00000110: 7202 7236 c726 8f35 3f3a 2836 0637 e336
00000120: b8be 0e36 9914 ad36 a1a0 6636 3a3e 2d36
00000130: f2f5 c035 8759 7436 9438 9335 e109 1937
00000140: 724d 4637 d649 6337 a7e7 3237 9c1c 9c36
00000150: 2b13 3136 be3f c236 dec5 3b36 61ae dd36
00000160: 70f8 1d35 89b4 3e37 a26a 1f36 570a cc35
00000170: a58b e436 854b 0236 10ff cf35 9496 5f36
00000180: 0bfb e036 0254 4935 7bb6 3637 e132 ff35
00000190: 8e2d 9537 bc65 9b35 b666 8236 4782 4f36
000001a0: a588 8037 04a8 6235 96c5 c936 ee15 9c35
000001b0: 829b aa36 2eaf 5137 e48b 6136 ce95 b735
000001c0: 8945 3836 302d ab36 8e62 3a37 5698 1d36
000001d0: abd3 9535 9732 8e35 26b1 9536 1cf1 2f36
000001e0: 8665 7637 2397 9535 2939 5437 c757 b936
000001f0: 5f1a 4537 b96e 3b36 55a8 3436 9e74 a935
