Foosbots_working/results/train1/Foosbots_working/Foosbots_working-4992.onnx (onnx, 74687 bytes, 7 tensors)

action_model._continuous_distribution.log_sigma f4 [1, 2]
0	0x3b1cec36	0.0023944504
1	0xbb0cdc99	-0.002149379

action_model._continuous_distribution.mu.bias f4 [2]
0	0xbc8d520f	-0.017251043
1	0x3acde566	0.0015708625

action_model._continuous_distribution.mu.weight f4 [2, 128]
0	0xbd65dc57	-0.056118336
1	0xbca82bc2	-0.020528678
2	0xbc1f56e3	-0.009725305
3	0x3c16bf48	0.009200878
4	0xbd882ec1	-0.066495426
5	0xbd53b07b	-0.051681977
6	0xbccbfca3	-0.02490074
7	0x3c7629d5	0.015024622
8	0xbd1085ef	-0.03528398
9	0xbce2f3c6	-0.02770413
10	0x3d34be48	0.04412678
11	0xbcf89428	-0.030344084
12	0x3d89b1fa	0.067233995
13	0x3d94f686	0.07273583
14	0xbc961369	-0.018319802
15	0x3c077625	0.008267914
16	0x3c27d9e8	0.010244824
17	0x3d3392b3	0.043841075
18	0xbd37edfd	-0.044904698
19	0xbd369299	-0.0445734
20	0x3d237be9	0.03991309
21	0x3da278ef	0.079332225
22	0x3d29ef9b	0.04148827
23	0x3d67de7b	0.05660866
24	0xbd703af1	-0.05864996
25	0xbd51c798	-0.051215738
26	0x3d4eb2f9	0.05046365
27	0xbd58c8a4	-0.05292572
28	0xbcdc5cfb	-0.026899805
29	0xbd845378	-0.06461233
30	0xbc294139	-0.010330492
31	0xbcbb3db5	-0.022856573
32	0xbcaaf3fa	-0.02086829
33	0x3d365c97	0.044521894
34	0xbad97f06	-0.0016593642
35	0x3b64afb0	0.0034894757
36	0x38713dac	5.7516314e-05
37	0xbcdf9f21	-0.027297558
38	0xbd40433e	-0.046939127
39	0x3bdbe8a4	0.0067110825
40	0x3c0f1b5d	0.008734551
41	0x3d31db2b	0.043421905
42	0xbc4dd0f4	-0.012562025
43	0x3b9fc478	0.004875716
44	0xbbd97ba9	-0.006637056
45	0xbce775bc	-0.028254382
46	0xbd6a1f85	-0.057158966
47	0x3d326f19	0.043562982
48	0x3d26b57b	0.040700417
49	0x3c74df52	0.014945822
50	0xbd5c8968	-0.05384198
51	0xbd56010f	-0.052247103
52	0xbd7393c3	-0.05946709
53	0xbd0c2b9b	-0.034221273
54	0xbccc3646	-0.024928223
55	0xbc5147d4	-0.012773473
56	0xbcf733ec	-0.030176125
57	0x3d224481	0.03961611
58	0x3aae476d	0.0013296433
59	0x3d0d5300	0.034502983
60	0xbd4ad573	-0.049519967
61	0x3c7f1846	0.015569752
62	0xbb4cf473	-0.0031273633
63	0x3d0db797	0.034598913
64	0xbd4c3426	-0.04985442
65	0x3ce85645	0.028361449
66	0xbd4fd5e3	-0.050741088
67	0x3ca2174b	0.019786498
68	0xbcfd46b1	-0.030917497
69	0xbd2b4320	-0.041812062
70	0x3ab08a81	0.0013469012
71	0xbda83988	-0.08214098
72	0xbd7c5c2f	-0.06161135
73	0x3d674522	0.056462415
74	0x3d285d26	0.04110446
75	0x3cdb386a	0.026760299
76	0x3bec3b3c	0.0072092097
77	0x3c91ecba	0.017813075
78	0x3b2f4079	0.002674131
79	0xbd34e8a8	-0.04416719
80	0x3d368d6b	0.04456846
81	0x3d14ac7d	0.03629731
82	0xbcb07bd1	-0.021543415
83	0x3d4144d1	0.04718477
84	0x3c5099bd	0.012731967
85	0xbcef47bc	-0.02920901
86	0xbd68cab3	-0.056833934
87	0x3d1a52e4	0.037676707
88	0x3c7f310a	0.015575657
89	0xbd8b1964	-0.06791952
90	0x3d07a0df	0.033112403
91	0xbd5ef16c	-0.054429457
92	0x3d0060f8	0.031342477
93	0xbd544f45	-0.05183341
94	0xbd16cbf9	-0.036815617
95	0xba9413e6	-0.0011297434
96	0x3d841b14	0.06450477
97	0xbcb0c16d	-0.021576608
98	0xbcedfd8b	-0.029051563
99	0xbd168db0	-0.036756217
100	0x3c4abcca	0.012374112
101	0xbc86e97b	-0.016468754
102	0x3ccb3e1d	0.024809891
103	0x3d6c1fc0	0.057647467
104	0x3bd48e17	0.006486665
105	0x3d15142d	0.036396194
106	0x3d242a60	0.040079474
107	0xbd769669	-0.060202036
108	0x3d353dbd	0.04424833
109	0x3d091edd	0.0334767
110	0x3bf43561	0.0074526523
111	0x3d2b36b3	0.041800212
112	0x3d4224ca	0.047398366
113	0x3d635820	0.055503964
114	0x3cc555fd	0.024088854
115	0x3d36c3ce	0.044620328
116	0xbd250c5e	-0.040294997
117	0xbd180b2f	-0.03712004
118	0x3d0b00b9	0.033936236
119	0x3d45fbd0	0.04833585
120	0xbcf53ca2	-0.029936139
121	0xbc1c5e8a	-0.009544024
122	0x3caf59b2	0.021405075
123	0xbcc6fb3d	-0.024289722
124	0x3d3a02c7	0.045412805
125	0xbd80d8e6	-0.0629137
126	0x3c048fad	0.008090896
127	0x3d353ce4	0.044247523
128	0x3b9b3851	0.004736938
129	0x3c41b8f5	0.011823882
130	0xbca4f6e9	-0.020137267
131	0xbd0444d9	-0.03229222
132	0xbcacd48d	-0.021097446
133	0x3cd318d4	0.025768675
134	0x3b7f0d3f	0.0038917807
135	0xbc7f2e58	-0.015575014
136	0x3b9da06e	0.0048103845
137	0x3b91b222	0.004446284
138	0xbbf6ee0b	-0.007535701
139	0xbc2d7f6b	-0.010589461
140	0xbc59db99	-0.013296985
141	0x3cc3ca96	0.023900311
142	0xbd081157	-0.03321966
143	0xbc89c8cc	-0.01681938
144	0x3ca268a6	0.01982529
145	0xbceaa045	-0.028640876
146	0xbc5fece3	-0.013667318
147	0xbcae309d	-0.021263415
148	0x3c46f4ae	0.012143297
149	0x3aa46e2b	0.001254504
150	0xbc80caf5	-0.015721777
151	0xbbe1d8ed	-0.0068923146
152	0x3c007ca8	0.00784222
153	0xbcf8c79b	-0.030368617
154	0x3c8765df	0.016528068
155	0x3c601a9e	0.013678221
156	0xbb047e12	-0.0020216745
157	0xbc6a45ad	-0.014298839
158	0x3c92611f	0.017868577
159	0x3ce4a628	0.02791126
160	0x3c0b3e46	0.008498734
161	0xbca84339	-0.020539867
162	0x3c8b41e8	0.0169992
163	0x3cd6d5d6	0.026225012
164	0xb8b63f80	-8.690264e-05
165	0xbac2378a	-0.0014817577
166	0x3b01ae47	0.0019787715
167	0x3c4a850b	0.0123608215
168	0xbcbcd598	-0.023051068
169	0xbc27962e	-0.010228677
170	0x3c67f48a	0.014157424
171	0x3d2c79eb	0.042108458
172	0x3bf207f3	0.0073862015
173	0x3c9301bc	0.017945163
174	0xbbaf97b5	-0.005358661
175	0x3c5ba82d	0.013406795
176	0x3c529c7e	0.012854693
177	0xbc314222	-0.01081899
178	0xbcd95b0d	-0.026532674
179	0xbcbe73a6	-0.023248505
180	0xbcd87edf	-0.026427684
181	0x3baeab16	0.0053304536
182	0x3c738bf5	0.014864911
183	0xbd424382	-0.04742766
184	0xbd04ebae	-0.032451324
185	0x3ccb66f2	0.024829362
186	0xbce2d614	-0.027689971
187	0x3c0978b2	0.008390592
188	0xbd017534	-0.031605914
189	0x3c8bba27	0.017056538
190	0x3bc64a25	0.006051319
191	0xbc876b8f	-0.01653078
192	0xbc7e9aaf	-0.015539809
193	0x3c28130e	0.010258449
194	0xbd16b68a	-0.036795177
195	0x3b637a6b	0.0034710418
196	0x3c47980c	0.012182247
197	0x3b1cda38	0.002393378
198	0xbaf89622	-0.0018965642
199	0x3b80ed06	0.0039345054
200	0xbc63d6c9	-0.013906189
201	0x3b323d40	0.0027197152
202	0x3b9b702a	0.0047435956
203	0xbd071650	-0.032980263
204	0xbc8b3aed	-0.016995871
205	0x3ccc390b	0.024929544
206	0x3c29b286	0.010357505
207	0xbbd36339	-0.0064510372
208	0xbc84adc8	-0.016196147
209	0xbc5f77d3	-0.013639408
210	0xb9505c20	-0.00019870745
211	0xbc8d7c4f	-0.017271189
212	0xbccca8d2	-0.024982844
213	0x3cc87ea0	0.024474442
214	0xbccba86b	-0.024860581
215	0x3b5dd47c	0.0033848574
216	0xbc76b0c8	-0.015056796
217	0xbc02ed69	-0.007991173
218	0xbb962e90	-0.0045831874
219	0x3c843ef7	0.016143305
220	0xbccfa75b	-0.025348356
221	0x3ae2dba6	0.0017307892
222	0x3d0720c1	0.03299022
223	0x3a8d6971	0.001078887
224	0x3bb0562f	0.0053813676
225	0xbcbd836d	-0.023133958
226	0xbca2a946	-0.019856106
227	0x3c51242e	0.012764974
228	0x3c73225d	0.014839736
229	0x3cb890f1	0.022530051
230	0xbc85b9b4	-0.016323902
231	0xbc44ea61	-0.012018771
232	0x3cba46cb	0.022738835
233	0x3c7be91b	0.015375401
234	0xbb9a7bb5	-0.004714454
235	0x3d012c43	0.031536352
236	0x3bb45c6f	0.005504183
237	0xbc00c7a9	-0.007860103
238	0xbcbeb4d0	-0.023279577
239	0xbc59505f	-0.013263791
240	0x3a9ffa93	0.0012205414
241	0x3c093f8e	0.008376969
242	0xbbead9fa	-0.007167098
243	0xbc4a0fdd	-0.012332884
244	0xbb6ee8e1	-0.0036454725
245	0x3c63e241	0.013908924
246	0xbbac7b1e	-0.0052637
247	0x3b1f4640	0.0024303347
248	0x3cb1e13c	0.021713845
249	0x3c103c34	0.008803416
250	0xbbc97f7d	-0.006149231
251	0x3bac38f2	0.005255812
252	0xbbf25839	-0.007395771
253	0xbcb0a2c5	-0.02156199
254	0x3c194ef2	0.009357201
255	0xbc504e0c	-0.01271392

network_body._body_endoder.seq_layers.0.bias f4 [128]
0	0xbca5fa75	-0.020261029
1	0xbc341d44	-0.010993306
2	0xbcd1b826	-0.025600504
3	0x3cde6b94	0.027150907
4	0xbc9038b1	-0.017605158
5	0xbcb33b4b	-0.021878859
6	0xbc9839ce	-0.01858225
7	0x3c850dc6	0.01624192
8	0x3cdccfa6	0.026954483
9	0xbcaec211	-0.021332772
10	0x3bbd9e38	0.0057866834
11	0x3c96abf6	0.018392544
12	0x3cd4de3e	0.02598488
13	0x3d1a35fb	0.037649136
14	0xbc5e7a67	-0.013578988
15	0x3cdd8a69	0.027043538
16	0xbcfac221	-0.030610146
17	0xbc7caba0	-0.015421778
18	0x3cc850ef	0.024452655
19	0xbc809bc4	-0.015699275
20	0x3d16e237	0.03683683
21	0x3cb847e4	0.022495218
22	0xbcb72fd9	-0.022361683
23	0xbca1dcf7	-0.019758685
24	0xbc9b7c11	-0.018980058
25	0x3caa3616	0.020777743
26	0xbca08b9f	-0.019597827
27	0xbca6324a	-0.020287652
28	0x3cc8f735	0.02453194
29	0xbca2eb01	-0.01988745
30	0x3cc66963	0.024220174
31	0x3cf740f7	0.030182345
32	0xbc0a729d	-0.0084501775
33	0x3ca600be	0.020264026
34	0x3d1df060	0.038559318
35	0x3c049497	0.008092067
36	0xbc694122	-0.01423672
37	0xbc894073	-0.016754365
38	0xbcfddd9d	-0.030989463
39	0x3d1b4222	0.037904866
40	0x3cc744ec	0.024324857
41	0x3ce549cc	0.02798929
42	0xbca6f8de	-0.020382341
43	0xbca897ea	-0.02058025
44	0xbcb215ba	-0.021738876
45	0xbbb509fe	-0.005524873
46	0xbc8f081f	-0.017459927
47	0xbc9be136	-0.019028287
48	0xbca546fb	-0.020175448
49	0xba321cbb	-0.00067944423
50	0xbcb20b28	-0.021733835
51	0xbcb6421c	-0.02224832
52	0x3cd4842f	0.025941936
53	0xbcc09eab	-0.023513159
54	0x3ccbbea2	0.024871174
55	0x3c8ed9e0	0.017437875
56	0xbc830c41	-0.015997054
57	0x3ce1792a	0.027523596
58	0x3c92c258	0.017914936
59	0x3cc1aea1	0.02364284
60	0xbc7a1e84	-0.015266065
61	0x3af021d4	0.0018320628
62	0xbcfa709c	-0.030571274
63	0xbc75c2b9	-0.015000039
64	0x3ca02e82	0.019553427
65	0x3cd400c8	0.025879279
66	0x3cf57306	0.029962074
67	0xbcc1fccc	-0.023680113
68	0x3d0210d6	0.031754337
69	0xbc35260c	-0.011056434
70	0xbcb2fa90	-0.021847993
71	0x3cd0b0c0	0.025474906
72	0x3cf04c65	0.029333303
73	0x3abb4a81	0.0014289172
74	0xbc103ade	-0.0088030975
75	0xbc87fd76	-0.016600352
76	0x3d036797	0.032081213
77	0xbccf2f92	-0.025291238
78	0xbc79b753	-0.015241462
79	0xbc7d951e	-0.015477447
80	0x3cfc19a8	0.030773953
81	0xbcc62543	-0.02418769
82	0xbca11d92	-0.01966742
83	0x3cfda13b	0.03096067
84	0xbcc934f1	-0.024561377
85	0x3cff2cd5	0.031149307
86	0x3cadc039	0.021209823
87	0xbc4abccb	-0.012374113
88	0xbcd31d28	-0.025770739
89	0x3ca30c14	0.01990322
90	0x3c91f862	0.017818633
91	0x3bc164e8	0.0059019215
92	0x3cd9ae9b	0.026572516
93	0xbc574d82	-0.013141038
94	0xbcb91ec2	-0.022597674
95	0x3d01eac6	0.031718038
96	0xbc38d1f7	-0.011280528
97	0xbca9475a	-0.020663906
98	0xbcd4720c	-0.025933288
99	0xbc770dde	-0.01507899
100	0x3cd318dc	0.02576869
101	0x3cba0f37	0.022712333
102	0x3c8b0c77	0.016973717
103	0x3cd07f30	0.025451273
104	0x3d06a54e	0.03287249
105	0x3c4ee1e5	0.0126271
106	0xbca72946	-0.020405423
107	0xbccd2a11	-0.025044473
108	0xbcb7937f	-0.022409199
109	0xbcb5adfe	-0.022177693
110	0x3ca2f1ac	0.019890629
111	0xbc751a69	-0.01495991
112	0x3b2d824d	0.002647537
113	0xbca5b925	-0.020229885
114	0xbcc8b247	-0.024499072
115	0xbcf2c39f	-0.029634295
116	0x3c7d34ea	0.01545451
117	0x3c9130f5	0.01772354
118	0x3ca73717	0.020412011
119	0x3c927844	0.017879613
120	0xbc7662cd	-0.015038204
121	0xbca17dbe	-0.019713279
122	0x3b5b1e60	0.0033434853
123	0x3ccee43e	0.025255319
124	0x3c830a84	0.015996225
125	0x3cb65201	0.0222559
126	0xbca52392	-0.020158563
127	0x3d02795c	0.03185402

network_body._body_endoder.seq_layers.0.weight f4 [128, 10]
0	0xbd4a2f07	-0.049361255
1	0xbe0d3f85	-0.13793762
2	0xbee7657a	-0.45194608
3	0xbee03512	-0.4379049
4	0x3da06871	0.078324206
5	0xbdd6bad1	-0.10484851
6	0x3d8db6f8	0.06919664
7	0x3e84c6a4	0.259328
8	0x3d670694	0.056402758
9	0xbe9a267d	-0.3010749
10	0xbef55d99	-0.47922972
11	0x3db7a6bb	0.08967348
12	0xbe16d002	-0.14727786
13	0x3e3c726a	0.1840302
14	0xbf264846	-0.6495403
15	0xbee4e05a	-0.44702417
16	0x3df246ab	0.11829885
17	0x3cf311e1	0.029671611
18	0xbc46b772	-0.012128698
19	0x3e7f3a15	0.249245
20	0xbe942b65	-0.28939357
21	0xbeb72033	-0.35766754
22	0xbdb3151c	-0.08744261
23	0xbe2d4bad	-0.169234
24	0x3c9135bd	0.01772582
25	0x3e4740af	0.19458269
26	0xbe27a623	-0.1637197
27	0xbf093ddb	-0.5361001
28	0xbe5d3d83	-0.21605496
29	0xbe13759a	-0.1440033
30	0x3eb6781c	0.3563851
31	0xbe0ffb4d	-0.14060707
32	0xbe35b261	-0.17743827
33	0xbef4befa	-0.47801954
34	0x3f023e27	0.50876087
35	0x3f2d649a	0.6773163
36	0x3daef518	0.08542842
37	0xbd10e1fa	-0.035371758
38	0x3f1f2fbf	0.6218223
39	0xbec480a0	-0.38379383
40	0xbe59744c	-0.2123577
41	0xbdce6319	-0.10077495
42	0x3e89585c	0.26825225
43	0x3e5efb65	0.21775587
44	0xbd82db47	-0.0638948
45	0x3dc7587a	0.097336724
46	0x3db26759	0.08711118
47	0xbf044fab	-0.51684064
48	0xbecbcf4c	-0.39806592
49	0x3ce6c6c5	0.028170953
50	0xbd990137	-0.07470935
51	0x3d3f3333	0.046679687
52	0xbede9f36	-0.43480843
53	0xbd8f6a94	-0.0700275
54	0xbef54a0b	-0.47908053
55	0xbecabdf9	-0.39598063
56	0xbeecfbdd	-0.46285906
57	0xbee90069	-0.45508125
58	0x3cfd5997	0.030926509
59	0x3e6f6f9a	0.23382416
60	0xbe741cd0	-0.23839116
61	0xbe318518	-0.17335927
62	0xbf0161ac	-0.5053966
63	0xbe8a597e	-0.27021402
64	0x3ddf1635	0.108929075
65	0x3df8e398	0.12152785
66	0x3e7c5285	0.24640854
67	0xbd990e84	-0.07473472
68	0xbdf7f466	-0.12107162
69	0x3d9e9d03	0.07744791
70	0x3f0470d4	0.5173466
71	0xbdcf50f4	-0.101228625
72	0xbf2b874c	-0.6700332
73	0x3c042427	0.00806526
74	0x3df8ed91	0.12154687
75	0x3e9d34e7	0.30704424
76	0xbd3b234b	-0.045687955
77	0xbea3e6e1	-0.32012084
78	0x3e16ffbc	0.14745992
79	0xbe443fbe	-0.1916494
80	0x3e01e653	0.12685518
81	0xbe559756	-0.20858511
82	0xbc1f1b0f	-0.009711041
83	0xbf187b4d	-0.5956314
84	0x3c7fe98d	0.015619648
85	0x3e490bab	0.19633357
86	0x3dd9a991	0.10628045
87	0xbc2d67b5	-0.010583808
88	0xbed212ee	-0.41030067
89	0x3d8169f3	0.06319036
90	0xbdef11e5	-0.11673335
91	0xbe0a2443	-0.13490395
92	0xbe5d8147	-0.21631347
93	0xbe2fac98	-0.17155683
94	0x3dea44df	0.11438917
95	0x3e1543cf	0.14576648
96	0x3ecdfb3b	0.40230736
97	0x3d8ed574	0.06974307
98	0x3e136cda	0.14396992
99	0xbef63eda	-0.48094827
100	0x3e1da32d	0.15394278
101	0xbd969384	-0.07352355
102	0xbebfcb88	-0.3745997
103	0x3eecc277	0.46242115
104	0x3e43acf8	0.19108951
105	0xbb3d9830	-0.0028929822
106	0xbec7d32b	-0.39028296
107	0xbdb47a97	-0.08812445
108	0x3e0d6366	0.13807449
109	0xbdc3b30a	-0.09555633
110	0x3e08c194	0.13355094
111	0x3edebd75	0.4350392
112	0x3f174855	0.59094745
113	0xbe1344c2	-0.14381698
114	0x3f0b95c6	0.5452541
115	0x3ee41c73	0.44552955
116	0xbda977e1	-0.08274818
117	0x3f060ea4	0.5236609
118	0x3db3f427	0.08786803
119	0x3efd29ce	0.49445957
120	0x3e8fa415	0.28054872
121	0x3da88169	0.08227808
122	0x3ebd9e1d	0.37034693
123	0x3e49f096	0.19720683
124	0x3eb17753	0.3466135
125	0xbeb3c3d8	-0.35110354
126	0x3e639293	0.22223882
127	0x3ebac9b0	0.36482
128	0x3ee80bb7	0.45321438
129	0xbe2f097b	-0.1709346
130	0x3eb4701a	0.35241777
131	0x3e177098	0.14789045
132	0xbe1ce525	-0.15321787
133	0x3e925239	0.28578356
134	0x3ee4e167	0.44703218
135	0xbeab715d	-0.33484927
136	0xbef0eb11	-0.4705434
137	0x3e54db27	0.20786725
138	0xbde7bc6d	-0.11315236
139	0xbebdbd9d	-0.37058726
140	0xbb95d259	-0.0045721945
141	0x3e33b7d1	0.17550589
142	0x3e9ec0a8	0.3100636
143	0xbee83fe6	-0.4536125
144	0x3e1ce8ea	0.15323225
145	0xbd5b5d93	-0.053556036
146	0xbea80ee4	-0.3282386
147	0xbe2ede35	-0.17076953
148	0xbeb8a7e8	-0.36065602
149	0x3c6ad745	0.014333551
150	0x3cfa657d	0.030565972
151	0xbec0b56e	-0.3763842
152	0xbc9fc9a3	-0.019505328
153	0xbdc6a4c5	-0.09699396
154	0xbf0cb1ae	-0.5495862
155	0x3e08b99c	0.13352054
156	0xbe471470	-0.1944139
157	0xbd08f79b	-0.03343926
158	0x3f195e7b	0.5990979
159	0xbe3c3bf4	-0.18382245
160	0xbd991ace	-0.07475816
161	0x3ed2d647	0.41179106
162	0xbd6ea3b4	-0.05826159
163	0xbec93be6	-0.3930351
164	0x3c499d25	0.012305533
165	0xbe843eea	-0.2582925
166	0x3e55f6f2	0.20894983
167	0x3dc9f0c2	0.09860374
168	0xbea74d8e	-0.32676357
169	0xbdc9195f	-0.09819292
170	0xbf3ac6d3	-0.7295963
171	0x3eae45bb	0.34037575
172	0xbe17f4fa	-0.14839545
173	0xbdf13725	-0.11778096
174	0xbebbb0a2	-0.36658198
175	0xbe2b636b	-0.16737144
176	0x3da432ba	0.08017488
177	0x3d8bd0da	0.06826945
178	0x3eb9464a	0.3618644
179	0xbf1b1766	-0.6058258
180	0x3e5e08fd	0.21683116
181	0x3db38a95	0.08766667
182	0xbf102745	-0.5630992
183	0xbe5c5522	-0.2151685
184	0xbece65d2	-0.40312058
185	0x3f5ed711	0.87046915
186	0xbe35c108	-0.17749417
187	0xbed9b3cc	-0.42519987
188	0xbda04d84	-0.07827285
189	0xbeeda635	-0.46415868
190	0xbedaa1e8	-0.4270165
191	0xbe2e1490	-0.17000031
192	0x3e042608	0.12905133
193	0xbe2f3e6e	-0.17113659
194	0x3eca1a7d	0.39473334
195	0xbe8e90a1	-0.27844718
196	0x3ea821c6	0.32838267
197	0x3df5c821	0.12001062
198	0xbf526e6f	-0.8219976
199	0x3e944f83	0.28966913
200	0x3e7ef9d9	0.24899997
201	0xbce8c543	-0.028414374
202	0xbe566689	-0.20937552
203	0xbed43301	-0.41445163
204	0xbe8567b9	-0.26055697
205	0xbe8bf111	-0.27332357
206	0x3f0b46cc	0.544049
207	0xbdfb01f1	-0.1225623
208	0x3e036b5d	0.12833925
209	0xbf0ce550	-0.55037403
210	0x3c4f8bf4	0.012667645
211	0x3e8c89d0	0.27448893
212	0x3ec6a539	0.3879793
213	0x3e2d5e96	0.16930613
214	0x3ea93168	0.33045506
215	0x3cf11f5a	0.029433895
216	0xbecb2eca	-0.39684135
217	0xbf194ae7	-0.59879917
218	0x3ea4aa9c	0.32161415
219	0xbe9773f3	-0.2958065
220	0xbdb6dab8	-0.08928436
221	0x3ee19217	0.4405677
222	0xbde01b05	-0.109426536
223	0x3ecba8cb	0.39777216
224	0x3e330903	0.17483906
225	0xbd80b2e0	-0.06284118
226	0x3f24db5a	0.64397204
227	0xbd2ed6b5	-0.04268523
228	0xbde3f5f1	-0.11130894
229	0x3e3064d1	0.17225958
230	0xbe28566a	-0.16439214
231	0xbe1e6e1a	-0.15471688
232	0xbe6b80f1	-0.22998406
233	0x3e4915fc	0.19637293
234	0xbe9804df	-0.29691216
235	0xbee93040	-0.45544624
236	0xbe78288e	-0.2423422
237	0x3e0b3ccc	0.13597411
238	0x3e09964d	0.13436241
239	0xbe255377	-0.1614512
240	0xbf042bb5	-0.5162919
241	0x3f295d11	0.66157633
242	0x3da5d082	0.0809641
243	0x3e782dd4	0.24236232
244	0xbc13f7b5	-0.009031226
245	0x3eebe7e3	0.46075353
246	0x3e3331c3	0.17499451
247	0xbe8904df	-0.2676153
248	0x3e61ec27	0.22062741
249	0x3e43daf5	0.19126494
250	0x3dc79555	0.0974528
251	0x3d1e5e5a	0.0386642
252	0x3ed53457	0.41641495
253	0xbdad261a	-0.08454533
254	0xbd0aa930	-0.033852756
255	0xbe4e3488	-0.20137227

network_body._body_endoder.seq_layers.2.bias f4 [128]
0	0x3cdbe306	0.026841652
1	0x3c65dbb3	0.014029431
2	0xbbbbcd33	-0.0057312488
3	0xbb6f29e4	-0.0036493475
4	0x3cc4bfc6	0.024017226
5	0x3c963303	0.018334871
6	0x3cab1f16	0.020888846
7	0xbc55dd5e	-0.013053266
8	0x3ccc49bc	0.024937503
9	0x3cb81cb3	0.022474622
10	0xbc7d2a7a	-0.015452022
11	0x3cabee36	0.020987611
12	0xbc7f505a	-0.015583122
13	0xbc5bc525	-0.013413702
14	0x3ac25b63	0.0014828261
15	0xbc102b49	-0.0087993825
16	0x37c6f3b7	2.3716928e-05
17	0xbc38980d	-0.0112667205
18	0x3cdb65c9	0.026781933
19	0x3ca7565d	0.020426923
20	0xbcac2ef2	-0.021018479
21	0xbc802ebc	-0.015647285
22	0xbc9895ec	-0.018626176
23	0xbc9ee2a3	-0.019395178
24	0x3cd64f5c	0.026160888
25	0x3c3ca136	0.011513045
26	0xbbd08ba5	-0.006364303
27	0x3cd3def7	0.025863154
28	0x3ca53692	0.020167623
29	0x3ccb19bd	0.024792546
30	0x3b6c3f07	0.003604831
31	0x3c1a11eb	0.009403686
32	0x3c91fd6d	0.017821038
33	0xbc89e8af	-0.016834585
34	0x3bb0ef6e	0.005399636
35	0x3a94b293	0.0011344723
36	0x3ba1ad28	0.004933972
37	0x3c884eb3	0.01663909
38	0x3cdef245	0.027215132
39	0xbb74a38f	-0.0037328934
40	0xbbab2779	-0.0052232114
41	0xbc8f1a36	-0.017468553
42	0x3beba1a5	0.0071909004
43	0xba803e63	-0.0009784218
44	0x392cabc8	0.00016467192
45	0x3c5a1927	0.013311661
46	0x3c6a7aa1	0.014311464
47	0xbc44e03c	-0.012016352
48	0xbcb0f471	-0.021600934
49	0xbc7cbd5f	-0.015426009
50	0x3c882d35	0.016623119
51	0x3cb8e29a	0.02256899
52	0x3c9df663	0.019282525
53	0x3cf46d23	0.029837197
54	0x3c7ff785	0.015622978
55	0xbad38b05	-0.0016139454
56	0x3b8a69ec	0.0042240527
57	0xbc1530ef	-0.009105905
58	0xbb227c2a	-0.0024793246
59	0xbcb2689a	-0.021778394
60	0x3c5a3a79	0.013319605
61	0xbc0af820	-0.008482009
62	0x3c1858f9	0.0092985565
63	0xbc9382f5	-0.018006781
64	0x3cb8b79e	0.022548493
65	0xbc61ef71	-0.013789997
66	0x3c42de03	0.011893752
67	0xbca5e1cd	-0.020249272
68	0x3ca6f721	0.020381512
69	0x3cf767b5	0.030200819
70	0xbc981252	-0.018563423
71	0x3ccfb4b1	0.025354715
72	0x3cceeeaf	0.025260298
73	0xbc8153f5	-0.015787104
74	0xbc413758	-0.01179298
75	0xbc30c859	-0.010789954
76	0xbc067d81	-0.008208633
77	0xbbfe31d4	-0.007757405
78	0xbb43131c	-0.0029766029
79	0x3ce02dd6	0.027365606
80	0xbca944de	-0.020662721
81	0xbc87404d	-0.016510153
82	0x3ca8ee9f	0.020621596
83	0xbcab34b4	-0.020899154
84	0xbc0babfa	-0.008524889
85	0x3c692ae2	0.014231415
86	0x3c8e2a1b	0.017354062
87	0xbc3f6980	-0.011682868
88	0xbc3e0575	-0.011597981
89	0x3cd51cfd	0.0260148
90	0xbcab7bda	-0.02093308
91	0x3cc7ad99	0.02437477
92	0xbc65830c	-0.014008295
93	0x3cec95d8	0.028880045
94	0x3c746654	0.014916975
95	0x3c01b179	0.007915848
96	0xbc7f756d	-0.015591961
97	0x3b5ec2d3	0.0033990636
98	0x3c36981d	0.011144665
99	0x3cbbc862	0.022922698
100	0xbc11d7f6	-0.008901587
101	0x3c500339	0.012696081
102	0xbc84e2ca	-0.016221423
103	0xbc8e6cdd	-0.017385894
104	0xbb6420f0	-0.0034809671
105	0xbc9337c1	-0.017970921
106	0xbcabdc49	-0.020979064
107	0x3cb1baae	0.021695461
108	0xbcc4b108	-0.024010196
109	0xbcb26515	-0.021776715
110	0xbbcf9df1	-0.0063359668
111	0xbc9332b5	-0.017968515
112	0xbc9fd2a7	-0.019509627
113	0xbc85fec9	-0.016356843
114	0xbcb04561	-0.021517457
115	0xbcac9eed	-0.021071875
116	0x3cdba193	0.026810443
117	0x3cba0078	0.022705302
118	0xbccbed7d	-0.024893517
119	0xbcb2c3f9	-0.021821963
120	0x3c74a6f2	0.014932381
121	0x3c30df3b	0.01079541
122	0xbc9d9d78	-0.019240126
123	0x3ca18ece	0.019721415
124	0xbc6c1d0c	-0.014411222
125	0x3ca86d9d	0.02056008
126	0xbc045afb	-0.008078332
127	0xbc86a84f	-0.016437678

network_body._body_endoder.seq_layers.2.weight f4 [128, 128]
0	0xbdaf99c9	-0.08574254
1	0x3be2a36e	0.006916455
2	0xbcb2ed7e	-0.02184176
3	0x3da6e9c8	0.08150059
4	0x3d0162cd	0.031588364
5	0xbdeddd67	-0.11614495
6	0xbc74bff0	-0.01493834
7	0x3d4fe6c8	0.0507572
8	0xbd76c83e	-0.06024956
9	0xbe9ba843	-0.3040181
10	0x3c44065a	0.011964405
11	0x3d6d53cf	0.057941254
12	0x3d595d27	0.053067353
13	0xbd94a89a	-0.07258721
14	0xbcc9fb05	-0.024655828
15	0x3cf212fe	0.029550072
16	0xbd1988b2	-0.03748388
17	0xbd4ebae2	-0.050471194
18	0x3d24f0b1	0.040268604
19	0x3d7c466c	0.061590597
20	0xbc4b473d	-0.012407121
21	0xbd86f6df	-0.06590056
22	0x3db67d15	0.08910576
23	0x3d7a683b	0.06113456
24	0xbdc1a8e1	-0.09456039
25	0xbda16b77	-0.078818254
26	0xbd67af6a	-0.056563772
27	0xbd200941	-0.039071325
28	0x3dd304ec	0.10303673
29	0x3d778b70	0.060435712
30	0x3dd581d5	0.10425154
31	0xbcc34ff5	-0.023841837
32	0xbbb971b8	-0.0056593083
33	0x3e2864f8	0.16444767
34	0x3e3e1ac4	0.18564898
35	0xbdaae080	-0.08343601
36	0x3d0cc936	0.034371577
37	0xbdd2b6f9	-0.102888055
38	0x3d10b8a8	0.035332352
39	0xbd5f72ae	-0.054552726
40	0x3e07e034	0.1326912
41	0xbe28afd2	-0.1647332
42	0xbe593e72	-0.21215227
43	0xbd280db5	-0.041028697
44	0xbe6486f6	-0.22317109
45	0xbd5b9ccc	-0.05361633
46	0x3c740c33	0.014895487
47	0xbc8c3aa2	-0.017117802
48	0xbce407f8	-0.027835831
49	0xbcb29e11	-0.021803888
50	0xbe02cc79	-0.12773313
51	0xbd00f3e6	-0.0314826
52	0xbd98bc13	-0.07457747
53	0xbda12c7a	-0.07869811
54	0x3dfabb82	0.122427955
55	0x3dda3284	0.10654166
56	0xbd2915b2	-0.041280456
57	0x3c0063b0	0.007836267
58	0xbd9b166c	-0.07572636
59	0x3d4ed392	0.050494738
60	0x3c5afcdc	0.01336595
61	0x3c8d21a6	0.017227959
62	0x3c828029	0.015930252
63	0xbe14a491	-0.14515902
64	0x3c925004	0.01786042
65	0xbd694f95	-0.05696066
66	0xbdc634b8	-0.09678024
67	0xbd58177f	-0.052756783
68	0x3e16496a	0.14676443
69	0x3dd33ae9	0.103139706
70	0xbda6244b	-0.08112391
71	0x3d8153cf	0.06314813
72	0xbc44df39	-0.012016111
73	0xbe3490e1	-0.17633392
74	0xbcbb5f85	-0.022872696
75	0x3db2c069	0.087281056
76	0x3dfb5fa4	0.122741014
77	0x3c85d2e3	0.01633591
78	0xbdc75d36	-0.097345755
79	0x3d062b56	0.032756172
80	0xbd995d2e	-0.07488476
81	0xbdb65f20	-0.089048624
82	0xbd8e1662	-0.06937863
83	0xbd081c2b	-0.033229988
84	0x3d0524da	0.032505848
85	0x3e144551	0.14479567
86	0xbc257567	-0.010098792
87	0xbe3dbbc3	-0.18528657
88	0xbde18cc6	-0.110131785
89	0xbd2e4a2f	-0.042551216
90	0xbdebdcdb	-0.11516734
91	0xbcf73add	-0.030179435
92	0xbe06aa59	-0.1315092
93	0x3d7f606a	0.062347807
94	0xbd020e3b	-0.031751852
95	0x3c86fd3b	0.016478172
96	0x3d752896	0.05985316
97	0xbd1e4250	-0.03863746
98	0x3e3f6933	0.18692474
99	0xbdeda1c6	-0.116031215
100	0x3d9cd8ce	0.0765854
101	0x3d1c21e1	0.038118247
102	0x3e6801cc	0.22656935
103	0x3c1ed248	0.00969369
104	0xbe0303a5	-0.12794359
105	0x3e138e63	0.14409785
106	0xbd00a85b	-0.031410556
107	0x3cb2354d	0.021753931
108	0xbd4698e4	-0.04848565
109	0xbd0cccf2	-0.03437514
110	0x3e0ef914	0.13962203
111	0x3bcfcd82	0.006341637
112	0x3dcb0fa3	0.09915092
113	0xbd93ac52	-0.07210602
114	0xbd73956b	-0.059468668
115	0xbd9bc78c	-0.0760642
116	0xbd842edb	-0.064542495
117	0x3e06d005	0.1316529
118	0xbd869bae	-0.06572662
119	0xbd1ae26e	-0.037813596
120	0x3dc17b47	0.094473414
121	0xbdd9d2a9	-0.10635883
122	0xbdc305e7	-0.0952261
123	0xbc5ef295	-0.013607641
124	0xbd861d26	-0.065485284
125	0x3d99728d	0.07492552
126	0xbe3dc35a	-0.18531552
127	0x3d98363a	0.07432218
128	0xbd434e82	-0.047682293
129	0xbd2a37bc	-0.04155706
130	0xbdbcbee2	-0.092160955
131	0xbd79537b	-0.06087063
132	0x3b9ac849	0.004723583
133	0xbd87dcca	-0.06633909
134	0xbd9f54af	-0.07779824
135	0x3d9e75a1	0.0773728
136	0xbd853dd0	-0.065059304
137	0x3dad5a35	0.08464471
138	0x3d6b15ee	0.05739396
139	0x3d715ba8	0.0589253
140	0xbd9be327	-0.07611685
141	0xbc316151	-0.010826425
142	0xbc7ce74b	-0.015436004
143	0xbd128695	-0.03577288
144	0xbe150332	-0.14552
145	0x3d262c0c	0.04056935
146	0x3de86bae	0.11348663
147	0xbddc67aa	-0.1076196
148	0x3d84c441	0.06482745
149	0xbd33ab8c	-0.04386477
150	0xbd120226	-0.03564658
151	0x3dad4ca3	0.08461883
152	0xbdf7018c	-0.12060842
153	0x39efc1f6	0.00045730144
154	0x3c412460	0.011788458
155	0xbdea84af	-0.11451089
156	0x3da4c46b	0.08045276
157	0xbe44e37c	-0.19227403
158	0xbe058d48	-0.13042176
159	0xbd6202eb	-0.055178564
160	0xbb2de8f1	-0.002653655
161	0xbe0ecf7a	-0.13946334
162	0x3e0a5ee1	0.13512756
163	0xbc264ac7	-0.010149664
164	0xbd176e6f	-0.036970552
165	0xbd170e73	-0.036879014
166	0xbda043b0	-0.0782541
167	0x3d4b3087	0.049606826
168	0xbba28258	-0.004959386
169	0x3e227574	0.15865117
170	0x3dd83fc2	0.10559036
171	0x3b8ff295	0.0043929317
172	0x3d5d3904	0.054009452
173	0xbd39fca4	-0.045406953
174	0xbdbe9f36	-0.09307711
175	0x3d5b8480	0.05359316
176	0xbcc49b68	-0.023999885
177	0xbd18f9d3	-0.037347626
178	0xbdc3e40e	-0.09564982
179	0x3e40cc25	0.18827875
180	0xbd37b997	-0.044854727
181	0xbdc06865	-0.09394912
182	0xbca7f814	-0.020504035
183	0x3ce3db99	0.027814673
184	0x3db63786	0.08897309
185	0xbd5fd2f5	-0.054644544
186	0x3c8b77dc	0.017024927
187	0x3d3e88b0	0.046517074
188	0xbd50a955	-0.050942738
189	0x3e3bf0fa	0.18353644
190	0xbbbc459a	-0.005745602
191	0xbd5fd369	-0.054644976
192	0x3e3b8f70	0.18316436
193	0x3d905e07	0.07049184
194	0x3d9ead1b	0.07747861
195	0xbd9a220d	-0.07526026
196	0x3beb7c58	0.007186454
197	0x3e35d39b	0.17756502
198	0x3d2f7db6	0.042844497
199	0xbbaf07dc	-0.005341513
200	0xbc53a07a	-0.012916679
201	0xbd4c9dca	-0.049955167
202	0x3d708dcd	0.05872898
203	0x3d19c217	0.037538614
204	0x3e01ccba	0.12675753
205	0x3c14e8ea	0.009088734
206	0x3e3459f7	0.17612444
207	0xbbfc1c70	-0.0076938197
208	0xbd493ce8	-0.04913035
209	0xbd9f3342	-0.077734485
210	0x3c1bcb8a	0.009508977
211	0x3df38670	0.11890876
212	0xbd4ed271	-0.05049366
213	0xbd04fc7c	-0.03246735
214	0xbd740902	-0.059578903
215	0x3d6c5cad	0.05770557
216	0xbd0f961d	-0.03505527
217	0xbdd4f93c	-0.103991
218	0x3d366a54	0.044534996
219	0xbe3351f9	-0.17511739
220	0xbc8c83dd	-0.017152721
221	0xbe5d2d87	-0.21599399
222	0xbe3765fc	-0.17909998
223	0xbd302cb7	-0.043011393
224	0xbca7859b	-0.02044945
225	0xbd8d8405	-0.06909946
226	0x3dbc258b	0.09186848
227	0xbd902e58	-0.07040089
228	0x3dd9bcf9	0.10631747
229	0x3e00eabd	0.12589546
230	0x3cfa3dc2	0.030547027
231	0x3d76ce37	0.060255256
232	0x3cd0d3e1	0.025491657
233	0x3dc41cd8	0.09575814
234	0x3e309ecc	0.17248076
235	0x3c5f64a2	0.013634833
236	0xbddfa262	-0.10919644
237	0xbdb44c4c	-0.08803615
238	0x3e245c98	0.16050947
239	0x3e3c2cf7	0.18376528
240	0x3c353f6a	0.011062482
241	0xbd90b8d5	-0.07066504
242	0xbc85bbd5	-0.016324917
243	0xbcbb72a0	-0.022881806
244	0x3d58eedf	0.05296218
245	0x3dc0dd8d	0.094172575
246	0x3c09ebf4	0.008418072
247	0xbd34b098	-0.044113725
248	0xb99aa81f	-0.0002949843
249	0x3e71b868	0.23605502
250	0xbd8859fe	-0.0665779
251	0xbd2cb7d8	-0.042167515
252	0x3c8cd43f	0.01719105
253	0x3da5fece	0.08105241
254	0xbde76b16	-0.11299722
255	0xbcda15c3	-0.026621705
