Foosbots_working/results/train1/Foosbots_working/Foosbots_working-160417.onnx (onnx, 74687 bytes, 7 tensors)

action_model._continuous_distribution.log_sigma f4 [1, 2]
-0.22126797 -0.31648502
00000000: 1294 62be 530a a2be

action_model._continuous_distribution.mu.bias f4 [2]
0.11199458 -0.062736966
00000000: 6a5d e53d 3d7c 80bd

action_model._continuous_distribution.mu.weight f4 [2, 128]
0.13266769 -0.05557705 0.06767612 0.037106514 0.10425608 0.13312279 0.12954655 0.07937368
0.13102183 0.10438263 0.11662484 0.088708825 0.106126636 -0.04727195 0.081924036 0.10818234
0.02467219 0.099689364 0.034576647 0.066172436 0.0660776 0.11921619 -0.021730663 0.07496138
-0.049505424 -0.08610596 0.08981755 0.13068503 0.005948662 0.107891314 -0.06931889 0.09021609
0.061917182 -0.07398449 0.10278788 0.066736184 -0.026993914 0.005537761 -0.021519333 -0.037869878
0.020054435 0.037131898 -0.13058665 -0.017208828 0.0077123013 0.13558595 0.04917974 -0.015973756
-0.05776847 -0.073321566 0.01025813 0.07681533 0.089708544 0.043776743 0.106408 0.12283037
-0.09675861 -0.12132155 0.11768567 0.14703047 0.13085227 -0.08664203 -0.060326148 0.04544273
-0.0292015 -0.010004228 -0.018452927 -0.07001683 -0.07696717 0.10445073 -0.061182097 -0.0053146775
-0.08828937 0.1173685 0.06679182 0.022169776 0.091205604 -0.100505695 0.10745845 0.08881783
0.065085426 0.04094876 0.07371702 -0.02126773 0.007144599 -0.025387323 -0.0211089 0.04623956
0.12033291 -0.06297164 -0.028542925 -0.067124076 -0.018559134 0.0930369 -0.047636345 0.03299536
0.060566578 0.11573722 0.11025148 -0.002646838 -0.03937737 0.013549585 0.046226103 -0.122564614
0.07606746 0.055430572 -0.030464455 0.0044350442 -0.021175446 0.07107578 -0.011360349 -0.056073304
0.09437257 0.08934733 0.076418534 0.034509152 0.10517384 0.04539186 0.11565867 0.1011739
0.10486887 0.049860183 0.104377896 0.0686829 0.04811856 0.058052108 0.07841449 0.036705036
0.04934461 0.000935581 -0.05283467 0.027366288 0.039388653 0.044279095 0.043316722 -0.12655061
0.05221499 0.051119972 0.05227661 -0.0015386424 0.03758592 0.012489129 0.07410452 0.043517083
-0.07488347 0.04948194 -0.004639283 -0.096730046 0.053067707 0.09913739 -0.07602195 0.03323092
-0.022973193 0.024633761 0.0427618 0.082484156 0.0012693071 0.042472377 0.010978857 -0.0036898793
0.03956144 0.030326238 0.016638415 -0.108738445 -0.10504402 0.021715388 -0.069218144 -0.06736177
-0.08205506 -0.09894846 0.040999405 -0.06232586 -0.07651215 0.051549554 0.024790755 -0.05895389
0.0027978085 -0.018767748 -0.11060902 0.010293826 -0.10241428 -0.047978334 0.021992467 0.010908958
0.024765063 0.025400313 0.031782795 0.050816357 0.043058652 0.032953307 0.025958313 0.023171222
0.0012427606 -0.045083612 -0.039686304 0.007602412 0.029102674 -0.070579916 0.025991911 -0.029782254
0.01726533 0.061249413 0.020371256 -0.0056869276 0.06930608 0.05487437 0.055676606 -0.094193995
0.030819738 -0.037115574 -0.040075496 -0.06726362 -0.07592005 0.01845386 -0.03777327 -0.108045325
0.075971276 0.046159748 0.03272454 -0.00070430385 -0.029547716 0.05839668 0.0149781685 -0.08863586
0.031810433 -0.00025169973 0.045539033 -0.0786637 -0.009793092 -0.071045116 -0.08757646 0.026586657
-0.07370078 0.029683616 -0.006240701 -0.06320299 -0.02929365 0.059273385 -0.035792306 0.04873589
0.02072476 0.036103822 0.056177218 -0.09801762 0.003969762 -0.10768124 0.06842498 0.041922316
0.051771734 -0.10514274 -0.058977537 0.024018405 -0.09172245 -0.03843806 -0.03946355 -0.10646485
00000000: 0ada 073e c3a4 63bd c799 8a3d 00fd 173d
00000010: 3684 d53d 5751 083e daa7 043e ab8e a23d
00000020: 962a 063e 8fc6 d53d 01d9 ee3d f9ac b53d
00000030: ec58 d93d 3ba0 41bd cac7 a73d b48e dd3d
00000040: 551d ca3c f029 cc3d 3ea0 0d3d 6a85 873d
00000050: b153 873d 9e27 f43d 8104 b2bc 5a85 993d
00000060: 33c6 4abd 5258 b0bd 43f2 b73d 4cd2 053e
00000070: feec c23b 1ff6 dc3d 10f7 8dbd 37c3 b83d
00000080: df9c 7d3d 2e85 97bd 7482 d23d fbac 883d
00000090: 5722 ddbc 1b76 b53b 5049 b0bc 721d 1bbd
000000a0: 3349 a43c 9e17 183d 82b8 05be 87f9 8cbc
000000b0: 79b7 fc3b 0bd7 0a3e b270 493d 65db 82bc
000000c0: a29e 6cbd 9e29 96bd b711 283c 5b51 9d3d
000000d0: 1db9 b73d 3e4f 333d 70ec d93d 7d8e fb3d
000000e0: 6129 c6bd 6f77 f8bd 2f05 f13d 288f 163e
000000f0: 23fe 053e 6071 b1bd 8d18 77bd 2822 3a3d
00000100: fc37 efbc c6e8 23bc 982a 97bc fc64 8fbd
00000110: f7a0 9dbd 44ea d53d 149a 7abd bf26 aebb
00000120: 0fd1 b4bd e55e f03d 26ca 883d 649d b53c
00000130: 01ca ba3d eed5 cdbd 2d13 dc3d 1fe6 b53d
00000140: 824b 853d e3b9 273d f3f8 963d aa39 aebc
00000150: 3e1d ea3b 13f9 cfbc 92ec acbc b165 3d3d
00000160: 1a71 f63d 46f7 80bd dad2 e9bc 5978 89bd
00000170: 5309 98bc 218a be3d 541e 43bd 2526 073d
00000180: a914 783d a307 ed3d 87cb e13d 9376 2dbb
00000190: 2a4a 21bd 14ff 5d3c 9557 3d3d 2803 fbbd
000001a0: 42c9 9b3d 2b0b 633d 9890 f9bc d953 913b
000001b0: 2178 adbc 2e90 913d c220 3abc 1fad 65bd
000001c0: 6846 c13d bcfb b63d 5281 9c3d 7859 0d3d
000001d0: 6265 d73d d1ec 393d 74de ec3d 4334 cf3d
000001e0: 7dc5 d63d 313a 4c3d 14c4 d53d 9fa9 8c3d
000001f0: f817 453d 0cc8 6d3d c797 a03d 0558 163d
00000200: 931d 4a3d c741 753a 2b69 58bd 442f e03c
00000210: ff55 213d ff5d 353d e06c 313d 7c96 01be
00000220: 63df 553d 2d63 513d 0020 563d 46ac c9ba
00000230: b2f3 193d 349f 4c3c 1cc4 973d f83e 323d
00000240: 815c 99bd 93ad 4a3d 2005 98bb 671a c6bd
00000250: 865d 593d 8b08 cb3d 65b1 9bbd 251d 083d
00000260: 4732 bcbc becc c93c ff26 2f3d 74ed a83d
00000270: e15e a63a 84f7 2d3d aae0 333c e7d1 71bb
00000280: 2d0b 223d bb6e f83c 494d 883c 43b2 debd
00000290: 5221 d7bd 78e4 b13c 3ec2 8dbd f8f4 89bd
000002a0: 7c0c a8bd 7da5 cabd feee 273d 6749 7fbd
000002b0: 67b2 9cbd a025 533d fb15 cb3c a279 71bd
000002c0: 705b 373b d2be 99bc fb86 e2bd 70a7 283c
000002d0: 94be d1bd ee84 44bd 8c29 b43c 7cbb 323c
000002e0: 1ae0 ca3c 5114 d03c ad2e 023d d024 503d
000002f0: 455e 303d 0cfa 063d 87a6 d43c 93d1 bd3c
00000300: 20e4 a23a 98a9 38bd 1b8e 22bd a71d f93b
00000310: bb68 ee3c 348c 90bd fdec d43c eaf9 f3bc
00000320: 0570 8d3c aae0 7a3d 9fe1 a63c 6859 babb
00000330: 59f0 8d3d f3c3 603d 270d 643d c8e8 c0bd
00000340: ad79 fc3c 8006 18bd 3426 24bd 82c1 89bd
00000350: f97b 9bbd 8d2c 973c 25b8 1abd de46 ddbd
00000360: d496 9b3d 0112 3d3d 2b0a 063d 08a1 38ba
00000370: 0d0e f2bc 5b31 6f3d fe66 753c b886 b5bd
00000380: a84b 023d 91f6 83b9 2387 3a3d 6f1a a1bd
00000390: 3473 20bc 1a80 91bd 495b b3bd 43cc d93c
000003a0: 6ff0 96bd 0e2b f33c cb7e ccbb 9270 81bd
000003b0: 3df9 efbc a6c8 723d f49a 12bd 499f 473d
000003c0: f9c6 a93c 9ae1 133d 151a 663d 76bd c8bd
000003d0: c714 823b fb87 dcbd 6522 8c3d bcb6 2b3d
000003e0: 990e 543d 1455 d7bd 6e92 71bd 3fc2 c43c
000003f0: fbd8 bbbd 3a71 1dbd 88a4 21bd 3e0a dabd

network_body._body_endoder.seq_layers.0.bias f4 [128]
0.041783117 0.010532659 0.06464285 0.058769125 -0.013786983 -0.018438207 -0.031322848 -0.023990273
0.03330596 0.010680143 0.010516485 0.034247424 0.05018942 0.037464384 -0.06014599 -0.006096509
-0.04637862 -0.0026091503 0.015620357 -0.09226708 0.08812311 -0.009803293 0.06344788 -0.0031905079
0.07413425 0.07884592 0.08241096 0.0053949887 -0.00033516772 0.056176357 0.07213162 0.022326466
0.0110102 -0.013019513 -0.03483821 -0.03067738 -0.007748348 0.07375613 -0.018937228 0.019696994
0.011044808 0.047594383 0.06307354 0.0021939208 -0.007394444 0.07620081 0.021935342 -0.08608246
0.039820816 0.057327557 0.06921108 0.07889548 0.050227728 0.032613277 -0.02011936 -0.006154438
0.06302622 0.06701003 0.03560391 -0.036372475 0.07627311 -0.019913154 -0.036305785 -0.040611185
0.05868865 -0.034736138 0.063170165 -0.026328804 0.0210802 0.047578815 0.017763076 -0.047359556
0.03822598 -0.06758768 0.050013095 0.05232715 -0.03362521 0.012190536 0.06627067 -0.03229998
-0.022095252 0.031881656 0.086673975 0.0141716385 -0.041413024 0.018498152 0.04019549 -0.03190422
0.0837522 0.09418438 -0.015916971 0.0798188 -0.02103606 0.061812494 -0.020893587 0.04019597
-0.068738066 0.05576052 -0.033729374 0.009739673 0.05635513 0.036816664 0.0006048195 0.058457483
-0.04217628 0.010237646 0.049204003 -0.032103714 0.03511124 0.032551322 0.028183948 0.048383027
0.06079711 0.027801031 -0.06728037 -0.05040148 0.06840754 -0.009078032 -0.03391645 0.0717687
-0.013758563 0.04232001 0.06449116 -0.051218353 0.053336367 -0.013747751 -0.0052534025 0.06391461
00000000: c624 2b3d 2c91 2c3c 7863 843d e5b7 703d
00000010: cce2 61bc b90b 97bc 634c 00bd 4087 c4bc
00000020: d56b 083d c4fb 2e3c 564d 2c3c 0747 0c3d
00000030: 6c93 4d3d 4174 193d a45b 76bd 39c5 c7bb
00000040: 82f7 3dbd 47fe 2abb 87ec 7f3c 86f6 bcbd
00000050: e479 b43d fe9d 20bc f6f0 813d d717 51bb
00000060: b3d3 973d f879 a13d 14c7 a83d 72c8 b03b
00000070: 73b9 afb9 2e19 663d beb9 933d fee5 b63c
00000080: 2064 343c cc4f 55bc 83b2 0ebd 214f fbbc
00000090: dbe5 fdbb 740d 973d 3f22 9bbc 975b a13c
000000a0: 48f5 343c 54f2 423d b32c 813d e2c7 0f3b
000000b0: 184d f2bb 2c0f 9c3d bfb1 b33c 004c b0bd
000000c0: 271b 233d 4dd0 6a3d 8abe 8d3d f493 a13d
000000d0: 97bb 4d3d 8095 053d 5bd1 a4bc 2bab c9bb
000000e0: e413 813d 8e3c 893d 68d5 113d 4efb 14bd
000000f0: 1435 9c3d e920 a3bc 60b5 14bd ea57 26bd
00000100: 8363 703d 7b47 0ebd 5c5f 813d 81af d7bc
00000110: 62b0 ac3c 01e2 423d df83 913c 18fc 41bd
00000120: d892 1c3d 696b 8abd 88da 4c3d fe54 563d
00000130: 97ba 09bd d0ba 473c ebb8 873d fc4c 04bd
00000140: 1a01 b5bc 5796 023d 2082 b13d 2930 683c
00000150: b4a0 29bd 7089 973c 07a4 243d 00ae 02bd
00000160: 4686 ab3d bde3 c03d 4f64 82bc 0a78 a33d
00000170: d153 acbc 192f 7d3d 0729 abbc 88a4 243d
00000180: 8bc6 8cbd 2565 643d d027 0abd 2693 1f3c
00000190: a3d4 663d 12cd 163d c08c 1e3a 1d71 6f3d
000001a0: 09c1 2cbd cdbb 273c 238a 493d 2f7f 03bd
000001b0: ced0 0f3d 8954 053d 06e2 e63c 482d 463d
000001c0: 6406 793d fdbe e33c 4aca 89bd c871 4ebd
000001d0: 4119 8c3d 07bc 14bc faeb 0abd 78fb 923d
000001e0: 996b 61bc bf57 2d3d f113 843d 56ca 51bd
000001f0: 3c77 5a3d 3f3e 61bc bc24 acbb aae5 823d

network_body._body_endoder.seq_layers.0.weight f4 [128, 10]
0.16510782 0.20994599 0.078207634 0.04987161 -0.5510153 -0.10217911 0.35492343 0.09744033
0.24704106 0.6216941 0.12810825 -0.23855534 0.6415594 -0.25900975 -0.46764377 0.76838917
0.040563513 -0.00940998 0.33813226 -0.24167652 0.3930053 -0.1554883 -0.36578614 -0.16118921
0.06981094 -0.034685023 -0.36176124 0.057217523 -0.2848847 0.11090135 0.39839464 0.043780956
-0.14958878 0.43133956 0.2216401 0.57696635 -0.01744365 0.083235584 0.033255108 -0.36874783
-0.23715231 0.10594306 0.687975 -0.23626883 0.21650054 0.30248615 -0.19907942 0.44525325
0.019209981 -0.4343875 -0.19372158 0.24203432 0.124059804 -0.7047023 -0.13535847 -0.019167425
0.39069328 -0.21557535 0.5790182 0.050787978 -0.47322828 -0.22159678 0.036475472 -0.09262305
-0.28889075 -0.35116428 0.15004753 -0.2600374 -0.011657396 0.23121862 -0.30954912 -0.15858613
0.49523297 -0.08007177 0.30966225 0.10382414 -0.39633757 0.05600073 0.24855603 0.45313013
0.44334084 0.07779385 -0.40755776 0.063305095 -0.2234597 0.4464588 0.24907571 -0.027890114
-0.036034524 -0.4210891 -0.292265 -0.07404498 -0.14244314 -0.26262537 -0.5112152 -0.71368176
0.020219732 0.20487662 0.08782322 0.14376287 0.13772766 0.37067172 -0.5621262 -0.19623084
-0.43557453 0.21354239 -0.21271765 -0.18192542 0.015951637 0.39960492 -0.5081374 0.097389236
0.14942063 0.010299962 -0.14827868 0.20509782 0.30952558 0.2765025 0.040758792 -0.051179893
0.29556033 0.31649405 0.14108337 0.33434597 0.21266682 -0.23590162 0.10031361 -0.49494442
-0.17428347 0.04653916 -0.419183 0.16037816 0.1773061 0.0023300962 0.09335216 -0.04879433
0.058225233 0.39783612 -0.13308305 -0.3497547 -0.30727178 0.51974255 -0.24536495 0.4628425
-0.1172589 0.34973818 0.19421536 0.28378782 0.14347547 0.2754555 -0.5640353 -0.30244842
-0.5759359 -0.26321778 0.042926036 0.5250553 0.09609104 -0.522767 -0.24390613 0.14113842
-0.09954658 -0.23678572 0.050720338 0.6665551 0.019804412 -0.027568294 0.21104696 -0.5520766
-0.040659506 0.028184554 0.20756927 0.549314 0.22662133 -0.07580942 0.45607153 0.15819874
-0.0051222756 -0.18849319 0.30413365 0.22682224 -0.1438231 -0.14080386 0.06647637 -0.5377918
-0.11403993 0.026699977 0.1909075 0.045977555 -0.42917705 0.10350518 -0.33310267 -0.1963991
-0.07724623 0.36332792 0.33527446 -0.8586784 0.25909913 0.09102192 0.02773457 0.24399641
0.5505999 -0.65364075 -0.011308011 -0.47886127 0.067512706 0.27939752 0.7680883 -0.24292819
-0.43789604 0.09891024 -0.41196224 0.41074586 -0.0049222675 -0.3317592 -0.2190632 -0.36519203
0.25619227 0.035172958 0.41194168 -0.11637627 0.14644343 0.057251573 -0.1367641 -0.13541496
0.21667281 0.41008064 0.3846261 0.18245593 0.16232713 -0.44180676 -0.3326888 -0.42254388
0.05318481 0.42614946 0.012059428 -0.29108036 -0.1083374 0.16621669 0.14175698 0.20644756
0.5659204 0.35537767 -0.050239988 0.0037505676 0.21198162 0.0017825885 -0.3018937 -0.43393376
0.07063801 -0.50864136 0.6663904 -0.4683761 -0.56519616 -0.1780287 -0.10117647 -0.32099283
00000000: 0612 293e 15fc 563e 532b a03d 2c46 4c3d
00000010: 570f 0dbf 4843 d1bd 86b8 b53e cc8e c73d
00000020: 55f8 7c3e 5827 1f3f cf2e 033e da47 74be
00000030: 3d3d 243f ed9c 84be 016f efbe 27b5 443f
00000040: ed25 263d 512c 1abc ac1f ad3e 0d7a 77be
00000050: fe37 c93e 5338 1fbe 5248 bbbe c90e 25be
00000060: 0af9 8e3d e211 0ebd c538 b9be ec5c 6a3d
00000070: 68dc 91be 3f20 e33d 62fa cb3e a953 333d
00000080: cd2d 19be 8ad8 dc3e 9ff5 623e 11b4 133f
00000090: fce5 8ebc 6b77 aa3d 8236 083d 84cc bcbe
000000a0: 0ed8 72be adf8 d83d 211f 303f 75f0 71be
000000b0: 51b2 5d3e 77df 9a3e 7adb 4bbe 3cf8 e33e
000000c0: 405e 9d3c 0a68 debe f35e 46be d8d7 773e
000000d0: 1113 fe3d 5f67 34bf 699b 0abe 0105 9dbc
000000e0: f308 c83e c9bf 5cbe 893a 143f 0e07 503d
000000f0: fa4a f2be 44ea 62be 4e67 153d 27b1 bdbd
00000100: 7de9 93be cecb b3be 0fa6 193e 9f23 85be
00000110: aafe 3ebc 93c4 6c3e 397d 9ebe 6764 22be
00000120: 2d8f fd3e abfc a3bd 0d8c 9e3e c0a1 d43d
00000130: c2ec cabe 0561 653d 7985 7e3e ac00 e83e
00000140: 92fd e23e 6252 9f3d 69ab d0be 1aa6 813d
00000150: 9fd2 64be 3f96 e43e b40d 7f3e cf79 e4bc
00000160: f098 13bd fe98 d7be c2a3 95be e5a4 97bd
00000170: 9ddc 11be d576 86be 00df 02bf d9b3 36bf
00000180: daa3 a53c 2dcb 513e a9dc b33d 9336 133e
00000190: 7b08 0d3e afc8 bd3e 81e7 0fbf bdf0 48be
000001a0: a003 dfbe dbaa 5a3e a8d2 59be a84a 3abe
000001b0: 02ad 823c 0499 cc3e 4b15 02bf 0274 c73d
000001c0: b901 193e 2cc1 283c 5ed6 17be 2a05 523e
000001d0: 237a 9e3e bc91 8d3e b1f2 263d 02a2 51bd
000001e0: af53 973e 820b a23e 2978 103e 652f ab3e
000001f0: 55c5 593e 3290 71be 3971 cd3d 5b69 fdbe
00000200: 5e77 32be d99f 3e3d 279f d6be 2c3a 243e
00000210: bb8f 353e 87b4 183b 6b2f bf3d 90dc 47bd
00000220: 957d 6e3d 2db1 cb3e ec46 08be 0c13 b3be
00000230: ba52 9dbe d90d 053f f340 7bbe b1f9 ec3e
00000240: 6f25 f0bd e210 b33e 64e0 463e a34c 913e
00000250: 3ceb 123e 8108 8d3e 9e64 10bf 85da 9abe
00000260: 8970 13bf 7bc4 86be 36d3 2f3d 066a 063f
00000270: 61cb c43d 0fd4 05bf 87c2 79be 9786 103e
00000280: 14df cbbd f577 72be 21c0 4f3d 5ba3 2a3f
00000290: dd3c a23c e7d6 e1bc b21c 583e e454 0dbf
000002a0: 958a 26bd 4be3 e63c 0a8d 543e d89f 0c3f
000002b0: 6c0f 683e f841 9bbd 3582 e93e dafe 213e
000002c0: c3d8 a7bb 5c04 41be 68b7 9b3e 1744 683e
000002d0: 5d46 13be e32e 10be c324 883d b9ac 09bf
000002e0: c48d e9bd e9b9 da3c 417d 433e f652 3c3d
000002f0: 18bd dbbe 86fa d33d 6f8c aabe d81c 49be
00000300: 4533 9ebd 1e06 ba3e 18a9 ab3e 59d2 5bbf
00000310: a4a8 843e b369 ba3d 9c33 e33c 32da 793e
00000320: 1df4 0c3f 0055 27bf 3c45 39bc 4e2d f5be
00000330: 1a44 8a3d 310d 8f3e 6fa1 443f 2bc2 78be
00000340: e933 e0be 7491 ca3d b7ec d2be 484d d23e
00000350: f94a a1bb 58dc a9be 1a52 60be 73fa babe
00000360: a22b 833e 8511 103d 05ea d23e af56 eebd
00000370: 44f5 153e a080 6a3d e30b 0cbe 38aa 0abe
00000380: 7adf 5d3e 17f6 d13e b6ed c43e bad5 3a3e
00000390: 1539 263e 7f34 e2be 3056 aabe ac57 d8be
000003a0: 51d8 593d 4330 da3e e894 453c 7c08 95be
000003b0: 00e0 ddbd b534 2a3e be28 113e fd66 533e
000003c0: 29e0 103f 10f4 b53e 72c8 4dbd 15cc 753b
000003d0: b611 593e bfa5 e93a d091 9abe 912c debe
000003e0: a9aa 903d 5236 02bf 9098 2a3f fece efbe
000003f0: b2b0 10bf 284d 36be 9c35 cfbd 2c59 a4be

network_body._body_endoder.seq_layers.2.bias f4 [128]
0.086988494 -0.030517543 0.14352599 -0.049538583 0.09022664 0.09012468 0.09049618 0.10376572
0.08479739 0.06993446 0.077235885 0.10158132 0.08747897 -0.09750067 0.0149498135 0.07958609
0.039869532 0.07860937 -0.027334103 0.09099487 0.0046706754 0.05116396 0.024190266 0.025207082
-0.015751056 -0.08896677 0.055587742 0.066661134 -0.108018175 0.08806061 -0.12419172 0.09846253
0.010985017 -0.1315368 0.099631846 0.09580089 0.027960505 -0.08317514 0.01861246 0.018932773
0.051177748 0.08207063 -0.119157895 0.025564805 0.05093304 0.08609795 -0.019372292 0.025320353
-0.040816825 -0.03191265 0.057300538 0.07778717 0.10291131 0.031590685 0.09652851 0.106227815
-0.095355146 -0.13473918 0.096983954 0.08857355 0.08966457 -0.115793735 -0.009386452 -0.010098474
-0.023707045 0.021351287 0.008249487 -0.05702613 -0.11549319 0.10528893 0.020485973 0.01111122
-0.13105017 0.06852905 0.028142182 -0.07313565 0.03419419 -0.12660852 0.06879363 0.10447045
0.0060662543 0.012578498 -0.021948837 0.029205248 0.043367248 -0.04798363 0.016216978 0.07814906
0.06222209 -0.08974556 -0.10314738 -0.118599415 0.021892795 0.055521876 -0.054283217 0.077506185
-0.0013480218 0.116065204 0.07737226 0.04099871 -0.05146574 0.052613676 0.07525444 -0.09163101
0.10700381 -0.023104995 -0.087422274 0.03239123 -0.0001322361 0.016089134 0.006650422 -0.13247524
0.079486474 0.07308713 0.021771574 0.07750492 0.11780827 0.0829307 0.06073464 0.069038026
0.06768735 0.08078282 0.096142955 0.019928137 0.08860234 0.069097266 0.08257813 0.0737551
00000000: 0627 b23d edff f9bc 7af8 123e f8e8 4abd
00000010: bfc8 b83d 4a93 b83d 1056 b93d 1f83 d43d
00000020: 41aa ad3d cc39 8f3d d92d 9e3d de09 d03d
00000030: 2d28 b33d 6eae c7bd 10f0 743c 08fe a23d
00000040: 3c4e 233d f3fd a03d c5eb dfbc 855b ba3d
00000050: 770c 993b 4d91 513d aa2a c63c 157f ce3c
00000060: 5c08 81bc 3634 b6bd f9af 633d a285 883d
00000070: a238 ddbd 1f59 b43d 3a58 febd b9a6 c93d
00000080: 80fa 333c 95b1 06be c80b cc3d 4233 c43d
00000090: 6e0d e53c ba57 aabd 2879 983c e718 9b3c
000000a0: c29f 513d a514 a83d 0e09 f4bd 486d d13c
000000b0: 2a9f 503d 1f54 b03d a4b2 9ebc a16c cf3c
000000c0: 8b2f 27bd d7b6 02bd f8b3 6a3d e14e 9f3d
000000d0: 2ac3 d23d 3c65 013d bdb0 c53d f88d d93d
000000e0: 8f49 c3bd 11f9 09be 869f c63d 0d66 b53d
000000f0: 0fa2 b73d 4425 edbd a2c9 19bc 1274 25bc
00000100: 4735 c2bc e5e8 ae3c db28 073c 3b94 69bd
00000110: b287 ecbd b9a1 d73d 33d2 a73c d60b 363c
00000120: 0432 06be f558 8c3d 6f8a e63c 25c8 95bd
00000130: 350f 0c3d aaa5 01be ade3 8c3d 9af4 d53d
00000140: 6ec7 c63b 0b16 4e3c 0cce b3bc d83f ef3c
00000150: dba1 313d 7c8a 44bd 78d9 843c 9d0c a03d
00000160: 97dc 7e3d 85cc b7bd ef3e d3bd 40e4 f2bd
00000170: 8558 b33c e86a 633d 1458 5ebd 90bb 9e3d
00000180: 1bb0 b0ba 98b3 ed3d 5975 9e3d 43ee 273d
00000190: bdcd 52bd 7081 573d 001f 9a3d 0aa9 bbbd
000001a0: d024 db3d b046 bdbc 730a b3bd abac 043d
000001b0: dca8 0ab9 5ccd 833c c8eb d93b 97a7 07be
000001c0: cec9 a23d b5ae 953d 4d5a b23c e6ba 9e3d
000001d0: 7645 f13d 92d7 a93d e3c4 783d cf63 8d3d
000001e0: aa9f 8a3d 7771 a53d 99e6 c43d 5540 a33c
000001f0: 2575 b53d de82 8d3d b91e a93d ea0c 973d

network_body._body_endoder.seq_layers.2.weight f4 [128, 128]
0.2685697 0.1567341 0.16820942 0.13921511 0.028484799 -0.069295146 -0.021251058 -0.007920493
0.11497502 -0.24171196 0.31283504 0.11462989 0.21753033 0.060115166 -0.2253365 -0.11017233
-0.092660226 0.17114405 0.0026529203 0.021511162 0.2774694 -0.24071483 0.13129881 -0.16892081
0.17105564 0.18411419 0.0580455 0.0056716185 -0.2760816 0.045686636 0.13077883 0.26428816
0.15742034 -0.22468337 -0.14325301 -0.0870703 -0.045105517 0.1515458 -0.08228616 0.019198619
0.25488755 0.20511542 0.24838853 0.056036036 -0.20681828 0.19738178 0.1996991 -0.14262958
0.20882508 0.10773863 0.046042647 -0.009172191 0.09737185 0.030856594 -0.068319716 -0.13276072
0.11509265 -0.011696687 0.06167428 -0.12823656 0.12661293 -0.17335011 -0.13091345 -0.20398544
0.068910785 -0.14891016 0.34874734 -0.08413119 0.09351984 0.23061457 0.06483147 -0.15011571
0.2044217 -0.12005914 0.21384905 0.17477867 -0.17774084 0.012314928 0.104510956 -0.17283997
-0.1125209 0.19905205 0.2434352 0.12160668 -0.24392669 0.07210245 0.04288362 -0.085016266
0.13834192 0.06155552 -0.1704213 0.09802284 -0.16083379 0.15308976 -0.22557244 -0.022504676
-0.09297783 0.2053087 -0.049647216 0.03624096 0.15861979 0.054356232 -0.20978633 0.278804
-0.00986591 -0.15130888 0.1655047 0.13471109 0.36855784 -0.11950546 0.20438996 -0.006020642
0.18544695 0.18663421 -0.09086696 -0.16719162 0.15923357 0.24361093 -0.14139412 0.10623234
0.0023774768 0.07931719 0.109060936 -0.0643868 0.17693743 -0.07783535 -0.027530598 0.13693245
-0.06730354 -0.028744858 -0.049179796 0.1127005 -0.088690296 -0.14782064 0.08937493 0.07589972
0.009574479 0.006685355 -0.026041683 -0.09273271 -0.09811573 0.06671066 0.12206504 0.11698947
0.049028426 -0.07033258 -0.04374502 0.01224512 -0.117948785 -0.22823945 0.029251283 -0.07352581
0.081606954 0.16499053 -0.03522934 0.14051573 -0.11667103 0.10412383 -0.07547753 0.08732393
-0.0702338 -0.030212404 -0.021881368 -0.07686504 0.0049496097 -0.107366 -0.039837543 -0.19148809
-0.045660574 0.030133367 -0.011837566 0.020961745 0.09976 -0.15526792 -0.08383812 0.028085653
0.030621342 0.051408768 -0.15871066 -0.23279144 -0.05124159 0.021601386 0.03602863 -0.01033689
-0.043223392 0.10092614 -0.11141864 0.085882634 -0.08711502 0.0073102205 -0.008735923 0.07029616
0.06772462 0.10399167 -0.047953475 0.02548791 -0.27808052 0.031019185 -0.08681647 -0.083356984
0.022321971 -0.00475656 -0.04622301 -0.11298812 -0.020010024 -0.06458972 0.026511263 -0.03974448
0.017651312 -0.19813354 0.11276494 -0.20061451 -0.023572765 0.005857599 -0.093322985 0.26495743
0.16389348 -0.008620621 0.04256966 -0.24465732 -0.0401893 0.003757802 0.051310755 -0.04990181
0.0738944 0.010824674 -0.010970592 -0.3486672 -0.000873684 0.073699355 -0.1348882 -0.020088345
0.08231068 0.0039645904 0.027017461 -0.032016065 -0.0934851 0.02547805 0.04158693 -0.040312678
-0.0631633 -0.033470802 0.0628103 0.107415825 -0.08712408 0.16108121 0.09262929 -0.124345556
0.06001935 -0.03408937 0.04049898 0.08658841 -0.13155802 0.019543665 0.021501454 0.029255763
00000000: f881 893e e77e 203e 173f 2c3e 688e 0e3e
00000010: f458 e93c 9dea 8dbd b316 aebc f5c4 01bc
00000020: 0678 eb3d 5783 77be ea2b a03e 13c3 ea3d
00000030: 45c0 5e3e 523b 763d 9dbe 66be 08a2 e1bd
00000040: a5c4 bdbd 6340 2f3e 9edc 2d3b 2d38 b03c
00000050: 7810 8e3e f37d 76be 3273 063e 94f9 2cbe
00000060: 3629 2f3e 6e88 3c3e 1ec1 6d3d fcd8 b93b
00000070: 915a 8dbe e921 3b3d e3ea 053e c750 873e
00000080: cc32 213e 6613 66be ebb0 12be ea51 b2bd
00000090: 90c0 38bd d22e 1b3e a585 a8bd 6c46 9d3c
000000a0: 9f80 823e c709 523e 9059 7e3e 0b86 653d
000000b0: 2cc8 53be 731e 4a3e ec7d 4c3e 7d0d 12be
000000c0: 3ed6 553e 12a6 dc3d 3797 3c3d f546 16bc
000000d0: e46a c73d f8c6 fc3c 35eb 8bbd 6df2 07be
000000e0: b2b5 eb3d 76a3 3fbc 2b9e 7c3d 7250 03be
000000f0: d2a6 013e b182 31be 2d0e 06be 8fe1 50be
00000100: 1921 8d3d e87b 18be 038f b23e f94c acbd
00000110: 5487 bf3d 3a26 6c3e 5dc6 843d efb7 19be
00000120: ec53 513e 91e1 f5bd 3ffb 5a3e 2ef9 323e
00000130: b201 36be 8dc4 493c d709 d63d f6fc 30be
00000140: 5c71 e6bd 4dd4 4b3e 1447 793e ec0c f93d
00000150: ebc7 79be 73aa 933d bca6 2f3d 021d aebd
00000160: 81a9 0d3e a421 7c3d ec82 2ebe 33c0 c83d
00000170: 9db1 24be 90c3 1c3e 76fc 66be ba5b b8bc
00000180: 296b bebd 723c 523e e15a 4bbd 6771 143d
00000190: 3a6d 223e a4a4 5e3d 3ad2 56be 66bf 8e3e
000001a0: a0a4 21bc b7f0 1abe 107a 293e b4f1 093e
000001b0: 9db3 bc3e 47bf f4bd 9a4b 513e ce48 c5bb
000001c0: cee5 3d3e 0a1d 3f3e 7518 babd 4834 2bbe
000001d0: 200e 233e 2575 793e 9fc9 10be 5790 d93d
000001e0: 71cf 1b3b 0d71 a23d 575b df3d 3add 83bd
000001f0: 162f 353e 2468 9fbd d987 e1bc 0538 0c3e
00000200: 70d6 89bd 567a ebbc c170 49bd 85cf e63d
00000210: 42a3 b5bd 4b5e 17be 340a b73d 5071 9b3d
00000220: 47de 1c3c d310 db3b 5e55 d5bc a6ea bdbd
00000230: e6f0 c8bd 999f 883d 3cfd f93d 2d98 ef3d
00000240: 08d2 483d 870a 90bd fa2d 33bd c19f 483c
00000250: 228f f1bd 9ab7 69be 63a0 ef3c b394 96bd
00000260: 8c21 a73d 47f3 283e a44c 10bd 5be3 0f3e
00000270: 39f1 eebd e03e d53d f793 9abd e3d6 b23d
00000280: bdd6 8fbd 0180 f7bc 8e40 b3bc 6b6b 9dbd
00000290: 5630 a23b b5e2 dbbd b12c 23bd 7415 44be
000002a0: 9506 3bbd 40da f63c 5af2 41bc f7b7 ab3c
000002b0: f94e cc3d 8efe 1ebe 52b3 abbd e213 e63c
000002c0: 9cd9 fa3c 0092 523d 0c85 22be e160 6ebe
000002d0: b4e2 51bd 64f5 b03c c292 133d 0f5c 29bc
000002e0: 030b 31bd 5db2 ce3d 752f e4bd 3ce3 af3d
000002f0: 5c69 b2bd 938a ef3b 1e21 0fbc 6ff7 8f3d
00000300: 35b3 8a3d 96f9 d43d dd6a 44bd 05cc d03c
00000310: 9260 8ebe f21b fe3c d5cc b1bd 11b7 aabd
00000320: 91dc b63c ebdc 9bbb 5754 3dbd 5166 e7bd
00000330: 10ec a3bc 9d47 84bd 262e d93c 1ccb 22bd
00000340: 7c99 903c 85e3 4abe 4ef1 e63d e46d 4dbe
00000350: ac1b c1bc 1af1 bf3b 1f20 bfbd 80a8 873e
00000360: b1d3 273e 813d 0dbc 865d 2e3d 7387 7abe
00000370: 899d 24bd 7545 763b 3a2b 523d d765 4cbd
00000380: f255 973d f959 313c ffbd 33bc 8284 b2be
00000390: f107 65ba b0ef 963d 2220 0abe 5090 a4bc
000003a0: 8092 a83d 65e9 813b b953 dd3c 4723 03bd
000003b0: 1e75 bfbd 58b7 d03c 0f57 2a3d e81e 25bd
000003c0: c35b 81bd ae18 09bd b0a2 803d d4fc db3d
000003d0: 1c6e b2bd 79f2 243e 6db4 bd3d e2a8 febd
000003e0: dad6 753d 4ca1 0bbd 42e2 253d 4455 b13d
000003f0: 25b7 06be 091a a03c d123 b03c c8a9 ef3c
