Foosbots_working/results/train1/Foosbots_working/Foosbots_working-160417.pt (torch, 451487 bytes, 36 tensors)

network_body._body_endoder.seq_layers.0.weight f4 [128, 10]
0	0x3e291206	0.16510782
1	0x3e56fc15	0.20994599
2	0x3da02b53	0.078207634
3	0x3d4c462c	0.04987161
4	0xbf0d0f57	-0.5510153
5	0xbdd14348	-0.10217911
6	0x3eb5b886	0.35492343
7	0x3dc78ecc	0.09744033
8	0x3e7cf855	0.24704106
9	0x3f1f2758	0.6216941
10	0x3e032ecf	0.12810825
11	0xbe7447da	-0.23855534
12	0x3f243d3d	0.6415594
13	0xbe849ced	-0.25900975
14	0xbeef6f01	-0.46764377
15	0x3f44b527	0.76838917
16	0x3d2625ed	0.040563513
17	0xbc1a2c51	-0.00940998
18	0x3ead1fac	0.33813226
19	0xbe777a0d	-0.24167652
20	0x3ec937fe	0.3930053
21	0xbe1f3853	-0.1554883
22	0xbebb4852	-0.36578614
23	0xbe250ec9	-0.16118921
24	0x3d8ef90a	0.06981094
25	0xbd0e11e2	-0.034685023
26	0xbeb938c5	-0.36176124
27	0x3d6a5cec	0.057217523
28	0xbe91dc68	-0.2848847
29	0x3de3203f	0.11090135
30	0x3ecbfa62	0.39839464
31	0x3d3353a9	0.043780956
32	0xbe192dcd	-0.14958878
33	0x3edcd88a	0.43133956
34	0x3e62f59f	0.2216401
35	0x3f13b411	0.57696635
36	0xbc8ee5fc	-0.01744365
37	0x3daa776b	0.083235584
38	0x3d083682	0.033255108
39	0xbebccc84	-0.36874783
40	0xbe72d80e	-0.23715231
41	0x3dd8f8ad	0.10594306
42	0x3f301f21	0.687975
43	0xbe71f075	-0.23626883
44	0x3e5db251	0.21650054
45	0x3e9adf77	0.30248615
46	0xbe4bdb7a	-0.19907942
47	0x3ee3f83c	0.44525325
48	0x3c9d5e40	0.019209981
49	0xbede680a	-0.4343875
50	0xbe465ef3	-0.19372158
51	0x3e77d7d8	0.24203432
52	0x3dfe1311	0.124059804
53	0xbf34675f	-0.7047023
54	0xbe0a9b69	-0.13535847
55	0xbc9d0501	-0.019167425
56	0x3ec808f3	0.39069328
57	0xbe5cbfc9	-0.21557535
58	0x3f143a89	0.5790182
59	0x3d50070e	0.050787978
60	0xbef24afa	-0.47322828
61	0xbe62ea44	-0.22159678
62	0x3d15674e	0.036475472
63	0xbdbdb127	-0.09262305
64	0xbe93e97d	-0.28889075
65	0xbeb3cbce	-0.35116428
66	0x3e19a60f	0.15004753
67	0xbe85239f	-0.2600374
68	0xbc3efeaa	-0.011657396
69	0x3e6cc493	0.23121862
70	0xbe9e7d39	-0.30954912
71	0xbe226467	-0.15858613
72	0x3efd8f2d	0.49523297
73	0xbda3fcab	-0.08007177
74	0x3e9e8c0d	0.30966225
75	0x3dd4a1c0	0.10382414
76	0xbecaecc2	-0.39633757
77	0x3d656105	0.05600073
78	0x3e7e8579	0.24855603
79	0x3ee800ac	0.45313013
80	0x3ee2fd92	0.44334084
81	0x3d9f5262	0.07779385
82	0xbed0ab69	-0.40755776
83	0x3d81a61a	0.063305095
84	0xbe64d29f	-0.2234597
85	0x3ee4963f	0.4464588
86	0x3e7f0db4	0.24907571
87	0xbce479cf	-0.027890114
88	0xbd1398f0	-0.036034524
89	0xbed798fe	-0.4210891
90	0xbe95a3c2	-0.292265
91	0xbd97a4e5	-0.07404498
92	0xbe11dc9d	-0.14244314
93	0xbe8676d5	-0.26262537
94	0xbf02df00	-0.5112152
95	0xbf36b3d9	-0.71368176
96	0x3ca5a3da	0.020219732
97	0x3e51cb2d	0.20487662
98	0x3db3dca9	0.08782322
99	0x3e133693	0.14376287
100	0x3e0d087b	0.13772766
101	0x3ebdc8af	0.37067172
102	0xbf0fe781	-0.5621262
103	0xbe48f0bd	-0.19623084
104	0xbedf03a0	-0.43557453
105	0x3e5aaadb	0.21354239
106	0xbe59d2a8	-0.21271765
107	0xbe3a4aa8	-0.18192542
108	0x3c82ad02	0.015951637
109	0x3ecc9904	0.39960492
110	0xbf02154b	-0.5081374
111	0x3dc77402	0.097389236
112	0x3e1901b9	0.14942063
113	0x3c28c12c	0.010299962
114	0xbe17d65e	-0.14827868
115	0x3e52052a	0.20509782
116	0x3e9e7a23	0.30952558
117	0x3e8d91bc	0.2765025
118	0x3d26f2b1	0.040758792
119	0xbd51a202	-0.051179893
120	0x3e9753af	0.29556033
121	0x3ea20b82	0.31649405
122	0x3e107829	0.14108337
123	0x3eab2f65	0.33434597
124	0x3e59c555	0.21266682
125	0xbe719032	-0.23590162
126	0x3dcd7139	0.10031361
127	0xbefd695b	-0.49494442
128	0xbe32775e	-0.17428347
129	0x3d3e9fd9	0.04653916
130	0xbed69f27	-0.419183
131	0x3e243a2c	0.16037816
132	0x3e358fbb	0.1773061
133	0x3b18b487	0.0023300962
134	0x3dbf2f6b	0.09335216
135	0xbd47dc90	-0.04879433
136	0x3d6e7d95	0.058225233
137	0x3ecbb12d	0.39783612
138	0xbe0846ec	-0.13308305
139	0xbeb3130c	-0.3497547
140	0xbe9d52ba	-0.30727178
141	0x3f050dd9	0.51974255
142	0xbe7b40f3	-0.24536495
143	0x3eecf9b1	0.4628425
144	0xbdf0256f	-0.1172589
145	0x3eb310e2	0.34973818
146	0x3e46e064	0.19421536
147	0x3e914ca3	0.28378782
148	0x3e12eb3c	0.14347547
149	0x3e8d0881	0.2754555
150	0xbf10649e	-0.5640353
151	0xbe9ada85	-0.30244842
152	0xbf137089	-0.5759359
153	0xbe86c47b	-0.26321778
154	0x3d2fd336	0.042926036
155	0x3f066a06	0.5250553
156	0x3dc4cb61	0.09609104
157	0xbf05d40f	-0.522767
158	0xbe79c287	-0.24390613
159	0x3e108697	0.14113842
160	0xbdcbdf14	-0.09954658
161	0xbe7277f5	-0.23678572
162	0x3d4fc021	0.050720338
163	0x3f2aa35b	0.6665551
164	0x3ca23cdd	0.019804412
165	0xbce1d6e7	-0.027568294
166	0x3e581cb2	0.21104696
167	0xbf0d54e4	-0.5520766
168	0xbd268a95	-0.040659506
169	0x3ce6e34b	0.028184554
170	0x3e548d0a	0.20756927
171	0x3f0c9fd8	0.549314
172	0x3e680f6c	0.22662133
173	0xbd9b41f8	-0.07580942
174	0x3ee98235	0.45607153
175	0x3e21feda	0.15819874
176	0xbba7d8c3	-0.0051222756
177	0xbe41045c	-0.18849319
178	0x3e9bb768	0.30413365
179	0x3e684417	0.22682224
180	0xbe13465d	-0.1438231
181	0xbe102ee3	-0.14080386
182	0x3d8824c3	0.06647637
183	0xbf09acb9	-0.5377918
184	0xbde98dc4	-0.11403993
185	0x3cdab9e9	0.026699977
186	0x3e437d41	0.1909075
187	0x3d3c52f6	0.045977555
188	0xbedbbd18	-0.42917705
189	0x3dd3fa86	0.10350518
190	0xbeaa8c6f	-0.33310267
191	0xbe491cd8	-0.1963991
192	0xbd9e3345	-0.07724623
193	0x3eba061e	0.36332792
194	0x3eaba918	0.33527446
195	0xbf5bd259	-0.8586784
196	0x3e84a8a4	0.25909913
197	0x3dba69b3	0.09102192
198	0x3ce3339c	0.02773457
199	0x3e79da32	0.24399641
200	0x3f0cf41d	0.5505999
201	0xbf275500	-0.65364075
202	0xbc39453c	-0.011308011
203	0xbef52d4e	-0.47886127
204	0x3d8a441a	0.067512706
205	0x3e8f0d31	0.27939752
206	0x3f44a16f	0.7680883
207	0xbe78c22b	-0.24292819
208	0xbee033e9	-0.43789604
209	0x3dca9174	0.09891024
210	0xbed2ecb7	-0.41196224
211	0x3ed24d48	0.41074586
212	0xbba14af9	-0.0049222675
213	0xbea9dc58	-0.3317592
214	0xbe60521a	-0.2190632
215	0xbebafa73	-0.36519203
216	0x3e832ba2	0.25619227
217	0x3d101185	0.035172958
218	0x3ed2ea05	0.41194168
219	0xbdee56af	-0.11637627
220	0x3e15f544	0.14644343
221	0x3d6a80a0	0.057251573
222	0xbe0c0be3	-0.1367641
223	0xbe0aaa38	-0.13541496
224	0x3e5ddf7a	0.21667281
225	0x3ed1f617	0.41008064
226	0x3ec4edb6	0.3846261
227	0x3e3ad5ba	0.18245593
228	0x3e263915	0.16232713
229	0xbee2347f	-0.44180676
230	0xbeaa5630	-0.3326888
231	0xbed857ac	-0.42254388
232	0x3d59d851	0.05318481
233	0x3eda3043	0.42614946
234	0x3c4594e8	0.012059428
235	0xbe95087c	-0.29108036
236	0xbddde000	-0.1083374
237	0x3e2a34b5	0.16621669
238	0x3e1128be	0.14175698
239	0x3e5366fd	0.20644756
240	0x3f10e029	0.5659204
241	0x3eb5f410	0.35537767
242	0xbd4dc872	-0.050239988
243	0x3b75cc15	0.0037505676
244	0x3e5911b6	0.21198162
245	0x3ae9a5bf	0.0017825885
246	0xbe9a91d0	-0.3018937
247	0xbede2c91	-0.43393376
248	0x3d90aaa9	0.07063801
249	0xbf023652	-0.50864136
250	0x3f2a9890	0.6663904
251	0xbeefcefe	-0.4683761
252	0xbf10b0b2	-0.56519616
253	0xbe364d28	-0.1780287
254	0xbdcf359c	-0.10117647
255	0xbea4592c	-0.32099283

network_body._body_endoder.seq_layers.0.bias f4 [128]
0	0x3d2b24c6	0.041783117
1	0x3c2c912c	0.010532659
2	0x3d846378	0.06464285
3	0x3d70b7e5	0.058769125
4	0xbc61e2cc	-0.013786983
5	0xbc970bb9	-0.018438207
6	0xbd004c63	-0.031322848
7	0xbcc48740	-0.023990273
8	0x3d086bd5	0.03330596
9	0x3c2efbc4	0.010680143
10	0x3c2c4d56	0.010516485
11	0x3d0c4707	0.034247424
12	0x3d4d936c	0.05018942
13	0x3d197441	0.037464384
14	0xbd765ba4	-0.06014599
15	0xbbc7c539	-0.006096509
16	0xbd3df782	-0.04637862
17	0xbb2afe47	-0.0026091503
18	0x3c7fec87	0.015620357
19	0xbdbcf686	-0.09226708
20	0x3db479e4	0.08812311
21	0xbc209dfe	-0.009803293
22	0x3d81f0f6	0.06344788
23	0xbb5117d7	-0.0031905079
24	0x3d97d3b3	0.07413425
25	0x3da179f8	0.07884592
26	0x3da8c714	0.08241096
27	0x3bb0c872	0.0053949887
28	0xb9afb973	-0.00033516772
29	0x3d66192e	0.056176357
30	0x3d93b9be	0.07213162
31	0x3cb6e5fe	0.022326466
32	0x3c346420	0.0110102
33	0xbc554fcc	-0.013019513
34	0xbd0eb283	-0.03483821
35	0xbcfb4f21	-0.03067738
36	0xbbfde5db	-0.007748348
37	0x3d970d74	0.07375613
38	0xbc9b223f	-0.018937228
39	0x3ca15b97	0.019696994
40	0x3c34f548	0.011044808
41	0x3d42f254	0.047594383
42	0x3d812cb3	0.06307354
43	0x3b0fc7e2	0.0021939208
44	0xbbf24d18	-0.007394444
45	0x3d9c0f2c	0.07620081
46	0x3cb3b1bf	0.021935342
47	0xbdb04c00	-0.08608246
48	0x3d231b27	0.039820816
49	0x3d6ad04d	0.057327557
50	0x3d8dbe8a	0.06921108
51	0x3da193f4	0.07889548
52	0x3d4dbb97	0.050227728
53	0x3d059580	0.032613277
54	0xbca4d15b	-0.02011936
55	0xbbc9ab2b	-0.006154438
56	0x3d8113e4	0.06302622
57	0x3d893c8e	0.06701003
58	0x3d11d568	0.03560391
59	0xbd14fb4e	-0.036372475
60	0x3d9c3514	0.07627311
61	0xbca320e9	-0.019913154
62	0xbd14b560	-0.036305785
63	0xbd2657ea	-0.040611185
64	0x3d706383	0.05868865
65	0xbd0e477b	-0.034736138
66	0x3d815f5c	0.063170165
67	0xbcd7af81	-0.026328804
68	0x3cacb062	0.0210802
69	0x3d42e201	0.047578815
70	0x3c9183df	0.017763076
71	0xbd41fc18	-0.047359556
72	0x3d1c92d8	0.03822598
73	0xbd8a6b69	-0.06758768
74	0x3d4cda88	0.050013095
75	0x3d5654fe	0.05232715
76	0xbd09ba97	-0.03362521
77	0x3c47bad0	0.012190536
78	0x3d87b8eb	0.06627067
79	0xbd044cfc	-0.03229998
80	0xbcb5011a	-0.022095252
81	0x3d029657	0.031881656
82	0x3db18220	0.086673975
83	0x3c683029	0.0141716385
84	0xbd29a0b4	-0.041413024
85	0x3c978970	0.018498152
86	0x3d24a407	0.04019549
87	0xbd02ae00	-0.03190422
88	0x3dab8646	0.0837522
89	0x3dc0e3bd	0.09418438
90	0xbc82644f	-0.015916971
91	0x3da3780a	0.0798188
92	0xbcac53d1	-0.02103606
93	0x3d7d2f19	0.061812494
94	0xbcab2907	-0.020893587
95	0x3d24a488	0.04019597
96	0xbd8cc68b	-0.068738066
97	0x3d646525	0.05576052
98	0xbd0a27d0	-0.033729374
99	0x3c1f9326	0.009739673
100	0x3d66d4a3	0.05635513
101	0x3d16cd12	0.036816664
102	0x3a1e8cc0	0.0006048195
103	0x3d6f711d	0.058457483
104	0xbd2cc109	-0.04217628
105	0x3c27bbcd	0.010237646
106	0x3d498a23	0.049204003
107	0xbd037f2f	-0.032103714
108	0x3d0fd0ce	0.03511124
109	0x3d055489	0.032551322
110	0x3ce6e206	0.028183948
111	0x3d462d48	0.048383027
112	0x3d790664	0.06079711
113	0x3ce3befd	0.027801031
114	0xbd89ca4a	-0.06728037
115	0xbd4e71c8	-0.05040148
116	0x3d8c1941	0.06840754
117	0xbc14bc07	-0.009078032
118	0xbd0aebfa	-0.03391645
119	0x3d92fb78	0.0717687
120	0xbc616b99	-0.013758563
121	0x3d2d57bf	0.04232001
122	0x3d8413f1	0.06449116
123	0xbd51ca56	-0.051218353
124	0x3d5a773c	0.053336367
125	0xbc613e3f	-0.013747751
126	0xbbac24bc	-0.0052534025
127	0x3d82e5aa	0.06391461

network_body._body_endoder.seq_layers.2.weight f4 [128, 128]
0	0x3e8981f8	0.2685697
1	0x3e207ee7	0.1567341
2	0x3e2c3f17	0.16820942
3	0x3e0e8e68	0.13921511
4	0x3ce958f4	0.028484799
5	0xbd8dea9d	-0.069295146
6	0xbcae16b3	-0.021251058
7	0xbc01c4f5	-0.007920493
8	0x3deb7806	0.11497502
9	0xbe778357	-0.24171196
10	0x3ea02bea	0.31283504
11	0x3deac313	0.11462989
12	0x3e5ec045	0.21753033
13	0x3d763b52	0.060115166
14	0xbe66be9d	-0.2253365
15	0xbde1a208	-0.11017233
16	0xbdbdc4a5	-0.092660226
17	0x3e2f4063	0.17114405
18	0x3b2ddc9e	0.0026529203
19	0x3cb0382d	0.021511162
20	0x3e8e1078	0.2774694
21	0xbe767df3	-0.24071483
22	0x3e067332	0.13129881
23	0xbe2cf994	-0.16892081
24	0x3e2f2936	0.17105564
25	0x3e3c886e	0.18411419
26	0x3d6dc11e	0.0580455
27	0x3bb9d8fc	0.0056716185
28	0xbe8d5a91	-0.2760816
29	0x3d3b21e9	0.045686636
30	0x3e05eae3	0.13077883
31	0x3e8750c7	0.26428816
32	0x3e2132cc	0.15742034
33	0xbe661366	-0.22468337
34	0xbe12b0eb	-0.14325301
35	0xbdb251ea	-0.0870703
36	0xbd38c090	-0.045105517
37	0x3e1b2ed2	0.1515458
38	0xbda885a5	-0.08228616
39	0x3c9d466c	0.019198619
40	0x3e82809f	0.25488755
41	0x3e5209c7	0.20511542
42	0x3e7e5990	0.24838853
43	0x3d65860b	0.056036036
44	0xbe53c82c	-0.20681828
45	0x3e4a1e73	0.19738178
46	0x3e4c7dec	0.1996991
47	0xbe120d7d	-0.14262958
48	0x3e55d63e	0.20882508
49	0x3ddca612	0.10773863
50	0x3d3c9737	0.046042647
51	0xbc1646f5	-0.009172191
52	0x3dc76ae4	0.09737185
53	0x3cfcc6f8	0.030856594
54	0xbd8beb35	-0.068319716
55	0xbe07f26d	-0.13276072
56	0x3debb5b2	0.11509265
57	0xbc3fa376	-0.011696687
58	0x3d7c9e2b	0.06167428
59	0xbe035072	-0.12823656
60	0x3e01a6d2	0.12661293
61	0xbe3182b1	-0.17335011
62	0xbe060e2d	-0.13091345
63	0xbe50e18f	-0.20398544
64	0x3d8d2119	0.068910785
65	0xbe187be8	-0.14891016
66	0x3eb28f03	0.34874734
67	0xbdac4cf9	-0.08413119
68	0x3dbf8754	0.09351984
69	0x3e6c263a	0.23061457
70	0x3d84c65d	0.06483147
71	0xbe19b7ef	-0.15011571
72	0x3e5153ec	0.2044217
73	0xbdf5e191	-0.12005914
74	0x3e5afb3f	0.21384905
75	0x3e32f92e	0.17477867
76	0xbe3601b2	-0.17774084
77	0x3c49c48d	0.012314928
78	0x3dd609d7	0.104510956
79	0xbe30fcf6	-0.17283997
80	0xbde6715c	-0.1125209
81	0x3e4bd44d	0.19905205
82	0x3e794714	0.2434352
83	0x3df90cec	0.12160668
84	0xbe79c7eb	-0.24392669
85	0x3d93aa73	0.07210245
86	0x3d2fa6bc	0.04288362
87	0xbdae1d02	-0.085016266
88	0x3e0da981	0.13834192
89	0x3d7c21a4	0.06155552
90	0xbe2e82ec	-0.1704213
91	0x3dc8c033	0.09802284
92	0xbe24b19d	-0.16083379
93	0x3e1cc390	0.15308976
94	0xbe66fc76	-0.22557244
95	0xbcb85bba	-0.022504676
96	0xbdbe6b29	-0.09297783
97	0x3e523c72	0.2053087
98	0xbd4b5ae1	-0.049647216
99	0x3d147167	0.03624096
100	0x3e226d3a	0.15861979
101	0x3d5ea4a4	0.054356232
102	0xbe56d23a	-0.20978633
103	0x3e8ebf66	0.278804
104	0xbc21a4a0	-0.00986591
105	0xbe1af0b7	-0.15130888
106	0x3e297a10	0.1655047
107	0x3e09f1b4	0.13471109
108	0x3ebcb39d	0.36855784
109	0xbdf4bf47	-0.11950546
110	0x3e514b9a	0.20438996
111	0xbbc548ce	-0.006020642
112	0x3e3de5ce	0.18544695
113	0x3e3f1d0a	0.18663421
114	0xbdba1875	-0.09086696
115	0xbe2b3448	-0.16719162
116	0x3e230e20	0.15923357
117	0x3e797525	0.24361093
118	0xbe10c99f	-0.14139412
119	0x3dd99057	0.10623234
120	0x3b1bcf71	0.0023774768
121	0x3da2710d	0.07931719
122	0x3ddf5b57	0.109060936
123	0xbd83dd3a	-0.0643868
124	0x3e352f16	0.17693743
125	0xbd9f6824	-0.07783535
126	0xbce187d9	-0.027530598
127	0x3e0c3805	0.13693245
128	0xbd89d670	-0.06730354
129	0xbceb7a56	-0.028744858
130	0xbd4970c1	-0.049179796
131	0x3de6cf85	0.1127005
132	0xbdb5a342	-0.088690296
133	0xbe175e4b	-0.14782064
134	0x3db70a34	0.08937493
135	0x3d9b7150	0.07589972
136	0x3c1cde47	0.009574479
137	0x3bdb10d3	0.006685355
138	0xbcd5555e	-0.026041683
139	0xbdbdeaa6	-0.09273271
140	0xbdc8f0e6	-0.09811573
141	0x3d889f99	0.06671066
142	0x3df9fd3c	0.12206504
143	0x3def982d	0.11698947
144	0x3d48d208	0.049028426
145	0xbd900a87	-0.07033258
146	0xbd332dfa	-0.04374502
147	0x3c489fc1	0.01224512
148	0xbdf18f22	-0.117948785
149	0xbe69b79a	-0.22823945
150	0x3cefa063	0.029251283
151	0xbd9694b3	-0.07352581
152	0x3da7218c	0.081606954
153	0x3e28f347	0.16499053
154	0xbd104ca4	-0.03522934
155	0x3e0fe35b	0.14051573
156	0xbdeef139	-0.11667103
157	0x3dd53ee0	0.10412383
158	0xbd9a93f7	-0.07547753
159	0x3db2d6e3	0.08732393
160	0xbd8fd6bd	-0.0702338
161	0xbcf78001	-0.030212404
162	0xbcb3408e	-0.021881368
163	0xbd9d6b6b	-0.07686504
164	0x3ba23056	0.0049496097
165	0xbddbe2b5	-0.107366
166	0xbd232cb1	-0.039837543
167	0xbe441574	-0.19148809
168	0xbd3b0695	-0.045660574
169	0x3cf6da40	0.030133367
170	0xbc41f25a	-0.011837566
171	0x3cabb7f7	0.020961745
172	0x3dcc4ef9	0.09976
173	0xbe1efe8e	-0.15526792
174	0xbdabb352	-0.08383812
175	0x3ce613e2	0.028085653
176	0x3cfad99c	0.030621342
177	0x3d529200	0.051408768
178	0xbe22850c	-0.15871066
179	0xbe6e60e1	-0.23279144
180	0xbd51e2b4	-0.05124159
181	0x3cb0f564	0.021601386
182	0x3d1392c2	0.03602863
183	0xbc295c0f	-0.01033689
184	0xbd310b03	-0.043223392
185	0x3dceb25d	0.10092614
186	0xbde42f75	-0.11141864
187	0x3dafe33c	0.085882634
188	0xbdb2695c	-0.08711502
189	0x3bef8a93	0.0073102205
190	0xbc0f211e	-0.008735923
191	0x3d8ff76f	0.07029616
192	0x3d8ab335	0.06772462
193	0x3dd4f996	0.10399167
194	0xbd446add	-0.047953475
195	0x3cd0cc05	0.02548791
196	0xbe8e6092	-0.27808052
197	0x3cfe1bf2	0.031019185
198	0xbdb1ccd5	-0.08681647
199	0xbdaab711	-0.083356984
200	0x3cb6dc91	0.022321971
201	0xbb9bdceb	-0.00475656
202	0xbd3d5457	-0.04622301
203	0xbde76651	-0.11298812
204	0xbca3ec10	-0.020010024
205	0xbd84479d	-0.06458972
206	0x3cd92e26	0.026511263
207	0xbd22cb1c	-0.03974448
208	0x3c90997c	0.017651312
209	0xbe4ae385	-0.19813354
210	0x3de6f14e	0.11276494
211	0xbe4d6de4	-0.20061451
212	0xbcc11bac	-0.023572765
213	0x3bbff11a	0.005857599
214	0xbdbf201f	-0.093322985
215	0x3e87a880	0.26495743
216	0x3e27d3b1	0.16389348
217	0xbc0d3d81	-0.008620621
218	0x3d2e5d86	0.04256966
219	0xbe7a8773	-0.24465732
220	0xbd249d89	-0.0401893
221	0x3b764575	0.003757802
222	0x3d522b3a	0.051310755
223	0xbd4c65d7	-0.04990181
224	0x3d9755f2	0.0738944
225	0x3c3159f9	0.010824674
226	0xbc33bdff	-0.010970592
227	0xbeb28482	-0.3486672
228	0xba6507f1	-0.000873684
229	0x3d96efb0	0.073699355
230	0xbe0a2022	-0.1348882
231	0xbca49050	-0.020088345
232	0x3da89280	0.08231068
233	0x3b81e965	0.0039645904
234	0x3cdd53b9	0.027017461
235	0xbd032347	-0.032016065
236	0xbdbf751e	-0.0934851
237	0x3cd0b758	0.02547805
238	0x3d2a570f	0.04158693
239	0xbd251ee8	-0.040312678
240	0xbd815bc3	-0.0631633
241	0xbd0918ae	-0.033470802
242	0x3d80a2b0	0.0628103
243	0x3ddbfcd4	0.107415825
244	0xbdb26e1c	-0.08712408
245	0x3e24f279	0.16108121
246	0x3dbdb46d	0.09262929
247	0xbdfea8e2	-0.124345556
248	0x3d75d6da	0.06001935
249	0xbd0ba14c	-0.03408937
250	0x3d25e242	0.04049898
251	0x3db15544	0.08658841
252	0xbe06b725	-0.13155802
253	0x3ca01a09	0.019543665
254	0x3cb023d1	0.021501454
255	0x3cefa9c8	0.029255763

network_body._body_endoder.seq_layers.2.bias f4 [128]
0	0x3db22706	0.086988494
1	0xbcf9ffed	-0.030517543
2	0x3e12f87a	0.14352599
3	0xbd4ae8f8	-0.049538583
4	0x3db8c8bf	0.09022664
5	0x3db8934a	0.09012468
6	0x3db95610	0.09049618
7	0x3dd4831f	0.10376572
8	0x3dadaa41	0.08479739
9	0x3d8f39cc	0.06993446
10	0x3d9e2dd9	0.077235885
11	0x3dd009de	0.10158132
12	0x3db3282d	0.08747897
13	0xbdc7ae6e	-0.09750067
14	0x3c74f010	0.0149498135
15	0x3da2fe08	0.07958609
16	0x3d234e3c	0.039869532
17	0x3da0fdf3	0.07860937
18	0xbcdfebc5	-0.027334103
19	0x3dba5b85	0.09099487
20	0x3b990c77	0.0046706754
21	0x3d51914d	0.05116396
22	0x3cc62aaa	0.024190266
23	0x3cce7f15	0.025207082
24	0xbc81085c	-0.015751056
25	0xbdb63436	-0.08896677
26	0x3d63aff9	0.055587742
27	0x3d8885a2	0.066661134
28	0xbddd38a2	-0.108018175
29	0x3db4591f	0.08806061
30	0xbdfe583a	-0.12419172
31	0x3dc9a6b9	0.09846253
32	0x3c33fa80	0.010985017
33	0xbe06b195	-0.1315368
34	0x3dcc0bc8	0.099631846
35	0x3dc43342	0.09580089
36	0x3ce50d6e	0.027960505
37	0xbdaa57ba	-0.08317514
38	0x3c987928	0.01861246
39	0x3c9b18e7	0.018932773
40	0x3d519fc2	0.051177748
41	0x3da814a5	0.08207063
42	0xbdf4090e	-0.119157895
43	0x3cd16d48	0.025564805
44	0x3d509f2a	0.05093304
45	0x3db0541f	0.08609795
46	0xbc9eb2a4	-0.019372292
47	0x3ccf6ca1	0.025320353
48	0xbd272f8b	-0.040816825
49	0xbd02b6d7	-0.03191265
50	0x3d6ab3f8	0.057300538
51	0x3d9f4ee1	0.07778717
52	0x3dd2c32a	0.10291131
53	0x3d01653c	0.031590685
54	0x3dc5b0bd	0.09652851
55	0x3dd98df8	0.106227815
56	0xbdc3498f	-0.095355146
57	0xbe09f911	-0.13473918
58	0x3dc69f86	0.096983954
59	0x3db5660d	0.08857355
60	0x3db7a20f	0.08966457
61	0xbded2544	-0.115793735
62	0xbc19c9a2	-0.009386452
63	0xbc257412	-0.010098474
64	0xbcc23547	-0.023707045
65	0x3caee8e5	0.021351287
66	0x3c0728db	0.008249487
67	0xbd69943b	-0.05702613
68	0xbdec87b2	-0.11549319
69	0x3dd7a1b9	0.10528893
70	0x3ca7d233	0.020485973
71	0x3c360bd6	0.01111122
72	0xbe063204	-0.13105017
73	0x3d8c58f5	0.06852905
74	0x3ce68a6f	0.028142182
75	0xbd95c825	-0.07313565
76	0x3d0c0f35	0.03419419
77	0xbe01a5aa	-0.12660852
78	0x3d8ce3ad	0.06879363
79	0x3dd5f49a	0.10447045
80	0x3bc6c76e	0.0060662543
81	0x3c4e160b	0.012578498
82	0xbcb3ce0c	-0.021948837
83	0x3cef3fd8	0.029205248
84	0x3d31a1db	0.043367248
85	0xbd448a7c	-0.04798363
86	0x3c84d978	0.016216978
87	0x3da00c9d	0.07814906
88	0x3d7edc97	0.06222209
89	0xbdb7cc85	-0.08974556
90	0xbdd33eef	-0.10314738
91	0xbdf2e440	-0.118599415
92	0x3cb35885	0.021892795
93	0x3d636ae8	0.055521876
94	0xbd5e5814	-0.054283217
95	0x3d9ebb90	0.077506185
96	0xbab0b01b	-0.0013480218
97	0x3dedb398	0.116065204
98	0x3d9e7559	0.07737226
99	0x3d27ee43	0.04099871
100	0xbd52cdbd	-0.05146574
101	0x3d578170	0.052613676
102	0x3d9a1f00	0.07525444
103	0xbdbba90a	-0.09163101
104	0x3ddb24d0	0.10700381
105	0xbcbd46b0	-0.023104995
106	0xbdb30a73	-0.087422274
107	0x3d04acab	0.03239123
108	0xb90aa8dc	-0.0001322361
109	0x3c83cd5c	0.016089134
110	0x3bd9ebc8	0.006650422
111	0xbe07a797	-0.13247524
112	0x3da2c9ce	0.079486474
113	0x3d95aeb5	0.07308713
114	0x3cb25a4d	0.021771574
115	0x3d9ebae6	0.07750492
116	0x3df14576	0.11780827
117	0x3da9d792	0.0829307
118	0x3d78c4e3	0.06073464
119	0x3d8d63cf	0.069038026
120	0x3d8a9faa	0.06768735
121	0x3da57177	0.08078282
122	0x3dc4e699	0.096142955
123	0x3ca34055	0.019928137
124	0x3db57525	0.08860234
125	0x3d8d82de	0.069097266
126	0x3da91eb9	0.08257813
127	0x3d970cea	0.0737551

action_model._continuous_distribution.log_sigma f4 [1, 2]
0	0xbe629412	-0.22126797
1	0xbea20a53	-0.31648502

action_model._continuous_distribution.mu.weight f4 [2, 128]
0	0x3e07da0a	0.13266769
1	0xbd63a4c3	-0.05557705
2	0x3d8a99c7	0.06767612
3	0x3d17fd00	0.037106514
4	0x3dd58436	0.10425608
5	0x3e085157	0.13312279
6	0x3e04a7da	0.12954655
7	0x3da28eab	0.07937368
8	0x3e062a96	0.13102183
9	0x3dd5c68f	0.10438263
10	0x3deed901	0.11662484
11	0x3db5acf9	0.088708825
12	0x3dd958ec	0.106126636
13	0xbd41a03b	-0.04727195
14	0x3da7c7ca	0.081924036
15	0x3ddd8eb4	0.10818234
16	0x3cca1d55	0.02467219
17	0x3dcc29f0	0.099689364
18	0x3d0da03e	0.034576647
19	0x3d87856a	0.066172436
20	0x3d8753b1	0.0660776
21	0x3df4279e	0.11921619
22	0xbcb20481	-0.021730663
23	0x3d99855a	0.07496138
24	0xbd4ac633	-0.049505424
25	0xbdb05852	-0.08610596
26	0x3db7f243	0.08981755
27	0x3e05d24c	0.13068503
28	0x3bc2ecfe	0.005948662
29	0x3ddcf61f	0.107891314
30	0xbd8df710	-0.06931889
31	0x3db8c337	0.09021609
32	0x3d7d9cdf	0.061917182
33	0xbd97852e	-0.07398449
34	0x3dd28274	0.10278788
35	0x3d88acfb	0.066736184
36	0xbcdd2257	-0.026993914
37	0x3bb5761b	0.005537761
38	0xbcb04950	-0.021519333
39	0xbd1b1d72	-0.037869878
40	0x3ca44933	0.020054435
41	0x3d18179e	0.037131898
42	0xbe05b882	-0.13058665
43	0xbc8cf987	-0.017208828
44	0x3bfcb779	0.0077123013
45	0x3e0ad70b	0.13558595
46	0x3d4970b2	0.04917974
47	0xbc82db65	-0.015973756
48	0xbd6c9ea2	-0.05776847
49	0xbd96299e	-0.073321566
50	0x3c2811b7	0.01025813
51	0x3d9d515b	0.07681533
52	0x3db7b91d	0.089708544
53	0x3d334f3e	0.043776743
54	0x3dd9ec70	0.106408
55	0x3dfb8e7d	0.12283037
56	0xbdc62961	-0.09675861
57	0xbdf8776f	-0.12132155
58	0x3df1052f	0.11768567
59	0x3e168f28	0.14703047
60	0x3e05fe23	0.13085227
61	0xbdb17160	-0.08664203
62	0xbd77188d	-0.060326148
63	0x3d3a2228	0.04544273
64	0xbcef37fc	-0.0292015
65	0xbc23e8c6	-0.010004228
66	0xbc972a98	-0.018452927
67	0xbd8f64fc	-0.07001683
68	0xbd9da0f7	-0.07696717
69	0x3dd5ea44	0.10445073
70	0xbd7a9a14	-0.061182097
71	0xbbae26bf	-0.0053146775
72	0xbdb4d10f	-0.08828937
73	0x3df05ee5	0.1173685
74	0x3d88ca26	0.06679182
75	0x3cb59d64	0.022169776
76	0x3dbaca01	0.091205604
77	0xbdcdd5ee	-0.100505695
78	0x3ddc132d	0.10745845
79	0x3db5e61f	0.08881783
80	0x3d854b82	0.065085426
81	0x3d27b9e3	0.04094876
82	0x3d96f8f3	0.07371702
83	0xbcae39aa	-0.02126773
84	0x3bea1d3e	0.007144599
85	0xbccff913	-0.025387323
86	0xbcacec92	-0.0211089
87	0x3d3d65b1	0.04623956
88	0x3df6711a	0.12033291
89	0xbd80f746	-0.06297164
90	0xbce9d2da	-0.028542925
91	0xbd897859	-0.067124076
92	0xbc980953	-0.018559134
93	0x3dbe8a21	0.0930369
94	0xbd431e54	-0.047636345
95	0x3d072625	0.03299536
96	0x3d7814a9	0.060566578
97	0x3ded07a3	0.11573722
98	0x3de1cb87	0.11025148
99	0xbb2d7693	-0.002646838
100	0xbd214a2a	-0.03937737
101	0x3c5dff14	0.013549585
102	0x3d3d5795	0.046226103
103	0xbdfb0328	-0.122564614
104	0x3d9bc942	0.07606746
105	0x3d630b2b	0.055430572
106	0xbcf99098	-0.030464455
107	0x3b9153d9	0.0044350442
108	0xbcad7821	-0.021175446
109	0x3d91902e	0.07107578
110	0xbc3a20c2	-0.011360349
111	0xbd65ad1f	-0.056073304
112	0x3dc14668	0.09437257
113	0x3db6fbbc	0.08934733
114	0x3d9c8152	0.076418534
115	0x3d0d5978	0.034509152
116	0x3dd76562	0.10517384
117	0x3d39ecd1	0.04539186
118	0x3decde74	0.11565867
119	0x3dcf3443	0.1011739
120	0x3dd6c57d	0.10486887
121	0x3d4c3a31	0.049860183
122	0x3dd5c414	0.104377896
123	0x3d8ca99f	0.0686829
124	0x3d4517f8	0.04811856
125	0x3d6dc80c	0.058052108
126	0x3da097c7	0.07841449
127	0x3d165805	0.036705036
128	0x3d4a1d93	0.04934461
129	0x3a7541c7	0.000935581
130	0xbd58692b	-0.05283467
131	0x3ce02f44	0.027366288
132	0x3d2155ff	0.039388653
133	0x3d355dff	0.044279095
134	0x3d316ce0	0.043316722
135	0xbe01967c	-0.12655061
136	0x3d55df63	0.05221499
137	0x3d51632d	0.051119972
138	0x3d562000	0.05227661
139	0xbac9ac46	-0.0015386424
140	0x3d19f3b2	0.03758592
141	0x3c4c9f34	0.012489129
142	0x3d97c41c	0.07410452
143	0x3d323ef8	0.043517083
144	0xbd995c81	-0.07488347
145	0x3d4aad93	0.04948194
146	0xbb980520	-0.004639283
147	0xbdc61a67	-0.096730046
148	0x3d595d86	0.053067707
149	0x3dcb088b	0.09913739
150	0xbd9bb165	-0.07602195
151	0x3d081d25	0.03323092
152	0xbcbc3247	-0.022973193
153	0x3cc9ccbe	0.024633761
154	0x3d2f26ff	0.0427618
155	0x3da8ed74	0.082484156
156	0x3aa65ee1	0.0012693071
157	0x3d2df784	0.042472377
158	0x3c33e0aa	0.010978857
159	0xbb71d1e7	-0.0036898793
160	0x3d220b2d	0.03956144
161	0x3cf86ebb	0.030326238
162	0x3c884d49	0.016638415
163	0xbddeb243	-0.108738445
164	0xbdd72152	-0.10504402
165	0x3cb1e478	0.021715388
166	0xbd8dc23e	-0.069218144
167	0xbd89f4f8	-0.06736177
168	0xbda80c7c	-0.08205506
169	0xbdcaa57d	-0.09894846
170	0x3d27eefe	0.040999405
171	0xbd7f4967	-0.06232586
172	0xbd9cb267	-0.07651215
173	0x3d5325a0	0.051549554
174	0x3ccb15fb	0.024790755
175	0xbd7179a2	-0.05895389
176	0x3b375b70	0.0027978085
177	0xbc99bed2	-0.018767748
178	0xbde286fb	-0.11060902
179	0x3c28a770	0.010293826
180	0xbdd1be94	-0.10241428
181	0xbd4484ee	-0.047978334
182	0x3cb4298c	0.021992467
183	0x3c32bb7c	0.010908958
184	0x3ccae01a	0.024765063
185	0x3cd01451	0.025400313
186	0x3d022ead	0.031782795
187	0x3d5024d0	0.050816357
188	0x3d305e45	0.043058652
189	0x3d06fa0c	0.032953307
190	0x3cd4a687	0.025958313
191	0x3cbdd193	0.023171222
192	0x3aa2e420	0.0012427606
193	0xbd38a998	-0.045083612
194	0xbd228e1b	-0.039686304
195	0x3bf91da7	0.007602412
196	0x3cee68bb	0.029102674
197	0xbd908c34	-0.070579916
198	0x3cd4ecfd	0.025991911
199	0xbcf3f9ea	-0.029782254
200	0x3c8d7005	0.01726533
201	0x3d7ae0aa	0.061249413
202	0x3ca6e19f	0.020371256
203	0xbbba5968	-0.0056869276
204	0x3d8df059	0.06930608
205	0x3d60c3f3	0.05487437
206	0x3d640d27	0.055676606
207	0xbdc0e8c8	-0.094193995
208	0x3cfc79ad	0.030819738
209	0xbd180680	-0.037115574
210	0xbd242634	-0.040075496
211	0xbd89c182	-0.06726362
212	0xbd9b7bf9	-0.07592005
213	0x3c972c8d	0.01845386
214	0xbd1ab825	-0.03777327
215	0xbddd46de	-0.108045325
216	0x3d9b96d4	0.075971276
217	0x3d3d1201	0.046159748
218	0x3d060a2b	0.03272454
219	0xba38a108	-0.00070430385
220	0xbcf20e0d	-0.029547716
221	0x3d6f315b	0.05839668
222	0x3c7566fe	0.0149781685
223	0xbdb586b8	-0.08863586
224	0x3d024ba8	0.031810433
225	0xb983f691	-0.00025169973
226	0x3d3a8723	0.045539033
227	0xbda11a6f	-0.0786637
228	0xbc207334	-0.009793092
229	0xbd91801a	-0.071045116
230	0xbdb35b49	-0.08757646
231	0x3cd9cc43	0.026586657
232	0xbd96f06f	-0.07370078
233	0x3cf32b0e	0.029683616
234	0xbbcc7ecb	-0.006240701
235	0xbd817092	-0.06320299
236	0xbceff93d	-0.02929365
237	0x3d72c8a6	0.059273385
238	0xbd129af4	-0.035792306
239	0x3d479f49	0.04873589
240	0x3ca9c6f9	0.02072476
241	0x3d13e19a	0.036103822
242	0x3d661a15	0.056177218
243	0xbdc8bd76	-0.09801762
244	0x3b8214c7	0.003969762
245	0xbddc87fb	-0.10768124
246	0x3d8c2265	0.06842498
247	0x3d2bb6bc	0.041922316
248	0x3d540e99	0.051771734
249	0xbdd75514	-0.10514274
250	0xbd71926e	-0.058977537
251	0x3cc4c23f	0.024018405
252	0xbdbbd8fb	-0.09172245
253	0xbd1d713a	-0.03843806
254	0xbd21a488	-0.03946355
255	0xbdda0a3e	-0.10646485

action_model._continuous_distribution.mu.bias f4 [2]
0	0x3de55d6a	0.11199458
1	0xbd807c3d	-0.062736966

exp_avg f4 [128, 10]
0	0x3bf114cc	0.0073572155
1	0xba6a9920	-0.0008949209
2	0x399755d1	0.00028864903
3	0xbb41672d	-0.002951096
4	0x378381de	1.5676891e-05
5	0x378228cd	1.5516207e-05
6	0xb59299f1	-1.092265e-06
7	0x380d4da4	3.3689328e-05
8	0x37859fb0	1.5929196e-05
9	0xb39d46d7	-7.323768e-08
10	0x3bca5ceb	0.0061756275
11	0xba10a9f7	-0.0005518491
12	0x393aa50b	0.00017799826
13	0xbaef1f58	-0.0018243594
14	0x37223bc3	9.669867e-06
15	0x37209219	9.570759e-06
16	0xb534daac	-6.7373435e-07
17	0x37ae517d	2.0780362e-05
18	0x3724d82f	9.825496e-06
19	0xb342061b	-4.5174698e-08
20	0x3c08e9f5	0.008356561
21	0xba820670	-0.0009920131
22	0x39a7c12d	0.0003199665
23	0xbb567cde	-0.0032728235
24	0x3791c863	1.737866e-05
25	0x379049de	1.7200535e-05
26	0xb5a283eb	-1.2108334e-06
27	0x381ca464	3.73464e-05
28	0x37942105	1.765835e-05
29	0xb3ae597d	-8.118784e-08
30	0x3bffa610	0.0078017786
31	0xba98fa33	-0.0011671245
32	0x39c55d75	0.000376444
33	0xbb7c19c4	-0.0038467506
34	0x37ab7f41	2.0444046e-05
35	0x37a9bd47	2.0234509e-05
36	0xb5bf2e5d	-1.4244102e-06
37	0x3838459f	4.393386e-05
38	0x37ae41d4	2.077307e-05
39	0xb3cd1a4b	-9.550839e-08
40	0xbbf79316	-0.007555376
41	0x3a163989	0.00057306193
42	0xb941d0de	-0.00018483723
43	0x3af7dce4	0.0018910435
44	0xb7286f4b	-1.0039493e-05
45	0xb726b556	-9.936592e-06
46	0x353bc469	6.9948743e-07
47	0xb7b4fb3d	-2.1574664e-05
48	0xb72b253e	-1.0201065e-05
49	0x334970af	4.6901445e-08
50	0xbc1ce9f9	-0.009577268
51	0x3a59f741	0.0008314737
52	0xb98c9ae5	-0.00026818286
53	0x3b339119	0.0027399717
54	0xb774592c	-1.4564295e-05
55	0xb771d807	-1.4415017e-05
56	0x3588326c	1.0147464e-06
57	0xb8034662	-3.1298383e-05
58	0xb77847eb	-1.4798697e-05
59	0x33921d5f	6.8039974e-08
60	0xbb97d12f	-0.004633091
61	0x39010aa2	0.0001230636
62	0xb8268131	-3.9697803e-05
63	0x39d77dba	0.0004110167
64	0xb610e279	-2.1589497e-06
65	0xb60f6657	-2.136823e-06
66	0x342183ac	1.5042195e-07
67	0xb69bad5c	-4.6395417e-06
68	0xb6133771	-2.1936978e-06
69	0x322d4698	1.00859765e-08
70	0xbba940cf	-0.0051651965
71	0x39b58b7c	0.00034626934
72	0xb8ea3b69	-0.000111690555
73	0x3a964ddd	0.0011467297
74	0xb6cba266	-6.068777e-06
75	0xb6c98c19	-6.0065763e-06
76	0x34e301d2	4.228337e-07
77	0xb75acda7	-1.3041695e-05
78	0xb6cee96f	-6.1664537e-06
79	0x32f389a3	2.8351513e-08
80	0x3bbf0122	0.0058289925
81	0xba69ed9a	-0.000892365
82	0x3996e711	0.00028782387
83	0xbb40cd59	-0.0029419272
84	0x378320ba	1.5631656e-05
85	0x3781c8ab	1.5471442e-05
86	0xb5922da9	-1.0891137e-06
87	0x380ce547	3.3592132e-05
88	0x37853cfb	1.5883232e-05
89	0xb39cd2ac	-7.302637e-08
90	0xbbd742f5	-0.006569261
91	0x39ec5c8c	0.0004508238
92	0xb91878b6	-0.00014540818
93	0x3ac2b108	0.0014853785
94	0xb7047ba8	-7.896604e-06
95	0xb703200b	-7.815669e-06
96	0x3513b069	5.501848e-07
97	0xb78e5a0b	-1.6969649e-05
98	0xb7069d80	-8.023693e-06
99	0x331e7191	3.689053e-08
100	0x3ba50056	0.0050354404
101	0xba04817e	-0.0005054696
102	0x392af50d	0.00016303752
103	0xbadadf9a	-0.0016698719
104	0x3714963d	8.8564675e-06
105	0x3713105b	8.765691e-06
106	0xb525a42d	-6.1706197e-07
107	0x379fa7b8	1.9032377e-05
108	0x3716fa6f	8.999005e-06
109	0xb331b401	-4.1374737e-08
110	0xbb7a4afe	-0.0038191671
111	0x39674def	0.00022058909
112	0xb8953811	-7.115317e-05
113	0x3a3fe02a	0.0007319475
114	0xb681c0ef	-3.86696e-06
115	0xb6806c72	-3.827322e-06
116	0x3490a577	2.6942482e-07
117	0xb70b6b45	-8.310021e-06
118	0xb683d784	-3.9291936e-06
119	0x329b2deb	1.8065256e-08
120	0x3befd7e3	0.007319437
121	0xba877e0e	-0.001033725
122	0x39aece5c	0.00033341616
123	0xbb5f331d	-0.0034057565
124	0x3797e37f	1.8106539e-05
125	0x379654f5	1.7920955e-05
126	0xb5a9526f	-1.2615473e-06
127	0x382333f0	3.89106e-05
128	0x379a5548	1.8397943e-05
129	0xb3b5a6e3	-8.458826e-08
130	0xbb235448	-0.0024922062
131	0x3999919e	0.00029290927
132	0xb8c6210f	-9.4475334e-05
133	0x3a7d3586	0.00096591597
134	0xb6ac2bb9	-5.1310894e-06
135	0xb6aa67f8	-5.0784984e-06
136	0x34bfee9b	3.575013e-07
137	0xb738fef5	-1.1026616e-05
138	0xb6aef118	-5.213671e-06
139	0x32cde895	2.3970907e-08
140	0xbb27cc84	-0.0025604079
141	0xb6b27f18	-5.319609e-06
142	0x35e52328	1.7072061e-06
143	0xb706bee0	-8.031464e-06
144	0x33bbb300	8.740426e-08
145	0x33b9c68d	8.65085e-08
146	0xb1d13f42	-6.089892e-09
147	0x3449ae0e	1.8782904e-07
148	0x33beb880	8.881125e-08
149	0xafe07c03	-4.0833478e-10
150	0xbbe4ac70	-0.006978564
151	0x3932147d	0.00016983035
152	0xb865c83e	-5.4784345e-05
153	0x3a14dc6b	0.0005678597
154	0xb647f86b	-2.979791e-06
155	0xb645ebb9	-2.9492496e-06
156	0x345eec31	2.0761287e-07
157	0xb6d6ddc2	-6.403513e-06
158	0xb64b304f	-3.0277477e-06
159	0x326f27ce	1.39206815e-08
160	0xbaf5a1c9	-0.0018740232
161	0x38f5d0ee	0.000117214266
162	0xb81e98a2	-3.7812286e-05
163	0x39ce0f5b	0.00039302823
164	0xb60a0f85	-2.0572636e-06
165	0xb608a544	-2.0361776e-06
166	0x3419e830	1.4333705e-07
167	0xb6945846	-4.42102e-06
168	0xb60c4860	-2.0903753e-06
169	0x32251d3d	9.610912e-09
170	0x3bca6590	0.006176658
171	0xba6133b3	-0.00085907726
172	0x399145e3	0.00027708625
173	0xbb398a0a	-0.0028311037
174	0x377c7643	1.5047905e-05
175	0x3779dfce	1.4893665e-05
176	0xb58cb82c	-1.0484414e-06
177	0x3807a24a	3.233765e-05
178	0x37804335	1.5290085e-05
179	0xb396f76d	-7.029926e-08
180	0xbc007621	-0.007840664
181	0x3a5692bd	0.0008185318
182	0xb98a6a37	-0.00026400547
183	0x3b308de9	0.0026940054
184	0xb77082de	-1.4335585e-05
185	0xb76e0bcc	-1.4188652e-05
186	0x35860ee6	9.988114e-07
187	0xb80136a5	-3.080689e-05
188	0xb77461c6	-1.4566298e-05
189	0x338fd1f9	6.69715e-08
190	0xbb475b64	-0.0030419463
191	0x37f07963	2.8666755e-05
192	0xb71b4a4b	-9.256018e-06
193	0x38dd0e74	0.00010540793
194	0xb50893ae	-5.087885e-07
195	0xb5072cf5	-5.035684e-07
196	0x3318407b	3.5448902e-08
197	0xb592bfcb	-1.0933667e-06
198	0xb50ac668	-5.1697725e-07
199	0x312356c7	2.376895e-09
200	0x3c416838	0.011804633
201	0xba9d01fa	-0.0011978738
202	0x39ca91b7	0.00038637008
203	0xbb81ac28	-0.00395729
204	0x37b00ff1	2.0988258e-05
205	0x37ae41fa	2.077314e-05
206	0xb5c4452c	-1.462327e-06
207	0x383d2d5a	4.510335e-05
208	0x37b2e551	2.1326037e-05
209	0xb3d28ff7	-9.805074e-08
210	0xbbf53c85	-0.007484021
211	0x399d8f90	0.00030052336
212	0xb8cb47a6	-9.69314e-05
213	0x3a81ed2d	0.0009912603
214	0xb6b0a6be	-5.26462e-06
215	0xb6aed73b	-5.21066e-06
216	0x34c4ed4f	3.668051e-07
217	0xb73dcf66	-1.1313567e-05
218	0xb6b37e91	-5.34935e-06
219	0x32d34459	2.4594714e-08
220	0x3c062ba2	0.008189114
221	0xba586938	-0.0008255425
222	0x398b9b22	0.0002662773
223	0xbb32d31f	-0.0027286483
224	0x3772b059	1.4465383e-05
225	0x37703398	1.4317127e-05
226	0xb58745a9	-1.0078558e-06
227	0x3802622a	3.1085838e-05
228	0x3776984c	1.4698202e-05
229	0xb3911f59	-6.757791e-08
230	0xbb60258a	-0.0034202063
231	0x39044674	0.00012614747
232	0xb82ab051	-4.0695366e-05
233	0x39de80de	0.00042439153
234	0xb614a3fc	-2.214917e-06
235	0xb6131dfb	-2.1922158e-06
236	0x3425b370	1.5432101e-07
237	0xb69fb680	-4.759815e-06
238	0xb6170864	-2.2505637e-06
239	0x3231c469	1.03474145e-08
240	0x3c24f4ad	0.010068101
241	0xbab434bd	-0.0013748627
242	0x39e87eb3	0.00044344887
243	0xbb94844e	-0.0045323735
244	0x37ca06e3	2.4083483e-05
245	0x37c7f4ca	2.3836637e-05
246	0xb5e13710	-1.6779832e-06
247	0x38591372	5.175494e-05
248	0x37cd4746	2.4471094e-05
249	0xb3f19d6e	-1.1251073e-07
250	0x3c017dba	0.007903511
251	0xba789366	-0.00094824133
252	0x39a05a02	0.0003058464
253	0xbb4ce191	-0.0031262378
254	0x378b56cf	1.6610515e-05
255	0x3789e934	1.6440266e-05

exp_avg_sq f4 [128, 10]
0	0x3a7c8929	0.00096334756
1	0x383e425b	4.536133e-05
2	0x369f476f	4.746885e-06
3	0x3ab399f8	0.0013702502
4	0x32809e3f	1.4973123e-08
5	0x327bfd74	1.46677515e-08
6	0x2e9fd64d	7.26855e-11
7	0x33947e52	6.9147646e-08
8	0x3284caa1	1.5458967e-08
9	0x2ab7f69e	3.2678455e-13
10	0x3a469065	0.0007574617
11	0x3811ec20	3.4790603e-05
12	0x36748cc7	3.6440777e-06
13	0x3a9c554f	0.0011927279
14	0x32478731	1.16140635e-08
15	0x3243758f	1.1377224e-08
16	0x2e77f59a	5.6379436e-11
17	0x33665c91	5.3635237e-08
18	0x324e009b	1.1990916e-08
19	0x2a8eb17b	2.534742e-13
20	0x3af2835a	0.001850228
21	0x38aa81d6	8.1304155e-05
22	0x370ed253	8.5128295e-06
23	0x3b2e07f7	0.002655504
24	0x32e812f1	2.7016968e-08
25	0x32e35756	2.6465994e-08
26	0x2f1033ca	1.3115123e-10
27	0x3405f7d1	1.2476745e-07
28	0x32ef9a9f	2.7893575e-08
29	0x2b25f7df	5.8963766e-13
30	0x3a5ed7df	0.0008500795
31	0x381dd6cd	3.7631766e-05
32	0x3683f5d4	3.9327224e-06
33	0x3a7281b8	0.0009250897
34	0x3251e38f	1.2217142e-08
35	0x324d9bc1	1.1967985e-08
36	0x2e826ae6	5.9307045e-11
37	0x337252a7	5.6420188e-08
38	0x3258b307	1.2613561e-08
39	0x2a961a51	2.6663613e-13
40	0x3ab0ac09	0.0013479005
41	0x388a33fe	6.590037e-05
42	0x36e7655c	6.8961363e-06
43	0x3b0268cd	0.0019898892
44	0x32bad590	2.1750367e-08
45	0x32b7063a	2.1306835e-08
46	0x2ee82f5d	1.0558552e-10
47	0x33d7b4bb	1.00445924e-07
48	0x32c0e59b	2.2456154e-08
49	0x2b059d72	4.746959e-13
50	0x3b0b6a4a	0.002127307
51	0x38d5c24f	0.00010192824
52	0x37330b42	1.0671853e-05
53	0x3b587a64	0.0033031935
54	0x33116958	3.3856253e-08
55	0x330e721a	3.3165726e-08
56	0x2f34b4f7	1.6435196e-10
57	0x3427e1af	1.563519e-07
58	0x3316213a	3.4954816e-08
59	0x2b4ffba0	7.3890373e-13
60	0x39eacaad	0.00044782963
61	0x37c9d19f	2.405868e-05
62	0x3628f866	2.5178538e-06
63	0x3a4086e8	0.00073443213
64	0x32089532	7.950165e-09
65	0x3205cc1f	7.788031e-09
66	0x2e29bc3b	3.8593333e-11
67	0x331db05a	3.6714802e-08
68	0x320d03bb	8.208128e-09
69	0x2a435af5	1.7351036e-13
70	0x3a35116e	0.0006907199
71	0x38125df9	3.489663e-05
72	0x36750f5c	3.6516785e-06
73	0x3a8985b7	0.0010492121
74	0x3245d484	1.151523e-08
75	0x3241cba8	1.1280385e-08
76	0x2e75d983	5.589974e-11
77	0x3364668d	5.3178656e-08
78	0x324c3fb8	1.1888851e-08
79	0x2a8d7aa2	2.5131725e-13
80	0x3a257af0	0.00063125696
81	0x37f0c99f	2.8704117e-05
82	0x364995f6	3.0038623e-06
83	0x3a646d00	0.0008713752
84	0x3222d58f	9.478199e-09
85	0x321f836c	9.2849e-09
86	0x2e4a5bba	4.6010952e-11
87	0x333bff36	4.3771443e-08
88	0x32281e11	9.785723e-09
89	0x2a68e70b	2.0685898e-13
90	0x3a71c7c2	0.00092231866
91	0x383aed8b	4.4567085e-05
92	0x369c7363	4.662595e-06
93	0x3aaaa6b5	0.0013019653
94	0x327bf861	1.4666598e-08
95	0x3276d4d7	1.4367479e-08
96	0x2e9c90b9	7.1197666e-11
97	0x33917414	6.773203e-08
98	0x328212b1	1.5142492e-08
99	0x2ab43290	3.2009508e-13
100	0x3a218f15	0.00061629835
101	0x37e99c0b	2.7848428e-05
102	0x3643c891	2.917401e-06
103	0x3a7ede89	0.00097224914
104	0x322005e7	9.314568e-09
105	0x321cc27f	9.124618e-09
106	0x2e46dd67	4.5216633e-11
107	0x3338c061	4.3015806e-08
108	0x32253723	9.616801e-09
109	0x2a64e1e8	2.0328845e-13
110	0x3a539ac7	0.0008072075
111	0x381da458	3.7584774e-05
112	0x3683d7b3	3.929215e-06
113	0x3a8011e9	0.0009770963
114	0x325292fe	1.2257031e-08
115	0x324e47b0	1.2007078e-08
116	0x2e82d7e8	5.950068e-11
117	0x33731d3d	5.660444e-08
118	0x32596821	1.2654739e-08
119	0x2a9697d2	2.67507e-13
120	0x3a2f51c3	0.00066879037
121	0x380147b1	3.0822765e-05
122	0x365831e4	3.2215548e-06
123	0x3a4acd8e	0.00077363185
124	0x322c2f08	1.0022411e-08
125	0x3228ac06	9.818001e-09
126	0x2e55fa31	4.8652807e-11
127	0x3346ca75	4.62846e-08
128	0x3231c539	1.0347599e-08
129	0x2a764691	2.1873672e-13
130	0x3a23efec	0.00062537077
131	0x37e73258	2.7560789e-05
132	0x36415231	2.8807083e-06
133	0x3a36d8d8	0.0006975061
134	0x321a082b	8.965837e-09
135	0x3216e419	8.7830125e-09
136	0x2e3f6ba5	4.352398e-11
137	0x3331d5af	4.1405368e-08
138	0x321f07b2	9.256768e-09
139	0x2a5c5033	1.956775e-13
140	0x38db0d6c	0.00010445234
141	0x36d8a2f3	6.4562714e-06
142	0x3534f818	6.741625e-07
143	0x390fd5e0	0.00013717217
144	0x310e95e1	2.0748916e-09
145	0x310bad71	2.0325752e-09
146	0x2d3131f0	1.00723735e-11
147	0x32249e72	9.582083e-09
148	0x3113363e	2.1422148e-09
149	0x294bf0ea	4.5284014e-14
150	0x3a709309	0.00091771834
151	0x38551747	5.0804836e-05
152	0x36b27f66	5.3196445e-06
153	0x3ad9c57c	0.0016614641
154	0x329119ce	1.6891956e-08
155	0x328e244d	1.6547483e-08
156	0x2eb4522c	8.200049e-11
157	0x33a785f4	7.8009094e-08
158	0x3295cf1a	1.7440062e-08
159	0x2acf89ed	3.6866292e-13
160	0x38ad586e	8.265754e-05
161	0x368e9fbf	4.2505267e-06
162	0x34ee1e9d	4.435323e-07
163	0x38a4e61d	7.862991e-05
164	0x30ba1f9c	1.3542265e-09
165	0x30b653ea	1.3266093e-09
166	0x2ce74d0b	6.5739684e-12
167	0x31d6e286	6.2539725e-09
168	0x30c0299f	1.3981668e-09
169	0x29051b52	2.955563e-14
170	0x3a478b5b	0.0007612013
171	0x3816ac7a	3.592342e-05
172	0x367c4de6	3.759627e-06
173	0x3a9056eb	0.0011012232
174	0x324bfb70	1.1873325e-08
175	0x3247d27a	1.1631181e-08
176	0x2e7d7eb0	5.763806e-11
177	0x336b80da	5.483239e-08
178	0x325299d3	1.2258584e-08
179	0x2a91e0f0	2.5913256e-13
180	0x3afa456b	0.0019094174
181	0x38bc3543	8.974459e-05
182	0x371d88c7	9.389775e-06
183	0x3b2dd20f	0.002652291
184	0x32fdebae	2.9560251e-08
185	0x32f8be11	2.8957432e-08
186	0x2f1dc70d	1.4349784e-10
187	0x3412945c	1.3651282e-07
188	0x33031483	3.051947e-08
189	0x2b3597b6	6.451466e-13
190	0x3939efcb	0.00017732305
191	0x372e5879	1.0391807e-05
192	0x3591be14	1.0858662e-06
193	0x39838f06	0.00025092828
194	0x31677e1e	3.3686613e-09
195	0x3162c573	3.2999565e-09
196	0x2d8fd74e	1.6352832e-11
197	0x3285a1e8	1.5556864e-08
198	0x316f00fc	3.4779637e-09
199	0x29a58d8d	7.352027e-14
200	0x3b63f7c9	0.0034785143
201	0x39214a9b	0.00015381949
202	0x378720e0	1.6108563e-05
203	0x3ba8fb6b	0.0051569245
204	0x335c0bec	5.1233584e-08
205	0x33578f1d	5.018875e-08
206	0x2f88baa1	2.4870864e-10
207	0x347e0cdb	2.366027e-07
208	0x33632fae	5.289592e-08
209	0x2b9d5dfa	1.1181605e-12
210	0x3a8caae8	0.0010732086
211	0x385fe0c4	5.3376672e-05
212	0x36bb76e3	5.5868745e-06
213	0x3ada0c73	0.001663579
214	0x3297c21b	1.7666983e-08
215	0x3294a9b4	1.730664e-08
216	0x2ebc9807	8.576256e-11
217	0x33af3584	8.158807e-08
218	0x329cae99	1.8240188e-08
219	0x2ad90f75	3.855767e-13
220	0x3ab3fe2d	0.0013732366
221	0x38842beb	6.302431e-05
222	0x36dd6fdd	6.599336e-06
223	0x3b080732	0.0020756242
224	0x32b40e0d	2.0961147e-08
225	0x32b06208	2.0533676e-08
226	0x2edfc265	1.0175397e-10
227	0x33cfe0f2	9.680106e-08
228	0x32b9e5a5	2.1641265e-08
229	0x2b00c44d	4.5747157e-13
230	0x3924f6e1	0.00015732228
231	0x37210bb1	9.59907e-06
232	0x35869cc0	1.0029398e-06
233	0x396dd349	0.00022680791
234	0x315595f5	3.108082e-09
235	0x31513aec	3.0446996e-09
236	0x2d84b6f2	1.5087907e-11
237	0x32769753	1.4353492e-08
238	0x315c8416	3.2089296e-09
239	0x2998bf2a	6.783318e-14
240	0x3b09f8e2	0.0021052887
241	0x38ba3951	8.879847e-05
242	0x371bf10e	9.294845e-06
243	0x3b36d288	0.0027896482
244	0x32fc94d7	2.9404346e-08
245	0x32f76e0c	2.8804628e-08
246	0x2f1cf1e9	1.4274061e-10
247	0x3411ce56	1.3579242e-07
248	0x3302635d	3.0358354e-08
249	0x2b34a259	6.417415e-13
250	0x3aef3e33	0.001825279
251	0x38a34f12	7.787174e-05
252	0x3708cabd	8.153435e-06
253	0x3b26f241	0.0025473984
254	0x32de44a3	2.5875414e-08
255	0x32d9bc1b	2.5347665e-08

exp_avg f4 [128]
0	0x3bab6b01	0.0052312617
1	0x3b53781c	0.0032267636
2	0x3bbe06a0	0.0057991296
3	0x3bdf8b51	0.0068220277
4	0xbb5b8d6c	-0.0033501042
5	0xbb9f409f	-0.0048599984
6	0xba3cdafe	-0.0007204263
7	0xbb04b7a8	-0.002025107
8	0x3baaec66	0.005216169
9	0xbb2cb09c	-0.0026350385
10	0x3b41ae59	0.0029553382
11	0xbaa921d0	-0.0012903754
12	0x3bc5fc1e	0.0060420176
13	0xbae06c20	-0.0017122068
14	0x37f4aa5e	2.91664e-05
15	0xba825458	-0.0009943349
16	0xba33f5d2	-0.0006864938
17	0x3ba48a56	0.0050213737
18	0xbb9cc065	-0.0047836774
19	0xb9320667	-0.00016977788
20	0x3be57eac	0.007003626
21	0xbae64347	-0.0017567658
22	0x3b9e2bc5	0.004826995
23	0xba41c03e	-0.0007391012
24	0x3c03ab73	0.008036482
25	0x3bb5a06d	0.005542806
26	0x3c186b59	0.009302937
27	0x3b68f29d	0.0035545
28	0xba8ff391	-0.0010982623
29	0x3b8ee674	0.0043609682
30	0x3bcda38b	0.0062755994
31	0x3bb16a60	0.005414292
32	0x3b597647	0.003318207
33	0xbb051847	-0.002030866
34	0xbad92b23	-0.0016568642
35	0xbb33576b	-0.0027365338
36	0xbb9d1a7d	-0.0047944174
37	0x3bdd3095	0.006750176
38	0xbb368739	-0.0027851595
39	0x3b88c7e6	0.0041742204
40	0x3bb59182	0.0055410275
41	0x3bd41211	0.0064718802
42	0x3be57a4f	0.0070031057
43	0xbb75d5f7	-0.0037511566
44	0xbb675178	-0.0035296362
45	0x3be71145	0.0070516192
46	0x3bd1d1e7	0.006403196
47	0xbb646b8b	-0.003485414
48	0x3c00cbd3	0.0078610955
49	0x3bd7ef42	0.006589801
50	0x3bd399af	0.0064575295
51	0x3bd17633	0.0063922643
52	0x3ba22d06	0.004949215
53	0x3bc85e2c	0.006114742
54	0xba3ac446	-0.0007124584
55	0xbab361c9	-0.0013685758
56	0x3bb9b072	0.005666786
57	0x3c17beef	0.009261831
58	0x3b9b798f	0.0047447155
59	0xbadfbaa4	-0.0017069173
60	0x3bea2585	0.007145586
61	0xbb0b3a2b	-0.0021244388
62	0xbac95dee	-0.0015363076
63	0xba928511	-0.0011178573
64	0x3b929244	0.0044730026
65	0xbab97e5e	-0.001415204
66	0x3c0c8979	0.008577698
67	0xbaeb1970	-0.0017936658
68	0x3b45a4eb	0.0030158113
69	0x3c104427	0.008805311
70	0x3b76563c	0.003758802
71	0xbae32ef8	-0.0017332723
72	0x3bd3a472	0.0064588124
73	0xba3e3368	-0.0007255585
74	0x3bb90b7c	0.005647121
75	0x3bd1818c	0.006393617
76	0xbb3781d5	-0.002800097
77	0xbb126853	-0.0022340014
78	0x3bc23dbb	0.005927769
79	0xbb2fb08d	-0.0026808113
80	0xbab31e1c	-0.001366559
81	0x3b9b64a9	0.0047422242
82	0x3bf49cc1	0.0074649756
83	0x3bbd51b1	0.0057775606
84	0xba887ca7	-0.0010413126
85	0x3bd0fc52	0.006377735
86	0x3b6e0e98	0.0036324617
87	0xbaae6288	-0.0013304511
88	0x3c008af4	0.007845629
89	0x3bfd915c	0.0077382755
90	0xbb5dd8c0	-0.0033851117
91	0x3bd280ce	0.006424046
92	0xbb4e9c7b	-0.0031526375
93	0x3bc56569	0.006024052
94	0xb78415bb	-1.5745745e-05
95	0x3bcd9536	0.006273891
96	0x390030a5	0.00012225153
97	0x3bcd3598	0.0062624924
98	0x39cd5736	0.00039165624
99	0x3bb7535f	0.0055946554
100	0x3c027a07	0.007963664
101	0x3ba1e99d	0.004941179
102	0xbb42df90	-0.0029735304
103	0x3b9fa54a	0.004871999
104	0x3a9c076f	0.0011904071
105	0xb99c1b8a	-0.00029775157
106	0x3b981759	0.004641455
107	0xbb0d12ee	-0.0021526176
108	0x3b85110f	0.0040608714
109	0x39c8a9c8	0.0003827347
110	0x3bc2bc29	0.0059428406
111	0x3c0ecdb1	0.008716033
112	0x3ba5e475	0.0050626346
113	0x3be25217	0.0069067585
114	0xbb0bf64d	-0.0021356524
115	0xba8fa421	-0.0010958948
116	0x3b9eb05c	0.004842801
117	0x3b1df31b	0.00241012
118	0xbaa854d4	-0.0012842664
119	0x3c128e43	0.008945051
120	0xbb002ef6	-0.001955924
121	0x3be75b26	0.0070604263
122	0x3bf431ce	0.0074522262
123	0xbae639bc	-0.0017564814
124	0x3b522940	0.0032068044
125	0xbb925ea7	-0.00446685
126	0xbabc2bde	-0.0014356335
127	0x3b9e6513	0.0048338263

exp_avg_sq f4 [128]
0	0x3ada883e	0.0016672683
1	0x3aa981c1	0.0012932346
2	0x3b4527de	0.0030083577
3	0x3ab24f08	0.0013603875
4	0x3b1eb92c	0.0024219258
5	0x3b7710ba	0.0037699179
6	0x3a6810a1	0.00088525756
7	0x3aa8106f	0.001282228
8	0x3a8a5581	0.0010554047
9	0x3ad60ef3	0.001633136
10	0x3a87f229	0.0010371852
11	0x3ab2e424	0.0013648313
12	0x3a9246dd	0.0011160035
13	0x3a82db3d	0.0009983551
14	0x39724385	0.00023104071
15	0x3af689b4	0.0018809349
16	0x391e1e87	0.00015079427
17	0x3aad4a78	0.0013221046
18	0x3b57b743	0.003291563
19	0x39c4a97d	0.00037510312
20	0x3bbaf025	0.005704897
21	0x3b00eca8	0.0019672308
22	0x3b18f6c2	0.0023340438
23	0x39b5730d	0.0003460873
24	0x3b5693d0	0.0032741912
25	0x3b3cd356	0.002881249
26	0x3ba48d8a	0.0050217556
27	0x3a443598	0.0007484793
28	0x3a81c80e	0.000990154
29	0x3a629a4d	0.00086442084
30	0x3b5fa250	0.0034123845
31	0x3b6e76cd	0.0036386729
32	0x3aceb660	0.0015770905
33	0x3a50da0d	0.00079670624
34	0x3a020166	0.0004959315
35	0x3ad02333	0.0015879631
36	0x3b5addf8	0.0033396464
37	0x3af55c6c	0.001871956
38	0x3aaec01d	0.0013332401
39	0x3ae673ee	0.0017582157
40	0x3a8f41ec	0.001092968
41	0x3afb8fbc	0.0019192616
42	0x3b9e87d7	0.0048379707
43	0x3b0b7f04	0.0021285424
44	0x3ae9d617	0.0017840293
45	0x3ac02e3e	0.0014662219
46	0x3a9dc29f	0.0012036151
47	0x3b0006bf	0.001953527
48	0x3b876cab	0.0041328273
49	0x3b8cee9f	0.004300907
50	0x3ac6bceb	0.0015162503
51	0x3b1b6e76	0.0023716963
52	0x3a3bf12f	0.0007169423
53	0x3aa75fe6	0.0012769669
54	0x39b09de3	0.0003368697
55	0x3ace79c2	0.0015752839
56	0x3b1ee549	0.0024245551
57	0x3b6cbc8c	0.0036123125
58	0x3a959f2d	0.0011415236
59	0x3a174c3a	0.00057715515
60	0x3b3d4be3	0.0028884343
61	0x3a71f8a1	0.0009230469
62	0x3a26a517	0.0006356998
63	0x39bc2a4b	0.00035889665
64	0x3b1fe1d9	0.002439609
65	0x3a18bd31	0.00058265316
66	0x3b7de8a0	0.0038743392
67	0x3a11d07c	0.00055623776
68	0x3a992a85	0.0011685645
69	0x3b827cd5	0.0039821663
70	0x3a3551df	0.0006916802
71	0x3a442f00	0.000748381
72	0x3b0cd85c	0.0021491265
73	0x39069847	0.00012835964
74	0x3a92f062	0.0011210556
75	0x3a9abb8f	0.0011805164
76	0x3ae59f70	0.001751883
77	0x3a9bfc4b	0.0011900751
78	0x3b61911a	0.0034418763
79	0x3a8efb02	0.0010908546
80	0x3a057ce9	0.00050921604
81	0x3b31ce23	0.0027130924
82	0x3af91310	0.0019002873
83	0x3b4545b4	0.003010136
84	0x3a095ff2	0.0005240432
85	0x3b5b1d7f	0.003343433
86	0x39f3fb90	0.00046536
87	0x3a1346e9	0.00056181714
88	0x3b5b0d30	0.0033424608
89	0x3b06479a	0.0020489455
90	0x3abf92c6	0.0014615885
91	0x3b848381	0.004043997
92	0x3a9fa24b	0.0012179104
93	0x3acff4d6	0.0015865813
94	0x39ba7182	0.00035561254
95	0x3b02a288	0.0019933302
96	0x389e129a	7.537492e-05
97	0x3b77a0b2	0.003778499
98	0x39cc2e37	0.00038944345
99	0x3b1a2d9c	0.002352572
100	0x3b776cf6	0.0037754155
101	0x3aa83ba2	0.0012835155
102	0x3b0cbd5d	0.0021475174
103	0x3a97a521	0.0011569598
104	0x38837604	6.268549e-05
105	0x3962e1b6	0.00021637123
106	0x3aa80567	0.0012818993
107	0x3abfae14	0.0014624023
108	0x3b1f6de1	0.0024326968
109	0x3a0414b3	0.0005038485
110	0x3b3d4010	0.0028877296
111	0x3b53eafa	0.0032336102
112	0x3b57aae9	0.0032908267
113	0x3b235849	0.0024924448
114	0x3a951d62	0.0011376555
115	0x39ea7044	0.00044715602
116	0x3b88150c	0.0041528996
117	0x39913ec5	0.00027703322
118	0x39c9d2ac	0.0003849467
119	0x3b95cf0c	0.004571801
120	0x3a5574d7	0.00081427157
121	0x3b65f50f	0.0035088693
122	0x3bc11c5a	0.0058932723
123	0x3a5e5532	0.0008481323
124	0x3b5b9e98	0.0033511277
125	0x3b106311	0.0022031704
126	0x3a6e3a7b	0.0009087694
127	0x3b841ed6	0.0040319962
