Foosbots_working/results/train1/Foosbots_working/Foosbots_working-4032.onnx (onnx, 74687 bytes, 7 tensors)

action_model._continuous_distribution.log_sigma f4 [1, 2]
00000000: 6c0f 203c ef2c a43c
0.009769302 0.020040957

action_model._continuous_distribution.mu.bias f4 [2]
00000000: 62c3 993c 7016 2e3b
0.018769924 0.0026563667

action_model._continuous_distribution.mu.weight f4 [2, 128]
00000000: e473 b83c 59ff bdbc 3b84 213c 5b44 8cbc
00000010: 758e a9bc 3a04 06bc f7e4 38bc 824e e43c
00000020: c6fd 7ebc 1a13 0bbd 0a01 2f3b 5056 c9bb
00000030: e2c9 5b3c 3600 efbc 1616 503c fe96 8cbc
00000040: af67 15bc 91f0 2cbc e7f1 133d 4551 003d
00000050: 530c ed3a 79b8 063d 0243 9e3c 2f8d a83c
00000060: 0d28 343a b83d bcbc 6887 dd3c 4126 d43c
00000070: 31e7 923c 0534 1f3d 235a d9bb 595a ed3b
00000080: 3b3a 083b 6356 88bb e471 b73b 926f 833b
00000090: 14c8 8dbb 4167 71bc d256 be3c 9587 c2bc
000000a0: 0bf4 76bb ea92 2c3c 9a23 c8bc 4646 48bc
000000b0: bf8e a0bb 0948 0e3c 00e8 53bc b931 afbb
000000c0: 2f3e 7a3c 49f2 3bbc 011a e9bb 1fdb df3c
000000d0: 45ed 27bb 3e2b 3c3c db0e 963c eb25 21bd
000000e0: 6c01 d5bc d129 e8bc 839d 99bc 47e8 30bb
000000f0: ed5d 403b 4f34 323d d954 643c 0214 ed3c
00000100: ed43 0ebd 292c dabc 1daa 133c fa88 a1ba
00000110: a26c 8b3c 1fd8 b1bc fcd3 7cbb 5f4a 413c
00000120: 714e bf3c d570 a63a a45a 403c 5135 303c
00000130: c3d9 0f3c dedd dabc fbbb 003d 823d a03c
00000140: 4242 f53c b251 5dbb ec74 583c 7732 1e3d
00000150: ece2 4d3c c8e5 25bd ace3 7bbc 2e49 ac3c
00000160: eeaa 61bb d77f 39bd 8e28 5d3b 6166 113d
00000170: f751 58bc 8e2e 243c 8fe8 2abd d496 c63c
00000180: 2b2e c93c beba 053c 7c59 02bc b1cb 5abc
00000190: 6989 bcbb add1 ee3c d8a3 56bc 24bd 423d
000001a0: 5533 a9bc 79c0 f639 4649 a73c 067e 233d
000001b0: d95f adbc 93f2 dabc 389e 943c e17c e73c
000001c0: f355 debc 225d 34bc 18cf 503c 4fb7 683c
000001d0: 4ea0 f33b 3130 e23b f95d a33c a424 45bc
000001e0: d7c0 fb3b d72e 7e3c 057f 8a3c e351 03bd
000001f0: 49a9 263c 96a2 a73c f0ae d3bc 0627 acbc
00000200: 4aa9 a7bb 1100 083d 5cc7 a1bc fbf3 0f3c
00000210: c67a 0c3b e783 433c 5cf1 623c 54a7 593b
00000220: 3e38 763c 09f4 dd3c cb6f 163c 68cb ec3b
00000230: bbf6 e13c da1e 033d c4ec 933b ba74 f73c
00000240: 8b9b 2e3c de15 073c 391d 943b 278a 80bb
00000250: 87e4 78bc 2131 f0ba 2ade edbb 3956 a2bb
00000260: 91b0 693c cfe0 1e3d be72 0bbc 320a 35bd
00000270: 5c56 93bc edd3 4d39 f577 46bc d16e 52bc
00000280: 48f8 84ba a714 e83b e74c 37bc 0d90 2ebc
00000290: 23ae debc 2c6d f33b a335 82bc 4b61 c53c
000002a0: 5019 1b3d 2985 45bc 0a50 f7bb fd8a 2ebc
000002b0: 2022 bab9 668f f5bb 9791 843b 54e5 c0bc
000002c0: 8bf7 b3bc 5834 de3b 81e4 193c ef66 433c
000002d0: 7bf0 6737 8422 f5bb acc8 1abc 1e44 803c
000002e0: 9f0c 04bb 76ce f23c 52bd 813c 987f 053d
000002f0: edf8 2e3d d86c 8fbc ab81 80bb fccb b83c
00000300: 38c4 b1bb 629a 5c3c 284f 253a f620 86bc
00000310: a20a 8dbc e36c 493c 28ff 683c 4809 ff3b
00000320: 7688 f4bc f0ed f1bb d02e 83bc 250f b0bb
00000330: 5c3f 2b3b 0863 de3c 4bc4 debc 4080 a6bc
00000340: 06ed 733c 3256 043c 38fb 143d a686 fdbc
00000350: 1e13 5fbc 09c9 1c3c e7e4 1f3c 8fc2 25bd
00000360: e3aa fdbc a10b 48bc c2e0 e23b 8b2a 61bc
00000370: 6f64 2e3c cad5 97bc dd78 13bb 1528 0fbd
00000380: d222 2dbd ba8f 153c ddd3 6a3c 85b0 803c
00000390: a91c b2bc 1ca0 27bc c411 01bc 977e 0a3d
000003a0: 42ac ca3c 6278 483d 35ec dcbb 9f3b 25bc
000003b0: 8b9e 4a3c b439 e13c 5c6c dcbb 82f3 4abd
000003c0: 42e3 e13a 0ddc aa39 de6c bebc 2e4e ecbc
000003d0: cb3e 973b fa07 823c e502 4abb 6300 bd3c
000003e0: a0d7 52bb 2bbd 67bc b1fb 9dbb 6ade 093d
000003f0: 95f9 b93c 5850 0aba 7259 9e3c a1de ffbb
0.022516198 -0.023193048 0.009858186 -0.017122438 -0.020697812 -0.008179719 -0.011285058 0.027869467
-0.015563434 -0.033953764 0.00267035 -0.0061443225 0.013414832 -0.029174905 0.012700578 -0.017161842
-0.009118958 -0.010555402 0.036119368 0.031327505 0.0018085338 0.03289077 0.019319061 0.020575134
0.0006872423 -0.022978649 0.027042106 0.025897147 0.017932506 0.03886797 -0.0066330596 0.0072434363
0.0020786661 -0.0041606887 0.0055982936 0.004011103 -0.0043268297 -0.01473409 0.023234759 -0.023746291
-0.0037682082 0.010533074 -0.024431039 -0.012223786 -0.004899829 0.008684167 -0.012933731 -0.0053465036
0.015273615 -0.0114713395 -0.0071136956 0.027326165 -0.0025623601 0.011484919 0.01831763 -0.039342802
-0.026001655 -0.028340252 -0.018751865 -0.0026993917 0.002935286 0.043506917 0.013936245 0.028940205
-0.034732748 -0.026632385 0.009012726 -0.0012324147 0.017019574 -0.0217095 -0.00385785 0.011797517
0.023352833 0.0012698421 0.01174036 0.010754899 0.008779946 -0.026717123 0.031429272 0.01956058
0.02993882 -0.0033770618 0.01321147 0.038622346 0.012566309 -0.04050234 -0.015374105 0.021030989
-0.0034434157 -0.045287933 0.0033746096 0.035498027 -0.013203136 0.010020865 -0.04172569 0.024241842
0.024558147 0.008162199 -0.007955905 -0.013354228 -0.0057536853 0.029152716 -0.013100587 0.04754366
-0.02065436 0.0004706418 0.020420682 0.039915107 -0.021163868 -0.026726997 0.01814185 0.02825779
-0.027140593 -0.011008533 0.0127446875 0.01420386 0.0074348813 0.0069027175 0.01994227 -0.012032662
0.0076829004 0.015514097 0.01690627 -0.032060515 0.010172197 0.02046327 -0.025840253 -0.021014702
-0.0051166164 0.03320319 -0.019748382 0.008786197 0.0021435483 0.011933303 0.01385149 0.0033211308
0.015028058 0.027093904 0.009181927 0.0072263964 0.02758347 0.032011844 0.0045143086 0.030207027
0.0106572015 0.00824496 0.004520085 -0.003922719 -0.015191204 -0.0018325188 -0.00725915 -0.004954126
0.014263288 0.038788613 -0.008511243 -0.044199176 -0.017985515 0.00019629272 -0.012113561 -0.0128438035
-0.0010144794 0.00708254 -0.011187769 -0.010654462 -0.027182644 0.007428786 -0.015894717 0.024094244
0.037865937 -0.012055674 -0.007547383 -0.010653255 -0.0003550211 -0.007493901 0.004045676 -0.023546852
-0.021968624 0.006781142 0.0093928585 0.011926397 1.3824664e-05 -0.007480921 -0.009447258 0.01565748
-0.0020149124 0.029639464 0.015837345 0.032592386 0.042717863 -0.017507955 -0.0039217076 0.022558205
-0.0054250024 0.013464542 0.00063060457 -0.016373139 -0.017216984 0.012294027 0.01422099 0.007783089
-0.029850226 -0.0073831007 -0.016013533 -0.005372899 0.0026130294 0.027146831 -0.02719321 -0.020324826
0.014888054 0.008077191 0.036372393 -0.030947994 -0.013615398 0.009569415 0.009759164 -0.04046875
-0.030965274 -0.012209804 0.006923766 -0.013743053 0.010644062 -0.01853456 -0.002250246 -0.034950335
-0.042269535 0.009128505 0.014332739 0.015709171 -0.021742182 -0.010231044 -0.007877771 0.03381213
0.024740342 0.04894293 -0.0067420253 -0.010085016 0.012366901 0.027493335 -0.0067267846 -0.049548633
0.0017233866 0.00032588877 -0.023245271 -0.028845873 0.00461564 0.015872944 -0.003082448 0.023071473
-0.003217198 -0.014144222 -0.0048212637 0.033659376 0.022702018 -0.00052762544 0.01932976 -0.007808522

network_body._body_endoder.seq_layers.0.bias f4 [128]
00000000: 7605 513b a9e1 273b 87a8 b03b 0473 69bc
00000010: 1a5b f53b 9111 aa3c 4b1c a23c 81f0 ce3a
00000020: c0b3 acbb 5746 5ebb 7db2 1bbc 5908 923c
00000030: 7791 21bb 0d65 553c ea91 913c 1580 593c
00000040: 8c7c 5a3c f469 97bb c6b9 5e3c 4243 7abc
00000050: e382 813b 21b3 77bc 72e4 5abb cc87 723a
00000060: e1d6 97bb 6c10 773c c525 05bc 8074 a9bb
00000070: e6c4 7e3b 3dfb 5d3c 592a 073c f293 463c
00000080: 3b3b 37bb 6fbe 833c 95a9 593c b6aa 5ebc
00000090: d5cf 3d3c c391 d43b 09d2 083b 9710 47bc
000000a0: 6e09 4cbc 7099 123b 201e 933c 9e33 2f3c
000000b0: a859 f03b d5af bd3b c3ec 3cbc ea1a 8abc
000000c0: 9ad1 04bc f83a 633c bc57 80bc 496b 4f3c
000000d0: 36cd 313c 30d5 5e3c f63b 66bc 5265 c33b
000000e0: a51b 993b 7110 1d3c 4268 0ebc 2f3c 2d3c
000000f0: 61d9 12ba 49a3 edbb 4cce 9d3b fd87 a93b
00000100: b671 213c 779f 60ba 0bf6 8f3c a603 c63b
00000110: 102d a1ba 4df2 203c dca8 8d3c aa74 3a3c
00000120: f1ce 453a a229 83bc cf69 daba 87c1 aabb
00000130: 6770 293c 651b e4b9 4a3e 87bc 72c6 553c
00000140: 26e3 3abc cf5a 9a3a e37c 6b3c f97f 35bc
00000150: 750b 473c ea6e ed3b e2dd 1bbc 828e 69b9
00000160: 337d 54bc 2840 8f3c 2e44 5d3c f4af 3e3c
00000170: 6eac 3abc 2bd9 563c ac7f 043c 555e 3cbc
00000180: a32e 1ebc 4c58 50bc 2d29 483b 0e92 15bc
00000190: 9e08 503b 8d35 fa3b 2274 82bc 150f 4dbc
000001a0: 21d2 2cbb 3e7e 1cbc 259f aebb c741 f3ba
000001b0: a4de 7a3c 671b 8c39 847a 263c 8623 59ba
000001c0: 3ccf 343c b257 96bb d21d 7a3c babb 5f3c
000001d0: 799d a53b ff54 05bc 14a2 333c c17b 503b
000001e0: a4a6 fe39 10a6 983b 057c ccba 794a 053c
000001f0: d118 4ebc 27f5 713b d017 143c 71a3 5e3c
0.0031894124 0.0025616682 0.005391184 -0.014248613 0.007487667 0.02076033 0.019788882 0.0015788228
-0.0052704513 -0.0033916438 -0.009503004 0.017826246 -0.0024653354 0.013024581 0.017769773 0.013275166
0.013335358 -0.004620785 0.0135940965 -0.015274825 0.0039523705 -0.015118391 -0.0033400324 0.00092518027
-0.00463377 0.015079599 -0.008126681 -0.0051713586 0.0038874685 0.013548669 0.008249843 0.012120234
-0.0027958888 0.016082017 0.01328506 -0.013590505 0.011585196 0.0064871027 0.0020877144 -0.012149951
-0.01245342 0.0022369288 0.0179587 0.010693459 0.0073349066 0.005788783 -0.011531058 -0.016858537
-0.0081066135 0.01386904 -0.015666835 0.012659856 0.010852149 0.013600633 -0.014052382 0.005963006
0.004672485 0.0095864395 -0.008691849 0.010573431 -0.000560185 -0.007252131 0.0048158523 0.005173682
0.009853771 -0.0008568684 0.017573377 0.0060429154 -0.0012296755 0.009823394 0.017292432 0.011380354
0.000754579 -0.016011063 -0.0016663613 -0.0052110585 0.01034174 -0.0004350796 -0.016509194 0.013047801
-0.0114066955 0.0011776331 0.014373037 -0.011077874 0.012148728 0.007245888 -0.00951335 -0.000222737
-0.012969303 0.017486647 0.013505025 0.01163863 -0.0113936495 0.0131133 0.00808708 -0.0114971
-0.009654674 -0.012716364 0.003054212 -0.00912906 0.0031743417 0.0076357783 -0.015924517 -0.012515803
-0.0026370364 -0.009551583 -0.00532903 -0.0018559032 0.015311871 0.00026723297 0.010161046 -0.00082831865
0.011035737 -0.004588091 0.015265899 0.013655597 0.0050541726 -0.00813794 0.010963935 0.0031812044
0.00048570812 0.004658468 -0.0015600926 0.008135431 -0.012579159 0.0036919804 0.0090388805 0.013588772

network_body._body_endoder.seq_layers.0.weight f4 [128, 10]
00000000: b3e1 b43d 073d 7fbe 20e2 1e3f c029 86be
00000010: b356 8abc 896e 39be 4768 2bbe ea84 20be
00000020: 7e6d cbbd 8f66 42be 60f5 763e 9559 ae3d
00000030: 0eae 9cbe b11a 24bf fef6 4abf 2ac0 78be
00000040: e4e5 5bbe 5d27 cd3e f92b 5ebe c470 a23e
00000050: 8df6 1fbf 8e18 75bf 5123 babe 578a 123e
00000060: 09ce 5abe e5f9 dd3e bf68 973e e59e 913e
00000070: 99f2 fd3e daa4 76bd 47af 97bb 2074 6b3e
00000080: cab5 dabe 1a87 77bd 3b84 10be 4c19 f33e
00000090: d6d0 713e adbf 84be f83d ebbe a83c 473e
000000a0: 35a3 f83d b4f0 56be f8ba 1f3e 9298 61bf
000000b0: a4aa f5be fde5 013d 5049 cf3d 015b a7be
000000c0: 2fc1 98be 424e bf3d 6c2d 95be 56d7 1cbe
000000d0: eebf 7bbd ac21 c9be 622e fc3e c9b0 d9bd
000000e0: 8af2 e5be e0db 8dba f811 253e 612b 7ebe
000000f0: 515d e0bc 7e7a bb3d 4475 9abe 8bfa 28bf
00000100: 54ae a73d d7df eebd 0632 213e 4a18 4dbe
00000110: 66cd 8cbe c03a 3ebd 995d 47bf e2ac e93d
00000120: a68a bcbe 1ead aa3e 1698 b9bd fccb 08bf
00000130: 1025 a8be f187 9f3e 11af 233e 1737 f4bc
00000140: 939d 6f3d 5812 06be a973 84bc 2501 d03c
00000150: 1bc3 99bd 9294 923d c10b 713e 7dfd ebbe
00000160: f129 413d 6337 c0bd c47b a03e c7ca 703c
00000170: 2b94 afbe dcbc 873e e015 02bf 4a7e c8be
00000180: 6dd2 533d 1d48 a73e 4bdf 133e 1e14 7cbe
00000190: 66d3 a23d afa0 6c3c 44ba 81bf 7ca2 773e
000001a0: 1964 de3e c9a3 4d3e d048 ae3d 6124 c5be
000001b0: b99e 903e af59 18be 6a17 29bf b964 d83e
000001c0: 014c aabe 1355 af3d 9833 9d3e 3e36 823f
000001d0: 6156 eb3e 04de e63e ea8c 80be 0370 b23e
000001e0: 803c 133e d836 243d 04b3 0c3f bd8f 933e
000001f0: 00b7 c03e 7ccf 6cbe d48c 9c3d 9f31 563e
00000200: cd28 893d 10c6 9e3e 9907 67be afce 653e
00000210: 7f1b bb3d e7ed d4be 793d 4dbe 4e77 073d
00000220: af66 c5be fcbc 56be ee28 e73e 9387 d9be
00000230: 6c02 9ebe 5418 56bd 143c 6e3e 9250 be3e
00000240: 984a 18bf 0170 5a3e f781 b6bd f5e6 10bf
00000250: 028b 28be 2563 73bf bcf4 c23d 7504 1a3e
00000260: 35cb 9c3e 1472 c03d 9fd3 c53d 64ed 323e
00000270: dde0 6c3e e021 31be 55a8 eb3e 7346 613e
00000280: 9783 623d e754 9fbe f0c1 0a3f 236d 0abe
00000290: 3dca e0bd d4c7 78be 9ce9 953e 8091 0cbf
000002a0: 628b bbbd 761c 2ebe 5da4 fcbe 9a75 933c
000002b0: 70f8 a33e f96b 8f3e 2bce 603e 36c8 c03d
000002c0: 4128 1e3e ebb8 ad3e 3d72 453c 941c 89bd
000002d0: 14cc 05be fdef 9abb bc86 74bd b236 3d3e
000002e0: 033a 473e 17ca 98be c182 153e aaf3 133e
000002f0: a202 763d 94df 59be 5f4a 903d 7e5b 96be
00000300: edc6 ebbe c9ba 233f 9be2 a9bd 5cdd 82bd
00000310: ca2b 7dbe 2b51 14bf 5d51 723d b931 98be
00000320: bb41 c1bc 8296 3d3e c0e4 533c 2a85 f1bc
00000330: 5cdf 573e 4456 ac3e c75e 2abe bf05 013e
00000340: 60df fabd 9298 973e a75e 633e f688 343e
00000350: ca59 9dbe af13 803d 9b3f 8cbd b9eb 7d3e
00000360: 5918 38bf 3d0b 873d 4584 b3be a904 93be
00000370: 0896 9f3b eb18 0ebe f4bb 40be a891 94be
00000380: 043e 0bbd 74d0 a1bd 86b7 06bf 8514 353e
00000390: bbe8 7fbd 5b20 d13e 35f8 8b3d c180 b73d
000003a0: 4141 dd3d 790c b6be 5ebf 58bd b6ab cb3d
000003b0: fc11 383e f6be 083e 860d f1bd b41a a8be
000003c0: 45b1 da3e 3a69 473e bdd9 f2bc 4049 8fbe
000003d0: bd33 7cbe 3fcb dd3e 548d 08bf 1dbd febd
000003e0: a7f0 e93d 0d8a b3bd 5b68 05bc 9fb1 d73e
000003f0: cf79 a1be eeb8 8cbd e3fb c8bc 1511 e3bd
0.08832111 -0.24925624 0.6206379 -0.26203728 -0.016887045 -0.18108572 -0.16738997 -0.15675703
-0.09932993 -0.18984435 0.2411704 0.0851318 -0.30601543 -0.6410323 -0.7928313 -0.24292055
-0.21474415 0.40069094 -0.21696462 0.31726658 -0.6248558 -0.9574059 -0.3635507 0.14310585
-0.21367659 0.43354717 0.29572102 0.2844154 0.4959915 -0.06021581 -0.004629049 0.22993517
-0.4271682 -0.060431577 -0.14112942 0.47480237 0.23614821 -0.25927487 -0.45945716 0.19456732
0.12140504 -0.20990258 0.15598667 -0.8812343 -0.4798175 0.031713475 0.10121405 -0.32686618
-0.29834887 0.09341098 -0.29136217 -0.15316519 -0.061462335 -0.39283502 0.49254137 -0.10629422
-0.44911605 -0.0010822974 0.16120136 -0.24821235 -0.027388247 0.09154223 -0.30167592 -0.660073
0.08187547 -0.11663788 0.15741739 -0.20028797 -0.27500457 -0.046442747 -0.77877194 0.11409928
-0.3682453 0.33335203 -0.09062211 -0.53436255 -0.32840776 0.31158403 0.15984751 -0.029811425
0.058499884 -0.13092935 -0.016168432 0.02539117 -0.075079165 0.07157244 0.2353964 -0.46091834
0.04715914 -0.09385564 0.31344426 0.014696783 -0.3429273 0.26511276 -0.5081463 -0.3915885
0.05171435 0.32672206 0.14440648 -0.24617049 0.07950477 0.014442607 -1.0134969 0.24183077
0.43435743 0.2008201 0.08509982 -0.38504317 0.28246096 -0.14877962 -0.6605135 0.42264345
-0.3326111 0.085611485 0.30703425 1.0172803 0.4596434 0.4509126 -0.2510751 0.34851083
0.14378548 0.040091366 0.54960656 0.288206 0.37639618 -0.23126024 0.07644048 0.20917366
0.06697235 0.31010485 -0.22561492 0.22442125 0.09136104 -0.41587755 -0.20042981 0.033072762
-0.38554904 -0.2097053 0.45148414 -0.42486247 -0.30861223 -0.052269295 0.23265105 0.37170845
-0.5948882 0.21331789 -0.089115076 -0.5660241 -0.16459277 -0.9507316 0.09519336 0.15040763
0.30623785 0.09396759 0.09659504 0.1747337 0.23132654 -0.17298079 0.46026865 0.2199953
0.055301275 -0.31119463 0.54202175 -0.13518195 -0.10976074 -0.24294978 0.29279792 -0.54909515
-0.091574445 -0.17003044 -0.4934415 0.018000413 0.3202548 0.28012064 0.21953647 0.09413187
0.15445043 0.33930144 0.012051162 -0.06694904 -0.13066131 -0.004728316 -0.059698805 0.18477896
0.19455723 -0.29841682 0.1460066 0.14448419 0.060061105 -0.21276695 0.07045435 -0.29366678
-0.46050206 0.63956887 -0.08295175 -0.06389877 -0.24723735 -0.5793635 0.059159625 -0.29725435
-0.023590913 0.18514445 0.012932956 -0.029482443 0.21081299 0.33659565 -0.16637717 0.12599848
-0.12249637 0.2960859 0.22204076 0.17630371 -0.30732566 0.06253754 -0.06848069 0.24796952
-0.7191215 0.065939404 -0.3506185 -0.28714493 0.00487018 -0.13876693 -0.18821698 -0.29017377
-0.03399469 -0.079010874 -0.52623785 0.17683609 -0.06247781 0.40844998 0.06834451 0.08960105
0.10803462 -0.3555639 -0.052916877 0.09944861 0.1797561 0.13354096 -0.117701575 -0.32832873
0.4271337 0.19473734 -0.029644841 -0.27985573 -0.24629112 0.43319127 -0.5334065 -0.12438414
0.11422854 -0.087665655 -0.008142556 0.42127702 -0.31538245 -0.0687121 -0.024534171 -0.110872425

network_body._body_endoder.seq_layers.2.bias f4 [128]
00000000: 0bb5 8b3c 4a77 28bc 1ccb c43b a6ed 70bc
00000010: 8d07 92bc 7cbc b5bb 2323 36bc f61e 8c3c
00000020: 8443 25bc 878a 56bc 5ac5 2f3c 3247 cbbb
00000030: 2f5f 4c3c e943 45bc e5db 843c 2c55 16bc
00000040: d962 26bc 8a28 1bbc d6d2 8e3c 0b49 923c
00000050: dcc6 b8bb 1da6 8f3c 0208 893c 1d54 683c
00000060: 6fc4 113c 4f78 0ebc e701 733c 0501 203c
00000070: 2a85 193c 4529 893c cc85 e4bb 1c33 ceba
00000080: 6f34 40bb b4dd 9b3b e23a a639 636d cd39
00000090: 5d20 0cbc c962 85bc e6d4 693c 29d3 57bc
000000a0: bfea 9e3b 53d9 293c afb7 8fbc 0deb 2bbc
000000b0: 7b04 22bc a33c 543c 1cae 7fbc d0ea 1cbc
000000c0: 2f77 583b ebc1 69bc 3c89 01bc 4308 883c
000000d0: 2c51 c9bb 5bc4 493c c7dd 763c f43b 8ebc
000000e0: 37e1 65bc 01da 3cbc c8ab 00bc 10f0 e03a
000000f0: cb18 693b cda3 873c 9bb5 6a3c e848 373c
00000100: 04b9 8ebc 1b5f 66bc 44e1 7c3c 0b4d 71bb
00000110: c21f 913b cff4 7abc 4a0e 65bb 8aee 4d3c
00000120: 9064 003c a74c 92bb c342 983a 92ee 313c
00000130: 7f73 ee3b 8a91 3fbc df6b 273c eb3c 523c
00000140: 3960 873c 5111 debb b3eb 273c 7620 863c
00000150: fafd 363c 8c5f 83bc b923 30bc 1c48 c53b
00000160: 3982 e3bb 1f34 8bbc ccfc 323c ea77 883c
00000170: 0c5a 60bc 8f73 e63b 1d52 8fbc bf4a 363c
00000180: 59e7 0f3c 2cd5 903b f65b 673b 6109 44bc
00000190: 5e2a 19bb c91d 803c 5051 8abc c8b8 813c
000001a0: 71d3 3abc b35a 763b b9c9 4f3c 5098 8b3c
000001b0: 29be 4cbc 48f5 58bc ff01 7f3c 0dab da3b
000001c0: 2b4a 6dbc 8d1b 8dbc 0927 d73b fd6c 9a3b
000001d0: 4620 f63b 4a5d 0e3c c3bf 603c a0ad 9abb
000001e0: 5880 063c 37d3 543c 02b9 7a3c c7f1 4dbc
000001f0: 251d 273c 7862 7b3c 877b 42bc 5b1a 79bc
0.017054101 -0.010282347 0.006005658 -0.014705097 -0.017825866 -0.0055461507 -0.011116776 0.017104607
-0.010086898 -0.013094551 0.010728205 -0.0062035555 0.012473865 -0.012040117 0.016218135 -0.00917558
-0.010155403 -0.0094701145 0.017434519 0.017857095 -0.0056389403 0.017535264 0.016727451 0.01418021
0.008896931 -0.008695676 0.0148319965 0.009765868 0.009370128 0.016743312 -0.0069739576 -0.0015731785
-0.0029328128 0.0047566537 0.00031705858 0.00039182146 -0.008552638 -0.016282456 0.01427195 -0.013172903
0.0048497613 0.010366756 -0.017543642 -0.010493052 -0.009888764 0.01295391 -0.015605476 -0.009577468
0.0033030023 -0.014267425 -0.007906254 0.016605502 -0.0061437096 0.012314881 0.015067524 -0.017362572
-0.014030746 -0.011526586 -0.007853456 0.0017161388 0.0035567756 0.016557598 0.014325525 0.011186816
-0.017422207 -0.014060761 0.015434567 -0.0036819603 0.0044288347 -0.015317156 -0.0034951144 0.012569079
0.007836476 -0.004464704 0.0011616576 0.010860102 0.007276952 -0.011692414 0.01021859 0.012831907
0.016525375 -0.0067769666 0.010249066 0.0163729 0.011168951 -0.016036771 -0.010750704 0.006020559
-0.006943014 -0.016992627 0.010924529 0.016658742 -0.013693344 0.0070328186 -0.01749521 0.011126219
0.008783185 0.0044199433 0.0035302616 -0.011965127 -0.00233712 0.015639203 -0.016884476 0.01583518
-0.011402951 0.0037590682 0.012682372 0.017040402 -0.01249651 -0.013242073 0.015564441 0.006673223
-0.014483015 -0.017225051 0.0065659327 0.0047126994 0.0075111715 0.008689234 0.013717595 -0.0047204047
0.0082093105 0.012989811 0.015302898 -0.012569851 0.01019982 0.015343301 -0.0118702715 -0.015204038

network_body._body_endoder.seq_layers.2.weight f4 [128, 128]
00000000: 03a7 b5bd 9706 9c3c 6ac7 843e 3a12 3bbd
00000010: 6a6b bfbd 8e85 b4bc 33c6 02be 5d2b 0abe
00000020: 401c 89bd fff1 3c3d dc84 803c 3cce 393e
00000030: abfc ca3c ffec ca3c 5fd6 893d 418d eabd
00000040: c862 b73c 81f3 903c 5668 b23d ce2b febd
00000050: 1af2 d4bb 9b7b ec3b cb3d 5ebd 06a8 2c3d
00000060: 3a7d 553d 4407 ccbd f3fd 753d 0eb8 fb3d
00000070: ea9d b0bd 1d38 6cbd 4614 1abe ed4b 063d
00000080: f0e9 e33c 7692 823c 69a4 223e c808 083e
00000090: dc1d 713d b9ea a53d 5c5b e43c 75ca 173e
000000a0: 9702 0bbd 9517 ecbc b6be 883d da30 833d
000000b0: 3ff8 b43d 0805 223e 56a8 f0bb f601 273e
000000c0: 4385 d6bd 3ddc 583d f1dd 693d f269 a13d
000000d0: a90a b0bb 3069 323d 7645 1cbc e824 293e
000000e0: 64a2 ad3c dc83 46bd ab57 c6bd cdb3 2f3e
000000f0: e087 6cbc 35d6 313c b97f 243d ab93 ccbd
00000100: f8df 61bd 4797 8d3d 6332 ca3d 4d6b 363d
00000110: 6c72 fd3d 9493 c33d 13e5 823c 9c28 5d3d
00000120: f2d6 1a3d e801 283c 0eab 733e 3415 df3c
00000130: 5c10 813b f32c 15bc d815 d93c 70eb d13d
00000140: b30b 803d 3c79 a5bd 2c79 753d 4b92 6a3d
00000150: 54ea 3f3d a2a0 5f3d 51e8 0ebd 6291 5a3d
00000160: f601 0f3d 1545 5dbd cdfd 923b 857c 133c
00000170: 79e5 e2bc 0aa2 b33d 54e3 bc3d ccfc 27bd
00000180: ac0f 5ebd 737c 24bd 6452 bcbd 4e77 04be
00000190: 517f 913d 483f edbd 9576 693d d81d d43d
000001a0: 5029 043d 52d7 9b3c 34b9 29be 77cf 70bd
000001b0: cc63 853c 17f1 773d 5cc8 b3bd fdc6 623e
000001c0: 0117 913d 2d38 be3d 95c1 403c fa1b f43c
000001d0: 8b54 aa3c 4501 2ebd 9d9a f03c 2110 7ebd
000001e0: d2fd 883c f089 68bd 1d5f 283e 197a d0bd
000001f0: e02d 8abc 0c9b bb3c 40ad c63d 05ad f93c
00000200: cf71 18bc e343 e9bb 2b56 9b3d f2c0 813d
00000210: 9054 60bd 064d 9b3d 43a6 ebbd b0c9 88bd
00000220: 9156 fabc c52d bdbd 9c76 e9bd 4c2b d4bc
00000230: ef55 84bd 5df5 ceba bdc1 4d3c 7ed0 3abd
00000240: 4517 5fbd edae 8a3d ad47 00bc ff42 7dbd
00000250: 0d3c 88bc d9ac aabd c528 09bd af99 8ebc
00000260: 10b7 63bd 471c 0d3e a7ea 58be f5c1 233e
00000270: 5730 c53c 3b77 2abd a22d 243c ffa1 d3bd
00000280: 948e 02be 6297 c33d 2dc0 893c 8b02 2c3d
00000290: eb34 c7bc 952c 34be 8125 22bd 793c 6b3d
000002a0: d994 ee3c 200d 59be e0a2 64bd 3d9f f8bc
000002b0: 298f 983c 9711 06be acdf a13d bab2 81bd
000002c0: eeef 3ebe 5b1c 21bd 7cd3 81bd 654c 1ebe
000002d0: be27 1f3c 8b60 813d a571 193c d982 223d
000002e0: db37 02be f1e4 0d3e 3c49 92bd 58e9 60bd
000002f0: 39a8 9b3d d707 783d 6fce 953d 0e9c 6dbd
00000300: c1e3 51be 9fc8 46be c6aa 853d 0bef 5a3e
00000310: 043e b93c fe97 8c3c 79fa 2f3e 911e 343e
00000320: 945b fbbc a66f 8a3b 2464 123e ceff 04bd
00000330: aeff cf3c 33f9 f33b efe7 303d 4fc9 003d
00000340: 1c4d 0bbe 4099 99bd 5b4e 42bd ca0a 063e
00000350: 1349 26bb 5b4a 0fbe b061 373d ca1c f53d
00000360: a55f 2cbd 80da dfbc 12c8 753d 2671 d0bd
00000370: 76d6 39bd 7034 01bd caf4 2a3e 9849 05bc
00000380: 3beb 62bd 3d1f 0fbe 51b7 55be d5a3 573c
00000390: c918 a53a dc0a 65bd 0121 e83d 3bcc 4a3d
000003a0: beb0 b53d bda8 d6bc d4ef 443d 7a53 60bd
000003b0: 7cd3 c9bc 5ffb e63d 72db bf3d df6b 573d
000003c0: 2087 e6bd 8931 ffbc cf56 213d d49a 943b
000003d0: 9741 133c a79d e13d f017 0cbc e30f a43b
000003e0: 4ff9 e53c 8f5a 1bbd 5093 043c 235a 0f3d
000003f0: f2ad d83b ceb9 e1bd 60b1 ee3c 22d7 413d
-0.088697456 0.019046111 0.2593339 -0.04567168 -0.093466595 -0.02203634 -0.1277092 -0.13493104
-0.066948414 0.046129223 0.015688352 0.18145078 0.024778685 0.024771212 0.06730341 -0.11452723
0.02238597 0.017694237 0.08711307 -0.12410699 -0.0064985873 0.0072168834 -0.05425815 0.042152427
0.05212138 -0.09962323 0.060056638 0.12290965 -0.0862387 -0.0576707 -0.15046796 0.032787252
0.027821511 0.015938979 0.1588303 0.132846 0.058866367 0.081014104 0.027875595 0.14823325
-0.033938017 -0.028819839 0.06677 0.06405802 0.08836412 0.15822232 -0.007344286 0.16309342
-0.104746364 0.05294441 0.057096425 0.078815356 -0.0053723645 0.043557346 -0.009538045 0.16517985
0.021195598 -0.048465595 -0.0968469 0.17158432 -0.014436692 0.010854294 0.04016087 -0.09989103
-0.055145234 0.069136195 0.09872892 0.044535924 0.1237534 0.09549633 0.015978372 0.053993806
0.037802644 0.010254361 0.23795721 0.02723179 0.003938718 -0.009104955 0.026499674 0.10249984
0.062522314 -0.08079764 0.05993001 0.057268422 0.046854332 0.05459655 -0.034889523 0.053361304
0.03491398 -0.05402096 0.004485822 0.009001856 -0.027697312 0.08771141 0.09223047 -0.04101257
-0.054214165 -0.040157747 -0.09195402 -0.12936136 0.07104362 -0.115843356 0.056997854 0.10357255
0.03226596 0.019023571 -0.16574556 -0.058791604 0.016282938 0.060532656 -0.0877845 0.2214622
0.07084466 0.092880584 0.011764904 0.029798497 0.020792266 -0.04248168 0.0293706 -0.0620271
0.016722593 -0.056772172 0.16442533 -0.10179538 -0.016867578 0.02290108 0.097010136 0.03047801
-0.009304478 -0.0071186884 0.075847946 0.063356295 -0.054768145 0.075830504 -0.11506321 -0.06679094
-0.030558856 -0.092372455 -0.11399576 -0.025899552 -0.06461703 -0.0015789677 0.012558398 -0.04560899
-0.05446555 0.06771646 -0.007829589 -0.06183147 -0.016630197 -0.08333749 -0.033486146 -0.017407266
-0.055594504 0.13780318 -0.21183263 0.15991957 0.024070902 -0.041617613 0.010020645 -0.10333633
-0.12749702 0.09550358 0.01681527 0.041994613 -0.024317225 -0.17595132 -0.039586548 0.057430718
0.02912371 -0.21196413 -0.055819392 -0.030349368 0.018622952 -0.13092647 0.0790399 -0.063329175
-0.18646213 -0.039333683 -0.063391656 -0.1545883 0.009714065 0.06317242 0.009365474 0.039675567
-0.1271662 0.13856865 -0.071428746 -0.054910034 0.07600445 0.06055435 0.07314765 -0.058010153
-0.20497037 -0.19412468 0.06526713 0.2138025 0.02261258 0.01716232 0.17185391 0.17589785
-0.030683316 0.0042247353 0.14296013 -0.032470517 0.025390472 0.0074454783 0.04318994 0.031441983
-0.13603634 -0.07499933 -0.047438007 0.13090053 -0.0025373145 -0.13993208 0.044770896 0.11968382
-0.0420834 -0.027325869 0.060005255 -0.10177831 -0.04537054 -0.03154415 0.16694942 -0.008135222
-0.055400115 -0.1397676 -0.20870711 0.013161619 0.0012595888 -0.05591856 0.1133442 0.049511176
0.088716015 -0.026203508 0.04808028 -0.05476711 -0.024636976 0.11278414 0.09368028 0.05259311
-0.11256242 -0.03115155 0.039389428 0.0045350585 0.008987806 0.11016398 -0.008550629 0.0050067767
0.028072981 -0.03792816 0.008091763 0.03499807 0.006612533 -0.110217676 0.029137313 0.047324307
