Foosbots_working/results/train1/Foosbots_working/Foosbots_working-9472.pt (torch, 451487 bytes, 36 tensors)

network_body._body_endoder.seq_layers.0.weight f4 [128, 10]
00000000: d16d 063f b8c2 9dbc e902 473e fa48 82be
00000010: ebe3 533e 264e b0be fa00 193f b928 08bf
00000020: 4f48 b83e 48f9 58be c6c3 6a3e 103a 413e
00000030: 9d03 173e ec7b 1e3e 23ba c33d 4301 07be
00000040: b8d4 9d3c a3f7 b2bd bb98 12be 6c79 0a3f
00000050: 9e6d 01bf ac6f 96bd 027a 44bf 64b6 94bd
00000060: bb03 e5bd 38fb 4b3e 30eb febd 5e0b 8c39
00000070: 61ae 91be bc31 633e 786c 2ebe cdd8 4cbe
00000080: 0b41 eabe bd88 9fbb 563f 6e3e 6284 55be
00000090: fb85 5fbe d517 35bf 178c 093f b5c1 d5be
000000a0: b94d 9ebe 00d7 31be a4b6 603e 46a9 833e
000000b0: c5e1 d7be 3b88 123d 2c5f 343d afc8 75be
000000c0: c888 bd3e da9d 8ebd 1516 92be f054 8dbd
000000d0: 15b6 de3c c397 163e 4ce5 843c 967d ed3a
000000e0: 5d1a 513e 2b82 3a3e ae2c 06be 44d1 a53e
000000f0: d4f6 2b3f 15ed 29be e2ea 523e ca41 45be
00000100: 8f07 c43e 4356 5f3d 2647 0a3e a932 dc3e
00000110: 8615 34be d4a1 11bf 2520 5e3c cce9 0d3f
00000120: ce45 9d3e e8c7 07bf 1642 fdbe 2f49 cc3e
00000130: 00e1 6bbe e6b9 623d 952d f9be 2e4f a8bd
00000140: a331 7e3e 42f4 703e 7dd8 36bd 5a78 853e
00000150: 74f7 1a3e 5a54 cf3e 1339 213e b79c 873e
00000160: 57c7 3abf 1d8b 2f3e 44b5 303c da81 eebe
00000170: aec6 10bf b30b b6bd 6aa4 bcbe a8eb 9abe
00000180: 3594 62bd 2521 b5bb 3791 69bd 284a 683e
00000190: c5c8 a13d 6b00 a4be 2aa3 9ebe a39c a2be
000001a0: 2d03 d3be 53a4 893e 72c1 e53c 0e4c d23e
000001b0: f6df 013e 1693 d13c fbc3 da3d 6043 4d3e
000001c0: 1cc0 03bd 6924 8b3e 5e36 43be 9477 d83e
000001d0: f73a b5be 2a14 fcbd 05a8 3ebe 1e72 333e
000001e0: 8b1a eabe 3141 8bbe ab40 e8bd d074 a73e
000001f0: e4a7 973e 4053 6fbe 68d0 bcbd a56a bb3d
00000200: 2d3c 1d3e bb23 163f 4976 4fbe c281 583e
00000210: c863 5dbe f305 93be b0a6 1abf d61b 8cbe
00000220: 10c4 24be b0f5 3fbe f006 30be 2c0f 953c
00000230: 3540 013f 7efc 30bf 64bf 8abe 1966 383f
00000240: 43ce 56be 6a21 c53d 3194 c13e d66c 0bbf
00000250: 62ef 5f3e 2ba0 993d cb61 c9be f2eb a2bd
00000260: ba24 b03e 2896 41bf c7f7 e8be 4e13 29bd
00000270: 73e8 2fbe 168d 7c3e 3c4f bdbd c24b 85be
00000280: 150a aebd 55b4 9b3e 80cb 063f 1398 6ebe
00000290: 1a93 a13b 5558 32bd 9e7b 343d 750b 27be
000002a0: ee67 74be deda 1abe 3984 8e3e b969 40bd
000002b0: 14bd 44bc 289c b83c cecb cabe bfa7 003e
000002c0: 1474 023e e703 9bbe 5c3d 923c f255 353e
000002d0: 5d80 e03d fe41 0b3e 90ab 583d d7ec e53e
000002e0: 5331 ea3e a263 dbbe 2bcb d2be 6476 0abd
000002f0: 99b2 353e 986f a03e 8d93 293e fa38 493f
00000300: f04c b73e e589 273e 9736 2c3e d864 03bb
00000310: 6c31 84be ca33 cbbe 8f26 b23d 3855 3b3f
00000320: 136a 873d f41b 7dbd b1ba a63e eb36 7a3e
00000330: 288c a23b 538a fb3e 9705 5a3e 5580 a83e
00000340: 425f 1cbe 67f5 c53d 5633 d6bd e731 e93d
00000350: c1b4 013f 6082 3d3f 5907 8c3f 3552 683e
00000360: 934c d2be bb23 72be 99fe 39be c66b cabd
00000370: 304a 3b3e 48d5 ac3c 3642 08bd c79c b13e
00000380: 1b29 c0be e7a7 cfbe ce1e 1f3e ccfd 4fbe
00000390: b1a7 f13d 5f4d 1c3e f99a 55bf ff6f 35be
000003a0: 789e 5c3d 85e0 c1be 9001 5bbe 8e7d 40be
000003b0: f9de a5be 56cf 59be 110d b53c b4a4 d03d
000003c0: a69e 8ebe b764 b5bd 785a 4e3f 8f8f e2be
000003d0: 2c93 edbd 12b2 65bd a7d4 713e b5bb acbe
000003e0: 9c34 94be 526b 3fbe cbba 223e 1436 ffbd
000003f0: eb5b 9abd 9bee cd3d 7650 a4be a173 9b3e
0.52511317 -0.019257888 0.19434704 -0.25446302 0.20692413 -0.34434623 0.59767115 -0.5318714
0.35992667 -0.21188843 0.22926244 0.18869805 0.14747472 0.1547696 0.09556987 -0.13184075
0.019266471 -0.08738639 -0.14316075 0.54091525 -0.5055789 -0.073455185 -0.7674867 -0.07261351
-0.11182352 0.19920051 -0.12447202 0.0002671135 -0.28453353 0.22186941 -0.17033565 -0.20004578
-0.4575275 -0.0048685954 0.23266348 -0.20851281 -0.21828453 -0.7073949 0.53729385 -0.4174935
-0.30918673 -0.17367172 0.21944672 0.25715083 -0.42164436 0.03577445 0.044036075 -0.24002336
0.37018418 -0.069637015 -0.28532472 -0.06900966 0.027186433 0.1470633 0.016222619 0.0018119093
0.20420213 0.18213718 -0.13102981 0.3238622 0.67173505 -0.16594346 0.20597413 -0.19263378
0.38287017 0.054525625 0.13503703 0.430074 -0.17586336 -0.56887555 0.013557469 0.5543487
0.3071732 -0.5303941 -0.49464482 0.39899585 -0.2303505 0.055353068 -0.4866759 -0.08218227
0.24823622 0.23530677 -0.044640053 0.26068383 0.15133458 0.40494043 0.15744428 0.2648675
-0.7296042 0.17142911 0.010785405 -0.46583444 -0.5655316 -0.0888895 -0.36844188 -0.30257916
-0.055317122 -0.005527633 -0.057023253 0.22684538 0.07899622 -0.3203157 -0.3098386 -0.3176013
-0.4121336 0.26883182 0.028046343 0.4107365 0.1268309 0.025582831 0.106819116 0.20045233
-0.03216563 0.27176216 -0.19063708 0.4227873 -0.3539655 -0.123085335 -0.18618782 0.17524001
-0.45723376 -0.27198175 -0.113404594 0.32706308 0.29620278 -0.23371601 -0.09219438 0.091512
0.15354986 0.5864827 -0.20259966 0.21143249 -0.21620095 -0.28715476 -0.60410595 -0.27364987
-0.16090417 -0.18746066 -0.17190146 0.018195711 0.504886 -0.6913527 -0.27099144 0.7203079
-0.2097712 0.09625514 0.37808374 -0.54462945 0.21868661 0.07501253 -0.39332423 -0.07955159
0.3440302 -0.75619745 -0.4550154 -0.041278176 -0.17178516 0.24663195 -0.092436284 -0.2603436
-0.08498017 0.3041102 0.52654266 -0.23300199 0.004930866 -0.04354127 0.044063203 -0.16312964
-0.23867771 -0.15122554 0.27835253 -0.046975825 -0.01200797 0.022535399 -0.39608616 0.1256399
0.12739593 -0.30276415 0.017851524 0.17708567 0.10961983 0.13599393 0.05289799 0.44907257
0.45740756 -0.4284945 -0.4117063 -0.033804312 0.17743911 0.3133514 0.16560192 0.78602564
0.35800886 0.16361196 0.168177 -0.0020049121 -0.25818956 -0.3968795 0.08698761 0.7317691
0.06612029 -0.061794236 0.3256431 0.24435012 0.0049605556 0.4912897 0.21291195 0.3291041
-0.15270713 0.096659474 -0.1045901 0.11386471 0.50666434 0.7402706 1.0939742 0.2268761
-0.41074046 -0.23646443 -0.18163528 -0.098838374 0.18290019 0.021097794 -0.03326627 0.34689924
-0.3753136 -0.40557787 0.15539095 -0.2031166 0.11799563 0.1526389 -0.83439595 -0.17718504
0.053862065 -0.37866607 -0.21387315 -0.18797895 -0.32396677 -0.21270499 0.022100957 0.10187665
-0.27855414 -0.088571005 0.80606794 -0.44250152 -0.116003364 -0.056078024 0.23616277 -0.3373696
-0.28946388 -0.18693283 0.15891568 -0.124614865 -0.07537063 0.10055276 -0.32092637 0.30361655

network_body._body_endoder.seq_layers.0.bias f4 [128]
00000000: 975a 80bc f50a 063d 5215 9e3c 20e7 debb
00000010: e59f e03b e16b 513c 5bbd 1ebc cae5 4fbc
00000020: 35f5 003d 3bae debc ff23 2f3b c956 dd3b
00000030: 7133 7139 cf32 b53b c276 a03a 7db8 da3c
00000040: 3d3f 53bc 2fbf 083d ca76 503c c07d 123d
00000050: 08a5 cf3c ec64 de3c 1ae2 95bb 1077 98bc
00000060: b362 b93c 04a9 b63b 838c 24bc 175e 81bb
00000070: 8a43 8bbc 534a aa3c 040b c73b 53ea e63b
00000080: f3a9 1a3c d511 1e3d 406f 2fbc df10 76bc
00000090: 564f 29bc 403a cd3c 2476 1e3b 7077 033d
000000a0: 0c20 683b 6f2d 52bc 3b99 c83c 8d46 123c
000000b0: 49b4 d7bc 59c4 9cbb d942 5abc 769a 0abc
000000c0: 8898 013d ecca cf3c fac7 043d 8335 4abc
000000d0: e9db b23c f1c3 bc3c 9f4d a03b 8a3b 823c
000000e0: a7e3 0a3d a537 1fbc af6d 70bc f7cb 61bc
000000f0: 4128 a03c a241 b5bc 99a4 e53c 681c febc
00000100: 2841 f53b b5e6 1e3c cd8e 98bc 9391 54ba
00000110: b94d 4abb 0636 58bc 7d1c 593c 2f6c 89bb
00000120: 765b 5dbc 5fca 0b3c 6e9d ad3c ef26 503c
00000130: 159d 993c d607 da3c ebad 073d 4ff6 26bc
00000140: f6f7 cebc 7dc8 e0bb 51c7 23bc c280 a93b
00000150: 8d5d ed3c 04f3 00bc 6fe4 8ebc c413 0d3b
00000160: 2ba5 4fbc a2ea 323c e067 e8bc f314 8dba
00000170: 5604 9fbc 07bb 483b 9ec1 b13b 7615 5abc
00000180: 7148 153d 77df c3bc b81f 953c 4a54 82bb
00000190: 4c21 e93b 4a51 87bc a3a0 cf3c cbe2 113c
000001a0: c78a 95b9 1687 2dbc ff97 033b beeb 8abc
000001b0: 2dd7 8e3c 7610 433c ddd7 92bc 2679 563a
000001c0: c042 2d3c 3988 e63b 8c80 5b3c 091a ae3c
000001d0: 5a59 743c 34f8 81bc badc 60b8 f976 0a3c
000001e0: c5a0 b238 4f23 cfbc 97f8 26bc 42fd 13bc
000001f0: a0c4 0bbd ae9b 04bd 8959 6fbb fde2 a03b
-0.015668197 0.032725293 0.019297276 -0.0068024546 0.0068549984 0.012782068 -0.009688701 -0.012689063
0.031483848 -0.027182689 0.0026724336 0.0067547304 0.00023002714 0.0055297385 0.0012242424 0.026699299
-0.012893495 0.033385452 0.012723634 0.035764456 0.025347248 0.027147733 -0.0045740725 -0.01861146
0.022630071 0.0055743475 -0.010043266 -0.003947984 -0.016999979 0.020787394 0.006074311 0.0070469766
0.009439933 0.038591225 -0.010707676 -0.015018671 -0.010333857 0.02505219 0.0024179304 0.032096326
0.0035419492 -0.012828215 0.024487128 0.008927953 -0.026331084 -0.0047841487 -0.013321602 -0.008459678
0.031639606 0.025365315 0.032417275 -0.01234186 0.021833377 0.02304265 0.0048920657 0.015897531
0.033908512 -0.0097178565 -0.014674588 -0.013781539 0.019550445 -0.022126023 0.028032588 -0.031019405
0.007484574 0.0096985595 -0.01862278 -0.00081088505 -0.003086908 -0.013196474 0.013251421 -0.0041938047
-0.0135105755 0.008532136 0.021193232 0.012704595 0.01875166 0.026615065 0.033124845 -0.0101905605
-0.025264721 -0.0068598376 -0.009996251 0.00517282 0.028975273 -0.007870439 -0.01744291 0.0021526674
-0.012673656 0.010920199 -0.028369844 -0.001076369 -0.019411247 0.0030629055 0.0054246923 -0.013310781
0.03644604 -0.023910267 0.018203601 -0.003977333 0.007114565 -0.016518254 0.025345152 0.008904169
-0.00028522892 -0.010591289 0.002007961 -0.016958114 0.017436588 0.01190578 -0.017925197 0.00081815047
0.0105749965 0.007035282 0.013397347 0.021252649 0.014913881 -0.015865423 -5.361133e-05 0.008451217
8.517647e-05 -0.025285391 -0.010191104 -0.009032549 -0.034123063 -0.03237503 -0.0036521873 0.0049098716

network_body._body_endoder.seq_layers.2.weight f4 [128, 128]
00000000: f930 19bd 02d7 cfbc 221b 593b 639a a93a
00000010: 776c 403c ec6c d03c 7adf 3b3d 7e46 353e
00000020: 0357 33bd 1fcd ee3c cb23 3fbe bc61 67bd
00000030: 4c0d e73c c3d6 163e 8021 933c 2625 8cba
00000040: a4a5 5f3d 5b51 11bd d8f1 c2bb db81 81bd
00000050: a55c 4ebe df83 f63d cad5 87bc c691 43bd
00000060: afa4 c83d 669f bfbd 7830 203d 57ae b43d
00000070: 2302 cc3d 2665 2a3a ebc3 ce3d 477e 7f3a
00000080: e3f7 0cbe be17 3c3e a0c9 823c ff00 e43c
00000090: 4de2 0abe 016c 3cbc 05e4 9ebc 4327 eb3d
000000a0: 400d 00be 9d1f 39bc 143a e4bb fe80 543c
000000b0: 0498 cb3d d29f 6dbe 4c22 023d 7b10 2d3c
000000c0: 6c12 dcbc e790 1dbe 6a11 7cbd e30c 25bd
000000d0: 90f0 673d 9fb1 063e 1716 dd3d 359d 303e
000000e0: d7d3 d53d 1d60 cf3d 5ef4 2b3e d5fa a4bd
000000f0: 7826 04bd 9520 c43c a5a6 61bd 838a 05bd
00000100: b2ac 243d a7f6 2e3d bdef 943d b0e7 043d
00000110: 0314 653d a0de 0cbe e0f3 913b 371b 073d
00000120: 0abd 37bd 11dc 7b3d 83d2 053d ad8a ed3c
00000130: 818a 09be afde cebd 7151 81bd a8ef 89bd
00000140: a206 5d3e 9649 d3bd 067f 063d de5d 07be
00000150: 3f93 33be aaa6 5dbd 6cdc 713b 24df 263e
00000160: 0467 223d ef85 cc3d 8aea 623d baa7 643c
00000170: 1a52 003e 7c26 523d d942 50bb 2a12 eebc
00000180: 484f 16bd 3bca bcba 8721 8b3d 75a0 7b3d
00000190: 1796 94bd 2e35 b83d ec91 a9bd 1c70 1abd
000001a0: 6ea9 0b3e 52b9 c53a 0411 89bd d154 40bd
000001b0: 626c 6fbd c6a4 c9bd 1a92 d0bd 4037 a7bd
000001c0: 1f20 783d 19cc d13c 6f8f e13d e3ce 923d
000001d0: 64c9 12be 74ee 563d 2c0f babd 7b38 acba
000001e0: 21b1 1f3e 6c14 d73d ec2c d73d 3e67 3cbe
000001f0: 8027 a6bc 7172 78bc 4889 893d b93a c2bc
00000200: 5de2 1e3e 762c e4bd d926 0abd 89bf b4bc
00000210: 2456 b63c 7511 6f3d 8bfb a7bd b7ed 6f3d
00000220: dbbe dcbd 5279 c9bd 3a44 1dbe 33d2 dabd
00000230: 2183 f4bd 8c5d 6d3d 27b4 c5bd 5276 40bd
00000240: 0476 ce3b 7286 9f3d 86e3 643d 93b0 87bc
00000250: beba 293d a402 bc3c 214f e8bd 6c80 d23d
00000260: 78d0 903d eec8 d3bd deb1 8cbd 79a9 373d
00000270: d293 99bd 1d64 a9bd 17eb 21bd 4dba 783d
00000280: a5f8 bd3b d2f7 bfbd c00f 0fbe ac1b 313d
00000290: fe4d 58bc eba1 ae3d 14dc 4abd e906 e93d
000002a0: 788a 88bd 6fe9 88bd 1651 fc3c 12af b6bd
000002b0: 0635 7a3d bf54 8ebd 82e4 b23c 3c37 81bc
000002c0: 4c4c 8cbd 0dab a9bd c220 92bd a472 183c
000002d0: 87d9 edbd 57b6 533d 3529 0fbd 51ed e0bd
000002e0: 0a6d 2dbd cd4a 2fbc 8613 523d 26b3 dabb
000002f0: ce48 9c3d c86a ea3c da54 38be 5ec1 5abc
00000300: 5f99 e0bd 28a6 f43d d9ce 973d 7ee6 c43c
00000310: 17e9 a9bd cdbb 63bc dae0 053d fb53 62bb
00000320: 38ff c53d f49f 613d b8bd 0bbe 01f4 56bc
00000330: 447d 68bd 168c 553d e241 b33d 96ad b5ba
00000340: 1af5 5abd 2c72 b6bc 63ec d23d a6ee 643c
00000350: 9009 e93c 4c82 86bc 1a19 19bd ef05 663b
00000360: a2e7 373e 80f8 2dbc 8b8e 06be f049 343d
00000370: 2bdb fa3d beef 15be bbdb ad3b 4b75 7ebe
00000380: 5e29 0cbd c283 2b3c d5f3 8b3e 0fdb 3f3d
00000390: 180d 96bd cabc 15be 103e 703d 1e43 93bd
000003a0: 0bee bc3d 6a19 353d 583e ecbc 052e 143e
000003b0: daf7 c53b 5b95 9cbc ca4a 2a3d ffad 7cbe
000003c0: cae4 dd3c 545c 14bd c270 f13d c2de a83d
000003d0: 8bc1 803d c6cc 11be c981 f43d 8653 a9bd
000003e0: 141e a83d 6abe 273e d33a f53c d3f7 51bd
000003f0: 0b33 5dbc f262 4c3c 55a5 17be e91e 593d
-0.03740022 -0.025371078 0.0033127745 0.0012939688 0.01174461 0.025442563 0.04586742 0.17702672
-0.043784153 0.029150544 -0.18665998 -0.05648969 0.028204583 0.14730363 0.01796031 -0.0010692223
0.054601327 -0.035477977 -0.00594924 -0.06323596 -0.20152529 0.12036871 -0.016581435 -0.047746442
0.09797036 -0.09356575 0.039108723 0.08822315 0.09961345 0.00065000576 0.10095962 0.0009746295
-0.13766436 0.18368432 0.015965283 0.027832506 -0.1356289 -0.0115003595 -0.019395838 0.11482098
-0.12505054 -0.011299041 -0.0069649313 0.012970207 0.09941104 -0.23205498 0.03177099 0.010563011
-0.026864253 -0.15387307 -0.061540045 -0.040295493 0.056625903 0.13153695 0.10795229 0.1724747
0.10440796 0.10125754 0.16792437 -0.08055655 -0.03226325 0.023941318 -0.055090565 -0.0326028
0.040203758 0.042715695 0.07272289 0.032447517 0.055927288 -0.137568 0.004454121 0.03298494
-0.044858016 0.06148917 0.032671463 0.02899679 -0.13431741 -0.10101067 -0.06314362 -0.06735164
0.21584561 -0.1031677 0.032835983 -0.13219401 -0.17536639 -0.05411402 0.0036905063 0.16296059
0.039649025 0.09986483 0.055399455 0.013956005 0.1253132 0.051306233 -0.0031778126 -0.029061396
-0.036696702 -0.0014403531 0.06793504 0.06143232 -0.0725519 0.08994518 -0.082797855 -0.037704572
0.13638851 0.0015085137 -0.066926986 -0.046955887 -0.05845297 -0.09845881 -0.10184117 -0.08164835
0.060577508 0.025610017 0.11013686 0.07168367 -0.14334637 0.0524735 -0.09084925 -0.0013139391
0.15594913 0.10501942 0.10506615 -0.18398759 -0.020282507 -0.015164004 0.067156374 -0.023709642
0.15516038 -0.11141293 -0.033728454 -0.022063987 0.022257872 0.058366258 -0.08202275 0.058576312
-0.1077859 -0.09837593 -0.15358058 -0.106846236 -0.11939073 0.05795054 -0.09653502 -0.04698784
0.0063006897 0.07789315 0.055881046 -0.01656369 0.041437857 0.022950478 -0.11343218 0.10278401
0.07071012 -0.10341059 -0.06869863 0.044839356 -0.074988976 -0.08271048 -0.03953084 0.060724545
0.005797463 -0.0937344 -0.13970852 0.04323928 -0.013202189 0.08526977 -0.04952629 0.11378271
-0.06667036 -0.06685149 0.030800384 -0.08920111 0.061085723 -0.06949758 0.021837477 -0.015773408
-0.0685049 -0.082845785 -0.07135154 0.009304676 -0.11613756 0.051687565 -0.034951407 -0.109827645
-0.042340316 -0.010698986 0.05128815 -0.006674188 0.07631074 0.02861537 -0.18001118 -0.013351766
-0.10966753 0.11945754 0.074125 0.024035688 -0.082964115 -0.013899756 0.03268514 -0.003453492
0.0966782 0.055084184 -0.1364659 -0.0131196985 -0.056760088 0.05213555 0.087528005 -0.0013860937
-0.053456403 -0.022271238 0.102989934 0.013972914 0.028446943 -0.016419552 -0.037377454 0.0035098752
0.17959455 -0.010618329 -0.13140313 0.044015825 0.12248834 -0.14642236 0.005305735 -0.24849431
-0.03421914 0.010468425 0.27334467 0.04683977 -0.07326716 -0.14622799 0.058652937 -0.07190536
0.092250906 0.04421369 -0.028838322 0.1447068 0.006041509 -0.019114187 0.04157523 -0.24675749
0.027086634 -0.036220863 0.11789085 0.08245613 0.062869154 -0.14238271 0.11938817 -0.08267884
0.08208862 0.16381231 0.029935276 -0.051261734 -0.013500939 0.012474762 -0.14809163 0.053007994

network_body._body_endoder.seq_layers.2.bias f4 [128]
00000000: d265 2e3c 9ff5 fb3c 153d 67bc 0882 debb
00000010: 83fd c23c 2468 0a3d c8af b6bc 2c1d cb3c
00000020: fa1b c73b 53c9 613c 9156 983c eed1 b43c
00000030: 94b3 efbc e9fa 7b3c 2b13 5abc 343d f03c
00000040: 2055 e8bc dba7 ef3b e672 dbbc fbc1 84bc
00000050: b89c f6bc ee37 a93c fbf6 f83c 726c 5fbc
00000060: 14e7 19bb 332b 003d 2c56 95bc 8d7d 2ebb
00000070: bf1f e0bc 81f1 683c 0a07 a73c 0488 9dbb
00000080: af38 bb3c f428 183d 29d6 c5bc 5bdf b9ba
00000090: 11fc 8ebc 3597 d0bc e6e1 aabc 715a 80b8
000000a0: d1fc d33c 5cc8 d43a d509 c83c f908 0abc
000000b0: dcbd 993c 117d d63c 5ecd f73c f8a7 d83c
000000c0: c259 fbbb 4071 cb3c bf43 ea3c 2ced 60bc
000000d0: 0604 f23c 1767 babc 4c09 92bc d525 d4bc
000000e0: c151 e43c 7e53 e63c b658 9c3c 223a 88bc
000000f0: b22b 243c 8b86 f3bc b96e f7bc b5e4 eb3c
00000100: 34ba c1bc 2b69 dfbb c85b 833b 1d85 23bc
00000110: c4dc 36bc ab1e f03c ab24 583c 4791 053d
00000120: 977c b93c c66b 813c 4bc0 e63c 840a 45bc
00000130: f65f 8e3c 53a2 443c 7d51 a2bc 4034 c23b
00000140: eb3c 8cbc 65a9 ba3c 6a0a d53b f685 133c
00000150: 5f66 c33c f92b 3a3c acf0 1ebc 7f64 03bd
00000160: f9ac 2bbc c873 d03c 2d88 263c 1669 efbc
00000170: f305 97bc b632 213d 98d1 f13c f976 033d
00000180: b62e 003c 951c 833c 1231 983c 3ddb da3c
00000190: 0081 a73c fadb 70bb 481b b9bc 5397 963c
000001a0: ae6e e53c 8edb 613c d50c a0bc 2ce2 0a3d
000001b0: c2b8 a43c 8c1b 41bc 9bac 413c 3060 fb3b
000001c0: f26e 8fbc 26d7 34bc 5765 8cbc 286b 29bc
000001d0: 5bd9 f03c e235 8f3c c433 f03c d0ef 763c
000001e0: 455d d13c 0e66 e03c 7feb 0c3d 3992 c23c
000001f0: 71d8 c4bc ff46 64bc 9315 463c 0dbb 023b
0.010644393 0.03075677 -0.014113684 -0.0067904033 0.023802524 0.033790722 -0.022300616 0.024794184
0.006076333 0.01378091 0.018595966 0.022072759 -0.029260434 0.015379646 -0.013310234 0.029326059
-0.028360903 0.007313711 -0.026788186 -0.016205778 -0.030104026 0.020656552 0.030391207 -0.013636695
-0.002348368 0.031291198 -0.018229567 -0.0026625127 -0.027358888 0.014217735 0.020389099 -0.004807474
0.022854177 0.03714843 -0.024149971 -0.0014180945 -0.017454179 -0.025462726 -0.02085967 -6.120362e-05
0.025877388 0.0016234028 0.02441875 -0.008424991 0.01876729 0.026182683 0.030249294 0.026447281
-0.007670612 0.024834275 0.028596757 -0.013728421 0.029542934 -0.022754235 -0.017826699 -0.025896946
0.027871015 0.028115984 0.01908527 -0.016629282 0.010020183 -0.029727241 -0.030204164 0.02879558
-0.023648359 -0.006817957 0.004008744 -0.009980467 -0.011161033 0.029311499 0.013192336 0.03260925
0.022642417 0.01579846 0.028167864 -0.012026433 0.017379742 0.012001592 -0.019814247 0.005926639
-0.017118892 0.022785852 0.0065014856 0.009004107 0.023852525 0.011363023 -0.009700935 -0.032078262
-0.010478252 0.025445834 0.010164303 -0.029224914 -0.018435454 0.039355002 0.029518887 0.032095883
0.007823637 0.01600484 0.018578086 0.02671587 0.020447254 -0.003675221 -0.022596017 0.018382704
0.028006878 0.013785256 -0.019537369 0.0339071 0.02010763 -0.011786353 0.0118209375 0.0076713786
-0.017508958 -0.0110376235 -0.017138166 -0.010340489 0.029400518 0.017481748 0.029321559 0.015071824
0.02555717 0.027392413 0.034404274 0.023751365 -0.024028989 -0.013932942 0.012090105 0.0019947917

action_model._continuous_distribution.log_sigma f4 [1, 2]
00000000: ac0e 9cbc 76f6 7ebc
-0.019049965 -0.015561691

action_model._continuous_distribution.mu.weight f4 [2, 128]
00000000: e2eb 6abd 24fe 643b ca5d 0f3d 1f88 b93a
00000010: bb55 0cbd b4dc 673d 1091 a3bc e2ff 7cbc
00000020: cf02 95bd 8858 90bd a990 3f3d 2010 223d
00000030: b54b f4bc e08c 443d 20c3 3bbd 68d7 ba3c
00000040: 4220 cfb9 084c 4fbd 5c69 ed3c 3721 333c
00000050: a387 bbba 8f89 40bd fd02 433d 566d 1abd
00000060: 6b69 453d d5f2 f4bc ba49 e73c 1f82 08bb
00000070: c46b 04bb 4a15 a1bc 8c61 cf3c b3a1 ab3d
00000080: 453e 193d 7634 373d 9e8b de3b e121 89bc
00000090: e9e2 2c3c 1461 cd3c 0525 9f3c aec3 15bd
000000a0: eab2 e63c 20ac 3dbc 6737 543d f62f 273d
000000b0: 9bd6 01bd e2b9 6ebc 5c19 4c3d e7e5 353d
000000c0: 61f8 a2bc a84d 1e3d eec8 483c 127b c03b
000000d0: 24a0 e63b f729 e13c 2707 993c 308a 7a3c
000000e0: 80f7 3f3c 17da 6fbd 367b 29bd 3ed1 783d
000000f0: a5b9 2cbd 9b3e fabb c68e 5ebc 795f 4f3d
00000100: 67f9 2cbc 9028 afbb a565 4a3d 4b5d 09bd
00000110: 1adc fabc ee00 513d 963f 2bbd 49a1 01bd
00000120: 6d74 fcbc b4f0 f4bc 9fea 7fbd 1550 27bd
00000130: b378 083d e61d 883c 3ff0 793d 8880 6f3d
00000140: d8f4 95bc e85c 6fbb e8be c3bc 4d73 1fbd
00000150: 68ce d53c 29fa 5e3d 281c 57bd 63ec edbb
00000160: b758 29bd 58d7 b03c 256b 313d 46ac 943c
00000170: 74b7 9f3c c6a7 0a3d c898 3abd 79e1 66bd
00000180: 6728 a13c 896f 41bd d2d6 33bd fa1f 3e3d
00000190: 860c 323d 70bf 333d 32e1 31bd e396 a0bb
000001a0: 704a 353d 452d 26bd c587 a3ba bf17 07bc
000001b0: e197 78bd 6a02 5cbd 9ecb 273d b4a3 20bd
000001c0: ee8d 6a3c 5316 543d ab91 043d 54a9 82bb
000001d0: 9076 c0bc 091a 08bd 2be4 1bbd 4fbf 403d
000001e0: 2f28 e53c 6f49 503d 0871 453d 7e5e 513d
000001f0: 5b80 8b3b bc58 ac3c cf1f 443d 2008 01bd
00000200: 75b2 eebc 3581 47bd 1be5 683d fa05 113d
00000210: 63ca 51bd 433f e43c df89 6a3c dad9 36bd
00000220: c4db 9ebc 7282 08bd 6f55 f73c 68d4 413c
00000230: cdd3 39bc 9971 183d 789e 0bbd a97b c8bb
00000240: 46fa 593d 74dc dcbc 374b 5d3d 9588 693d
00000250: b3bb c83c a8d4 55bd 5159 cd3c e67d c1bc
00000260: 40e9 533d 5be4 53bd bc75 763d 816b c93c
00000270: be57 293d 2c0c 9cbc 2bcc 003d 4f91 463d
00000280: c35f 273c 9793 a33c 27e4 813d acaa a63c
00000290: ae7a 813d 1ef7 a53d adb4 9e3d 2e42 e2bc
000002a0: e3bd 363c 0a33 c63b 1082 e63c fe77 793d
000002b0: 76a3 c7bc abe1 4cbd bafa d83c 9570 f43c
000002c0: e1b5 12bc d2db adbb 5da4 21bc 933d 273d
000002d0: 7670 38bb 5091 893d c9eb 533d e4ed 5a3d
000002e0: a524 ca3b 81fd 4bbd e6c6 3dbd 2ead 903d
000002f0: 16b1 21bd 5c94 583c 7229 74bc abdc 143d
00000300: 053c a73c 8278 1a3d ce83 663d 0af6 07bd
00000310: 845b 1c3c 44cd d03c 24fe 03bd ddc9 9bbd
00000320: 0971 fbbc b889 26bd bfab 91bd 6c1d d8bc
00000330: 9c7d c03c 6fd8 8bbb fefd a83d 2dd2 053d
00000340: 08be 2f3b 5ab4 65bc 6592 18bd c31c 1ebd
00000350: a9a3 bb3b 9d72 043d a2fe acbc dc75 ed3b
00000360: accf 7bbc ee38 4d3c 7d7b ef3c fcd8 733d
00000370: 7f06 7f3d c46f e53c ae88 5fbd 4bac 7ebd
00000380: 3f48 6c3d 44b8 28bd b5ca 34bd 0138 ac3c
00000390: 0d23 ac3c 11b4 4e3d 235c aebc 61b6 91bc
000003a0: b68f d63c 8cac 1bbd 71ee 6c3d 93b2 62bd
000003b0: 94e0 1ebd b1e3 dfbc 565b 253d 3b20 1fbd
000003c0: 54ba 363d dd58 823d 5280 423d c98a 723d
000003d0: 840b 80bd 15b7 1ebd e9e0 9abd 73b4 a13c
000003e0: 88f7 2fbb 03ea 133d 7c50 ef3c e0af c13c
000003f0: f915 573d 997c 4b3d 3286 3d3d beed 12bd
-0.05735386 0.0034941519 0.035001554 0.0014154947 -0.034261446 0.056606963 -0.019966632 -0.015441867
-0.07275926 -0.07048136 0.046768818 0.03956616 -0.029821256 0.04798591 -0.045840383 0.022807792
-0.0003950615 -0.05060962 0.028980903 0.010933212 -0.0014307391 -0.047006186 0.04761027 -0.037701927
0.048196238 -0.029900948 0.028233398 -0.0020829511 -0.0020205835 -0.019663472 0.025315069 0.08380451
0.0374129 0.044727765 0.006791546 -0.016739788 0.0105521465 0.025070705 0.019426832 -0.036563568
0.028161485 -0.011576682 0.05181065 0.040817223 -0.031698804 -0.014570685 0.049828872 0.044408705
-0.019893827 0.038648278 0.012254937 0.005874046 0.007038133 0.02748583 0.018680168 0.0152917355
0.011716723 -0.058557596 -0.04137727 0.060746424 -0.042169232 -0.0076368577 -0.0135838445 0.05062816
-0.010557509 -0.0053454116 0.049413342 -0.033536237 -0.03062253 0.051026277 -0.041808687 -0.031647954
-0.030817235 -0.029899932 -0.06247961 -0.040847857 0.033318233 0.01661582 0.061020132 0.058472186
-0.018305227 -0.0036523882 -0.023894742 -0.03892832 0.026099399 0.05443779 -0.052517086 -0.0072608455
-0.04134437 0.021587059 0.04331507 0.018148553 0.019496657 0.033851407 -0.04555586 -0.05636737
0.019672586 -0.04722551 -0.04390604 0.046417214 0.043468975 0.04388374 -0.043427654 -0.0049007996
0.044260442 -0.040570516 -0.0012476376 -0.008245408 -0.060691718 -0.05371324 0.04096567 -0.03921862
0.014316065 0.051779103 0.032365482 -0.0039874706 -0.023494035 -0.033227954 -0.038059395 0.047057446
0.027973263 0.05085128 0.048203498 0.051115505 0.0042572445 0.021038406 0.047881898 -0.03150189
-0.02913783 -0.048707206 0.056859117 0.03540609 -0.0512184 0.027862197 0.014315098 -0.044641353
-0.019391902 -0.033327527 0.030192105 0.011830427 -0.011342001 0.03721771 -0.034086674 -0.006118257
0.053217195 -0.026960589 0.05402681 0.05701502 0.024503564 -0.052204758 0.025067003 -0.023619603
0.051736116 -0.05173145 0.060170874 0.024587395 0.041343443 -0.019048773 0.03144471 0.04847842
0.0102157025 0.019967837 0.06342345 0.020345055 0.063222274 0.081037745 0.07749305 -0.027619448
0.011153671 0.006048565 0.02813819 0.06090545 -0.024369936 -0.0500199 0.026486743 0.02983884
-0.008954496 -0.0053057456 -0.009865847 0.040830206 -0.0028143204 0.06717169 0.051738534 0.053449526
0.006168919 -0.049802307 -0.046332262 0.070642814 -0.039475523 0.013218965 -0.014902459 0.036343258
0.020414362 0.03771258 0.056278042 -0.033193626 0.009543303 0.025488503 -0.03222479 -0.07606862
-0.030693548 -0.040658683 -0.07112836 -0.026381217 0.023497395 -0.0042677443 0.0825157 0.032671142
0.0026816148 -0.01402005 -0.037248988 -0.038601648 0.005726297 0.032335866 -0.021117512 0.007246716
-0.015369337 0.01252578 0.029233688 0.059533104 0.062262055 0.028007396 -0.054573707 -0.06217603
0.057686087 -0.041191354 -0.04413863 0.021022798 0.021012807 0.050464693 -0.021284169 -0.01778716
0.026191574 -0.03800635 0.057844583 -0.055346083 -0.038788393 -0.027330251 0.040370308 -0.038849097
0.04461129 0.063646056 0.047485657 0.059214387 -0.062521964 -0.03874882 -0.075624295 0.019739365
-0.002685042 0.036111843 0.029213183 0.023643434 0.05251119 0.049679372 0.046270557 -0.03587126

action_model._continuous_distribution.mu.bias f4 [2]
00000000: ddbd 79bc 5844 d2bc
-0.015243021 -0.025667354

exp_avg f4 [128, 10]
00000000: c66f 46ba 57e0 09b7 07f6 59b7 f8f7 7439
00000010: bbc8 2db7 d7b5 38b7 39e6 ac34 5486 c8b7
00000020: 6ba0 3db7 5731 5f33 9b3a 1fb8 b831 77b6
00000030: 4863 c3b6 04d9 da38 3ec9 9bb6 aa94 a5b6
00000040: 31fe 1a34 dfc1 33b7 e6fc a9b6 e313 c832
00000050: 0ea9 5839 e742 0f37 5179 6237 02e2 7eb9
00000060: 5192 3437 acec 3f37 f7a6 b3b4 4b5b d037
00000070: 6808 4537 f2e8 67b3 4554 6339 5e0c 9136
00000080: 824c e536 2528 01b9 edd2 b636 8a51 c236
00000090: a4e4 35b4 9ef4 5237 967d c736 7ccd eab2
000000a0: dbad 6139 5d1a d236 f011 2637 afb9 3ab9
000000b0: 1969 0437 48bc 0c37 83bc 83b4 efc8 9837
000000c0: 3b7b 1037 650e 2ab3 ee6b ac39 9be4 f336
000000d0: 48c7 4037 c922 59b9 a1b4 1937 905e 2337
000000e0: 4aec 98b4 4e5b b137 bcb7 2737 db67 45b3
000000f0: 91cd 3bba d4d0 f1b6 f522 3fb7 549a 5639
00000100: 7f65 18b7 5dfa 21b7 de9e 9734 9bd8 afb7
00000110: 0d4a 26b7 71b9 4333 0134 2eb9 aa11 f7b5
00000120: f049 43b6 4e2d 5d38 0ab5 1bb6 317f 25b6
00000130: 17ea 9a33 90aa b3b6 dbe6 29b6 f2f9 4732
00000140: cd84 ccb9 2c8a 03b7 a2f1 4fb7 56fc 6839
00000150: 18cc 25b7 a938 30b7 fff3 a434 154f bfb7
00000160: 65e9 34b7 65ef 5433 528c 06ba 215d 5db6
00000170: 8bf8 aeb6 e961 c638 dd81 8bb6 4a47 94b6
00000180: 0acc 0a34 43f9 20b7 9e39 98b6 b12b b332
00000190: c696 4db9 a7f1 abb6 8ae8 07b7 cff8 1839
000001a0: 62b9 d8b6 a059 e6b6 ea9e 5734 7312 7ab7
000001b0: 2e7b ecb6 a82b 0b33 cc07 b9b8 6a29 f0b5
000001c0: 47d4 3db6 7249 5538 a85a 17b6 bede 20b6
000001d0: 6495 9633 b5a4 aeb6 e126 25b6 bb62 4232
000001e0: b813 9339 1572 d236 4557 2637 ae30 3bb9
000001f0: 62a0 0437 0cf7 0c37 84f3 83b4 ba08 9937
00000200: 8eb7 1037 6655 2ab3 51a1 5239 2661 cc36
00000210: cf8b 2137 e79e 35b9 b3cd 0037 d4e6 0837
00000220: d225 80b4 739f 9437 a68b 0c37 776c 25b3
00000230: f9b1 c3b9 b500 b7b6 43a6 10b7 c156 2239
00000240: bba9 e6b6 542a f5b6 197d 6534 f113 85b7
00000250: d6b0 fbb6 181f 1433 b417 af39 224c 1337
00000260: b4da 6837 5a0a 83b9 a4a8 3937 e254 4537
00000270: a9b6 b8b4 ff39 d637 7595 4a37 8a71 6eb3
00000280: 82ff 6239 67db 8736 d5c4 d636 5822 f1b8
00000290: 2b3d ab36 4f01 b636 fb5d 2ab4 8396 4537
000002a0: 75d9 ba36 88ec dbb2 526e cab8 2cbf 82b6
000002b0: b7b0 ceb6 3f0a e838 39cc a4b6 b228 afb6
000002c0: 70f5 2334 d827 3eb7 34d2 b3b6 c8a6 d332
000002d0: d213 feb8 fc1f 4ab6 99c3 9fb6 3753 b338
000002e0: e9c3 7eb6 3964 87b6 dd77 fd33 bdfb 12b7
000002f0: c0fe 8ab6 4f99 a332 fa90 cab8 0484 89b6
00000300: 1464 d9b6 937d f338 5c54 adb6 283a b8b6
00000310: 7472 2c34 0f00 48b7 7221 bdb6 e49b de32
00000320: 6890 63b8 c10d eeb5 ba29 3cb6 51e1 5238
00000330: 8d06 16b6 4475 1fb6 0243 9533 461c adb6
00000340: c8b3 23b6 f1ad 4032 4f63 043a 37d0 e336
00000350: 9811 3437 5506 4bb9 6a92 0f37 3f99 1837
00000360: 49d7 8eb4 e9a9 a537 06a9 1c37 1364 38b3
00000370: f4ad bcb9 4b72 dbb6 9574 2db7 b1cb 4239
00000380: 8a4c 0ab7 81fe 12b7 4998 8934 5394 9fb7
00000390: 18e8 16b7 6c9e 3133 fe25 1239 1f8b b236
000003a0: ef1f 0d37 7b48 1fb9 d80a e136 f930 ef36
000003b0: 88e5 5fb4 cad5 8137 c68e f536 1b83 10b3
000003c0: ee17 b939 170e f736 1e47 4337 4b25 5cb9
000003d0: c8b2 1b37 cd7c 2537 d9e7 9ab4 f8a7 b337
000003e0: 65e4 2937 0ef7 47b3 d5c2 ceb9 710c fdb6
000003f0: e703 48b7 97ad 6039 c279 1fb7 8f80 29b7
-0.0007569756 -8.2180695e-06 -1.2991491e-05 0.00023362029 -1.035834e-05 -1.10095925e-05 3.2205006e-07 -2.390441e-05
-1.1302628e-05 5.1966108e-08 -3.7963135e-05 -3.6834808e-06 -5.8230107e-06 0.00010435472 -4.6427876e-06 -4.93469e-06
1.4434842e-07 -1.0714371e-05 -5.0660337e-06 2.3292108e-08 0.00020662343 8.539041e-06 1.3498896e-05 -0.00024307522
1.0762903e-05 1.1439592e-05 -3.346283e-07 2.4838044e-05 1.1744072e-05 -5.399574e-08 0.000216798 4.3227765e-06
6.8336385e-06 -0.00012317354 5.4485777e-06 5.791143e-06 -1.6940118e-07 1.257393e-05 5.9452823e-06 -2.7334629e-08
0.00021522438 6.261557e-06 9.898547e-06 -0.00017807515 7.892283e-06 8.388488e-06 -2.4537812e-07 1.8213379e-05
8.611761e-06 -3.95943e-08 0.0003288681 7.2685775e-06 1.1490491e-05 -0.00020707691 9.161567e-06 9.737574e-06
-2.848413e-07 2.1142561e-05 9.996755e-06 -4.5962093e-08 -0.00071641157 -7.2066705e-06 -1.1392626e-05 0.00020466122
-9.083537e-06 -9.65464e-06 2.8241533e-07 -2.096249e-05 -9.911612e-06 4.5570633e-08 -0.00016613306 -1.8408075e-06
-2.9100302e-06 5.27327e-05 -2.3202178e-06 -2.466095e-06 7.2137645e-08 -5.354472e-06 -2.5317338e-06 1.16401555e-08
-0.00039008856 -7.840379e-06 -1.2394421e-05 0.00022219247 -9.882286e-06 -1.050361e-05 3.072491e-07 -2.28058e-05
-1.07831775e-05 4.9577825e-08 -0.00051326037 -3.2985774e-06 -5.2145383e-06 9.459613e-05 -4.157641e-06 -4.419043e-06
1.292648e-07 -9.594779e-06 -4.5366605e-06 2.0858211e-08 -0.00019606491 -5.124329e-06 -8.100769e-06 0.00014588538
-6.458883e-06 -6.864968e-06 2.0081248e-07 -1.4905457e-05 -7.047688e-06 3.2403165e-08 -8.82294e-05 -1.7893447e-06
-2.8286756e-06 5.085156e-05 -2.2553522e-06 -2.397151e-06 7.012093e-08 -5.2047785e-06 -2.4609546e-06 1.1314735e-08
0.00028052717 6.2717686e-06 9.91469e-06 -0.00017851844 7.905155e-06 8.40217e-06 -2.4577832e-07 1.8243085e-05
8.625806e-06 -3.965888e-08 0.00020087256 6.0909833e-06 9.6288995e-06 -0.00017320701 7.677288e-06 8.159976e-06
-2.3869376e-07 1.7717224e-05 8.377165e-06 -3.8515704e-08 -0.00037325898 -5.4539073e-06 -8.62178e-06 0.00015481842
-6.8742934e-06 -7.3064966e-06 2.1372797e-07 -1.5864121e-05 -7.5009693e-06 3.4487215e-08 0.0003339626 8.779609e-06
1.3879198e-05 -0.0002499398 1.1066124e-05 1.1761878e-05 -3.4405574e-07 2.5537794e-05 1.2074936e-05 -5.5516956e-08
0.00021648224 4.0488553e-06 6.4006113e-06 -0.000114981725 5.103318e-06 5.424175e-06 -1.5866674e-07 1.1777159e-05
5.5685473e-06 -2.5602517e-08 -9.652659e-05 -3.8965572e-06 -6.1598507e-06 0.000110645306 -4.9113555e-06 -5.220144e-06
1.5269848e-07 -1.1334159e-05 -5.3590866e-06 2.4639476e-08 -0.00012115356 -3.0118963e-06 -4.76134e-06 8.550885e-05
-3.7962984e-06 -4.034981e-06 1.18030336e-07 -8.7608905e-06 -4.1423773e-06 1.9045414e-08 -9.6591146e-05 -4.098287e-06
-6.4787546e-06 0.00011610533 -5.1656225e-06 -5.4903976e-06 1.6060386e-07 -1.1920943e-05 -5.6365325e-06 2.5915092e-08
-5.4255506e-05 -1.7736385e-06 -2.803847e-06 5.0277744e-05 -2.2355555e-06 -2.3761104e-06 6.950542e-08 -5.1590932e-06
-2.439354e-06 1.1215421e-08 0.00050501985 6.7893666e-06 1.0732932e-05 -0.00019361947 8.557554e-06 9.095586e-06
-2.6606202e-07 1.9748653e-05 9.337678e-06 -4.2931855e-08 -0.0003598776 -6.540014e-06 -1.0338747e-05 0.00018577163
-8.243262e-06 -8.761534e-06 2.562904e-07 -1.9023346e-05 -8.994735e-06 4.1355108e-08 0.00013937798 5.321009e-06
8.41169e-06 -0.00015190423 6.706785e-06 7.128456e-06 -2.0851996e-07 1.5477552e-05 7.31819e-06 -3.3646852e-08
0.0003530378 7.362814e-06 1.1639464e-05 -0.00020994728 9.280346e-06 9.863824e-06 -2.8853427e-07 2.141668e-05
1.0126362e-05 -4.6557993e-08 -0.00039436543 -7.541436e-06 -1.19218375e-05 0.00021426972 -9.5054875e-06 -1.0103117e-05

exp_avg_sq f4 [128, 10]
00000000: 728d 1e37 bfd5 9f2f 4eb8 4730 6b22 fb33
00000010: 3dc0 fd2f 766e 0f30 3123 f52a 250b 2931
00000020: 282b 1730 1f6c 5128 52ca f036 ad4f 782f
00000030: 1223 1b30 bb9c b733 edec c42f b5d3 de2f
00000040: be07 b82a 014f 0331 f0d8 ea2f 7fac 2228
00000050: ad37 b837 7038 4230 a1af f230 ce8a 9034
00000060: e917 9a30 6549 ae30 f4e7 912b ff68 cd31
00000070: 8ab0 b730 b179 fe28 16b1 7b36 51cb 072f
00000080: 14ae a92f 2f72 5a33 929d 572f 31b7 732f
00000090: df48 512a 189e 8f30 626e 802f 3aec b127
000000a0: 3fa9 3237 c130 c12f 0f66 7130 f8f3 1234
000000b0: bb52 1930 e65c 2d30 1be7 122b 1052 4c31
000000c0: 26b7 3630 2e20 7d28 d85f 3d37 45f3 cc2f
000000d0: ec0b 8030 1afc 1d34 54ae 2230 85ea 3730
000000e0: e9b9 1c2b 0fc2 5831 63d6 4130 5d44 8628
000000f0: dc2d 0237 3b8a 7b2f 8327 1d30 67ff c733
00000100: fbaf c72f b1b9 e12f 0187 c12a 0c04 0531
00000110: abe6 ed2f fcc9 2428 dc3d 9a34 6ee9 062d
00000120: cd93 a82d f5f0 1131 dfeb 542d 6f22 722d
00000130: 3298 2328 33af 8e2e 7f31 7f2d 46c4 b025
00000140: 05f5 b737 dcb5 3930 740d e830 6844 8734
00000150: 2b4d 9330 a4a6 a630 ff5f 8a2b e368 c431
00000160: 20a4 af30 5953 f328 c0a8 1a36 f89c 802e
00000170: 10b5 202f dca5 3b32 1336 ca2e 9dd3 e62e
00000180: ad3c 8129 e105 0830 7547 f32e 9b83 2827
00000190: 2568 ce36 f5d4 5e2f e137 0b30 3929 a933
000001a0: fbcb b02f 31f6 c72f 0da7 a72a 6cab eb30
000001b0: e0bf d22f 44fb 1128 adfc 8b35 134b 0c2e
000001c0: 374d af2e 80d1 6132 cd83 5e2e 85cb 7b2e
000001d0: 85fb 4f29 3360 942f afaf 842e 5ad1 b726
000001e0: 0bfe 0937 9624 982f b41b 3e30 bc3f ea33
000001f0: 2989 f12f 3687 0830 b1e8 e82a 87e8 2031
00000200: b7e4 0f30 ff57 4728 c379 3137 ea71 bf2f
00000210: ae37 6f30 282c 1434 3ef2 1730 f8cb 2b30
00000220: 5de7 112b 7b79 4a31 8010 3530 a6d6 7a28
00000230: 4ad5 0537 1739 852f 9377 2630 5c50 d133
00000240: eb88 d32f dd19 ef2f 3f70 cd2a f1e5 0c31
00000250: aaff fb2f cc8d 2e28 06bd a037 4ce9 2c30
00000260: 320f d830 78eb 8234 1135 8930 582a 9b30
00000270: 69b6 822b 9bdf b631 3289 a330 348e e228
00000280: 83ef 8b36 f852 142f 1b56 b92f d92a 6433
00000290: eb5d 6b2f e919 852f 347c 5f2a 86de 9c30
000002a0: 1548 8c2f 0b57 c227 5f2c a636 cf44 342f
000002b0: a040 e12f cd87 8c33 370d 8f2f 7fc4 a12f
000002c0: 439d 882a 89a7 be30 847e aa2f ff31 ec27
000002d0: dab9 4a36 d6ad d62e ec1f 862f 23fa 2733
000002e0: 1d5b 2a2f 91a5 402f 3bad 222a 200c 6330
000002f0: f409 4b2f f7a3 8c27 554f 0237 e68e 852f
00000300: bfe2 2630 7faa c033 2ec3 d32f adb3 ef2f
00000310: 314b c32a b840 0d31 fca1 fc2f 3bfe 2e28
00000320: 1129 c935 35d5 462e f072 f82e 54ce 8132
00000330: 6055 9d2e fb6c b22e 7712 8729 b449 d22f
00000340: 2b0d bc2e 5742 0227 5f3b d836 edea 642f
00000350: 4e05 0f30 2ccd ac33 63a5 b52f a86c cd2f
00000360: b736 ad2a 3d1b f230 5681 d82f f6f7 1528
00000370: 1f58 3237 7d38 bd2f 3a70 6c30 e80a 1234
00000380: 2f34 1630 28cd 2930 2011 112b 511f 4831
00000390: 07f6 3230 bcec 7728 2dfd cf36 b31a 672f
000003a0: fb62 1030 ea9f b833 f175 b72f d762 cf2f
000003b0: 8673 b12a 3c6b f430 c992 da2f a766 1728
000003c0: 7c56 3337 2d90 c12f 45dd 7130 1dbd 1934
000003d0: e0a9 1930 98b2 2d30 cbce 142b eeb6 4c31
000003e0: 5011 3730 3d9d 7d28 7cf0 6737 421f f72f
000003f0: e764 9a30 9132 3b34 ca1a 4430 7ac2 5d30
9.450467e-06 2.9073807e-10 7.265769e-10 1.1694359e-07 4.6157025e-10 5.218007e-10 4.3545162e-13 2.4599072e-09
5.499481e-10 1.1625276e-14 7.1761106e-06 2.2583775e-10 5.643851e-10 8.550111e-08 3.5820538e-10 4.0531992e-10
3.2690338e-13 1.9107917e-09 4.2718495e-10 9.030211e-15 2.1960435e-05 7.065699e-10 1.7657734e-09 2.6923084e-07
1.121177e-09 1.2681026e-09 1.036725e-12 5.978222e-09 1.3365178e-09 2.825244e-14 3.7504992e-06 1.2350411e-10
3.086461e-10 5.086093e-08 1.9610116e-10 2.2165804e-10 1.8588211e-13 1.0449552e-09 2.3361496e-10 4.9383486e-15
1.0649032e-05 3.5141137e-10 8.7820323e-10 1.3686065e-07 5.5778643e-10 6.306905e-10 5.2190343e-13 2.9732554e-09
6.6471484e-10 1.4051299e-14 1.1287593e-05 3.7280237e-10 9.316614e-10 1.4713478e-07 5.918299e-10 6.6908284e-10
5.5680336e-13 3.1542446e-09 7.0517653e-10 1.4906636e-14 7.759281e-06 2.2877426e-10 5.7172417e-10 9.313117e-08
3.632293e-10 4.1059203e-10 3.4377365e-13 1.9356348e-09 4.3273948e-10 9.147627e-15 2.8729744e-07 7.66885e-12
1.9165025e-11 2.1237245e-09 1.2103179e-11 1.3763753e-11 9.08132e-15 6.488534e-11 1.4506062e-11 3.0664133e-16
2.1929396e-05 6.7561046e-10 1.6884045e-09 2.5195482e-07 1.071759e-09 1.2125452e-09 9.832134e-13 5.716275e-09
1.2779573e-09 2.7014566e-14 2.3046014e-06 5.848649e-11 1.4616242e-10 1.0922545e-08 9.195502e-11 1.0496779e-10
5.7392764e-14 4.9484866e-10 1.1063054e-10 2.3386027e-15 6.1514024e-06 2.026644e-10 5.0647314e-10 7.877174e-08
3.215915e-10 3.637282e-10 2.9781074e-13 1.7147221e-09 3.8335113e-10 8.1036015e-15 1.0429845e-06 3.1898994e-11
7.971795e-11 1.31443585e-08 5.059402e-11 5.7251554e-11 4.618139e-14 2.6989397e-10 6.033873e-11 1.2754921e-15
8.224985e-06 2.7674635e-10 6.9160966e-10 1.0908067e-07 4.3935103e-10 4.966866e-10 4.137294e-13 2.341524e-09
5.234812e-10 1.10658e-14 1.0578372e-05 3.4823638e-10 8.702682e-10 1.3799638e-07 5.5277727e-10 6.2499295e-10
5.183543e-13 2.9463922e-09 6.5870864e-10 1.3924332e-14 7.977078e-06 2.4233124e-10 6.0560373e-10 9.746938e-08
3.8477962e-10 4.3492224e-10 3.6493202e-13 2.0503388e-09 4.5838294e-10 9.689688e-15 1.9161507e-05 6.290477e-10
1.5720387e-09 2.4385713e-07 9.983144e-10 1.1289769e-09 9.287685e-13 5.322318e-09 1.1898804e-09 2.5152711e-14
4.1704056e-06 1.3489998e-10 3.3712486e-10 5.3124356e-08 2.1406492e-10 2.421097e-10 1.984947e-13 1.1413739e-09
2.551707e-10 5.394019e-15 4.952351e-06 1.639535e-10 4.097318e-10 6.54396e-08 2.6020938e-10 2.9425348e-10
2.4267575e-13 1.3871936e-09 3.1012715e-10 6.5557364e-15 3.0208525e-06 9.762473e-11 2.439714e-10 3.9110216e-08
1.549378e-10 1.7521119e-10 1.4448592e-13 8.259935e-10 1.8466279e-10 3.9035577e-15 7.767075e-06 2.4294095e-10
6.0712674e-10 8.97171e-08 3.851936e-10 4.3601514e-10 3.4691133e-13 2.0554989e-09 4.595363e-10 9.714068e-15
1.4987619e-06 4.5209354e-11 1.1298151e-10 1.5111404e-08 7.154699e-11 8.113862e-11 5.9984075e-14 3.8251147e-10
8.551589e-11 1.8077087e-15 6.4442133e-06 2.0819942e-10 5.2030635e-10 8.046695e-08 3.3041223e-10 3.7366488e-10
3.076894e-13 1.7615559e-09 3.938207e-10 8.3249295e-15 1.0630144e-05 3.4419037e-10 8.6015783e-10 1.3601277e-07
5.464384e-10 6.1773386e-10 5.1538114e-13 2.9121632e-09 6.510565e-10 1.3762588e-14 6.1985543e-06 2.1018813e-10
5.2527555e-10 8.597256e-08 3.3371308e-10 3.772331e-10 3.1521677e-13 1.7783814e-09 3.9758266e-10 8.404443e-15
1.0689368e-05 3.5208939e-10 8.798973e-10 1.4318034e-07 5.590248e-10 6.319083e-10 5.2867145e-13 2.978989e-09
6.6599615e-10 1.4078417e-14 1.3824665e-05 4.4951248e-10 1.1233653e-09 1.7434128e-07 7.1342454e-10 8.06757e-10

exp_avg f4 [128]
00000000: c542 73bb 4211 daba 04c3 7c3b 26ea ff3a
00000010: ba58 393b b527 573b 9852 55bb f9f4 59ba
00000020: b614 68bb d147 c3ba 10af 17bb 12dd 53ba
00000030: 1ca6 393b 294c 343b 8970 21bb fef0 813b
00000040: b8b2 ef3a 8cae e6ba 014f b2ba e09f f2ba
00000050: 0201 52ba 5df8 483b d396 41bb 7781 1d3b
00000060: d2f1 593b 5f3b 5fbb d19e f83a 0a52 2f3b
00000070: a2fd 7fbb 1bb8 223b 67e4 4bbb 9b43 18b7
00000080: 6fcf 39bb 8539 b8ba f03c 40bb 7be5 f03a
00000090: 401d 89bb 6377 ec39 f79a 503b fadd 1cba
000000a0: 0d4b 163b dc52 0a3b 4f0f feba 007f ce3a
000000b0: d3ad 923a 2e1d 63bb 9dfa 133b a460 ad3a
000000c0: 5153 1ebb 41c1 a3ba 0580 d5ba 35a1 82bb
000000d0: e913 5639 e1df b53a ba4a 083b 2ad3 5c3b
000000e0: 7d41 16bb 2d25 093b c5d4 533b 0a08 69bb
000000f0: 75c0 3bbb 74a9 163b 2213 21bb 5a6a f13a
00000100: f4cb 483b dee7 463b 48a5 b93a 70df 033b
00000110: 80a1 2fbb 364a 1fbb 0797 1cba 71bd 4bba
00000120: ed9b 32bb 306a 343b d112 21bb 5213 ef38
00000130: 8d54 3cbb ec97 a5ba a8a5 14bb 1be3 10bb
00000140: e591 083b 1e10 08bb d621 9aba 9e42 4abb
00000150: cc15 2cbb c233 01bb 5740 483b 809d 613b
00000160: 7f09 c43a 60d9 123b 7a14 fdb7 e3f3 f7ba
00000170: 3905 113b e29d 413b dd3d 39bb b65c 30bb
00000180: 33b1 0dbb 16a6 bf3a 50ef 383b 89e6 173b
00000190: 3c77 74bb b8e0 203b 54d9 6dba 3970 3cbb
000001a0: 9c70 f43a 084f 1b3b 793f b3ba 54b1 a93a
000001b0: c804 ceba 22e6 10bb 622b 89ba 3d2e 1fbb
000001c0: 374e 213b 2b0f 4d3b ecbd 603b 1b45 b4ba
000001d0: 6a10 1cbb 0965 073b f8d9 573b a198 84ba
000001e0: ccbf 1d3b d078 1a3b 596e 2f3b f790 42bb
000001f0: 89cc 043a 4f37 b33a fef0 643b 048e 593b
-0.0037118655 -0.0016637223 0.0038568387 0.0019524738 0.0028281645 0.0032830064 -0.003255045 -0.0008314397
-0.0035412735 -0.0014898722 -0.0023145117 -0.0008081953 0.0028327769 0.0027511215 -0.0024633727 0.003965496
0.0018287515 -0.0017599626 -0.0013603867 -0.0018510781 -0.00080110144 0.0030665614 -0.002953936 0.0024033466
0.0033255708 -0.0034062488 0.0018968229 0.002675178 -0.003906109 0.0024828974 -0.003111148 -9.075647e-06
-0.00283524 -0.0014055228 -0.0029333197 0.0018378937 -0.004184395 0.00045102378 0.0031830647 -0.0005984005
0.0022932917 0.0021106517 -0.0019383224 0.0015754402 0.001119072 -0.0034654844 0.0022579797 0.0013227654
-0.0024158547 -0.0012493507 -0.0016288763 -0.0039865025 0.00020416047 0.0013875925 0.0020796494 0.00336952
-0.0022927218 0.00209267 0.0032322865 -0.003555777 -0.002864865 0.0022989186 -0.0024578054 0.0018418536
0.0030639144 0.0030350606 0.0014163638 0.0020122193 -0.0026799142 -0.0024305708 -0.00059734326 -0.00077720644
-0.0027253584 0.0027529113 -0.0024577866 0.00011400007 -0.002873692 -0.0012633777 -0.0022681747 -0.0022108022
0.0020838913 -0.002076156 -0.0011759351 -0.003086246 -0.002625811 -0.0019714688 0.0030555928 0.0034426153
0.0014956443 0.0022407398 -3.0169485e-05 -0.0018917288 0.0022128357 0.0029543568 -0.0028265633 -0.0026910729
-0.0021620512 0.0014621641 0.0028218813 0.002317818 -0.0037302515 0.0024548005 -0.0009073217 -0.0028753413
0.0018649283 0.002369823 -0.0013675533 0.0012946525 -0.0015717978 -0.0022109826 -0.00104652 -0.0024289035
0.002461327 0.0031289558 0.003429289 -0.0013753505 -0.0023813494 0.0020659587 0.0032936316 -0.0010116288
0.0024070619 0.0023570545 0.0026768653 -0.0029688457 0.00050658785 0.00136731 0.0034933682 0.003319622

exp_avg_sq f4 [128]
00000000: 68c6 7838 ef3d 4138 b325 1739 4f5b d337
00000010: 7258 9638 557f 9f38 33c1 4338 adfb d135
00000020: 4486 1039 0f2e 4837 c269 2d38 e75b da36
00000030: 77cd 6c38 b6fc 9438 c75a 4f38 6390 0639
00000040: d9db e637 274a 0c38 9411 a737 64e0 4f38
00000050: 8bbc 1a37 3f26 3238 9541 9338 e6d9 3338
00000060: b0a2 9638 0b51 c038 1559 db37 cfc4 6938
00000070: feb7 9c38 de71 1538 89c6 7138 dc62 4035
00000080: faba 7e38 d0bb c137 e6fb 4c38 ba23 d737
00000090: 172b 0139 1865 d936 a396 d838 532b fa36
000000a0: 0a0c 2f38 30e2 2f38 a97b 0638 c96e 3637
000000b0: 51a6 b337 9329 bf38 63cc 4c38 4869 2937
000000c0: 3b38 5b38 0ace fe37 918a 3938 7e79 ce38
000000d0: b187 3236 e4f2 7137 97eb ee37 97b0 9e38
000000e0: 5c20 8138 d1fe 4a38 e8b8 a038 7f1f 7b38
000000f0: 3695 5f38 01b3 2138 0c12 8f38 1343 1338
00000100: bb24 a038 28c6 cf38 6110 f037 10ae 1438
00000110: 225c 2938 5756 3638 2a26 a536 6f1e cf36
00000120: f693 0538 5244 cf38 a6f4 9338 1f41 ba35
00000130: 4ff1 6638 8aed e537 4f5d 3638 35e6 9a37
00000140: d4b7 5538 3e27 8637 50d2 ea36 7af8 6738
00000150: cb00 7b38 bbf1 b137 925d b138 983b f738
00000160: fbe0 f937 2b4e 5938 bcfb a336 2691 cc37
00000170: 0c96 4538 a31e d238 2779 6338 3e4d 0738
00000180: 23c8 4938 0d0b 7537 b4ee 8838 c7c4 5238
00000190: 905a 9738 25c2 7c38 652f 4637 9f00 9438
000001a0: e2fb 3138 97d4 9e38 125b e536 62ce 5c37
000001b0: fd05 aa37 d43e 5638 13d8 0a37 51c5 5238
000001c0: c4a5 1e38 aeea de38 7242 ac38 e4af 6b37
000001d0: 765b 2a38 257b 1038 92b2 a538 fa44 e736
000001e0: 0b3a 9c38 0630 6f38 a114 8d38 5873 6038
000001f0: bd95 c137 556f c837 39d2 de38 268e b238
5.9312588e-05 4.6072466e-05 0.00014414526 2.5195679e-05 7.1690316e-05 7.605428e-05 4.6671554e-05 1.5644961e-06
0.00013782928 1.1931653e-05 4.134491e-05 6.507605e-06 5.645814e-05 7.104261e-05 4.943719e-05 0.00012833024
2.7520511e-05 3.344766e-05 1.9916137e-05 4.9561626e-05 9.223014e-06 4.2474127e-05 7.021722e-05 4.287986e-05
7.18286e-05 9.170369e-05 2.6148316e-05 5.573482e-05 7.472931e-05 3.5630415e-05 5.7643778e-05 7.1669433e-07
6.0732455e-05 2.309485e-05 4.887199e-05 2.5646634e-05 0.00012318451 6.478873e-06 0.00010327741 7.455624e-06
4.1734464e-05 4.1933905e-05 3.2063257e-05 1.08738395e-05 2.141591e-05 9.1153335e-05 4.882774e-05 1.0097698e-05
5.2266038e-05 3.0375104e-05 4.4236487e-05 9.845475e-05 2.660305e-06 1.4421272e-05 2.8481516e-05 7.5669195e-05
6.157227e-05 4.839787e-05 7.663836e-05 5.9872396e-05 5.3306307e-05 3.85521e-05 6.822133e-05 3.511e-05
7.636236e-05 9.907439e-05 2.8617857e-05 3.5448058e-05 4.0378545e-05 4.347259e-05 4.921826e-06 6.1726237e-06
3.184747e-05 9.883255e-05 7.0550755e-05 1.3877033e-06 5.506101e-05 2.740954e-05 4.347908e-05 1.846543e-05
5.095436e-05 1.5992318e-05 6.998227e-06 5.5306104e-05 5.9843802e-05 2.1212609e-05 8.4574465e-05 0.00011788978
2.9787878e-05 5.180963e-05 4.8870843e-06 2.4386285e-05 4.7108202e-05 0.00010019287 5.423385e-05 3.2258446e-05
4.8108526e-05 1.4605711e-05 6.529447e-05 5.0251165e-05 7.21711e-05 6.0262293e-05 1.1812755e-05 7.0573056e-05
4.2434673e-05 7.573625e-05 6.835334e-06 1.3161074e-05 2.0268368e-05 5.108009e-05 8.27575e-06 5.0251667e-05
3.7824517e-05 0.000106294974 8.2139755e-05 1.4048044e-05 4.0616338e-05 3.4446963e-05 7.9010744e-05 6.8923664e-06
7.449471e-05 5.7026766e-05 6.7272464e-05 5.3513184e-05 2.307712e-05 2.3893701e-05 0.00010624942 8.5141786e-05
