Foosbots_working/results/train1/Foosbots_working/Foosbots_working-4032.pt (torch, 451487 bytes, 36 tensors)

network_body._body_endoder.seq_layers.0.weight f4 [128, 10]
000000 b3 e1 b4 3d 07 3d 7f be 20 e2 1e 3f c0 29 86 be
       0.08832111 -0.24925624 0.6206379 -0.26203728
000010 b3 56 8a bc 89 6e 39 be 47 68 2b be ea 84 20 be
       -0.016887045 -0.18108572 -0.16738997 -0.15675703
000020 7e 6d cb bd 8f 66 42 be 60 f5 76 3e 95 59 ae 3d
       -0.09932993 -0.18984435 0.2411704 0.0851318
000030 0e ae 9c be b1 1a 24 bf fe f6 4a bf 2a c0 78 be
       -0.30601543 -0.6410323 -0.7928313 -0.24292055
000040 e4 e5 5b be 5d 27 cd 3e f9 2b 5e be c4 70 a2 3e
       -0.21474415 0.40069094 -0.21696462 0.31726658
000050 8d f6 1f bf 8e 18 75 bf 51 23 ba be 57 8a 12 3e
       -0.6248558 -0.9574059 -0.3635507 0.14310585
000060 09 ce 5a be e5 f9 dd 3e bf 68 97 3e e5 9e 91 3e
       -0.21367659 0.43354717 0.29572102 0.2844154
000070 99 f2 fd 3e da a4 76 bd 47 af 97 bb 20 74 6b 3e
       0.4959915 -0.06021581 -0.004629049 0.22993517
000080 ca b5 da be 1a 87 77 bd 3b 84 10 be 4c 19 f3 3e
       -0.4271682 -0.060431577 -0.14112942 0.47480237
000090 d6 d0 71 3e ad bf 84 be f8 3d eb be a8 3c 47 3e
       0.23614821 -0.25927487 -0.45945716 0.19456732
0000a0 35 a3 f8 3d b4 f0 56 be f8 ba 1f 3e 92 98 61 bf
       0.12140504 -0.20990258 0.15598667 -0.8812343
0000b0 a4 aa f5 be fd e5 01 3d 50 49 cf 3d 01 5b a7 be
       -0.4798175 0.031713475 0.10121405 -0.32686618
0000c0 2f c1 98 be 42 4e bf 3d 6c 2d 95 be 56 d7 1c be
       -0.29834887 0.09341098 -0.29136217 -0.15316519
0000d0 ee bf 7b bd ac 21 c9 be 62 2e fc 3e c9 b0 d9 bd
       -0.061462335 -0.39283502 0.49254137 -0.10629422
0000e0 8a f2 e5 be e0 db 8d ba f8 11 25 3e 61 2b 7e be
       -0.44911605 -0.0010822974 0.16120136 -0.24821235
0000f0 51 5d e0 bc 7e 7a bb 3d 44 75 9a be 8b fa 28 bf
       -0.027388247 0.09154223 -0.30167592 -0.660073
000100 54 ae a7 3d d7 df ee bd 06 32 21 3e 4a 18 4d be
       0.08187547 -0.11663788 0.15741739 -0.20028797
000110 66 cd 8c be c0 3a 3e bd 99 5d 47 bf e2 ac e9 3d
       -0.27500457 -0.046442747 -0.77877194 0.11409928
000120 a6 8a bc be 1e ad aa 3e 16 98 b9 bd fc cb 08 bf
       -0.3682453 0.33335203 -0.09062211 -0.53436255
000130 10 25 a8 be f1 87 9f 3e 11 af 23 3e 17 37 f4 bc
       -0.32840776 0.31158403 0.15984751 -0.029811425
000140 93 9d 6f 3d 58 12 06 be a9 73 84 bc 25 01 d0 3c
       0.058499884 -0.13092935 -0.016168432 0.02539117
000150 1b c3 99 bd 92 94 92 3d c1 0b 71 3e 7d fd eb be
       -0.075079165 0.07157244 0.2353964 -0.46091834
000160 f1 29 41 3d 63 37 c0 bd c4 7b a0 3e c7 ca 70 3c
       0.04715914 -0.09385564 0.31344426 0.014696783
000170 2b 94 af be dc bc 87 3e e0 15 02 bf 4a 7e c8 be
       -0.3429273 0.26511276 -0.5081463 -0.3915885
000180 6d d2 53 3d 1d 48 a7 3e 4b df 13 3e 1e 14 7c be
       0.05171435 0.32672206 0.14440648 -0.24617049
000190 66 d3 a2 3d af a0 6c 3c 44 ba 81 bf 7c a2 77 3e
       0.07950477 0.014442607 -1.0134969 0.24183077
0001a0 19 64 de 3e c9 a3 4d 3e d0 48 ae 3d 61 24 c5 be
       0.43435743 0.2008201 0.08509982 -0.38504317
0001b0 b9 9e 90 3e af 59 18 be 6a 17 29 bf b9 64 d8 3e
       0.28246096 -0.14877962 -0.6605135 0.42264345
0001c0 01 4c aa be 13 55 af 3d 98 33 9d 3e 3e 36 82 3f
       -0.3326111 0.085611485 0.30703425 1.0172803
0001d0 61 56 eb 3e 04 de e6 3e ea 8c 80 be 03 70 b2 3e
       0.4596434 0.4509126 -0.2510751 0.34851083
0001e0 80 3c 13 3e d8 36 24 3d 04 b3 0c 3f bd 8f 93 3e
       0.14378548 0.040091366 0.54960656 0.288206
0001f0 00 b7 c0 3e 7c cf 6c be d4 8c 9c 3d 9f 31 56 3e
       0.37639618 -0.23126024 0.07644048 0.20917366
000200 cd 28 89 3d 10 c6 9e 3e 99 07 67 be af ce 65 3e
       0.06697235 0.31010485 -0.22561492 0.22442125
000210 7f 1b bb 3d e7 ed d4 be 79 3d 4d be 4e 77 07 3d
       0.09136104 -0.41587755 -0.20042981 0.033072762
000220 af 66 c5 be fc bc 56 be ee 28 e7 3e 93 87 d9 be
       -0.38554904 -0.2097053 0.45148414 -0.42486247
000230 6c 02 9e be 54 18 56 bd 14 3c 6e 3e 92 50 be 3e
       -0.30861223 -0.052269295 0.23265105 0.37170845
000240 98 4a 18 bf 01 70 5a 3e f7 81 b6 bd f5 e6 10 bf
       -0.5948882 0.21331789 -0.089115076 -0.5660241
000250 02 8b 28 be 25 63 73 bf bc f4 c2 3d 75 04 1a 3e
       -0.16459277 -0.9507316 0.09519336 0.15040763
000260 35 cb 9c 3e 14 72 c0 3d 9f d3 c5 3d 64 ed 32 3e
       0.30623785 0.09396759 0.09659504 0.1747337
000270 dd e0 6c 3e e0 21 31 be 55 a8 eb 3e 73 46 61 3e
       0.23132654 -0.17298079 0.46026865 0.2199953
000280 97 83 62 3d e7 54 9f be f0 c1 0a 3f 23 6d 0a be
       0.055301275 -0.31119463 0.54202175 -0.13518195
000290 3d ca e0 bd d4 c7 78 be 9c e9 95 3e 80 91 0c bf
       -0.10976074 -0.24294978 0.29279792 -0.54909515
0002a0 62 8b bb bd 76 1c 2e be 5d a4 fc be 9a 75 93 3c
       -0.091574445 -0.17003044 -0.4934415 0.018000413
0002b0 70 f8 a3 3e f9 6b 8f 3e 2b ce 60 3e 36 c8 c0 3d
       0.3202548 0.28012064 0.21953647 0.09413187
0002c0 41 28 1e 3e eb b8 ad 3e 3d 72 45 3c 94 1c 89 bd
       0.15445043 0.33930144 0.012051162 -0.06694904
0002d0 14 cc 05 be fd ef 9a bb bc 86 74 bd b2 36 3d 3e
       -0.13066131 -0.004728316 -0.059698805 0.18477896
0002e0 03 3a 47 3e 17 ca 98 be c1 82 15 3e aa f3 13 3e
       0.19455723 -0.29841682 0.1460066 0.14448419
0002f0 a2 02 76 3d 94 df 59 be 5f 4a 90 3d 7e 5b 96 be
       0.060061105 -0.21276695 0.07045435 -0.29366678
000300 ed c6 eb be c9 ba 23 3f 9b e2 a9 bd 5c dd 82 bd
       -0.46050206 0.63956887 -0.08295175 -0.06389877
000310 ca 2b 7d be 2b 51 14 bf 5d 51 72 3d b9 31 98 be
       -0.24723735 -0.5793635 0.059159625 -0.29725435
000320 bb 41 c1 bc 82 96 3d 3e c0 e4 53 3c 2a 85 f1 bc
       -0.023590913 0.18514445 0.012932956 -0.029482443
000330 5c df 57 3e 44 56 ac 3e c7 5e 2a be bf 05 01 3e
       0.21081299 0.33659565 -0.16637717 0.12599848
000340 60 df fa bd 92 98 97 3e a7 5e 63 3e f6 88 34 3e
       -0.12249637 0.2960859 0.22204076 0.17630371
000350 ca 59 9d be af 13 80 3d 9b 3f 8c bd b9 eb 7d 3e
       -0.30732566 0.06253754 -0.06848069 0.24796952
000360 59 18 38 bf 3d 0b 87 3d 45 84 b3 be a9 04 93 be
       -0.7191215 0.065939404 -0.3506185 -0.28714493
000370 08 96 9f 3b eb 18 0e be f4 bb 40 be a8 91 94 be
       0.00487018 -0.13876693 -0.18821698 -0.29017377
000380 04 3e 0b bd 74 d0 a1 bd 86 b7 06 bf 85 14 35 3e
       -0.03399469 -0.079010874 -0.52623785 0.17683609
000390 bb e8 7f bd 5b 20 d1 3e 35 f8 8b 3d c1 80 b7 3d
       -0.06247781 0.40844998 0.06834451 0.08960105
0003a0 41 41 dd 3d 79 0c b6 be 5e bf 58 bd b6 ab cb 3d
       0.10803462 -0.3555639 -0.052916877 0.09944861
0003b0 fc 11 38 3e f6 be 08 3e 86 0d f1 bd b4 1a a8 be
       0.1797561 0.13354096 -0.117701575 -0.32832873
0003c0 45 b1 da 3e 3a 69 47 3e bd d9 f2 bc 40 49 8f be
       0.4271337 0.19473734 -0.029644841 -0.27985573
0003d0 bd 33 7c be 3f cb dd 3e 54 8d 08 bf 1d bd fe bd
       -0.24629112 0.43319127 -0.5334065 -0.12438414
0003e0 a7 f0 e9 3d 0d 8a b3 bd 5b 68 05 bc 9f b1 d7 3e
       0.11422854 -0.087665655 -0.008142556 0.42127702
0003f0 cf 79 a1 be ee b8 8c bd e3 fb c8 bc 15 11 e3 bd
       -0.31538245 -0.0687121 -0.024534171 -0.110872425

network_body._body_endoder.seq_layers.0.bias f4 [128]
000000 76 05 51 3b a9 e1 27 3b 87 a8 b0 3b 04 73 69 bc
       0.0031894124 0.0025616682 0.005391184 -0.014248613
000010 1a 5b f5 3b 91 11 aa 3c 4b 1c a2 3c 81 f0 ce 3a
       0.007487667 0.02076033 0.019788882 0.0015788228
000020 c0 b3 ac bb 57 46 5e bb 7d b2 1b bc 59 08 92 3c
       -0.0052704513 -0.0033916438 -0.009503004 0.017826246
000030 77 91 21 bb 0d 65 55 3c ea 91 91 3c 15 80 59 3c
       -0.0024653354 0.013024581 0.017769773 0.013275166
000040 8c 7c 5a 3c f4 69 97 bb c6 b9 5e 3c 42 43 7a bc
       0.013335358 -0.004620785 0.0135940965 -0.015274825
000050 e3 82 81 3b 21 b3 77 bc 72 e4 5a bb cc 87 72 3a
       0.0039523705 -0.015118391 -0.0033400324 0.00092518027
000060 e1 d6 97 bb 6c 10 77 3c c5 25 05 bc 80 74 a9 bb
       -0.00463377 0.015079599 -0.008126681 -0.0051713586
000070 e6 c4 7e 3b 3d fb 5d 3c 59 2a 07 3c f2 93 46 3c
       0.0038874685 0.013548669 0.008249843 0.012120234
000080 3b 3b 37 bb 6f be 83 3c 95 a9 59 3c b6 aa 5e bc
       -0.0027958888 0.016082017 0.01328506 -0.013590505
000090 d5 cf 3d 3c c3 91 d4 3b 09 d2 08 3b 97 10 47 bc
       0.011585196 0.0064871027 0.0020877144 -0.012149951
0000a0 6e 09 4c bc 70 99 12 3b 20 1e 93 3c 9e 33 2f 3c
       -0.01245342 0.0022369288 0.0179587 0.010693459
0000b0 a8 59 f0 3b d5 af bd 3b c3 ec 3c bc ea 1a 8a bc
       0.0073349066 0.005788783 -0.011531058 -0.016858537
0000c0 9a d1 04 bc f8 3a 63 3c bc 57 80 bc 49 6b 4f 3c
       -0.0081066135 0.01386904 -0.015666835 0.012659856
0000d0 36 cd 31 3c 30 d5 5e 3c f6 3b 66 bc 52 65 c3 3b
       0.010852149 0.013600633 -0.014052382 0.005963006
0000e0 a5 1b 99 3b 71 10 1d 3c 42 68 0e bc 2f 3c 2d 3c
       0.004672485 0.0095864395 -0.008691849 0.010573431
0000f0 61 d9 12 ba 49 a3 ed bb 4c ce 9d 3b fd 87 a9 3b
       -0.000560185 -0.007252131 0.0048158523 0.005173682
000100 b6 71 21 3c 77 9f 60 ba 0b f6 8f 3c a6 03 c6 3b
       0.009853771 -0.0008568684 0.017573377 0.0060429154
000110 10 2d a1 ba 4d f2 20 3c dc a8 8d 3c aa 74 3a 3c
       -0.0012296755 0.009823394 0.017292432 0.011380354
000120 f1 ce 45 3a a2 29 83 bc cf 69 da ba 87 c1 aa bb
       0.000754579 -0.016011063 -0.0016663613 -0.0052110585
000130 67 70 29 3c 65 1b e4 b9 4a 3e 87 bc 72 c6 55 3c
       0.01034174 -0.0004350796 -0.016509194 0.013047801
000140 26 e3 3a bc cf 5a 9a 3a e3 7c 6b 3c f9 7f 35 bc
       -0.0114066955 0.0011776331 0.014373037 -0.011077874
000150 75 0b 47 3c ea 6e ed 3b e2 dd 1b bc 82 8e 69 b9
       0.012148728 0.007245888 -0.00951335 -0.000222737
000160 33 7d 54 bc 28 40 8f 3c 2e 44 5d 3c f4 af 3e 3c
       -0.012969303 0.017486647 0.013505025 0.01163863
000170 6e ac 3a bc 2b d9 56 3c ac 7f 04 3c 55 5e 3c bc
       -0.0113936495 0.0131133 0.00808708 -0.0114971
000180 a3 2e 1e bc 4c 58 50 bc 2d 29 48 3b 0e 92 15 bc
       -0.009654674 -0.012716364 0.003054212 -0.00912906
000190 9e 08 50 3b 8d 35 fa 3b 22 74 82 bc 15 0f 4d bc
       0.0031743417 0.0076357783 -0.015924517 -0.012515803
0001a0 21 d2 2c bb 3e 7e 1c bc 25 9f ae bb c7 41 f3 ba
       -0.0026370364 -0.009551583 -0.00532903 -0.0018559032
0001b0 a4 de 7a 3c 67 1b 8c 39 84 7a 26 3c 86 23 59 ba
       0.015311871 0.00026723297 0.010161046 -0.00082831865
0001c0 3c cf 34 3c b2 57 96 bb d2 1d 7a 3c ba bb 5f 3c
       0.011035737 -0.004588091 0.015265899 0.013655597
0001d0 79 9d a5 3b ff 54 05 bc 14 a2 33 3c c1 7b 50 3b
       0.0050541726 -0.00813794 0.010963935 0.0031812044
0001e0 a4 a6 fe 39 10 a6 98 3b 05 7c cc ba 79 4a 05 3c
       0.00048570812 0.004658468 -0.0015600926 0.008135431
0001f0 d1 18 4e bc 27 f5 71 3b d0 17 14 3c 71 a3 5e 3c
       -0.012579159 0.0036919804 0.0090388805 0.013588772

network_body._body_endoder.seq_layers.2.weight f4 [128, 128]
000000 03 a7 b5 bd 97 06 9c 3c 6a c7 84 3e 3a 12 3b bd
       -0.088697456 0.019046111 0.2593339 -0.04567168
000010 6a 6b bf bd 8e 85 b4 bc 33 c6 02 be 5d 2b 0a be
       -0.093466595 -0.02203634 -0.1277092 -0.13493104
000020 40 1c 89 bd ff f1 3c 3d dc 84 80 3c 3c ce 39 3e
       -0.066948414 0.046129223 0.015688352 0.18145078
000030 ab fc ca 3c ff ec ca 3c 5f d6 89 3d 41 8d ea bd
       0.024778685 0.024771212 0.06730341 -0.11452723
000040 c8 62 b7 3c 81 f3 90 3c 56 68 b2 3d ce 2b fe bd
       0.02238597 0.017694237 0.08711307 -0.12410699
000050 1a f2 d4 bb 9b 7b ec 3b cb 3d 5e bd 06 a8 2c 3d
       -0.0064985873 0.0072168834 -0.05425815 0.042152427
000060 3a 7d 55 3d 44 07 cc bd f3 fd 75 3d 0e b8 fb 3d
       0.05212138 -0.09962323 0.060056638 0.12290965
000070 ea 9d b0 bd 1d 38 6c bd 46 14 1a be ed 4b 06 3d
       -0.0862387 -0.0576707 -0.15046796 0.032787252
000080 f0 e9 e3 3c 76 92 82 3c 69 a4 22 3e c8 08 08 3e
       0.027821511 0.015938979 0.1588303 0.132846
000090 dc 1d 71 3d b9 ea a5 3d 5c 5b e4 3c 75 ca 17 3e
       0.058866367 0.081014104 0.027875595 0.14823325
0000a0 97 02 0b bd 95 17 ec bc b6 be 88 3d da 30 83 3d
       -0.033938017 -0.028819839 0.06677 0.06405802
0000b0 3f f8 b4 3d 08 05 22 3e 56 a8 f0 bb f6 01 27 3e
       0.08836412 0.15822232 -0.007344286 0.16309342
0000c0 43 85 d6 bd 3d dc 58 3d f1 dd 69 3d f2 69 a1 3d
       -0.104746364 0.05294441 0.057096425 0.078815356
0000d0 a9 0a b0 bb 30 69 32 3d 76 45 1c bc e8 24 29 3e
       -0.0053723645 0.043557346 -0.009538045 0.16517985
0000e0 64 a2 ad 3c dc 83 46 bd ab 57 c6 bd cd b3 2f 3e
       0.021195598 -0.048465595 -0.0968469 0.17158432
0000f0 e0 87 6c bc 35 d6 31 3c b9 7f 24 3d ab 93 cc bd
       -0.014436692 0.010854294 0.04016087 -0.09989103
000100 f8 df 61 bd 47 97 8d 3d 63 32 ca 3d 4d 6b 36 3d
       -0.055145234 0.069136195 0.09872892 0.044535924
000110 6c 72 fd 3d 94 93 c3 3d 13 e5 82 3c 9c 28 5d 3d
       0.1237534 0.09549633 0.015978372 0.053993806
000120 f2 d6 1a 3d e8 01 28 3c 0e ab 73 3e 34 15 df 3c
       0.037802644 0.010254361 0.23795721 0.02723179
000130 5c 10 81 3b f3 2c 15 bc d8 15 d9 3c 70 eb d1 3d
       0.003938718 -0.009104955 0.026499674 0.10249984
000140 b3 0b 80 3d 3c 79 a5 bd 2c 79 75 3d 4b 92 6a 3d
       0.062522314 -0.08079764 0.05993001 0.057268422
000150 54 ea 3f 3d a2 a0 5f 3d 51 e8 0e bd 62 91 5a 3d
       0.046854332 0.05459655 -0.034889523 0.053361304
000160 f6 01 0f 3d 15 45 5d bd cd fd 92 3b 85 7c 13 3c
       0.03491398 -0.05402096 0.004485822 0.009001856
000170 79 e5 e2 bc 0a a2 b3 3d 54 e3 bc 3d cc fc 27 bd
       -0.027697312 0.08771141 0.09223047 -0.04101257
000180 ac 0f 5e bd 73 7c 24 bd 64 52 bc bd 4e 77 04 be
       -0.054214165 -0.040157747 -0.09195402 -0.12936136
000190 51 7f 91 3d 48 3f ed bd 95 76 69 3d d8 1d d4 3d
       0.07104362 -0.115843356 0.056997854 0.10357255
0001a0 50 29 04 3d 52 d7 9b 3c 34 b9 29 be 77 cf 70 bd
       0.03226596 0.019023571 -0.16574556 -0.058791604
0001b0 cc 63 85 3c 17 f1 77 3d 5c c8 b3 bd fd c6 62 3e
       0.016282938 0.060532656 -0.0877845 0.2214622
0001c0 01 17 91 3d 2d 38 be 3d 95 c1 40 3c fa 1b f4 3c
       0.07084466 0.092880584 0.011764904 0.029798497
0001d0 8b 54 aa 3c 45 01 2e bd 9d 9a f0 3c 21 10 7e bd
       0.020792266 -0.04248168 0.0293706 -0.0620271
0001e0 d2 fd 88 3c f0 89 68 bd 1d 5f 28 3e 19 7a d0 bd
       0.016722593 -0.056772172 0.16442533 -0.10179538
0001f0 e0 2d 8a bc 0c 9b bb 3c 40 ad c6 3d 05 ad f9 3c
       -0.016867578 0.02290108 0.097010136 0.03047801
000200 cf 71 18 bc e3 43 e9 bb 2b 56 9b 3d f2 c0 81 3d
       -0.009304478 -0.0071186884 0.075847946 0.063356295
000210 90 54 60 bd 06 4d 9b 3d 43 a6 eb bd b0 c9 88 bd
       -0.054768145 0.075830504 -0.11506321 -0.06679094
000220 91 56 fa bc c5 2d bd bd 9c 76 e9 bd 4c 2b d4 bc
       -0.030558856 -0.092372455 -0.11399576 -0.025899552
000230 ef 55 84 bd 5d f5 ce ba bd c1 4d 3c 7e d0 3a bd
       -0.06461703 -0.0015789677 0.012558398 -0.04560899
000240 45 17 5f bd ed ae 8a 3d ad 47 00 bc ff 42 7d bd
       -0.05446555 0.06771646 -0.007829589 -0.06183147
000250 0d 3c 88 bc d9 ac aa bd c5 28 09 bd af 99 8e bc
       -0.016630197 -0.08333749 -0.033486146 -0.017407266
000260 10 b7 63 bd 47 1c 0d 3e a7 ea 58 be f5 c1 23 3e
       -0.055594504 0.13780318 -0.21183263 0.15991957
000270 57 30 c5 3c 3b 77 2a bd a2 2d 24 3c ff a1 d3 bd
       0.024070902 -0.041617613 0.010020645 -0.10333633
000280 94 8e 02 be 62 97 c3 3d 2d c0 89 3c 8b 02 2c 3d
       -0.12749702 0.09550358 0.01681527 0.041994613
000290 eb 34 c7 bc 95 2c 34 be 81 25 22 bd 79 3c 6b 3d
       -0.024317225 -0.17595132 -0.039586548 0.057430718
0002a0 d9 94 ee 3c 20 0d 59 be e0 a2 64 bd 3d 9f f8 bc
       0.02912371 -0.21196413 -0.055819392 -0.030349368
0002b0 29 8f 98 3c 97 11 06 be ac df a1 3d ba b2 81 bd
       0.018622952 -0.13092647 0.0790399 -0.063329175
0002c0 ee ef 3e be 5b 1c 21 bd 7c d3 81 bd 65 4c 1e be
       -0.18646213 -0.039333683 -0.063391656 -0.1545883
0002d0 be 27 1f 3c 8b 60 81 3d a5 71 19 3c d9 82 22 3d
       0.009714065 0.06317242 0.009365474 0.039675567
0002e0 db 37 02 be f1 e4 0d 3e 3c 49 92 bd 58 e9 60 bd
       -0.1271662 0.13856865 -0.071428746 -0.054910034
0002f0 39 a8 9b 3d d7 07 78 3d 6f ce 95 3d 0e 9c 6d bd
       0.07600445 0.06055435 0.07314765 -0.058010153
000300 c1 e3 51 be 9f c8 46 be c6 aa 85 3d 0b ef 5a 3e
       -0.20497037 -0.19412468 0.06526713 0.2138025
000310 04 3e b9 3c fe 97 8c 3c 79 fa 2f 3e 91 1e 34 3e
       0.02261258 0.01716232 0.17185391 0.17589785
000320 94 5b fb bc a6 6f 8a 3b 24 64 12 3e ce ff 04 bd
       -0.030683316 0.0042247353 0.14296013 -0.032470517
000330 ae ff cf 3c 33 f9 f3 3b ef e7 30 3d 4f c9 00 3d
       0.025390472 0.0074454783 0.04318994 0.031441983
000340 1c 4d 0b be 40 99 99 bd 5b 4e 42 bd ca 0a 06 3e
       -0.13603634 -0.07499933 -0.047438007 0.13090053
000350 13 49 26 bb 5b 4a 0f be b0 61 37 3d ca 1c f5 3d
       -0.0025373145 -0.13993208 0.044770896 0.11968382
000360 a5 5f 2c bd 80 da df bc 12 c8 75 3d 26 71 d0 bd
       -0.0420834 -0.027325869 0.060005255 -0.10177831
000370 76 d6 39 bd 70 34 01 bd ca f4 2a 3e 98 49 05 bc
       -0.04537054 -0.03154415 0.16694942 -0.008135222
000380 3b eb 62 bd 3d 1f 0f be 51 b7 55 be d5 a3 57 3c
       -0.055400115 -0.1397676 -0.20870711 0.013161619
000390 c9 18 a5 3a dc 0a 65 bd 01 21 e8 3d 3b cc 4a 3d
       0.0012595888 -0.05591856 0.1133442 0.049511176
0003a0 be b0 b5 3d bd a8 d6 bc d4 ef 44 3d 7a 53 60 bd
       0.088716015 -0.026203508 0.04808028 -0.05476711
0003b0 7c d3 c9 bc 5f fb e6 3d 72 db bf 3d df 6b 57 3d
       -0.024636976 0.11278414 0.09368028 0.05259311
0003c0 20 87 e6 bd 89 31 ff bc cf 56 21 3d d4 9a 94 3b
       -0.11256242 -0.03115155 0.039389428 0.0045350585
0003d0 97 41 13 3c a7 9d e1 3d f0 17 0c bc e3 0f a4 3b
       0.008987806 0.11016398 -0.008550629 0.0050067767
0003e0 4f f9 e5 3c 8f 5a 1b bd 50 93 04 3c 23 5a 0f 3d
       0.028072981 -0.03792816 0.008091763 0.03499807
0003f0 f2 ad d8 3b ce b9 e1 bd 60 b1 ee 3c 22 d7 41 3d
       0.006612533 -0.110217676 0.029137313 0.047324307

network_body._body_endoder.seq_layers.2.bias f4 [128]
000000 0b b5 8b 3c 4a 77 28 bc 1c cb c4 3b a6 ed 70 bc
       0.017054101 -0.010282347 0.006005658 -0.014705097
000010 8d 07 92 bc 7c bc b5 bb 23 23 36 bc f6 1e 8c 3c
       -0.017825866 -0.0055461507 -0.011116776 0.017104607
000020 84 43 25 bc 87 8a 56 bc 5a c5 2f 3c 32 47 cb bb
       -0.010086898 -0.013094551 0.010728205 -0.0062035555
000030 2f 5f 4c 3c e9 43 45 bc e5 db 84 3c 2c 55 16 bc
       0.012473865 -0.012040117 0.016218135 -0.00917558
000040 d9 62 26 bc 8a 28 1b bc d6 d2 8e 3c 0b 49 92 3c
       -0.010155403 -0.0094701145 0.017434519 0.017857095
000050 dc c6 b8 bb 1d a6 8f 3c 02 08 89 3c 1d 54 68 3c
       -0.0056389403 0.017535264 0.016727451 0.01418021
000060 6f c4 11 3c 4f 78 0e bc e7 01 73 3c 05 01 20 3c
       0.008896931 -0.008695676 0.0148319965 0.009765868
000070 2a 85 19 3c 45 29 89 3c cc 85 e4 bb 1c 33 ce ba
       0.009370128 0.016743312 -0.0069739576 -0.0015731785
000080 6f 34 40 bb b4 dd 9b 3b e2 3a a6 39 63 6d cd 39
       -0.0029328128 0.0047566537 0.00031705858 0.00039182146
000090 5d 20 0c bc c9 62 85 bc e6 d4 69 3c 29 d3 57 bc
       -0.008552638 -0.016282456 0.01427195 -0.013172903
0000a0 bf ea 9e 3b 53 d9 29 3c af b7 8f bc 0d eb 2b bc
       0.0048497613 0.010366756 -0.017543642 -0.010493052
0000b0 7b 04 22 bc a3 3c 54 3c 1c ae 7f bc d0 ea 1c bc
       -0.009888764 0.01295391 -0.015605476 -0.009577468
0000c0 2f 77 58 3b eb c1 69 bc 3c 89 01 bc 43 08 88 3c
       0.0033030023 -0.014267425 -0.007906254 0.016605502
0000d0 2c 51 c9 bb 5b c4 49 3c c7 dd 76 3c f4 3b 8e bc
       -0.0061437096 0.012314881 0.015067524 -0.017362572
0000e0 37 e1 65 bc 01 da 3c bc c8 ab 00 bc 10 f0 e0 3a
       -0.014030746 -0.011526586 -0.007853456 0.0017161388
0000f0 cb 18 69 3b cd a3 87 3c 9b b5 6a 3c e8 48 37 3c
       0.0035567756 0.016557598 0.014325525 0.011186816
000100 04 b9 8e bc 1b 5f 66 bc 44 e1 7c 3c 0b 4d 71 bb
       -0.017422207 -0.014060761 0.015434567 -0.0036819603
000110 c2 1f 91 3b cf f4 7a bc 4a 0e 65 bb 8a ee 4d 3c
       0.0044288347 -0.015317156 -0.0034951144 0.012569079
000120 90 64 00 3c a7 4c 92 bb c3 42 98 3a 92 ee 31 3c
       0.007836476 -0.004464704 0.0011616576 0.010860102
000130 7f 73 ee 3b 8a 91 3f bc df 6b 27 3c eb 3c 52 3c
       0.007276952 -0.011692414 0.01021859 0.012831907
000140 39 60 87 3c 51 11 de bb b3 eb 27 3c 76 20 86 3c
       0.016525375 -0.0067769666 0.010249066 0.0163729
000150 fa fd 36 3c 8c 5f 83 bc b9 23 30 bc 1c 48 c5 3b
       0.011168951 -0.016036771 -0.010750704 0.006020559
000160 39 82 e3 bb 1f 34 8b bc cc fc 32 3c ea 77 88 3c
       -0.006943014 -0.016992627 0.010924529 0.016658742
000170 0c 5a 60 bc 8f 73 e6 3b 1d 52 8f bc bf 4a 36 3c
       -0.013693344 0.0070328186 -0.01749521 0.011126219
000180 59 e7 0f 3c 2c d5 90 3b f6 5b 67 3b 61 09 44 bc
       0.008783185 0.0044199433 0.0035302616 -0.011965127
000190 5e 2a 19 bb c9 1d 80 3c 50 51 8a bc c8 b8 81 3c
       -0.00233712 0.015639203 -0.016884476 0.01583518
0001a0 71 d3 3a bc b3 5a 76 3b b9 c9 4f 3c 50 98 8b 3c
       -0.011402951 0.0037590682 0.012682372 0.017040402
0001b0 29 be 4c bc 48 f5 58 bc ff 01 7f 3c 0d ab da 3b
       -0.01249651 -0.013242073 0.015564441 0.006673223
0001c0 2b 4a 6d bc 8d 1b 8d bc 09 27 d7 3b fd 6c 9a 3b
       -0.014483015 -0.017225051 0.0065659327 0.0047126994
0001d0 46 20 f6 3b 4a 5d 0e 3c c3 bf 60 3c a0 ad 9a bb
       0.0075111715 0.008689234 0.013717595 -0.0047204047
0001e0 58 80 06 3c 37 d3 54 3c 02 b9 7a 3c c7 f1 4d bc
       0.0082093105 0.012989811 0.015302898 -0.012569851
0001f0 25 1d 27 3c 78 62 7b 3c 87 7b 42 bc 5b 1a 79 bc
       0.01019982 0.015343301 -0.0118702715 -0.015204038

action_model._continuous_distribution.log_sigma f4 [1, 2]
000000 6c 0f 20 3c ef 2c a4 3c
       0.009769302 0.020040957

action_model._continuous_distribution.mu.weight f4 [2, 128]
000000 e4 73 b8 3c 59 ff bd bc 3b 84 21 3c 5b 44 8c bc
       0.022516198 -0.023193048 0.009858186 -0.017122438
000010 75 8e a9 bc 3a 04 06 bc f7 e4 38 bc 82 4e e4 3c
       -0.020697812 -0.008179719 -0.011285058 0.027869467
000020 c6 fd 7e bc 1a 13 0b bd 0a 01 2f 3b 50 56 c9 bb
       -0.015563434 -0.033953764 0.00267035 -0.0061443225
000030 e2 c9 5b 3c 36 00 ef bc 16 16 50 3c fe 96 8c bc
       0.013414832 -0.029174905 0.012700578 -0.017161842
000040 af 67 15 bc 91 f0 2c bc e7 f1 13 3d 45 51 00 3d
       -0.009118958 -0.010555402 0.036119368 0.031327505
000050 53 0c ed 3a 79 b8 06 3d 02 43 9e 3c 2f 8d a8 3c
       0.0018085338 0.03289077 0.019319061 0.020575134
000060 0d 28 34 3a b8 3d bc bc 68 87 dd 3c 41 26 d4 3c
       0.0006872423 -0.022978649 0.027042106 0.025897147
000070 31 e7 92 3c 05 34 1f 3d 23 5a d9 bb 59 5a ed 3b
       0.017932506 0.03886797 -0.0066330596 0.0072434363
000080 3b 3a 08 3b 63 56 88 bb e4 71 b7 3b 92 6f 83 3b
       0.0020786661 -0.0041606887 0.0055982936 0.004011103
000090 14 c8 8d bb 41 67 71 bc d2 56 be 3c 95 87 c2 bc
       -0.0043268297 -0.01473409 0.023234759 -0.023746291
0000a0 0b f4 76 bb ea 92 2c 3c 9a 23 c8 bc 46 46 48 bc
       -0.0037682082 0.010533074 -0.024431039 -0.012223786
0000b0 bf 8e a0 bb 09 48 0e 3c 00 e8 53 bc b9 31 af bb
       -0.004899829 0.008684167 -0.012933731 -0.0053465036
0000c0 2f 3e 7a 3c 49 f2 3b bc 01 1a e9 bb 1f db df 3c
       0.015273615 -0.0114713395 -0.0071136956 0.027326165
0000d0 45 ed 27 bb 3e 2b 3c 3c db 0e 96 3c eb 25 21 bd
       -0.0025623601 0.011484919 0.01831763 -0.039342802
0000e0 6c 01 d5 bc d1 29 e8 bc 83 9d 99 bc 47 e8 30 bb
       -0.026001655 -0.028340252 -0.018751865 -0.0026993917
0000f0 ed 5d 40 3b 4f 34 32 3d d9 54 64 3c 02 14 ed 3c
       0.002935286 0.043506917 0.013936245 0.028940205
000100 ed 43 0e bd 29 2c da bc 1d aa 13 3c fa 88 a1 ba
       -0.034732748 -0.026632385 0.009012726 -0.0012324147
000110 a2 6c 8b 3c 1f d8 b1 bc fc d3 7c bb 5f 4a 41 3c
       0.017019574 -0.0217095 -0.00385785 0.011797517
000120 71 4e bf 3c d5 70 a6 3a a4 5a 40 3c 51 35 30 3c
       0.023352833 0.0012698421 0.01174036 0.010754899
000130 c3 d9 0f 3c de dd da bc fb bb 00 3d 82 3d a0 3c
       0.008779946 -0.026717123 0.031429272 0.01956058
000140 42 42 f5 3c b2 51 5d bb ec 74 58 3c 77 32 1e 3d
       0.02993882 -0.0033770618 0.01321147 0.038622346
000150 ec e2 4d 3c c8 e5 25 bd ac e3 7b bc 2e 49 ac 3c
       0.012566309 -0.04050234 -0.015374105 0.021030989
000160 ee aa 61 bb d7 7f 39 bd 8e 28 5d 3b 61 66 11 3d
       -0.0034434157 -0.045287933 0.0033746096 0.035498027
000170 f7 51 58 bc 8e 2e 24 3c 8f e8 2a bd d4 96 c6 3c
       -0.013203136 0.010020865 -0.04172569 0.024241842
000180 2b 2e c9 3c be ba 05 3c 7c 59 02 bc b1 cb 5a bc
       0.024558147 0.008162199 -0.007955905 -0.013354228
000190 69 89 bc bb ad d1 ee 3c d8 a3 56 bc 24 bd 42 3d
       -0.0057536853 0.029152716 -0.013100587 0.04754366
0001a0 55 33 a9 bc 79 c0 f6 39 46 49 a7 3c 06 7e 23 3d
       -0.02065436 0.0004706418 0.020420682 0.039915107
0001b0 d9 5f ad bc 93 f2 da bc 38 9e 94 3c e1 7c e7 3c
       -0.021163868 -0.026726997 0.01814185 0.02825779
0001c0 f3 55 de bc 22 5d 34 bc 18 cf 50 3c 4f b7 68 3c
       -0.027140593 -0.011008533 0.0127446875 0.01420386
0001d0 4e a0 f3 3b 31 30 e2 3b f9 5d a3 3c a4 24 45 bc
       0.0074348813 0.0069027175 0.01994227 -0.012032662
0001e0 d7 c0 fb 3b d7 2e 7e 3c 05 7f 8a 3c e3 51 03 bd
       0.0076829004 0.015514097 0.01690627 -0.032060515
0001f0 49 a9 26 3c 96 a2 a7 3c f0 ae d3 bc 06 27 ac bc
       0.010172197 0.02046327 -0.025840253 -0.021014702
000200 4a a9 a7 bb 11 00 08 3d 5c c7 a1 bc fb f3 0f 3c
       -0.0051166164 0.03320319 -0.019748382 0.008786197
000210 c6 7a 0c 3b e7 83 43 3c 5c f1 62 3c 54 a7 59 3b
       0.0021435483 0.011933303 0.01385149 0.0033211308
000220 3e 38 76 3c 09 f4 dd 3c cb 6f 16 3c 68 cb ec 3b
       0.015028058 0.027093904 0.009181927 0.0072263964
000230 bb f6 e1 3c da 1e 03 3d c4 ec 93 3b ba 74 f7 3c
       0.02758347 0.032011844 0.0045143086 0.030207027
000240 8b 9b 2e 3c de 15 07 3c 39 1d 94 3b 27 8a 80 bb
       0.0106572015 0.00824496 0.004520085 -0.003922719
000250 87 e4 78 bc 21 31 f0 ba 2a de ed bb 39 56 a2 bb
       -0.015191204 -0.0018325188 -0.00725915 -0.004954126
000260 91 b0 69 3c cf e0 1e 3d be 72 0b bc 32 0a 35 bd
       0.014263288 0.038788613 -0.008511243 -0.044199176
000270 5c 56 93 bc ed d3 4d 39 f5 77 46 bc d1 6e 52 bc
       -0.017985515 0.00019629272 -0.012113561 -0.0128438035
000280 48 f8 84 ba a7 14 e8 3b e7 4c 37 bc 0d 90 2e bc
       -0.0010144794 0.00708254 -0.011187769 -0.010654462
000290 23 ae de bc 2c 6d f3 3b a3 35 82 bc 4b 61 c5 3c
       -0.027182644 0.007428786 -0.015894717 0.024094244
0002a0 50 19 1b 3d 29 85 45 bc 0a 50 f7 bb fd 8a 2e bc
       0.037865937 -0.012055674 -0.007547383 -0.010653255
0002b0 20 22 ba b9 66 8f f5 bb 97 91 84 3b 54 e5 c0 bc
       -0.0003550211 -0.007493901 0.004045676 -0.023546852
0002c0 8b f7 b3 bc 58 34 de 3b 81 e4 19 3c ef 66 43 3c
       -0.021968624 0.006781142 0.0093928585 0.011926397
0002d0 7b f0 67 37 84 22 f5 bb ac c8 1a bc 1e 44 80 3c
       1.3824664e-05 -0.007480921 -0.009447258 0.01565748
0002e0 9f 0c 04 bb 76 ce f2 3c 52 bd 81 3c 98 7f 05 3d
       -0.0020149124 0.029639464 0.015837345 0.032592386
0002f0 ed f8 2e 3d d8 6c 8f bc ab 81 80 bb fc cb b8 3c
       0.042717863 -0.017507955 -0.0039217076 0.022558205
000300 38 c4 b1 bb 62 9a 5c 3c 28 4f 25 3a f6 20 86 bc
       -0.0054250024 0.013464542 0.00063060457 -0.016373139
000310 a2 0a 8d bc e3 6c 49 3c 28 ff 68 3c 48 09 ff 3b
       -0.017216984 0.012294027 0.01422099 0.007783089
000320 76 88 f4 bc f0 ed f1 bb d0 2e 83 bc 25 0f b0 bb
       -0.029850226 -0.0073831007 -0.016013533 -0.005372899
000330 5c 3f 2b 3b 08 63 de 3c 4b c4 de bc 40 80 a6 bc
       0.0026130294 0.027146831 -0.02719321 -0.020324826
000340 06 ed 73 3c 32 56 04 3c 38 fb 14 3d a6 86 fd bc
       0.014888054 0.008077191 0.036372393 -0.030947994
000350 1e 13 5f bc 09 c9 1c 3c e7 e4 1f 3c 8f c2 25 bd
       -0.013615398 0.009569415 0.009759164 -0.04046875
000360 e3 aa fd bc a1 0b 48 bc c2 e0 e2 3b 8b 2a 61 bc
       -0.030965274 -0.012209804 0.006923766 -0.013743053
000370 6f 64 2e 3c ca d5 97 bc dd 78 13 bb 15 28 0f bd
       0.010644062 -0.01853456 -0.002250246 -0.034950335
000380 d2 22 2d bd ba 8f 15 3c dd d3 6a 3c 85 b0 80 3c
       -0.042269535 0.009128505 0.014332739 0.015709171
000390 a9 1c b2 bc 1c a0 27 bc c4 11 01 bc 97 7e 0a 3d
       -0.021742182 -0.010231044 -0.007877771 0.03381213
0003a0 42 ac ca 3c 62 78 48 3d 35 ec dc bb 9f 3b 25 bc
       0.024740342 0.04894293 -0.0067420253 -0.010085016
0003b0 8b 9e 4a 3c b4 39 e1 3c 5c 6c dc bb 82 f3 4a bd
       0.012366901 0.027493335 -0.0067267846 -0.049548633
0003c0 42 e3 e1 3a 0d dc aa 39 de 6c be bc 2e 4e ec bc
       0.0017233866 0.00032588877 -0.023245271 -0.028845873
0003d0 cb 3e 97 3b fa 07 82 3c e5 02 4a bb 63 00 bd 3c
       0.00461564 0.015872944 -0.003082448 0.023071473
0003e0 a0 d7 52 bb 2b bd 67 bc b1 fb 9d bb 6a de 09 3d
       -0.003217198 -0.014144222 -0.0048212637 0.033659376
0003f0 95 f9 b9 3c 58 50 0a ba 72 59 9e 3c a1 de ff bb
       0.022702018 -0.00052762544 0.01932976 -0.007808522

action_model._continuous_distribution.mu.bias f4 [2]
000000 62 c3 99 3c 70 16 2e 3b
       0.018769924 0.0026563667

exp_avg f4 [128, 10]
000000 91 dd a4 3a ed 09 2d 36 cc 0c 88 36 b3 1a 41 35
       0.0012578239 2.5784786e-06 4.0546056e-06 7.1936955e-07
000010 52 ad 62 36 99 20 66 36 be 79 2b b4 8a d4 f9 36
       3.377751e-06 3.4291645e-06 -1.5969906e-07 7.445521e-06
000020 a2 40 6c 36 35 09 8b b2 52 7f 11 ba 69 eb a1 b5
       3.5204362e-06 -1.6185917e-08 -0.0005550283 -1.2063948e-06
000030 97 9d fe b5 d0 43 b4 b4 97 1c d4 b5 1c 57 d7 b5
       -1.8970339e-06 -3.3576953e-07 -1.5803552e-06 -1.60441e-06
000040 0d 75 a0 33 f3 c6 69 b6 65 12 dd b5 21 1a 02 32
       7.471872e-08 -3.483551e-06 -1.6471137e-06 7.572937e-09
000050 04 67 53 39 82 c9 1b 35 4e f8 74 35 15 dc 31 34
       0.00020160904 5.803523e-07 9.1258414e-07 1.6564475e-07
000060 cf 12 4c 35 2f 2e 4f 35 7c 60 1a b3 30 eb e0 35
       7.602329e-07 7.7180715e-07 -3.594367e-08 1.6757749e-06
000070 e5 b1 54 35 22 58 7a b1 de 10 80 b8 68 fd 86 b3
       7.9235025e-07 -3.6429886e-09 -6.1066574e-05 -6.2859556e-08
000080 25 4b d4 b3 89 d5 5f b2 f3 dd b0 b3 5a 8f b3 b3
       -9.885688e-08 -1.3028861e-08 -8.236011e-08 -8.3614125e-08
000090 d1 cb 85 31 fa ee 42 b4 c8 56 b8 b3 2c f8 d8 2f
       3.8939807e-09 -1.8154597e-07 -8.583953e-08 3.9466508e-10
0000a0 2c 56 52 b9 7e f5 f0 b4 36 73 3d b5 54 13 09 b4
       -0.00020059262 -4.4882103e-07 -7.057564e-07 -1.2766151e-07
0000b0 c0 d2 1d b5 be 39 20 b5 5e c7 ee 32 92 f1 ad b5
       -5.879374e-07 -5.968867e-07 2.7797508e-08 -1.2959811e-06
0000c0 7b 7d 24 b5 58 9b 41 31 28 0a 96 39 71 3c 13 35
       -6.127736e-07 2.81735e-09 0.00028617796 5.484972e-07
0000d0 5b 86 67 35 e4 d9 25 34 af df 40 35 5f cf 43 35
       8.624972e-07 1.544609e-07 7.1851076e-07 7.2944925e-07
0000e0 8b e7 11 b3 24 93 d4 35 95 05 49 35 dd 9a 6c b1
       -3.397103e-08 1.5838054e-06 7.488646e-07 -3.443055e-09
0000f0 31 51 14 3a d4 45 8c 35 a3 93 dc 35 91 8d 9b 34
       0.00056578504 1.0451135e-06 1.6434245e-06 2.8974003e-07
000100 3a c1 b7 35 4d 8d ba 35 8b 01 8b b3 26 86 4a 36
       1.3690799e-06 1.3899204e-06 -6.4729726e-08 3.017843e-06
000110 6c 84 bf 35 04 6b e1 b1 c7 ec 3d 39 11 41 0e 35
       1.4269149e-06 -6.560528e-09 0.00018112651 5.2993806e-07
000120 79 af 5f 35 59 53 29 34 ec 56 3a 35 34 2d 3d 35
       8.332932e-07 1.5769673e-07 6.941689e-07 7.0473766e-07
000130 2b f6 0c b3 94 5f cd 35 34 36 42 35 ee 96 64 b1
       -3.282018e-08 1.5301507e-06 7.234951e-07 -3.326416e-09
000140 ac 15 02 ba e5 cb 79 b5 97 66 c4 b5 b4 00 8a b4
       -0.0004962336 -9.3056434e-07 -1.4632996e-06 -2.5705015e-07
000150 6e 9d a3 b5 ff 1a a6 b5 99 8a 77 33 b6 53 34 b6
       -1.2190264e-06 -1.2375821e-06 5.7635223e-08 -2.6870816e-06
000160 cd 86 aa b5 36 b6 c8 31 3b 58 b6 39 87 1d 47 35
       -1.2705219e-06 5.841481e-09 0.00034779482 7.4176245e-07
000170 61 8d 9c 35 0d 8b 5e 34 18 6b 82 35 44 67 84 35
       1.1664052e-06 2.0725948e-07 9.716923e-07 9.864821e-07
000180 ff 50 45 b3 4b bd 0f 36 6f ed 87 35 fd fc 9f b1
       -4.5941302e-08 2.1418844e-06 1.0127386e-06 -4.6562705e-09
000190 88 a5 a4 ba d9 bc 24 b6 f2 85 81 b6 f7 2b 38 b5
       -0.0012561539 -2.4547828e-06 -3.860093e-06 -6.860932e-07
0001a0 66 cd 57 b6 50 16 5b b6 c8 3f 23 34 48 d8 ed b6
       -3.2157054e-06 -3.264653e-06 1.5203761e-07 -7.088329e-06
0001b0 23 eb 60 b6 a8 5d 84 32 f7 16 11 39 1e eb ca 34
       -3.3515469e-06 1.5409412e-08 0.00013836833 3.7796502e-07
0001c0 dd 8a 1f 35 ca 40 e3 33 5e e8 04 35 7d ee 06 35
       5.943419e-07 1.0582296e-07 4.951197e-07 5.0265936e-07
0001d0 69 15 c9 b2 ed 7b 92 35 df 85 0a 35 15 0b 23 b1
       -2.3409216e-08 1.0913915e-06 5.1603814e-07 -2.3725921e-09
0001e0 97 70 39 ba 7e a4 bb b5 f7 87 13 b6 6c 4a d4 b4
       -0.0007073967 -1.3980459e-06 -2.198385e-06 -3.9542226e-07
0001f0 0b ce f5 b5 dc 8b f9 b5 fd f1 b9 33 b7 74 87 b6
       -1.8313889e-06 -1.859265e-06 8.658751e-08 -4.036901e-06
000200 1c 18 00 b6 b2 c4 16 32 b3 a6 b7 39 03 75 43 35
       -1.908752e-06 8.7758725e-09 0.0003502868 7.2813435e-07
000210 b3 ac 99 35 26 19 5f 34 0b 05 80 35 f1 f7 81 35
       1.144965e-06 2.0777642e-07 9.538211e-07 9.683409e-07
000220 0a b0 41 b3 96 18 0d 36 84 6d 85 35 ca 0b 9d b1
       -4.509642e-08 2.1024948e-06 9.941145e-07 -4.5706416e-09
000230 10 1f ab 38 da 99 58 34 69 4e aa 34 b2 77 5f 33
       8.159701e-05 2.0172538e-07 3.1722018e-07 5.2030096e-08
000240 90 e0 8d 34 d6 09 90 34 b0 a7 56 b2 ec 5e 1c 35
       2.6426687e-07 2.6829247e-07 -1.2494567e-08 5.825266e-07
000250 48 df 93 34 1e 0c ae b0 02 b4 85 39 f3 05 d1 34
       2.7543342e-07 -1.266361e-09 0.00025501853 3.8933612e-07
000260 7f 57 24 35 15 73 ea 33 2f e8 08 35 aa fd 0a 35
       6.1222084e-07 1.09174074e-07 5.100182e-07 5.1778136e-07
000270 24 22 cf b2 12 e4 96 35 b7 b0 0e 35 b7 f2 27 b1
       -2.4113497e-08 1.1242248e-06 5.3156276e-07 -2.4439666e-09
000280 98 27 e3 b8 24 08 a0 b4 60 a6 fb b4 cf fc ad b3
       -0.000108315784 -2.9808245e-07 -4.6873447e-07 -8.101926e-08
000290 a5 a4 d1 b4 81 d5 d4 b4 fb 96 9e 32 68 0e 67 b5
       -3.9049078e-07 -3.9643422e-07 1.8462279e-08 -8.607517e-07
0002a0 b8 7f da b4 80 96 00 31 2e 3f d2 39 49 97 64 35
       -4.0698592e-07 1.8712e-09 0.00040101394 8.515677e-07
0002b0 9d b9 b3 35 39 3d 83 34 95 b8 95 35 08 00 98 35
       1.339056e-06 2.4445197e-07 1.1155086e-06 1.1324892e-06
0002c0 4a 85 62 b3 94 03 25 36 ba 0b 9c 35 f1 aa b7 b1
       -5.274095e-08 2.4588999e-06 1.1626319e-06 -5.3454348e-09
0002d0 62 69 18 3a 5f 76 a3 35 59 85 00 36 bb c3 b5 34
       0.0005814043 1.2178897e-06 1.9151105e-06 3.385629e-07
0002e0 f4 21 d6 35 64 64 d9 35 71 fc a1 b3 34 01 6c 36
       1.5954124e-06 1.6196977e-06 -7.5430655e-08 3.516744e-06
0002f0 a8 2d df 35 7d 57 03 b2 55 7b ef b9 8f a3 6c b5
       1.6628082e-06 -7.645096e-09 -0.00045677522 -8.815486e-07
000300 23 0e ba b5 5b 99 83 b4 ff fe 9a b5 fe 5a 9d b5
       -1.3862194e-06 -2.4512232e-07 -1.1548108e-06 -1.1723894e-06
000310 65 80 6a 33 eb d3 2a b6 2e 8b a1 b5 86 23 be 31
       5.4599145e-08 -2.5455327e-06 -1.2035941e-06 5.5337663e-09
000320 5c a8 07 39 c9 b3 62 34 53 3f b2 34 f1 57 6d 33
       0.00012937322 2.1113296e-07 3.3201158e-07 5.5260845e-08
000330 9e 7e 94 34 3f c1 96 34 3d aa 60 b2 83 a9 23 35
       2.7659274e-07 2.8080282e-07 -1.3077224e-08 6.0968904e-07
000340 76 c4 9a 34 bc 29 b6 b0 44 2d 9d b9 a1 8c 09 b5
       2.882768e-07 -1.3254104e-09 -0.000299791 -5.124112e-07
000350 d7 4a 58 b5 91 2a 1b b4 42 2f 34 b5 6b ed 36 b5
       -8.0575177e-07 -1.4450985e-07 -6.7123995e-07 -6.814577e-07
000360 26 4e 08 33 d5 96 c6 b5 d7 cb 3b b5 d5 09 5d 31
       3.1736043e-08 -1.4796047e-06 -6.9959555e-07 3.2165322e-09
000370 8b fe 89 b9 99 b6 0e b5 08 6b 60 b5 53 92 18 b4
       -0.00026320326 -5.3164837e-07 -8.3602254e-07 -1.4209336e-07
000380 16 f5 3a b5 9e cd 3d b5 be 6d 0d 33 bc 0d ce b5
       -6.9647047e-07 -7.07072e-07 3.292893e-08 -1.5352193e-06
000390 e6 da 42 b5 c0 58 65 31 65 db a3 b9 72 87 31 b5
       -7.258917e-07 3.3374334e-09 -0.00031253244 -6.6134737e-07
0003a0 ed 94 8b b5 f2 2f 42 b4 24 90 68 b5 5a 1a 6c b5
       -1.039965e-06 -1.80851e-07 -8.6636487e-07 -8.79552e-07
0003b0 9c ed 2f 33 a2 28 00 b6 1a 63 72 b5 6f a5 8e 31
       4.0961467e-08 -1.9097138e-06 -9.0296237e-07 4.1515515e-09
0003c0 61 15 26 ba 28 68 b5 b5 a0 a1 0e b6 14 27 c4 b4
       -0.0006335583 -1.3515864e-06 -2.1253727e-06 -3.6536278e-07
0003d0 23 a5 ed b5 24 43 f1 b5 c8 c5 b3 33 92 f5 82 b6
       -1.7705937e-06 -1.797544e-06 8.371313e-08 -3.90289e-06
0003e0 0d af f7 b5 6b c3 11 32 42 9b c5 39 cb 30 34 35
       -1.845388e-06 8.484544e-09 0.00037690444 6.712623e-07
0003f0 c0 ac 8d 35 22 5d 43 34 f0 0c 6c 35 c8 a4 6f 35
       1.0555596e-06 1.8194672e-07 8.793568e-07 8.9274226e-07

exp_avg_sq f4 [128, 10]
000000 b9 fc d8 35 37 3a 85 2d 52 c7 25 2e 20 9f c0 2b
       1.6166806e-06 1.5146202e-11 3.769369e-11 1.3686587e-12
000010 7e c5 e3 2d 6f 04 ee 2d 67 15 76 29 21 3a 0c 2f
       2.5894616e-11 2.7059436e-11 5.4641536e-14 1.2753577e-10
000020 52 cc fa 2d ec b8 2d 26 2d ff 8c 34 e4 98 23 2c
       2.8512446e-11 6.027205e-16 2.6262697e-07 2.3248565e-12
000030 fb 8e cb 2c 92 e5 54 2a 0d 64 8c 2c 93 12 92 2c
       5.785481e-12 1.8909031e-13 3.990147e-12 4.1516317e-12
000040 51 95 1e 28 83 27 ac 2d 41 f3 99 2c ae 46 d5 24
       8.80314e-15 1.9571683e-11 4.375528e-12 9.249376e-17
000050 c2 56 6d 35 ac 66 18 2d 98 1f bd 2d 00 85 1e 2b
       8.841563e-07 8.662997e-12 2.1500843e-11 5.631745e-13
000060 59 d5 81 2d 5d 90 87 2d 56 c6 0a 29 17 c3 9f 2e
       1.4760347e-11 1.5411833e-11 3.0814184e-14 7.265138e-11
000070 54 de 8e 2d 75 ec c5 25 28 24 14 34 12 6a b5 2b
       1.6242264e-11 3.4334282e-16 1.3796728e-07 1.2890264e-12
000080 41 81 61 2c 85 dc f5 29 f6 77 1b 2c 60 c8 21 2c
       3.2046173e-12 1.091844e-13 2.2093417e-12 2.2990707e-12
000090 81 22 ad 27 0b aa 3e 2d be 80 2a 2c 1b 35 6c 24
       4.8054555e-15 1.0838007e-11 2.422992e-12 5.1219325e-17
0000a0 c3 c1 07 34 54 7f c0 2b 3c a3 6f 2c b5 f0 30 2a
       1.2643345e-07 1.3677761e-12 3.4054556e-12 1.5715452e-13
0000b0 94 57 25 2c 81 0a 2c 2c aa 12 bb 27 0b c3 4a 2d
       2.3496526e-12 2.44485e-12 5.192316e-15 1.1525679e-11
0000c0 44 52 35 2c df 31 7b 24 a6 93 dd 34 d6 8d a5 2c
       2.5767314e-12 5.446919e-17 4.1271886e-07 4.705329e-12
0000d0 d4 78 4d 2d ea 29 93 2a 98 58 0d 2d 29 47 13 2d
       1.167973e-11 2.614153e-13 8.034594e-12 8.371783e-12
0000e0 1d 4d 99 28 28 93 2d 2e 7f 38 1b 2d 2c 09 57 25
       1.7019855e-14 3.9466347e-11 8.823275e-12 1.8651385e-16
0000f0 6b ac d3 34 97 ad a1 2c 0b a1 48 2d 79 7c 8a 2a
       3.9427263e-07 4.5951676e-12 1.14044425e-11 2.4600095e-13
000100 fb 0c 0a 2d fb cc 0f 2d c8 dd 95 28 30 76 29 2e
       7.847274e-12 8.174124e-12 1.6638505e-14 3.8531123e-11
000110 de 8a 17 2d b9 f0 51 25 67 d3 ac 35 2a af 59 2d
       8.614191e-12 1.820942e-16 1.2876525e-06 1.2373916e-11
000120 8d 2c 07 2e f8 af 82 2b 09 52 b9 2d dc d9 c1 2d
       3.0735015e-11 9.285897e-13 2.1068496e-11 2.2038309e-11
000130 4c c8 44 29 a7 75 e4 2e 42 4d cc 2d f4 83 0d 26
       4.3694472e-14 1.0389139e-10 2.3226424e-11 4.909803e-16
000140 73 61 57 34 6b 51 1d 2c 8a 22 c3 2c d5 c6 0e 2a
       2.0058887e-07 2.2356238e-12 5.546068e-12 1.2681117e-13
000150 07 0b 87 2c 5c d7 8b 2c 00 aa 19 28 e3 ce a4 2d
       3.838155e-12 3.9745273e-12 8.530069e-15 1.8736518e-11
000160 88 61 93 2c d7 2c cc 24 35 e7 b1 34 a5 ec 57 2c
       4.1888194e-12 8.854686e-17 3.3137044e-07 3.0684702e-12
000170 0a 76 06 2d 57 0f b6 2a 7a e0 b8 2c 65 30 c1 2c
       7.643228e-12 3.2340339e-13 5.2545164e-12 5.490763e-12
000180 a7 e5 48 28 06 9a e3 2d ce 88 cb 2c e1 fb 0c 25
       1.1152028e-14 2.5875312e-11 5.7847954e-12 1.2228404e-16
000190 52 74 90 35 9b df 45 2d 65 c0 f5 2d 46 24 48 2b
       1.076269e-06 1.1247804e-11 2.7938716e-11 7.1104613e-13
0001a0 01 e9 a8 2d e0 35 b0 2d 9e 83 36 29 26 a9 cf 2e
       1.9202863e-11 2.0032809e-11 4.0526278e-14 9.443317e-11
0001b0 cb b3 b9 2d ce a1 00 26 8f 2f 84 35 f3 19 34 2d
       2.1111909e-11 4.4628207e-16 9.848608e-07 1.0237577e-11
0001c0 32 8a df 2d e2 cd 07 2b 65 93 99 2d b4 38 a0 2d
       2.5413536e-11 4.8247354e-13 1.7459542e-11 1.8215075e-11
0001d0 eb fb 24 29 a6 d3 bc 2e 2c dc a8 2d 69 ee e9 25
       3.663382e-14 8.5868465e-11 1.9197165e-11 4.058061e-16
0001e0 f7 5e d8 34 17 de 93 2c 1a b7 37 2d f0 3f a7 2a
       4.030223e-07 4.202648e-12 1.0443002e-11 2.9709525e-13
0001f0 28 26 fc 2c f8 c2 03 2d b8 09 87 28 03 44 1b 2e
       7.166507e-12 7.48978e-12 1.4992226e-14 3.5303326e-11
000200 f2 d8 0a 2d 71 5a 40 25 bd a3 ce 34 92 e9 8e 2c
       7.892563e-12 1.6683988e-16 3.8489625e-07 4.0618143e-12
000210 6d 73 31 2d d9 a1 71 2a 53 0c f3 2c c4 69 fe 2c
       1.0086915e-11 2.1461252e-13 6.9078437e-12 7.2308565e-12
000220 df 9c 7e 28 7a eb 15 2e 20 11 06 2d fb ba 39 25
       1.4133848e-14 3.4087823e-11 7.620821e-12 1.6109544e-16
000230 24 6f 57 35 87 84 12 2d f2 d7 b5 2d 39 5f da 2a
       8.025547e-07 8.328566e-12 2.0673217e-11 3.8790653e-13
000240 ba 90 79 2d 7c 58 82 2d 5e 96 04 29 68 99 99 2e
       1.4186147e-11 1.4818584e-11 2.944031e-14 6.984885e-11
000250 6d 5b 89 2d e5 49 be 25 dd 87 f5 34 e3 19 a9 2c
       1.5615698e-11 3.300982e-16 4.573366e-07 4.806143e-12
000260 ab 91 52 2d 76 af 17 2b 90 29 11 2d d4 34 17 2d
       1.1969463e-11 5.388948e-13 8.2515245e-12 8.5950864e-12
000270 26 ca a1 28 e2 33 32 2e e0 5b 1f 2d db c4 5c 25
       1.7962259e-14 4.0518595e-11 9.058504e-12 1.9148655e-16
000280 0b 53 0e 34 93 d4 c4 2b ea 30 75 2c 5e ef 27 2a
       1.3254991e-07 1.3985639e-12 3.4843747e-12 1.4915627e-13
000290 c6 66 28 2c 50 1b 30 2c 7c cb b6 27 be 7f 4f 2d
       2.3931287e-12 2.5026266e-12 5.0735766e-15 1.1794952e-11
0002a0 bc 8e 39 2c 10 88 80 24 2c 6e f2 34 32 f1 ae 2c
       2.6369315e-12 5.574165e-17 4.5156173e-07 4.9721555e-12
0002b0 7a 5a 59 2d 29 99 dd 2a 6c 2a 15 2d 4e e3 1b 2d
       1.2355112e-11 3.9363762e-13 8.479089e-12 8.861202e-12
0002c0 da 27 a0 28 4c b6 37 2e 33 49 24 2d 28 98 63 25
       1.7780851e-14 4.1771295e-11 9.338574e-12 1.9740664e-16
0002d0 a0 9a b6 34 e8 48 82 2c 01 b9 21 2d 09 53 57 2a
       3.4012646e-07 3.7029164e-12 9.1928696e-12 1.9124645e-13
0002e0 f9 06 de 2c fa d4 e7 2c 9d 12 6d 28 e8 9c 08 2e
       6.3103936e-12 6.58906e-12 1.3160179e-14 3.106218e-11
0002f0 a0 55 f4 2c c9 3e 29 25 da 6c 7f 34 b3 22 40 2c
       6.9444034e-12 1.4679686e-16 2.3788326e-07 2.7304103e-12
000300 f7 79 ee 2c 17 3e 0d 2a b5 ac a3 2c d4 ea aa 2c
       6.7779077e-12 1.2544857e-13 4.651913e-12 4.8577618e-12
000310 99 2b 2e 28 96 6f c9 2d c1 22 b4 2c 5c 8d f9 24
       9.668394e-15 2.2900608e-11 5.119766e-12 1.0822601e-16
000320 f7 7f ba 33 22 6e 47 2b 10 32 f8 2b e9 d9 a0 29
       8.6845766e-08 7.085184e-13 1.7635355e-12 7.143229e-14
000330 5d e1 aa 2b a2 29 b2 2b dd 95 3c 27 b0 f6 d1 2c
       1.2141777e-12 1.2659216e-12 2.6171482e-15 5.967525e-12
000340 ed c2 bb 2b f4 0e 02 24 7b 0f 08 34 0c 36 d6 2b
       1.3341252e-12 2.8201922e-17 1.2671619e-07 1.5220616e-12
000350 77 df 84 2c 15 9b 92 29 80 b7 35 2c 9e 86 3e 2c
       3.7764752e-12 6.510605e-14 2.582351e-12 2.7075352e-12
000360 81 65 ba 27 44 6b 60 2d 41 b0 48 2c 39 03 8b 24
       5.173542e-15 1.2756744e-11 2.851955e-12 6.02871e-17
000370 48 c6 df 33 93 f3 8a 2b a0 e2 2c 2c 00 72 bc 29
       1.0420314e-07 9.873095e-13 2.4568472e-12 8.368653e-14
000380 22 6c ec 2b 00 57 f8 2b c2 dc 73 27 f6 39 12 2d
       1.6798821e-12 1.7645607e-12 3.3842697e-15 8.312009e-12
000390 9a c3 02 2c a7 27 35 24 d6 cb 70 33 30 73 11 2b
       1.8582692e-12 3.9281705e-17 5.6064742e-08 5.1674203e-13
0003a0 98 f7 b4 2b 15 32 1c 29 09 e9 78 2b 43 d6 81 2b
       1.285849e-12 3.4682398e-14 8.84307e-13 9.225471e-13
0003b0 fe 65 09 27 db 04 99 2c a1 d6 88 2b dd 91 bd 23
       1.906786e-15 4.3490606e-12 9.722953e-13 2.0553197e-17
0003c0 64 4d 0c 34 24 be 7c 2b a7 16 1d 2c 91 70 63 29
       1.306667e-07 8.979226e-13 2.2323616e-12 5.050176e-14
0003d0 51 7c d6 2b 3e 63 e1 2b 74 b6 5b 27 f7 c3 04 2d
       1.5240119e-12 1.6014757e-12 3.0491263e-15 7.546844e-12
0003e0 17 74 ed 2b 8d 7a 24 24 1b 9a 7d 34 5c d6 22 2c
       1.6872084e-12 3.5665636e-17 2.3618524e-07 2.3140578e-12
0003f0 f6 52 ca 2c 86 79 1f 2a 24 e7 8b 2c 4c 1e 91 2c
       5.750396e-12 1.4164199e-13 3.9762794e-12 4.1245115e-12

exp_avg f4 [128]
000000 84 89 97 3a cc cc 0d ba 42 6d 88 39 56 7a ec b7
       0.0011561369 -0.000540924 0.00026021345 -2.819036e-05
000010 c2 03 53 b9 81 f0 80 39 aa af f5 39 8f 24 79 39
       -0.00020123928 0.00024593252 0.0004686092 0.0002376011
000020 2b c2 da b9 91 5f ae 39 6e 44 90 ba f5 b3 31 39
       -0.00041724867 0.0003325907 -0.0011006722 0.00016947075
000030 0e 53 24 ba a8 2a ab 39 46 b2 bd 38 86 0c 37 39
       -0.00062684796 0.00032647443 9.045428e-05 0.00017456905
000040 4f 26 0c b9 93 2e c8 39 af 26 0f 3a 1d 3c cf b9
       -0.00013365711 0.00038181673 0.00054607814 -0.00039526905
000050 bc 8a c6 38 a8 e9 70 b9 d3 f7 79 b9 d8 78 9b b9
       9.467217e-05 -0.00022975227 -0.00023838812 -0.0002965394
000060 94 de 1e ba b9 cd 9d 39 1d 5e 74 ba 78 fd e5 ba
       -0.00060603884 0.0003009865 -0.00093218853 -0.0017546853
000070 1f dd 49 ba 26 11 bd b9 9b b1 ff 38 36 91 2a 3a
       -0.0007700491 -0.00036061666 0.00012192429 0.00065066235
000080 c8 5f e7 39 cd 9f b8 b8 2d cb aa 39 32 56 9b b9
       0.00044131116 -8.803569e-05 0.00032576305 -0.00029628124
000090 e1 a7 61 3a b2 d9 2a b8 2a 0b fc b9 e4 c8 1c 39
       0.0008608085 -4.0733903e-05 -0.00048073503 0.00014952157
0000a0 c7 9f 2a b9 d0 38 27 ba 6c 08 f2 39 90 22 49 3a
       -0.00016271985 -0.000637901 0.00046164112 0.0007672692
0000b0 1b d1 43 ba 2e 09 4e ba 72 61 ac b9 a6 04 38 b9
       -0.0007469819 -0.0007859644 -0.00032879 -0.00017549339
0000c0 07 66 27 b9 3b 01 5e 3a 10 a5 03 b9 32 74 d8 39
       -0.00015964369 0.0008468811 -0.00012554624 0.00041285303
0000d0 7c eb cf 39 43 ce 7e 39 d5 2b 28 ba ef a8 13 39
       0.00039657566 0.00024300166 -0.0006415223 0.00014081945
0000e0 6a 76 5c 39 a6 1d 17 ba 1d 5b 31 ba b0 4a be b9
       0.00021024948 -0.0005764611 -0.0006765591 -0.0003629527
0000f0 44 fe df ba d5 58 43 39 ef 71 1f ba b3 2d ec 39
       -0.0017089327 0.00018629742 -0.0006082346 0.00045047476
000100 62 78 78 39 dc 38 67 39 f3 dc af 39 93 7c 8b ba
       0.00023695969 0.00022051058 0.0003354322 -0.0010641984
000110 3c 77 0c 3a 5a 8b 0d b9 16 b2 5e 39 1e 84 41 38
       0.00053583435 -0.0001349872 0.00021237912 4.613783e-05
000120 1a ab b4 39 f9 cb b7 39 b5 4d c8 39 59 4f 8d 39
       0.00034459756 0.0003505645 0.0003820487 0.00026952734
000130 a2 5f 9a 39 0a b0 6f ba ca f5 1c 38 1d 56 0a 3a
       0.0002944442 -0.00091433583 3.7422207e-05 0.0005277114
000140 ae a9 43 ba f7 8e 69 ba f9 1c e4 39 7a 76 dd b9
       -0.0007463944 -0.0008909548 0.00043509135 -0.00042240677
000150 0b 3d 34 38 62 10 cc b9 aa 5c 94 39 de 03 aa 38
       4.2972195e-05 -0.00038922118 0.000282978 8.106952e-05
000160 79 2e 85 39 49 f7 bf 39 f6 9b 91 39 79 e2 ab 39
       0.00025402362 0.000366146 0.00027772755 0.00032784397
000170 8d d7 9e 39 bb d3 92 39 26 40 fe b8 e5 e7 9f b8
       0.00030296706 0.00028005042 -0.000121236124 -7.6249045e-05
000180 fd 7b 57 ba 44 1d 13 b8 12 e6 57 3a c8 c6 4b b9
       -0.0008220075 -3.5074787e-05 0.0008235882 -0.0001943364
000190 43 95 8d 39 06 28 0c b9 07 73 21 ba 84 46 fd b8
       0.00027004824 -0.0001336635 -0.0006158803 -0.00012077115
0001a0 bf ea 7d ba 02 86 6a 39 3a 6c 97 b9 11 b9 de 37
       -0.0009686164 0.00022365901 -0.000288816 2.655064e-05
0001b0 23 2d 84 39 e1 fd 14 3a 9a 61 44 b9 53 0f 72 ba
       0.0002521063 0.0005683583 -0.00018728376 -0.0009233851
0001c0 ca 97 10 39 15 d4 bb ba 57 17 bd 39 f0 9d 3e 3a
       0.00013789456 -0.0014330173 0.0003606628 0.00072714593
0001d0 d6 37 9f b9 d9 09 21 b7 47 07 5d 39 03 4f 29 ba
       -0.00030368444 -9.598641e-06 0.00021078913 -0.0006458612
0001e0 37 c6 ef b8 a5 7b 1e 38 78 49 ab b8 be c4 d9 b9
       -0.000114333285 3.778529e-05 -8.1676e-05 -0.0004153605
0001f0 49 31 85 ba bd b7 9e b8 5c fb 09 ba 76 50 3f 39
       -0.0010161783 -7.568251e-05 -0.0005263591 0.00018245153
