Foosbots_working/results/train1/Foosbots_working/Foosbots_working-5568.onnx (onnx, 74687 bytes, 7 tensors)

action_model._continuous_distribution.log_sigma f4 [1, 2]
0.0041631595 -0.037542265
00000000: 1d6b 883b ebc5 19bd

action_model._continuous_distribution.mu.bias f4 [2]
-0.02518322 0.016582238
00000000: 0a4d cebc 79d7 873c

action_model._continuous_distribution.mu.weight f4 [2, 128]
-0.011552935 -0.016093241 -0.028508706 -0.028494254 0.029834196 0.014019916 -0.02490824 0.008346356
0.033631966 0.025980297 0.024505543 0.015362058 0.028162282 0.01746938 0.0015555063 0.011801294
-0.013223207 0.033891357 0.015251162 -0.006431297 -0.00096611556 0.004165378 -0.0063038515 0.011258505
-0.0372379 0.007776937 -0.021467688 0.008861256 0.0070269154 -0.009187472 0.0035782915 -0.007865047
-0.0010380151 -0.002928046 0.023264818 -0.041982956 0.030620754 0.040357623 -0.025235247 0.015440151
0.011028111 -0.00082403934 0.03218808 0.01584698 0.022877162 -0.016806899 -0.011447557 0.02295685
-0.0009620922 0.01442583 -0.035265204 0.0017392127 -0.038464002 -0.0017132794 0.019262126 -0.03729163
-0.027419733 0.0017132164 0.002603889 -0.0100720655 -0.021821907 0.01822177 -0.009806507 -0.0005383428
-0.0072086863 -0.02283638 0.021008372 -0.039876483 0.03415267 -0.037660707 0.0302227 0.0020774067
-0.024149213 -0.040310092 0.036397103 -0.016989317 -0.005782864 -0.004589335 -0.020182608 -0.0045767287
-0.03994215 0.017320307 0.0020332208 0.028802425 -0.0018886175 -0.017953657 -0.0011676493 -0.033778433
0.006533002 -0.007271761 0.0071443943 -0.010941824 -0.009930436 -0.00025213687 -0.0010586751 -0.055705372
-0.014924778 -0.0104927085 0.026670882 -0.019496305 -0.019963639 -0.0156032145 -0.027935082 -0.014174458
-0.020956744 -0.022569159 -0.017565949 -0.0015576811 -0.021637153 0.0043692463 0.011515417 -0.017619273
-0.009247742 -0.022778178 0.020658946 0.038957648 0.021164514 0.012457558 -0.001992548 -0.010156759
0.031226726 -0.02474934 0.0022324144 0.006772958 -0.01876933 -0.017399723 0.025210558 0.0025731993
-0.017300209 0.004364439 0.00683521 0.007100317 0.009796226 -0.0013659588 0.010659405 -0.009895733
-0.046841107 -0.02284466 -0.024547176 -0.017644966 -0.006413652 -0.0076138373 0.0035655224 -0.015292828
0.030833852 -0.023780752 -0.016046144 0.022385104 -0.012505879 -0.0022086676 0.00860235 0.016711507
0.021491475 -0.009835699 0.009841091 -0.015290145 -0.024393791 0.03202355 -0.04551325 0.016094685
0.029186377 0.0155043695 -0.013438656 0.013850102 -0.02192973 -0.019600231 -0.031521056 -0.019786663
-0.0133946985 -0.015995989 -0.02744893 -0.019079307 -0.019268982 0.008372025 0.040911853 -0.0024987913
-0.023850992 0.014047377 0.025491223 -0.020175247 0.017801555 -0.01758435 -0.02009568 0.033799257
0.03831186 0.0020441837 0.00089584355 0.011560643 0.023539081 -0.009240714 0.019379515 -0.005707628
0.043126352 -0.006470233 -0.012394796 0.046333812 -0.024655169 -0.008713891 0.003663652 0.001160948
-0.00028682622 -0.005404339 -0.01487625 -0.044858817 0.010603958 0.04504916 -0.054148458 0.046388127
0.002151052 -0.007611707 -0.033420358 -0.0031149597 -0.02542186 0.03760186 0.03283395 -0.020701703
-0.029344028 0.009677163 -0.012639648 0.031196348 -0.01288927 -0.020574786 -0.024325816 -0.003745049
0.01851342 0.052472405 -0.00015171834 0.050155666 -0.0077397535 0.019911198 -0.0182343 0.017399434
0.035761636 0.011398374 -0.0007214886 -0.011609293 -0.0038526077 0.025770575 0.01677482 0.010043298
0.04289201 0.02031092 -0.008475879 0.0030122742 0.004931356 0.016812446 0.0063995556 -0.012668436
-0.008052598 -0.002648303 0.026779845 0.004617035 0.01360721 0.04132861 -0.037157428 -0.028626883
00000000: 8548 3dbc f9d5 83bc 178b e9bc c86c e9bc
00000010: d866 f43c cab3 653c 5e0c ccbc 28bf 083c
00000020: acc1 093d a2d4 d43c d9bf c83c 24b1 7b3c
00000030: 96b4 e63c f21b 8f3c 21e2 cb3a 375a 413c
00000040: 26a6 58bc aad1 0a3d 03e0 793c a1bd d2bb
00000050: eb42 7dba b97d 883b 8a90 cebb 9875 383c
00000060: c586 18bd add5 fe3b 01dd afbc cd2e 113c
00000070: 0a42 e63b 0d87 16bc c581 6a3b 66dc 00bc
00000080: 020e 88ba 76e4 3fbb dc95 be3c 52f6 2bbd
00000090: 60d8 fa3c 094e 253d 26ba cebc b0f8 7c3c
000000a0: 40af 343c 5804 58ba a6d7 033d 87d1 813c
000000b0: e368 bb3c 9fae 89bc 898e 3bbc 0110 bc3c
000000c0: ea34 7cba 515a 6c3c 3f72 10bd 4bf6 e33a
000000d0: 6e8c 1dbd 1e90 e0ba 9bcb 9d3c 1cbf 18bd
000000e0: 599f e0bc 018e e03a 02a6 2a3b 4e05 25bc
000000f0: dbc3 b2bc d245 953c 79ab 20bc 931f 0dba
00000100: d836 ecbb 5c13 bbbc c019 ac3c 8655 23bd
00000110: ace3 0b3d 1d42 1abd 9995 f73c 1a25 083b
00000120: 92d4 c5bc 321c 25bd 2115 153d 2e2d 8bbc
00000130: 2e7e bdbb 2262 96bb ff55 a5bc 62f8 95bb
00000140: 619a 23bd 51e3 8d3c c93f 053b 10f3 eb3c
00000150: 7d8b f7ba 8c13 93bc cf0b 99ba 415b 0abd
00000160: cb12 d63b f447 eebb 861b ea3b 5645 33bc
00000170: 44b3 22bc 3d31 84b9 3ec3 8aba 512b 64bd
00000180: 0e87 74bc 9ce9 2bbc e57c da3c b7b6 9fbc
00000190: c98a a3bc a0a4 7fbc 1dd8 e4bc fc3b 68bc
000001a0: 7aad abbc f5e2 b8bc 77e6 8fbc 1b2b ccba
000001b0: 6640 b1bc e52b 8f3b 29ab 3c3c 4b56 90bc
000001c0: d783 17bc 4d99 babc f33c a93c 0e92 1f3d
000001d0: 3461 ad3c c91a 4c3c 6895 02bb 8968 26bc
000001e0: 31cf ff3c 21bf cabc b34d 123b b1ef dd3b
000001f0: 23c2 99bc dd89 8ebc 5f86 ce3c 1fa3 283b
00000200: 2bb9 8dbc 9103 8f3b e6f9 df3b c7a9 e83b
00000210: 5a80 203c f909 b3ba c9a4 2e3c b621 22bc
00000220: 76dc 3fbd b924 bbbc 2917 c9bc 2d8c 90bc
00000230: 9d29 d2bb 7f7d f9bb 8aab 693b c58e 7abc
00000240: 4697 fc3c dacf c2bc 3473 83bc f760 b73c
00000250: 75e5 4cbc 4bbf 10bb dff0 0c3c 92e6 883c
00000260: e40e b03c e925 21bc 873c 213c 8483 7abc
00000270: 7dd5 c7bc 202b 033d 1a6c 3abd 00d9 833c
00000280: 4518 ef3c 0a06 7e3c cf2d 5cbc 8aeb 623c
00000290: faa5 b3bc aa90 a0bc 391c 01bd a417 a2bc
000002a0: 7075 5bbc 050a 83bc 94dc e0bc 354c 9cbc
000002b0: fcd9 9dbc d12a 093c 3093 273d c3c2 23bb
000002c0: 2863 c3bc f826 663c f8d2 d03c 8f46 a5bc
000002d0: 91d4 913c 0e0d 90bc b29f a4bc 1771 0a3d
000002e0: e6ec 1c3d b6f7 053b 0bd7 6a3a da68 3d3c
000002f0: 08d5 c03c 5d66 17bc cac1 9e3c 0e07 bbbb
00000300: 42a5 303d 4004 d4bb 8b13 4bbc 86c8 3d3d
00000310: a3f9 c9bc b5c4 0ebc e219 703b f32a 983a
00000320: 2a61 96b9 e216 b1bb 84bb 73bc e1bd 37bd
00000330: 39bc 2d3c 7885 383d c6ca 5dbd 7a01 3e3d
00000340: aaf8 0c3b a06b f9bb c9e3 08bd 5a24 4cbb
00000350: 8141 d0bc 6804 1a3d e47c 063d 9e96 a9bc
00000360: e362 f0bc f78c 1e3c 8716 4fbc 7c8f ff3c
00000370: 842d 53bc 748c a8bc ef46 c7bc 7f6f 75bb
00000380: 75a9 973c 4eed 563d 9516 1fb9 0770 4d3d
00000390: c29d fdbb cf1c a33c 1960 95bc 4289 8e3c
000003a0: cb7a 123d 3fc0 3a3c 4822 3dba e734 3ebc
000003b0: 087c 7cbb d01c d33c 596b 893c a58c 243c
000003c0: 88af 2f3d 1663 a63c 6ade 0abc 9369 453b
000003d0: 3697 a13b 41ba 893c 5db3 d13b 468f 4fbc
000003e0: 0bef 03bc 278f 2dbb 6861 db3c 7f4a 973b
000003f0: c6f0 5e3c 3048 293d 6332 18bd ed82 eabc

network_body._body_endoder.seq_layers.0.bias f4 [128]
0.028972259 -0.010444837 0.018746553 0.01940036 -0.016703915 0.021631429 -0.008854933 0.022880064
0.024824651 0.013797369 0.021169428 0.023559736 0.012998265 0.0026582056 0.02133919 0.011745517
0.0025343082 0.01155916 0.020332662 0.01298949 -0.018306939 0.016349945 0.004100208 -0.017631441
-0.015230874 -0.0018292244 0.0055071227 0.02617675 -0.025121568 0.016825173 -0.01802683 -0.013133498
0.0016214884 -0.0050860047 -0.009704349 -0.005096094 -0.020465527 -0.022272253 -0.0044437316 0.023325004
0.014520244 0.008594329 -0.025526023 -0.010207175 -0.015832629 -0.029257644 -0.023233196 0.01661798
0.026731797 0.025554543 -0.023106957 -0.017623043 -0.026232898 -0.0022378631 0.025262026 -0.010704016
-0.018470693 0.017180141 -0.033577736 -0.013475575 -0.020832429 -0.012417906 0.0033914486 0.02781553
0.025053333 0.0044602565 0.013692773 -0.013531031 -0.02762547 0.021800201 0.01488876 -0.016959837
0.01234883 0.018241726 -0.026660595 0.026175374 0.026022756 0.007587493 -0.011954181 0.029821055
-0.026027866 0.008871078 0.021305205 -0.020547064 -0.014457447 0.0119385645 0.020087108 0.028990056
0.014181282 0.03406038 -0.0277519 -0.006210666 -0.012402431 -0.0035975797 0.020713245 -0.023883218
0.024979983 0.0015352194 0.022065269 0.00012972177 0.022886027 -0.013364944 0.023085438 0.014447073
-0.028956397 -0.016707841 -0.0033132916 0.0077907857 0.006068668 -0.014793269 0.018947579 0.021456268
-0.01599045 0.009704224 0.01854054 -0.01969681 -0.020957483 0.022784851 0.018615682 0.023502242
-0.018946415 0.021653967 0.020742195 0.015403375 0.023365967 0.02116896 -0.002914115 -0.017854884
00000000: 3b57 ed3c d220 2bbc 5f92 993c 81ed 9e3c
00000010: a6d6 88bc 6534 b13c 4814 11bc f96e bb3c
00000020: 115d cb3c 5c0e 623c 826b ad3c 5900 c13c
00000030: adf6 543c 4a35 2e3b 86cf ae3c 4570 403c
00000040: a316 263b a262 3d3c af90 a63c dfd1 543c
00000050: 6ff8 95bc 52f0 853c 0a5b 863b d06f 90bc
00000060: ea8a 79bc 96c2 efba 1875 b43b a070 d63c
00000070: bfcb cdbc f2d4 893c 01ad 93bc e22d 57bc
00000080: 1f88 d43a 80a8 a6bb fdfe 1ebc 23fd a6bb
00000090: 52a7 a7bc 4d74 b6bc b99c 91bb 1414 bf3c
000000a0: 51e6 6d3c 3acf 0c3c f31b d1bc ff3b 27bc
000000b0: 6eb3 81bc baad efbc 8b53 bebc 6e22 883c
000000c0: a4fc da3c c357 d13c cd4a bdbc 335e 90bc
000000d0: 60e6 d6bc 1da9 12bb 4ff2 ce3c e65f 2fbc
000000e0: da4f 97bc 5ebd 8c3c cf88 09bd a8c8 5cbc
000000f0: c5a8 aabc 7974 4bbc 1143 5e3b 65dd e33c
00000100: a63c cd3c 5827 923b a757 603c 42b1 5dbc
00000110: cf4e e2bc 5696 b23c fcef 733c 5bef 8abc
00000120: bf52 4a3c ac6f 953c 5267 dabc bd6d d63c
00000130: ad2d d53c 81a0 f83b 78db 43bc 494b f43c
00000140: 6438 d5bc ff57 113c 4188 ae3c 5152 a8bc
00000150: eede 6cbc f899 433c b88d a43c 8e7c ed3c
00000160: 9c58 683c e682 0b3d f457 e3bc d882 cbbb
00000170: 9133 4bbc 5fc5 6bbb d3ae a93c bda6 c3bc
00000180: d2a2 cc3c 6a39 c93a 39c2 b43c ec05 0839
00000190: 7a7b bb3c a3f8 5abc ac1d bd3c 6bb3 6c3c
000001a0: f735 edbc e2de 88bc cf23 59bb d949 ff3b
000001b0: addb c63b 785f 72bc f437 9b3c 0ec5 af3c
000001c0: 67fe 82bc 77fe 1e3c 55e2 973c 345b a1bc
000001d0: 07af abbc 4ca7 ba3c ea7f 983c c687 c03c
000001e0: 8335 9bbc a963 b13c 89eb a93c 705e 7c3c
000001f0: fc69 bf3c 876a ad3c bdfa 3ebb 6844 92bc

network_body._body_endoder.seq_layers.0.weight f4 [128, 10]
0.47193545 -0.15358196 -0.56041604 0.099991284 0.013206628 0.1469926 0.20624322 -0.03829116
-0.15444039 -0.2287543 -0.5248821 -0.3119923 -0.28223848 -0.54969853 0.012915632 0.062112637
0.25651214 -0.15263997 -0.4354291 -0.15782128 0.15839574 -0.034576695 -0.2450646 0.25904945
-0.34433976 0.13103403 0.23525152 0.4904208 0.307915 0.29582217 0.4501267 -0.23459706
-0.36485782 -0.10875119 0.42973542 0.19038409 -0.21418293 -0.07848092 0.17879343 0.49486163
-0.09962231 -0.38600293 -0.14877687 -0.08686845 -0.50597835 -0.41544688 0.038847033 -0.028238405
-0.41718534 0.35790843 0.288505 0.11942364 0.22707258 -0.33783004 -0.090344824 -0.4699455
-0.3850435 -0.23017205 0.060531337 -0.16520314 -0.29894468 -0.46863374 -0.079312205 -0.16144808
0.13374877 0.08178265 -0.18695964 -0.11266674 -0.45177388 -0.12213423 0.5688807 -0.3156788
0.3706837 -0.3807757 0.12110999 0.02408643 -0.06261894 -0.12375928 -0.4075248 0.4346723
0.11421618 -0.19308724 0.27164608 -0.036148883 -0.09348017 0.1123245 -0.18608168 0.5399575
0.0110521875 0.8598011 0.08962502 -0.07125892 0.0006041288 0.47544664 0.06408566 -0.05876465
0.25565812 0.19028406 -0.32151973 0.15844366 0.09626149 -0.24790375 0.50632066 -0.17871207
0.16658007 -0.11382161 0.22369035 0.54878336 0.19004536 -0.2944237 -0.013521373 0.7579752
0.16124311 0.00030358124 -0.48686662 -0.06619834 -0.22301237 -0.03412274 0.047231548 0.24018605
0.5680301 -0.3634127 0.31094867 -0.548003 -0.12621942 0.14215553 0.43902972 -0.42162254
0.072297186 0.091437764 -0.28769982 -0.4231288 0.062317573 0.8465693 0.19852844 0.36533722
-0.010677353 0.0857565 -0.11682919 0.31265995 0.19865842 0.060354926 -0.061555367 0.3484103
-0.15303327 -0.14741848 0.2410613 -0.06291974 -0.6765029 0.06713542 0.18990645 -0.034160957
0.03147978 0.044283148 0.13252914 -0.3198656 -0.27613866 0.06377353 0.082327455 0.40017414
0.18457323 -0.22038247 -0.33490375 0.26363167 -0.6665348 -0.24890517 0.41527495 0.33138946
0.027821057 0.34357446 0.31357527 -0.14971817 -0.20927262 0.26728627 0.14027311 0.24304302
0.3967037 0.16005276 0.039585687 0.131506 0.24342605 -0.3257547 -0.27801374 0.061629806
0.49890512 0.005187722 -0.10488955 0.36410257 0.11193586 0.19911999 -0.057773877 -0.07637452
0.29387745 -0.29314464 0.4157519 0.071627975 0.009445152 -0.5470846 0.073769994 0.1947762
-0.0060824985 0.170296 0.12884773 0.18290247 -0.43175068 -0.6568828 0.53444767 0.2638558
-0.8577632 -0.5679154 -0.685323 -0.13907489 0.08507692 -0.22059713 0.5979867 0.037265673
0.111847304 0.24414429 0.8283896 -0.11465114 -0.3481257 -0.34641305 0.3565806 -0.08368951
0.46099198 -0.12706457 0.041934095 -0.47257853 0.08861746 0.2171779 -0.30632243 0.27634254
-0.14931646 -0.39377046 -0.021552026 0.4594792 0.20807526 -0.23687238 -0.34086314 -0.3307403
-0.16243693 -0.03230692 0.008993783 -0.19297025 -0.083152734 -0.48152924 0.46374974 -0.32218364
-0.32686785 -0.37257424 -0.29092368 0.09623138 -0.18604672 -0.5407707 -0.58484286 -0.02636022
00000000: 86a1 f13e 9744 1dbe 6d77 0fbf 3bc8 cc3d
00000010: 9d60 583c 3a85 163e 6c31 533e 31d7 1cbd
00000020: 9f25 1ebe 913e 6abe ac5e 06bf 74bd 9fbe
00000030: 9081 90be 0bb9 0cbf 169c 533c d269 7e3d
00000040: 8f55 833e a74d 1cbe 90f0 debe e79b 21be
00000050: 7e32 223e 4ba0 0dbd 37f2 7abe 21a2 843e
00000060: 4d4d b0be c92d 063e c6e5 703e 6f18 fb3e
00000070: 09a7 9d3e 0176 973e 0277 e63e 363a 70be
00000080: a5ce babe f2b8 debd 4806 dc3e 0cf4 423e
00000090: c552 5bbe 9bba a0bd a015 373e 815e fd3e
000000a0: c806 ccbd 2da2 c5be f758 18be 16e8 b1bd
000000b0: cc87 01bf 74b5 d4be 111e 1f3d 3a54 e7bc
000000c0: 5199 d5be c63f b73e edb6 933e 6294 f43d
000000d0: b785 683e 0ff8 acbe b506 b9bd b29c f0be
000000e0: 6c24 c5be 39b2 6bbe b5ef 773d 032b 29be
000000f0: 470f 99be c3f0 efbe 706e a2bd a552 25be
00000100: 70f5 083e a97d a73d 5972 3fbe d2bd e6bd
00000110: e84e e7be 8321 fabd 2aa2 113f a7a0 a1be
00000120: 41ca bd3e 08f5 c2be 8408 f83d e850 c53c
00000130: 5c3e 80bd 8175 fdbd 17a7 d0be 5e8d de3e
00000140: 2cea e93d a9b8 45be 3215 8b3e da10 14bd
00000150: 8872 bfbd 630a e63d 328c 3ebe a83a 0a3f
00000160: 3c14 353c ed1b 5c3f 538d b73d 32f0 91bd
00000170: 665e 1e3a be6d f33e 583f 833d 34b3 70bd
00000180: 9fe5 823e d3d9 423e 3c9e a4be 0e3f 223e
00000190: be24 c53d 7bda 7dbe 3b9e 013f 4c00 37be
000001a0: f793 2a3e 4e1b e9bd 150f 653e 117d 0c3f
000001b0: 409b 423e b4be 96be c088 5dbc aa0a 423f
000001c0: ea1c 253e fc29 9f39 9546 f9be ff92 87bd
000001d0: 5b5d 64be 49c4 0bbd de75 413d 55f3 753e
000001e0: 6c6a 113f 3b11 babe aa34 9f3e ed49 0cbf
000001f0: aa3f 01be 3891 113e 81c8 e03e e9de d7be
00000200: 8c10 943d b943 bb3d 644d 93be 57a4 d8be
00000210: b640 7f3d c4b8 583f 0a4b 4b3e 7b0d bb3e
00000220: 10f0 2ebc 1ba1 af3d 2444 efbd f714 a03e
00000230: 1d6d 4b3e ba36 773d 7b21 7cbd d662 b23e
00000240: c1b4 1cbe dff4 16be c6d8 763e 11dc 80bd
00000250: 4b2f 2dbf 4c7e 893d d676 423e 5cec 0bbd
00000260: f1f0 003d 3f62 353d b8b5 073e 6dc5 a3be
00000270: 0c62 8dbe b29b 823d 4c9b a83d a0e3 cc3e
00000280: c400 3d3e f1ab 61be 8178 abbe bbfa 863e
00000290: 06a2 2abf ffe0 7ebe eb9e d43e e1ab a93e
000002a0: fce8 e33c fee8 af3e f08c a03e b84f 19be
000002b0: 904b 56be bfd9 883e c1a3 0f3e 45e0 783e
000002c0: bf1c cb3e dfe4 233e 9a24 223d 82a9 063e
000002d0: ae44 793e 52c9 a6be d157 8ebe 896f 7c3d
000002e0: 7e70 ff3e c4fd a93b 55d0 d6bd a76b ba3e
000002f0: a13e e53d 1ce6 4b3e 4da4 6cbd 3f6a 9cbd
00000300: 1b77 963e 0e17 96be 6fdd d43e b0b1 923d
00000310: d7bf 1a3c bd0d 0cbf b914 973d 6a73 473e
00000320: b24f c7bb 1362 2e3e a9f0 033e c94a 3b3e
00000330: 6d0e ddbe 7929 28bf 90d1 083f 1b18 873e
00000340: 5e96 5bbf e762 11bf 5471 2fbf a669 0ebe
00000350: cf3c ae3d 37e4 61be a815 193f e4a3 183d
00000360: 3310 e53d f600 7a3e 5711 543f 38ce eabd
00000370: 883d b2be 0d5d b1be bb91 b63e 6865 abbd
00000380: 2407 ec3e 371d 02be 16c3 2b3d d0f5 f1be
00000390: 127d b53d e263 5e3e 4bd6 9cbe c57c 8d3e
000003a0: 6ae6 18be 489c c9be e08d b0bc dc40 eb3e
000003b0: ae11 553e ac8e 72be 9d85 aebe cb56 a9be
000003c0: de55 26be 4354 04bd a95a 133c fe99 45be
000003d0: fb4b aabd 008b f6be 9b70 ed3e 41f5 a4be
000003e0: 395b a7be 0dc2 bebe f3f3 94be f514 c53d
000003f0: 0883 3ebe f36f 0abf 43b8 15bf 63f1 d7bc

network_body._body_endoder.seq_layers.2.bias f4 [128]
-0.008670292 0.023200465 0.024080016 0.0219526 -0.014469588 -0.015492689 0.023153724 -0.022237692
-0.028889645 -0.028078334 -0.032373574 -0.026701462 -0.023722919 -0.022924848 0.0033345087 -0.029703237
0.020733163 -0.031194855 -0.026512515 0.019784426 -0.0159479 -0.0020160798 0.016345486 -0.00089140015
0.027458753 -0.022704145 0.032388143 -0.02514302 -0.022866163 0.021927416 -0.019861763 0.022449356
0.015911164 0.014957513 -0.02642237 0.024329199 -0.027161047 -0.03101811 -0.0029562467 -0.03231071
-0.027684739 -0.0060019842 -0.02857132 -0.030658422 -0.029515225 0.020508556 0.023225533 -0.020280719
-0.008615539 -0.0068985014 0.028597942 -0.018632898 0.026070774 -0.008049622 -0.0289754 0.029443765
0.028906405 -0.009563357 -0.013614024 0.023130296 0.028440552 -0.024934279 0.012653568 -0.006169079
0.020824706 0.011286695 -0.029851276 0.030701023 -0.027947929 0.018834874 -0.019520292 -0.011043615
0.026670057 0.016969055 -0.027228346 -0.007234639 0.02079333 0.017347382 -0.0054553635 0.016010405
0.020526245 -0.023603216 -0.018517496 -0.021570668 -0.016921248 0.025040237 0.015551243 0.009092253
-0.021975728 0.014276712 -0.023990849 0.021402484 -0.008534375 -0.016418176 -0.0177819 0.019874599
0.026162095 0.018445449 -0.03018834 0.025360864 0.010843008 0.027820313 0.01086932 0.025708593
0.019898815 0.023681467 0.01399604 -0.01348657 0.0142548 0.0071288585 -0.008121502 0.025492983
0.020949177 0.02825471 -0.023801168 -0.020368112 -0.015937578 -0.001031749 0.015055348 0.0026455657
-0.024496362 0.015349275 0.004083384 -0.012095629 0.024437465 0.025502989 -0.03003368 -0.019007748
00000000: d70d 0ebc e70e be3c 7443 c53c f0d5 b33c
00000010: da11 6dbc 0cd5 7dbc e1ac bd3c d22b b6bc
00000020: faa9 ecbc 8904 e6bc 279a 04bd 06bd dabc
00000030: 9156 c2bc e4cc bbbc c687 5a3b 3454 f3bc
00000040: 98d8 a93c 5a8c ffbc c630 d9bc f312 a23c
00000050: 2ca5 82bc 3520 04bb f8e6 853c daac 69ba
00000060: 2ef1 e03c 0bfe b9bc 6ea9 043d bcf8 cdbc
00000070: d251 bbbc 20a1 b33c 23b5 a2bc b6e7 b73c
00000080: 2158 823c 5b10 753c ba73 d8bc 074e c73c
00000090: d880 debc b119 febc 97bd 41bb 3c58 04bd
000000a0: 1bcb e2bc 4bac c4bb 670e eabc 5f27 fbbc
000000b0: eac9 f1bc 8f01 a83c 7943 be3c c023 a6bc
000000c0: 3128 0dbc d30c e2bb 3b46 ea3c 05a4 98bc
000000d0: 6092 d53c 90e2 03bc d15d edbc 0d34 f13c
000000e0: 20cd ec3c a0af 1cbc 5b0d 5fbc bf7b bd3c
000000f0: 29fc e83c f942 ccbc e950 4f3c fc25 cabb
00000100: 9398 aa3c d4eb 383c aa8a f4bc b680 fb3c
00000110: 0ef3 e4bc 984b 9a3c 05e9 9fbc 47f0 34bc
00000120: 2a7b da3c b002 8b3c fb0d dfbc 8d10 edbb
00000130: c656 aa3c 191c 8e3c e8c2 b2bb 4128 833c
00000140: a826 a83c 885b c1bc 01b2 97bc f8b4 b0bc
00000150: 6e9e 8abc 2f21 cd3c a4ca 7e3c acf7 143c
00000160: 7106 b4bc dfe8 693c 7588 c4bc 4354 af3c
00000170: c3d3 0bbc 697f 86bc 59ab 91bc 0ed0 a23c
00000180: e451 d63c e91a 973c 8a4d f7bc 96c1 cf3c
00000190: dfa6 313c 6de7 e33c 3b15 323c d49a d23c
000001a0: d702 a33c a3ff c13c a64f 653c c6f6 5cbc
000001b0: f78c 693c 3399 e93b 0c10 05bc a9d6 d03c
000001c0: 9c9d ab3c 6c76 e73c abfa c2bc 07db a6bc
000001d0: 868f 82bc c03b 87ba b5aa 763c 3a61 2d3b
000001e0: 98ac c8bc 877b 7b3c e8cd 853b bf2c 46bc
000001f0: 1431 c83c a5eb d03c 3109 f6bc 23b6 9bbc

network_body._body_endoder.seq_layers.2.weight f4 [128, 128]
-0.18772374 0.22324114 -0.011288444 -0.17652494 0.02761365 0.11646989 0.13209267 -0.063276105
-0.080684714 0.034258645 0.006464849 0.07037594 0.15556411 0.040161636 0.05824351 0.08104697
0.10792074 0.13117905 -0.13640249 0.18293937 0.0019632785 -0.15202996 0.04591801 0.12288437
-0.036272544 -0.005795518 -0.037108894 -0.023076713 -0.005320705 0.023670008 0.00079431146 0.052183762
-0.09749319 -0.067988165 -0.059171706 -0.028157689 -0.14329073 0.037656408 0.047270417 0.098906025
0.025539454 0.040500965 -0.032841858 0.05495172 -0.035433277 -0.10798556 0.079499595 -0.092607975
-0.009621722 0.025110181 0.13756107 -0.11524672 -0.04581844 0.11804553 0.050784808 -0.08092243
0.09551014 0.10178315 -0.0424815 -0.11732796 0.024451002 -0.0021742943 0.042043146 -0.08489357
0.035563357 0.08103468 0.05274211 0.13614793 -0.0067044892 -0.02571325 -0.024511278 -0.11631276
0.1732983 -0.056878228 0.119823 0.055346664 -0.1386288 0.09373756 -0.039327685 -0.060763996
-0.17159766 0.032652803 -0.114364825 0.07393417 -0.03385298 -0.028268047 -0.074218646 0.023038592
-0.027282422 -0.07296617 -0.06597346 -0.1155821 -0.022612482 0.07088374 0.086715266 0.18087286
0.056066588 -0.17108986 0.15346779 0.07021 -0.07492261 0.07388189 -0.12159592 0.04347406
0.055789854 -0.090382524 -0.08225897 -0.1615142 0.034800358 0.14148155 -0.10115133 -0.03154265
0.112086624 -0.022232564 0.012956331 -0.044695556 0.09043295 0.033168476 -0.006899662 -0.048377402
0.028811844 -0.05786129 -0.18576148 0.04155032 0.11682305 -0.06414237 0.016789872 -0.006371299
0.06805926 -0.15816289 0.12439811 0.10926332 0.059523106 0.03352899 0.063074835 0.06352149
0.13817994 -0.02503443 -0.08983355 0.02353048 -0.05829238 0.075336084 0.005614219 0.051523503
0.02981626 -0.08471763 -0.037467632 0.117597006 0.015128127 0.12243534 0.028044946 -0.0023462544
-0.005354396 -0.045960978 0.045892134 0.03724092 -0.0034373978 0.02291458 -0.08788904 0.026540603
-0.22341678 -0.08934699 -0.10202064 -0.008164511 -0.07115102 0.14147349 0.18493785 0.14487198
-0.10868873 0.032746337 0.024727078 -0.12181074 0.05301961 0.039401785 -0.14790937 -0.009186074
-0.040335342 0.06299448 -0.07443191 -0.067011535 0.09272778 0.13059092 0.09584543 -0.093050994
0.030097764 -0.103102244 -0.055252627 -0.16752821 0.06251737 0.07567171 -0.038893715 0.06513509
-0.041138425 -0.036790986 0.05875153 0.063836604 -0.08889404 -0.10002922 0.052383143 -0.04965038
-0.024132684 -0.105752915 -0.021008886 -0.09409817 -0.023843126 -0.09790868 0.039606966 -0.11400329
-0.05380901 0.06176812 -0.06107133 -0.07010145 0.07099775 0.15617819 -0.025683783 -0.038301498
-0.028042559 -0.0726547 0.014357382 -0.046218444 0.00038729046 -0.03218581 -0.009477402 0.13686949
-0.012265811 -0.0074848556 0.008065987 0.030154107 -0.09073155 -0.014412665 0.14757599 0.11560652
-0.041359283 -0.09044509 -0.07787993 0.06713933 -0.11304015 0.120109014 -0.1993803 -0.030403657
-0.106632 0.05456908 -0.018587323 -0.11632766 0.043069553 0.13008957 -0.07174393 -0.03598772
-0.04833187 0.0247429 0.017478222 -0.0043329378 0.032874264 0.03918614 0.06072639 0.15431567
00000000: a73a 40be 5399 643e 2af3 38bc f4c2 34be
00000010: 0536 e23c c487 ee3d 4d43 073e e796 81bd
00000020: 073e a5bd cb52 0c3d 16d7 d33b 4321 903d
00000030: 334c 1f3e 8780 243d bf90 6e3d f4fb a53d
00000040: 8d05 dd3d cd53 063e 18ad 0bbe 7554 3b3e
00000050: 59aa 003b bead 1bbe 8614 3c3d cdaa fb3d
00000060: 8592 14bd 54e8 bdbb 7fff 17bd 600b bdbc
00000070: 4f59 aebb 9be7 c13c 5739 503a a4be 553d
00000080: 82aa c7bd 613d 8bbd 085e 72bd f4aa e6bc
00000090: ceba 12be 9b3d 1a3d a09e 413d 3e8f ca3d
000000a0: 1e38 d13c 57e4 253d 2f85 06bd 0e15 613d
000000b0: 7c22 11bd 8927 ddbd afd0 a23d 40a9 bdbd
000000c0: 6da4 1dbc deb3 cd3c cfdc 0c3e 7906 ecbd
000000d0: 1eac 3bbd dbc1 f13d bb03 503d a9ba a5bd
000000e0: d29a c33d af73 d03d 1501 2ebd a449 f0bd
000000f0: 784d c83c 9b7e 0ebb 6f35 2c3d aedc adbd
00000100: e2aa 113d 83f5 a53d 1c08 583d 5d6a 0b3e
00000110: 55b1 dbbb 98a4 d2bc e0cb c8bc 6235 eebd
00000120: 1c75 313e 25f9 68bd c365 f53d 2fb3 623d
00000130: b5f4 0dbe 7af9 bf3d 1116 21bd abe3 78bd
00000140: 4cb7 2fbe f2be 053d 1b38 eabd cc6a 973d
00000150: 6ca9 0abd 6492 e7bc f2ff 97bd 6ebb bc3c
00000160: 637f dfbc 4a6f 95bd 181d 87bd 4fb6 ecbd
00000170: d03d b9bc 7f2b 913d c697 b13d bc36 393e
00000180: 14a6 653d 2e32 2fbe a926 1d3e 43ca 8f3d
00000190: 0671 99bd 634f 973d 4807 f9bd db11 323d
000001a0: e783 643d 791a b9bd 6477 a8bd fa63 25be
000001b0: d28a 0e3d 8ae0 103e 6e28 cfbd de32 01bd
000001c0: ac8d e53d 1121 b6bc ca46 543c b012 37bd
000001d0: e934 b93d abdb 073d 8f16 e2bb 6227 46bd
000001e0: d106 ec3c f6ff 6cbd 4238 3ebe ab30 2a3d
000001f0: ec40 ef3d 135d 83bd ea8a 893c 54c6 d0bb
00000200: a762 8b3d 74f5 21be 70c4 fe3d 73c5 df3d
00000210: 80ce 733d b255 093d 612d 813d 8e17 823d
00000220: 0b7f 0d3e 0115 cdbc a7fa b7bd fec2 c03c
00000230: fec3 6ebd ce49 9a3d 7bf7 b73b 4f0a 533d
00000240: 3b41 f43c 7080 adbd a977 19bd b3d6 f03d
00000250: f7db 773c 61bf fa3d 84be e53c 9ec3 19bb
00000260: ee73 afbb 9441 3cbd 64f9 3b3d ef89 183d
00000270: f745 61bb 5bb7 bb3c 2bff b3bd ae6b d93c
00000280: 5ec7 64be 8efb b6bd 33f0 d0bd 71c4 05bc
00000290: a0b7 91bd 6dde 103e 5960 3d3e 5259 143e
000002a0: 3298 debd 0621 063d 7190 ca3c e977 f9bd
000002b0: 172b 593d c463 213d 8e75 17be 3081 16bc
000002c0: ac36 25bd 4003 813d c26f 98bd 583d 89bd
000002d0: 10e8 bd3d a0b9 053e 9c4a c43d 8591 bebd
000002e0: 968f f63c 4527 d3bd 9450 62bd 848c 2bbe
000002f0: 1b09 803d c5f9 9a3d 044f 1fbd 8c65 853d
00000300: c480 28bd 25b2 16bd 72a5 703d c4bc 823d
00000310: 140e b6bd 1fdc ccbd b58f 563d 325e 4bbd
00000320: e8b1 c5bc fc94 d8bd d41a acbc 8bb6 c0bd
00000330: a952 c3bc 5984 c8bd ea3a 223d 8f7a e9bd
00000340: d666 5cbd 9100 7d3d ee25 7abd 5991 8fbd
00000350: 4567 913d 2ded 1f3e cc66 d2bc 08e2 1cbd
00000360: 82b9 e5bc fdcb 94bd 3a3b 6b3c 8d4f 3dbd
00000370: 3f0d cb39 45d5 03bd 1b47 1bbc 8427 0c3e
00000380: 8af6 48bc 8543 f5bb 3427 043c bf05 f73c
00000390: 76d1 b9bd 1923 6cbc 291e 173e 1cc3 ec3d
000003a0: 5a68 29bd 463b b9bd 837f 9fbd 5880 893d
000003b0: 9881 e7bd b7fb f53d 592a 4cbe 1711 f9bc
000003c0: e161 dabd d483 5f3d 7144 98bc 323d eebd
000003d0: b369 303d 3336 053e 7bee 92bd dc67 13bd
000003e0: a4f7 45bd 9fb1 ca3c 7d2e 8f3c 51fb 8dbb
000003f0: 2aa7 063d a581 203d 3cbc 783d ed04 1e3e
