Foosbots_working/results/foosballTraining/Foosbots_working/Foosbots_working-11008.onnx (onnx, 74687 bytes, 7 tensors)

action_model._continuous_distribution.log_sigma f4 [1, 2]
00000000: ba78 bebd 3064 ab3c
-0.093003705 0.020921797

action_model._continuous_distribution.mu.bias f4 [2]
00000000: 1533 24bc 1f99 16bd
-0.0100219445 -0.03676712

action_model._continuous_distribution.mu.weight f4 [2, 128]
00000000: 9302 60bd 8732 f63d f900 c93d 7931 d93d
00000010: df28 02be cea0 4dbd f2fe ecbd 4a72 07be
00000020: c898 a63d 3435 e73d ec78 d9bd d34a dbbd
00000030: 2397 b8bd 166a c63d 613b d0bd 9211 c33d
00000040: a47d e6bd 7258 ba3d 7fb0 9b3d d49c d53d
00000050: ff03 cf3d c874 99bd a7d1 fb3d 0c2a e13d
00000060: 9dc1 c3bd 516e af3d 8323 e3bd 408b d1bd
00000070: 39a7 ebbd 89fc d7bd b7a1 00be 5905 9bbd
00000080: 7fd6 913c e8a8 ea3d 254c adbd 94d4 013e
00000090: f6f7 4f3d 5b2e 9f3d 48ff ec3d 1f56 69bd
000000a0: b5ad ffbd 0fc6 f13d e91f e7bd a7c0 dfbd
000000b0: b078 86bd 1846 ac3d f8f8 e4bd 76c3 afbd
000000c0: c85f cd3d 8d79 f33d 8652 91bd 7dc5 d9bd
000000d0: 9744 833d 6190 90bd c049 babd 9afb a03d
000000e0: bad4 8bbd 34e7 02be 5fd8 d43d 5fc3 f23d
000000f0: 13d3 9c3d a66e dfbd 9d58 443d 0e95 e0bd
00000100: 58a4 df3d e92a cc3d e376 c83d 07d6 cabd
00000110: e658 843d 8798 b83d 9387 2d3d 6f8a dbbd
00000120: 6feb a23d 44c7 3d3d 37ff efbd 408b 6ebd
00000130: 9207 f4bd d367 873d dad8 e4bd 3314 913d
00000140: d7e0 bbbd 8ae1 623d 36ac 733d 3de7 b23d
00000150: ed65 bbbd 4639 e5bd 48fb d93d 5174 d5bd
00000160: 3a7d d0bd 5391 e0bd f3b1 b93d 36ec b23d
00000170: 5680 bf3d 9afa f0bd e6ea 543d 987d d5bd
00000180: 6d7b debd 6a97 c7bd 5d2e a53d 4552 e2bd
00000190: d5cb d8bd 6d94 d8bd fd55 9fbd 5926 c0bd
000001a0: 0bf9 28bc 277a c0bd 914b a23d e5c8 a73d
000001b0: 13c2 c6bd 60cf d33d 4de2 a3bd e418 d03d
000001c0: 55a8 81bd d5a0 d8bd 3041 d63d 0f18 c83d
000001d0: 020f b73b 3fcf ddbd 6efc bcbd 6038 86bd
000001e0: 3fe7 af3d b85a 0cbd 9201 ca3d 52f4 8a3d
000001f0: 1ee3 0bbe cc1f dcbd ed8a e0bd d88d b73d
00000200: 405a e9bb 42c9 863c 26ef 303d c03b b63c
00000210: bff8 70bd 3647 c8bd 52df d0bc 0537 003a
00000220: b291 fa3b 06ed 8b3c c746 843c 0175 f8bb
00000230: 03a2 3a3c 581e 0d3c e5e3 3d3b 042a 0f3c
00000240: 9d08 f0bc 797d 453c 1bc0 113c f114 d7bb
00000250: eade 9e3c 44c4 ca3c 8fb2 d23b 1660 ae3c
00000260: a934 c73c bfef 153c d4b3 7d3b c902 d1bc
00000270: 9151 19bc 541a 63bc 892c 14bd 15d9 513c
00000280: b2f5 0bbd d596 b03c a533 99bc 2ca6 863c
00000290: 7d18 533d 434b 893c e1a8 033d 074c 8bbd
000002a0: 8664 b6bc 21d3 6c3c c6bc 12bd 12d7 c5bc
000002b0: 3ec9 10bd 29a0 253c d5c9 5ebd 0948 25bc
000002c0: 2b41 ecb8 3758 803c ae2f c8bc 826c 0cbd
000002d0: 9029 fabb 8fdc 80bd 7927 55bc 332d dbbb
000002e0: 4227 27bd 4b4d 4bbc d6c4 863c 5438 273c
000002f0: 4967 fc3c 7a57 0ebd 3592 d93c da42 c1bc
00000300: 0fdb 003c c754 fe3a 12f6 c33c c1c4 5fbb
00000310: b455 a23c d838 073b 8fb1 063d ac55 43bc
00000320: 82bf 1abb 1892 743d bd05 07bc fc70 52bc
00000330: 8e44 b4bb cb29 d33b 4f57 47bc 52e9 7c39
00000340: 5220 21bd 3613 aa3c 2dbb 4f3d f949 b73c
00000350: ea97 0bbc 5b20 4d3c a433 443d cfc2 bfbc
00000360: a421 d2bc ec31 07bd 9ba4 a43b ba84 103c
00000370: 2fa6 633c 6ede 16bd 65c9 623d 5190 d2bc
00000380: 2db8 b6bc 4e44 04bd a3b2 323c 3702 10bd
00000390: b37e 45bd e4f7 b2bc 6fbb 68bc 9708 cb3b
000003a0: fe65 7cbd 00ec 18bc 239c 85b8 17b6 0dbb
000003b0: b6cd 643c a432 483d bd7d 23bd 25cf 5b3c
000003c0: 44b4 1fbd 95b0 293c 304e 183c 4a7b 523c
000003d0: 10b8 8abb a74c 6bbd fc4b 86bc 900f 563b
000003e0: 3ead be3c cd65 54bd 6102 273d 29e0 af3c
000003f0: 473b 9ebc f17a 91bb 8bbf f63b 22d8 713d
-0.054689955 0.12021356 0.09814639 0.10605139 -0.12710904 -0.050202183 -0.115720645 -0.13227192
0.081346095 0.112894446 -0.10618767 -0.10707631 -0.09013202 0.09688203 -0.10167576 0.09524836
-0.11254433 0.09098901 0.07602023 0.10430303 0.10108184 -0.074929774 0.122958474 0.10994348
-0.09558413 0.08565963 -0.11090758 -0.10231638 -0.115065046 -0.10546214 -0.1256169 -0.07569379
0.017802475 0.114579976 -0.08461789 0.12678748 0.050773583 0.077725135 0.115721285 -0.056966897
-0.12484304 0.11805355 -0.11285383 -0.109254174 -0.06565988 0.08411807 -0.111802995 -0.08582203
0.100280344 0.11888418 -0.07095818 -0.10633371 0.06409567 -0.07058788 -0.09096098 0.07860489
-0.06827684 -0.1278351 0.10392832 0.1185367 0.07657447 -0.109097764 0.04793607 -0.1096593
0.10920018 0.09969122 0.09788301 -0.09904104 0.064622685 0.09013467 0.04236562 -0.107197635
0.07955062 0.046332613 -0.117186 -0.058238268 -0.119155064 0.066116 -0.11174174 0.07083931
-0.09173744 0.055390872 0.059490405 0.087355115 -0.091503 -0.11192565 0.10643631 -0.10422576
-0.10180135 -0.109652184 0.09067144 0.0873646 0.0935065 -0.117665485 0.05198183 -0.10424346
-0.10863385 -0.09745677 0.08065484 -0.11050848 -0.10585753 -0.10575185 -0.07780073 -0.09382314
-0.010313283 -0.09398299 0.079245694 0.081926145 -0.097049855 0.10342288 -0.08002148 0.101609975
-0.06330935 -0.10577551 0.10461652 0.09770214 0.005586506 -0.10830545 -0.09227835 -0.065537214
0.085890286 -0.034266204 0.09863581 0.06784882 -0.13660857 -0.10748252 -0.10963998 0.089626014
-0.0071213543 0.01645339 0.04319682 0.022245288 -0.058830973 -0.097792074 -0.025497112 0.0004891011
0.0076467628 0.017080795 0.01614703 -0.0075823073 0.011391166 0.008613192 0.0028974947 0.008738045
-0.029300982 0.012053841 0.008895899 -0.0065637757 0.019393403 0.02475179 0.0064299772 0.021286052
0.024317103 0.009151398 0.0038711922 -0.025514023 -0.009357826 -0.013861258 -0.036175285 0.012808104
-0.03416986 0.021556297 -0.018701384 0.016436659 0.051537026 0.01675952 0.032143477 -0.068016104
-0.02226473 0.014454634 -0.03582456 -0.024150405 -0.03534817 0.010108986 -0.0543917 -0.010087975
-0.000112654954 0.015667064 -0.024436798 -0.03428317 -0.007634349 -0.06292068 -0.013009899 -0.006688738
-0.040808924 -0.012408565 0.01645128 0.010206301 0.030810969 -0.034751393 0.026558975 -0.023591448
0.007864728 0.0019403928 0.023921046 -0.0034144374 0.019816257 0.0020633247 0.032884177 -0.011922281
-0.0023612683 0.05970964 -0.008241114 -0.01284432 -0.0055013364 0.006444191 -0.012166812 0.00024119511
-0.039337464 0.020761114 0.050715614 0.02237414 -0.008520106 0.012519921 0.04790081 -0.023408322
-0.025650807 -0.033006594 0.0050245053 0.008820707 0.013894602 -0.03683322 0.055367846 -0.025703581
-0.022304619 -0.032291703 0.010906848 -0.035158362 -0.048216533 -0.02184672 -0.014204844 0.0061960923
-0.061620705 -0.009333611 -6.371017e-05 -0.0021623427 0.013965061 0.04887642 -0.039914835 0.013416086
-0.038990274 0.010357042 0.009295985 0.012846777 -0.0042333677 -0.05744615 -0.016393654 0.0032663085
0.023275968 -0.051854897 0.040773753 0.021469193 -0.019315375 -0.0044397046 0.007530158 0.05904401

network_body._body_endoder.seq_layers.0.bias f4 [128]
00000000: 764d 8a3c 9f76 203d c7dc d5bc 7e77 7dbd
00000010: b4bd 1dbd e3b1 3a3d 1713 143d 56a3 3d3d
00000020: cff5 e6bb 0063 143c 0077 2dbd 566a e4bc
00000030: a03f 323d 7d5a 2c3d e615 f4bc 9e5a 223d
00000040: 778a 653d bffb 20bc 3f7c b3bc 34c7 3c3d
00000050: e11e c83c 9b72 b2bc d08c e1bc 984d bdbb
00000060: 5699 fabc 8e31 183d 1462 fb3c 04ec 03bd
00000070: bf9f 113d 8f90 423d 30f0 a6bb 7c0e 803d
00000080: 082a f4bc fe50 853b 1b21 733b 808e 11bd
00000090: b862 37bd 1fc0 0e3d 03ab 4e3c 0e63 ffbc
000000a0: 7570 4cbd b239 c2bc 4790 ce3c 4b0d 463d
000000b0: 3ea3 003d 1b0e 283d e718 153c 0eb2 a23c
000000c0: 6081 b6bc 681b 423d 042c 03bd a4ad 153d
000000d0: 121c 003d 0585 d53c 3a36 cb3c 0a10 46bd
000000e0: 7dc8 f1bc 363a 623d e873 633c d288 babc
000000f0: a3f8 483d 8e4a 123c f116 d2bc 95bf 613d
00000100: 435d bd3c 40da 403d b85e 2bbc 7a8f 553d
00000110: 013f 6c3d e4e3 23bd bed5 373d ed67 7f3c
00000120: 2dad 243d 642c babc b9fc bc3c 267f 773d
00000130: 5f27 c23c 0c8a 403d 1579 693d 5745 033d
00000140: 2248 293b c4b9 83bc deea 31bd f353 d43c
00000150: ae44 3f3d fea6 71ba 5c5d 1dbc 5f59 e5bb
00000160: dc84 953c 201d 573d 613b 323d de70 0d3d
00000170: 0e44 ec3c 9a7b f63c d6f2 d23b 1ff5 e73c
00000180: 63ef 24bd aa55 3a3d 3c71 223d f80f aabb
00000190: 1871 363c 9837 86bb 7c24 c63c 815f d8bc
000001a0: 4e25 23bd 2b45 153d 8733 5dbd 26ab 4c3d
000001b0: 4b46 e6bb b7d1 153c 92b6 08bd aaf8 50bd
000001c0: 88ac c9bc 32ac b0bc 67c6 b6bb bc2e 843c
000001d0: 97e7 88bc 35c6 4d3b 890d 993b e9d1 11bd
000001e0: 22bb c7bc 1b9b 4b3d 3bc6 2e3c a201 86bd
000001f0: 3c3b 5c3d a116 adbc 7c92 91bc 8f88 debc
0.01688264 0.039175626 -0.026106251 -0.061881535 -0.038510993 0.045579802 0.036151018 0.046298347
-0.0070483456 0.009056807 -0.042349815 -0.027882736 0.04351771 0.042078484 -0.029795598 0.0396372
0.056040253 -0.009825646 -0.021909831 0.046088412 0.024428787 -0.021783164 -0.027532965 -0.005777072
-0.030590694 0.037156634 0.030686416 -0.032207504 0.035552736 0.047501143 -0.0050945505 0.06252763
-0.029805198 0.004068493 0.003709859 -0.03553629 -0.04477188 0.03485119 0.012614015 -0.031175163
-0.049911935 -0.023709152 0.025215281 0.04835252 0.03140568 0.041029077 0.009100175 0.019860294
-0.022278488 0.047389418 -0.0320244 0.03654255 0.03127677 0.026064405 0.02480613 -0.04835514
-0.029514546 0.055231296 0.013882615 -0.02277032 0.049065243 0.008928908 -0.025645705 0.055114347
0.02311576 0.04708314 -0.010459594 0.052138783 0.057677273 -0.040012255 0.044881575 0.015588743
0.040204216 -0.022726245 0.023069726 0.060423993 0.023700414 0.04700665 0.05700024 0.03204855
0.0025830348 -0.01607979 -0.043436877 0.025918936 0.046696357 -0.0009218304 -0.009604778 -0.0069991793
0.018251829 0.05251801 0.04351366 0.034531467 0.028841045 0.030088235 0.0064376397 0.028315125
-0.04026736 0.045491852 0.03965877 -0.005189892 0.011135362 -0.0040959828 0.024187319 -0.026412727
-0.0398305 0.036442917 -0.05400422 0.049967907 -0.0070274225 0.009144238 -0.033377238 -0.051018395
-0.024618402 -0.021566484 -0.0055778506 0.016135566 -0.016711993 0.0031398658 0.004670803 -0.035600577
-0.024381224 0.049708467 0.010667379 -0.0654328 0.053767428 -0.021128954 -0.017770045 -0.027164726

network_body._body_endoder.seq_layers.0.weight f4 [128, 10]
00000000: ce33 5abe 8749 c7be 07c2 27bf 8beb a63e
00000010: 76f5 c33e 7d13 993e efd2 cd3e df04 57be
00000020: f61d c9be 0b07 2dbe 2204 31be 088e 603f
00000030: ac39 7abe 4fb7 8bbc cc09 b43e c335 0d3f
00000040: 1f1e aabe 8495 953e 1bbf 60be 5710 1bbc
00000050: 5647 d03e 4f5d e33e 8685 9ebe 28ce a8be
00000060: df69 19be 9678 f43e bc0e 08bf 1da4 95bd
00000070: 88e8 9fbe 92d3 c33e e940 8c3e ce06 ca3c
00000080: 6b45 eebe 2466 213d 2b28 f7bd 2dc1 00bd
00000090: 85a6 583e d333 053e a2ce 113f 3d4e 0e3f
000000a0: f087 ab3e 57e5 cabd 3406 a43d 072c e13d
000000b0: b990 a13e f150 97be c9f3 f83d a4f0 3dbe
000000c0: 3a67 103f 7b81 183e 3506 0bbf 5cae 5cbe
000000d0: 2234 1b3e f617 e53d 02e6 1d3c af50 15bf
000000e0: 375e fcbe deff c7be b959 86be 40fc a0be
000000f0: 3e62 54be 3d97 16bf ead2 3bbe a85e 753e
00000100: 0588 163d e69d 41be 258f f5bb 2a62 1f3f
00000110: 3900 abbe a2c0 7abe b526 adbe 9799 5bbe
00000120: 9d2a 17be fb61 b7be 86b5 f63c 2a7a 9e3d
00000130: 68be 5c3d 043d b93c e1f2 893e 53e5 633e
00000140: cdf8 35bd c8f0 2c3e 9f6d 1e3e 7327 ba3e
00000150: 4a1c bb3e 25cf 01be e05f dc3e 0a41 e53e
00000160: e013 d8be 7e0c 1cbe 337a 4cbe 1044 d6bd
00000170: a345 d8be be49 74be f059 62be 26b9 9bbe
00000180: ea3c 203f 237b b2bc c575 aebe b59a 4bbe
00000190: 807c e93e 3937 2b3f 54fd a4bd e981 4a3d
000001a0: 4b2c 343d f7ce 8c3d 5f66 783d e0f0 46be
000001b0: 4f75 b43e b02c 613e a0a9 063f dbbe d43e
000001c0: 2739 a53e d426 83be def2 043d f489 833e
000001d0: f40d 5f3e e0ae 633e d81e 33be c93a b53d
000001e0: 684b b5be 15ff 29be 5591 5bbe aaba f23e
000001f0: 9753 b63e f52c e83e 519a a63e 4e55 cf3e
00000200: f822 a2be 20b1 ffbe 4411 76be 5467 81bf
00000210: 581f 823d 1090 15be bbea 99be 8e8a c83c
00000220: d0c3 b3be 3e02 c4bd 6e8c efbd 5bcc 49be
00000230: b353 e53e 394d 11be b4ff 173f c546 dabc
00000240: 3109 12bf f26b fc3d 99a6 79bd cc1f 52be
00000250: 949c 19bf 5de8 5bbe cd3a d2be 3c01 183f
00000260: c4e9 b43e 347f db3e 3a64 68be e4fb f0be
00000270: cd98 6b3c 75fe 613f 7231 e13e b5c8 09bf
00000280: 50a3 13bf b002 703e b0dc a13e ce43 09bf
00000290: 81d0 e03d d007 803f 6692 d3bd db3d 943e
000002a0: e9e4 9c3e ab17 543e 97a7 eebd df98 ff3e
000002b0: f07c 87bd ced7 233f 5746 a73e f421 16bf
000002c0: 3de9 d5bc b8c0 78be ff9b 3dbf ab82 dbbd
000002d0: e37b 263f b585 3dbc 726f bbbe 17ea 3a3d
000002e0: 7519 4d3b 53bd b83e 6177 de3d 98b4 8c3d
000002f0: c33c 3fbe 109d 99be c8e9 e0be e07f 29bc
00000300: 6dd6 3abe 2b3e 103f 7d05 64be 3cbb 6f3e
00000310: 6fb8 4ebe abfa 853e 425c 35bd 83a4 9ebd
00000320: 901e b5be b1ab adbe b43e 45bc abb5 db3c
00000330: 2978 313e c8c1 ccbe 6e16 69bd 7c44 54be
00000340: 3b43 0f3e 1e65 103e c343 963e ba81 b23e
00000350: 8ab6 03be d6e9 15be 1fcd edbe 3957 21be
00000360: 59f6 1abd 5334 07bf 2a97 04bf 2f62 a93e
00000370: b73d e23e 7f5e 13bf 2851 5d3e cf94 e9bd
00000380: c2d2 f73c a095 80bb 03f0 37bd 700a d8be
00000390: c69b a9be 58fa f53e 96a6 813e 82bb 21bf
000003a0: 2230 41bd f9e0 52be 6cd7 333e cf22 563e
000003b0: 1511 e4be 8279 6dbe 5290 b5bd 23f4 23be
000003c0: dd23 043f e61a a03d 4412 a23e d339 e63d
000003d0: 9fa7 12be 59ba 873d e314 73be 9b07 a2be
000003e0: fca3 c5be a19b 95be 652f 1cbf 6e7e 6cbc
000003f0: 0c16 643e eb7f 4c3f c44a 98bd f835 17be
-0.21308824 -0.38923284 -0.6553044 0.3260158 0.3827321 0.2989768 0.40199992 -0.20997952
-0.3928067 -0.16897218 -0.17286733 0.8771672 -0.24436063 -0.017055182 0.35163724 0.5516016
-0.33226106 0.29215634 -0.21947901 -0.009464345 0.40679425 0.44407126 -0.30961245 -0.32969785
-0.14981793 0.4774825 -0.5314748 -0.07306693 -0.31232095 0.38247353 0.27393273 0.024661448
-0.46537337 0.03940405 -0.12068208 -0.031434227 0.21157272 0.1300805 0.5695592 0.5558813
0.3350215 -0.09907024 0.08008996 0.10994726 0.31555727 -0.2955394 0.12155873 -0.18548828
0.5640751 0.14893143 -0.54306346 -0.21550888 0.15156606 0.11186211 0.009637358 -0.5832624
-0.4929063 -0.390624 -0.26240328 -0.3144245 -0.20740601 -0.5882452 -0.18342176 0.2396189
0.036750812 -0.1890789 -0.007493871 0.6225916 -0.33398607 -0.24487546 -0.33818594 -0.21445309
-0.1476235 -0.3581694 0.030115854 0.07738145 0.053892523 0.022612102 0.26943114 0.22255449
-0.044426728 0.16888726 0.15471505 0.36358222 0.3654502 -0.12676676 0.43041897 0.44776183
-0.42202663 -0.1523914 -0.1996849 -0.10462201 -0.4224063 -0.23856255 -0.22104621 -0.30414695
0.6259295 -0.021787232 -0.34074226 -0.19883235 0.45602798 0.6688114 -0.08056131 0.0494403
0.043987554 0.06875413 0.060644504 -0.19427824 0.3524575 0.21989703 0.5260258 0.4155186
0.32270166 -0.2561556 0.03245818 0.25691187 0.21782666 0.22234678 -0.17492235 0.08849103
-0.35409093 -0.16601212 -0.21442159 0.47408038 0.3561065 0.453468 0.3253961 0.4049477
-0.31667304 -0.49939823 -0.24030024 -1.0109658 0.063536346 -0.14605737 -0.30061898 0.02448013
-0.3511033 -0.0957074 -0.11696707 -0.19706862 0.4479042 -0.14189614 0.59374547 -0.026645074
-0.57045275 0.123252764 -0.060949896 -0.20519942 -0.60004544 -0.21475358 -0.41060486 0.59376884
0.353346 0.42870486 -0.22694483 -0.47067177 0.014379692 0.88278896 0.43983036 -0.5382188
-0.5767107 0.23438525 0.31613684 -0.53619087 0.10977269 1.0002384 -0.10330658 0.28953442
0.30643395 0.20712154 -0.11653059 0.4992132 -0.06615627 0.64001167 0.32670853 -0.5864556
-0.026112193 -0.24292266 -0.74066156 -0.10718282 0.65032786 -0.011567523 -0.36608464 0.0456334
0.003129569 0.36081943 0.108626135 0.06870383 -0.18675523 -0.30002642 -0.4392836 -0.010345429
-0.1824586 0.5634486 -0.22267719 0.23411268 -0.20187543 0.26167807 -0.044277437 -0.07746222
-0.3537488 -0.33920053 -0.012038875 0.026820024 0.17330994 -0.39991593 -0.056906156 -0.2072925
0.1399049 0.14101073 0.29348573 0.348646 -0.12862602 -0.14639983 -0.46445557 -0.15755929
-0.03783259 -0.52814215 -0.5179316 0.3308272 0.4418771 -0.57566065 0.2161299 -0.11405336
0.030251864 -0.0039240867 -0.044906627 -0.42195463 -0.33126658 0.4804256 0.25322407 -0.6317674
-0.047165044 -0.20593633 0.17562646 0.20911716 -0.44544283 -0.23190883 -0.088654175 -0.160111
0.51617223 0.078176305 0.3165456 0.11241498 -0.14321755 0.0662734 -0.23738436 -0.31646428
-0.38601673 -0.29220298 -0.6100982 -0.01443444 0.22274035 0.7988269 -0.074361354 -0.14766681

network_body._body_endoder.seq_layers.2.bias f4 [128]
00000000: 4eb0 823c 152f 0f3b ed9f d7bc 2c4a b23b
00000010: d23a 543d dcac 933d ac91 ce3c a263 7f3c
00000020: 2da0 5cbc b050 343b 615a d03b 666e ce3c
00000030: 6340 6fba a911 dabb f31d 753c 2fdd 403a
00000040: 89a5 cc3c 20a2 b73b 017a 7cbc 4a09 8bba
00000050: 5716 0d3b 9129 a5bb 24ec e6b9 2d71 f73a
00000060: 6f21 c43a e36f 043c c5a2 5a3c 8cd0 093d
00000070: 3c06 a33c d326 9f3c 638c 493d 4605 d2bb
00000080: 1323 963c 0301 55bc 56c9 113d f7f9 4ebb
00000090: 3f25 39bd 25f2 85bc 2069 b5bb c4e2 533d
000000a0: 1c0b 413d 817b 4b3b d2a5 1e3d 79a5 d83c
000000b0: 20aa 4a3d 1abe d73b cd1b 553d 4b15 a83c
000000c0: e25f abbb 62da 163b 6b33 173d c65e 1f3d
000000d0: 76b7 9b3c 5011 853d eab6 083d 237b bd3c
000000e0: 7aff 0c3d c293 9c3c 2417 483b 1cd5 ca3a
000000f0: 4420 cfbc 42b4 e33c 827f adbc e4e1 753c
00000100: d950 e93a 1142 efbb 8c83 aebc 1ce8 813c
00000110: e8ec e0bc b305 2f3c a395 e2bc 70be b23c
00000120: 19cc 573c deec 30bd 18d6 b43c b880 a93c
00000130: 9e73 ba3c 7823 833c 870f a63c 8f58 c73b
00000140: aabe 803d b83b e0bc 6975 1ebd cf49 17bc
00000150: 6139 f43c 1568 be3b 162c 93bc c750 e23c
00000160: 5f6d 023d f441 113d 5698 953c c89e bfbb
00000170: c911 003c 7ff2 d83c 1d9d 46bd f4cb 013d
00000180: 33a2 a33c 32d7 db3c 78fb 80bc 8934 c13c
00000190: 1d94 893d 120d e43c 5237 d93c 00f8 2f3c
000001a0: b5ba a93d 004c 343c 42ab 2f3b 7d52 533c
000001b0: 0b97 a13a ce03 91bc d1ab 073d 6e1f edbb
000001c0: de6c 2d3d d5e4 6c3c b4f7 733b a291 e73a
000001d0: b9cb 0e3a dc44 423d 5c80 593c 670e 233b
000001e0: 30a9 1fbb 938a 7b3d f8b6 8dbc 868d c8bb
000001f0: 42e8 cb3c 39aa 993c 260d a33c c37d fcbc
0.01595321 0.0021848131 -0.026321376 0.005440971 0.051813908 0.07210705 0.025215946 0.015587719
-0.013465923 0.0027513914 0.0063584303 0.025199126 -0.0009126721 -0.0066549373 0.014960754 0.00073571777
0.024981277 0.0056040436 -0.015409947 -0.0010607627 0.0021528208 -0.0050403555 -0.00044044957 0.0018878334
0.0014963577 0.0080833165 0.013344471 0.03364615 0.019900434 0.019427693 0.04920615 -0.00640932
0.018327272 -0.0130007295 0.0355924 -0.0031582096 -0.045201536 -0.016350815 -0.0055362135 0.051729932
0.047129735 0.0031048956 0.038732357 0.026446091 0.04947865 0.006583941 0.052028466 0.020517966
-0.005229936 0.002301835 0.03691427 0.038908742 0.01900838 0.06497443 0.033377565 0.023130005
0.03442333 0.019113425 0.003053137 0.0015474888 -0.02528394 0.027795915 -0.021178965 0.01500747
0.0017800584 -0.007301577 -0.02130296 0.015857749 -0.027456716 0.010682511 -0.027659243 0.021819323
0.013171219 -0.043194644 0.022074744 0.02069126 0.022760209 0.016008124 0.020271076 0.006083555
0.06286366 -0.027372226 -0.03868619 -0.009233906 0.029812517 0.0058107474 -0.017965358 0.027626408
0.031842586 0.03546329 0.018261116 -0.0058477856 0.00781674 0.026482819 -0.04848968 0.031688645
0.019974804 0.026836012 -0.01574491 0.023584621 0.067177035 0.027838264 0.026515637 0.01074028
0.08287565 0.011004448 0.0026804958 0.012898085 0.001232834 -0.01770201 0.03312284 -0.0072364127
0.042340152 0.014458855 0.00372265 0.0017667303 0.0005447227 0.04742895 0.013275232 0.002488041
-0.0024362318 0.06141145 -0.01729916 -0.0061203865 0.024891023 0.018757926 0.01990373 -0.030821687

network_body._body_endoder.seq_layers.2.weight f4 [128, 128]
00000000: 91c5 343e 8371 b93d 51c4 e7bd 7d11 dfbd
00000010: 8a5d 2abe 2a2d eebd 1780 9f3d fdad 9dbd
00000020: 6a02 b83d 5c97 7f3d b2fa 60bb 8b5a a4bd
00000030: 5d11 db3d f366 143d 8dda c7bd 07f9 3dbc
00000040: 942d 013e 6d3b ad3c 7b89 1ebb c926 2b3d
00000050: 8261 b93d e058 243e 86e8 acbd 1ada c83d
00000060: 0008 90be c495 3f3b 2fe1 003e fa38 e23d
00000070: 68e2 253e d843 9abd e979 523d 32e4 513c
00000080: ee2a 4cbd 73d8 15bd 2d9f c3bd bfd7 25be
00000090: a2f8 ae3b 8079 ba3c c260 e7bc d64b e2bc
000000a0: b5e8 e53c 16b5 59bd c6c8 30bc bdba eabc
000000b0: dbf2 0c3e 26a9 b43d 0c3d 48bd f774 ac3c
000000c0: b4b6 b73c c91d 943d da3f 49bd 0b9b cdbc
000000d0: 3c08 403d fd62 d0bb 679f c03a 0c74 b7bb
000000e0: 9f6c 683d 19fc 5c3d f74d 26be fa2d c83d
000000f0: e61e 0fbd 06d6 3a3b 7068 733d f108 503e
00000100: 5a9c 163d e840 f43c 140c 313b 937b 5bbd
00000110: d3c9 2d3e 60df 26be 66ec b53d 76f8 f43d
00000120: 3a2f adbc d9b9 88bd 5deb bbbc 7960 a2bc
00000130: 81c8 063c 704c e9bd 8e5b 163d 94c6 1bbc
00000140: 79fb 673d fbc1 14be e2e8 0f3d 02ec aa3d
00000150: 7fe9 9e3d cbc1 e43b 0148 c93c 0197 d4bd
00000160: 6c2f 663d c046 823d 01b1 1bbb 78e2 1dbd
00000170: 1315 b13d 0299 ae3d 1a35 e13d c718 1d3e
00000180: 79d6 40bd 7d18 d13d 0aff cc3d 63c4 32be
00000190: d678 3ebd 5ef2 dfbd 3ed7 2d3d 8f0d 80bd
000001a0: b149 aa3d 9a43 28bd 170f 26be 9909 6ebd
000001b0: 8971 8ebc 78ee a7bc 8b00 af3d 60da a8bd
000001c0: fbe9 4abc 82ce 623d 9ede c0bc be1f d6bd
000001d0: 269f 52be ee31 d33d db62 de3c f313 173d
000001e0: 8470 1b3c b869 04be 31d6 f43d a9f4 003e
000001f0: ad64 bbbd 9013 0ebe 72d2 22be e94f 61bd
00000200: 78a6 c7bd 991b 5abd 5b92 973d e84a 723d
00000210: d236 423e 6e08 09be ea3d 12b5 9a6d c4bd
00000220: 8a5b 64be 5f2a 0ebd edb6 223d 95ed 81bc
00000230: a284 85be a7a7 2c3d 159b c2bd 1cb6 e43d
00000240: 8b4a 25be e19d b3bc 5da7 033c b72e 993d
00000250: c511 b1bd 7a83 1d3d a2c0 82bc 608f 6b3e
00000260: 38dd ac3d f7b4 d2bc d432 a1bd 8e2f e2bd
00000270: 9fd8 25be 5bb0 72bc fda2 783e b326 25bc
00000280: 29c4 213e a73f e83d c425 8dbd 72b2 f13d
00000290: f41e 12ba 2f5d 8abd 2218 8bbd 80d4 2c3e
000002a0: a9ad 66bd fb38 833c c3a3 11be c624 dabd
000002b0: ce84 0abe 1312 8cbb 2193 3f3d 8dd0 7cbe
000002c0: 97aa 123e 7967 7c3e 3e29 343d cb3a a9bd
000002d0: fb29 f13c cbb9 7cbe fa72 4bbd e4a4 853d
000002e0: 5396 a83d 5194 17be 9ab4 4bbe 1ec1 f33c
000002f0: 4c86 24be c1e5 0d3a a0c9 c23d 9a86 d8bd
00000300: e59a a53d 66d3 92bd 54bd ef3d a481 bd3d
00000310: aed5 5abd 4937 083e 7808 1a3c a71a 1abe
00000320: b40c 363e 658c ee3d 4faf cabd 5327 10be
00000330: 531a dcbd ae7a 1abe 450b dabd a066 2cbe
00000340: 1816 483d 3c35 61bc c1e5 843e 0cb3 39be
00000350: 829c 603d 5bf4 603e d4d3 8b3b bb22 5d3d
00000360: 3fbb 0fbd daa0 c6bd f879 86bb 1251 87bd
00000370: 9b61 58be 27f7 c2bd dbd7 03be 3b29 7bbe
00000380: ac94 8dbd 095a 21be ba58 22be c690 a63c
00000390: a35f 733d 1d3f 8d3d b2a9 28be d27c d23d
000003a0: b2ee 8abd f226 04be 6199 7c3e 336c 0abd
000003b0: 8b6d 91bd 8144 143e b997 62bc 71b9 683d
000003c0: ff73 2c3e dbcd 413e 86b2 413e 8b6b 34be
000003d0: 5f74 923d a759 fa3c 7b16 11be 6ac3 e23d
000003e0: 0f25 843d df53 58bc d6cb 67bd 321b 0d3e
000003f0: ba4e 7fbe 305d f33d 9938 5b3e b83e 8c3d
0.1765349 0.09054854 -0.11316741 -0.108920075 -0.16637245 -0.11629708 0.07788103 -0.07699201
0.089848354 0.062400207 -0.0034329114 -0.08025082 0.10696671 0.036230993 -0.09758482 -0.011595017
0.12615043 0.0211465 -0.0024190831 0.041785035 0.09051801 0.16049528 -0.08442788 0.098072246
-0.28131104 0.0029233554 0.125859 0.11046024 0.16199648 -0.075324714 0.051385794 0.012810754
-0.04984563 -0.036583375 -0.09551845 -0.16195582 0.005339698 0.022763014 -0.02824438 -0.027624052
0.028065065 -0.053151213 -0.010790056 -0.028653497 0.13764517 0.08821325 -0.048886344 0.021051867
0.022425987 0.072322436 -0.04913316 -0.025098344 0.046882853 -0.0063594566 0.0014695943 -0.0055985507
0.056744214 0.053951357 -0.16240679 0.09774394 -0.034941576 0.0028508916 0.05942577 0.20315911
0.036770202 0.029816106 0.0027015256 -0.053584646 0.16971521 -0.16296148 0.0888298 0.11961453
-0.021140683 -0.066760726 -0.022939378 -0.019821392 0.008226515 -0.113915324 0.036708407 -0.009507794
0.056636307 -0.14527123 0.035134204 0.08345796 0.077593796 0.0069811097 0.024570467 -0.10380364
0.05619757 0.06361151 -0.0023756626 -0.038546056 0.08646598 0.08525278 0.109964564 0.15341483
-0.047079537 0.10209749 0.10009582 -0.17457728 -0.046501957 -0.109349 0.0424416 -0.06252586
0.08314837 -0.041080095 -0.16216694 -0.05811462 -0.017388122 -0.020499453 0.085450254 -0.08244777
-0.012384887 0.055372722 -0.023543652 -0.10455273 -0.20568523 0.10312258 0.027146747 0.03688426
0.009487275 -0.12930954 0.11954916 0.1259333 -0.09150062 -0.1387465 -0.15900591 -0.05500785
-0.09748548 -0.053248975 0.07400962 0.059153467 0.18966225 -0.13382122 -5.4479335e-07 -0.09591217
-0.22300544 -0.034708377 0.039725233 -0.015860358 -0.26077753 0.042152073 -0.09502236 0.11167547
-0.16141717 -0.021925868 0.008035508 0.07479613 -0.086459674 0.038455464 -0.015960995 0.23003912
0.08440632 -0.025721056 -0.07871023 -0.110442266 -0.16195916 -0.014812554 0.24280925 -0.010080027
0.15797485 0.11340266 -0.06891969 0.11801614 -0.00055740704 -0.067560546 -0.06791712 0.16877937
-0.05631796 0.016018381 -0.14222626 -0.10651545 -0.13527223 -0.0042746156 0.046771172 -0.24688931
0.14322887 0.24648847 0.043984644 -0.08263167 0.029438963 -0.2468025 -0.049670197 0.06525591
0.08231797 -0.14802672 -0.19893113 0.029755171 -0.16066855 0.0005412959 0.09511113 -0.10572548
0.080861844 -0.07169227 0.11706033 0.092532426 -0.053426437 0.1330234 0.009401433 -0.1504923
0.17778283 0.11647872 -0.09896719 -0.14077501 -0.107472084 -0.15085861 -0.10646681 -0.16836023
0.048849195 -0.013745602 0.25956538 -0.18134707 0.054836757 0.21968214 0.0042671952 0.0539882
-0.03509068 -0.09698649 -0.0041038953 -0.0660726 -0.21130984 -0.09519797 -0.12875311 -0.24527447
-0.069131225 -0.15757002 -0.15854159 0.020332705 0.05941738 0.068968035 -0.16470984 0.10277714
-0.06783809 -0.12905481 0.24667884 -0.033794593 -0.07100972 0.14479257 -0.013830119 0.056817476
0.16841124 0.18926184 0.18915758 -0.1761915 0.07151102 0.030560328 -0.14168732 0.110724285
0.06452381 -0.01320359 -0.056590877 0.13779905 -0.24932376 0.118830085 0.21408309 0.068479
