Foosbots_working/results/foosballTraining/Foosbots_working/Foosbots_working-1600.onnx (onnx, 74687 bytes, 7 tensors)

action_model._continuous_distribution.log_sigma f4 [1, 2]
0	0xbc9b2422	-0.018938128
1	0x3a65c594	0.0008765098

action_model._continuous_distribution.mu.bias f4 [2]
0	0x3c5be4bd	0.013421235
1	0x3a5b7326	0.00083713455

action_model._continuous_distribution.mu.weight f4 [2, 128]
0	0xbc4de2bf	-0.0125662675
1	0x3c98b3b4	0.018640377
2	0x3b6ef357	0.003646096
3	0xbc3296f9	-0.0109002525
4	0x3c12919f	0.008945852
5	0x3c391aa0	0.011297852
6	0x3b73f8a5	0.003722706
7	0xbbf3c1ee	-0.0074388897
8	0x3cb79f29	0.02241476
9	0x3d0227c8	0.03177622
10	0x3c04e3d4	0.008110959
11	0x3ca61df1	0.020277949
12	0xbb9f9443	-0.004869969
13	0xbca28b54	-0.019841827
14	0xb92113d2	-0.0001536154
15	0xbc9ca5ee	-0.01912209
16	0xbc5b2ba8	-0.013377108
17	0xbbc86f69	-0.0061167968
18	0x3cde850d	0.027163053
19	0xbcf2aedd	-0.029624397
20	0x3c7e8c85	0.015536432
21	0xbac628e0	-0.0015118383
22	0x3c9c7f7c	0.019103758
23	0x3c8d9ab6	0.017285686
24	0xbd2e55c5	-0.042562265
25	0x3c2d3a1d	0.010572937
26	0xbbe5e818	-0.007016193
27	0xbcda07d2	-0.026615057
28	0x3bd3ac64	0.0064597595
29	0x3c3ac988	0.011400588
30	0x3ca1bf0a	0.019744415
31	0x3b95b20e	0.004568345
32	0x3b74782f	0.003730308
33	0x3cc2873a	0.023746122
34	0x3c904cec	0.017614804
35	0xbcfff97c	-0.031246893
36	0x3b1b7f9b	0.0023727182
37	0xba980c29	-0.0011600304
38	0x3c79a98b	0.015238176
39	0xbc63dc28	-0.01390747
40	0x3cadaf5e	0.021201786
41	0x3cdb1760	0.026744545
42	0xb99111e6	-0.0002766989
43	0xbc361fb6	-0.011115959
44	0x3b5d232b	0.0033742886
45	0x3d1c63dc	0.03818117
46	0xbc1cdcfb	-0.00957417
47	0x3b307422	0.002692469
48	0xbcd0e76c	-0.025500976
49	0xb988ac40	-0.00026068278
50	0xbc5d4319	-0.013504767
51	0xbb08895b	-0.0020833823
52	0xbc8d702b	-0.0172654
53	0x3ae1f009	0.0017237674
54	0x3ab22668	0.0013591768
55	0x3d1b7ee7	0.03796282
56	0x3bbf4e6c	0.005838206
57	0x3d181518	0.03712949
58	0x3b9a0221	0.004699961
59	0x3d0a7078	0.033798665
60	0xbd01ab3a	-0.031657435
61	0xb8d1c3f0	-0.00010002393
62	0x3c5667f4	0.013086308
63	0x3c7dea4a	0.015497753
64	0xbc51d74a	-0.012807677
65	0xbc8d5a48	-0.017254964
66	0x3b813df5	0.0039441534
67	0x3b75eac3	0.0037523962
68	0x3c029662	0.007970424
69	0xbbbcfb73	-0.00576728
70	0x3d023950	0.03179294
71	0x3cc48fb2	0.0239943
72	0x3c64766a	0.013944248
73	0xbc981bda	-0.018567968
74	0xbb888226	-0.0041659055
75	0x3cf35535	0.029703716
76	0x3c4cd35f	0.012501567
77	0xbb65e4de	-0.0035079042
78	0x3c0506fe	0.008119343
79	0xbcdbebd4	-0.02684585
80	0x3c991161	0.018685045
81	0xbb6c41d5	-0.003604998
82	0x3bbc6c74	0.0057502333
83	0x3c7c57b1	0.015401767
84	0x3bbd9bb9	0.005786386
85	0x3c1eb8e8	0.00968764
86	0xbca31d58	-0.019911453
87	0x3beff75e	0.0073231896
88	0x3cebf3ea	0.02880283
89	0x3cfb99f3	0.030713057
90	0xbbe820b0	-0.007083975
91	0x3c62359e	0.013806729
92	0x3c5b159a	0.013371849
93	0xbc68f44f	-0.014218404
94	0x3ce8daf8	0.028424725
95	0xbc4d5e79	-0.012534731
96	0xbce30dab	-0.027716478
97	0xbd1b96ca	-0.0379856
98	0x3b9e33d2	0.004827955
99	0x3c173f3f	0.009231388
100	0xb9c03fb5	-0.0003666856
101	0x3c9e701d	0.01934057
102	0xbc23a1ea	-0.009987334
103	0xbc9ac8b4	-0.01889453
104	0x3ceaaadc	0.028645925
105	0x3bb4c6af	0.005516849
106	0xbc8e0018	-0.01733403
107	0x3c838564	0.016054817
108	0x3b15796c	0.0022807969
109	0x3b17389c	0.0023074513
110	0x3a07fa80	0.0005187169
111	0x3b88ea56	0.0041783256
112	0xbc9ef2cb	-0.019402882
113	0xbc8a0f82	-0.016853098
114	0x3bd15f1f	0.006389513
115	0xbc13e8c6	-0.0090276655
116	0x3c1a58e6	0.009420609
117	0xbd54ad33	-0.05192299
118	0x3b7ec6e6	0.0038875877
119	0x3c328a0b	0.01089717
120	0x3c317adf	0.010832517
121	0xbcbeced4	-0.023291983
122	0x3a7568fe	0.00093616534
123	0x3d71ff67	0.05908146
124	0x3bc382f3	0.005966538
125	0xbc861ae4	-0.016370244
126	0xbc1eef6e	-0.009700639
127	0x3c46a7fd	0.012125012
128	0xbb977ebb	-0.0046232617
129	0x3d0175e7	0.03160658
130	0x3bd6b370	0.0065521523
131	0x3d0e46d5	0.03473552
132	0xbc819ce4	-0.015821882
133	0x3c936c29	0.01799591
134	0xbb82242f	-0.0039715986
135	0x3d2ab61f	0.04167759
136	0xbb3342d8	-0.0027353074
137	0xbce74d1c	-0.02823501
138	0x3cb83e56	0.022490662
139	0xbc2371f5	-0.0099759
140	0x3ba42705	0.0050095343
141	0xbbf33c82	-0.0074229846
142	0x3b0fef17	0.0021962577
143	0x3a8dcfce	0.0010819377
144	0x3c82915d	0.015938455
145	0xbb7f0b4e	-0.003891665
146	0xbc91485a	-0.017734695
147	0x3b56e57a	0.0032790587
148	0xbbeb2e18	-0.0071771257
149	0xbb849603	-0.004046203
150	0x3b9dd1b6	0.0048162593
151	0xbcbb7178	-0.022881255
152	0x3c92b716	0.017909568
153	0xbc467c7d	-0.012114641
154	0x3d807e6f	0.06274115
155	0xbbeb5635	-0.0071819075
156	0x3c512d9f	0.012767225
157	0xbcaf4e46	-0.021399628
158	0xbcccdcf4	-0.025007702
159	0xbcaf3198	-0.021385953
160	0x3cbbb625	0.022914002
161	0x3c197ed1	0.009368614
162	0x3bcf373a	0.006323722
163	0x3cb5a193	0.022171771
164	0xbcd09529	-0.02546175
165	0xbc440988	-0.011965163
166	0xbc099022	-0.00839618
167	0x3c8575f8	0.016291603
168	0x3c382e28	0.011241473
169	0x3c8eab4c	0.017415665
170	0x3d1f947d	0.03895997
171	0xbcb39b9c	-0.021924786
172	0x3b40bf28	0.0029410813
173	0xbb95f680	-0.004576504
174	0xbc76b0b3	-0.015056777
175	0xbbda1b84	-0.006656112
176	0x3c8e885b	0.017399004
177	0xbcea9a58	-0.02863805
178	0x3c274184	0.010208491
179	0xbcf0dfef	-0.029403655
180	0x3c826339	0.015916454
181	0xbc51d78c	-0.012807738
182	0x3d153007	0.036422756
183	0x3d01d1b5	0.031694133
184	0xbbbf4ac4	-0.00583777
185	0xbb746b4f	-0.0037295406
186	0xbabdcab1	-0.0014479962
187	0xbc7aca55	-0.015307029
188	0x3ce46cc8	0.027883902
189	0xbc8a06a0	-0.016848862
190	0xbd34865a	-0.04407344
191	0x3d34aaa6	0.044108056
192	0x3ca2810f	0.01983693
193	0x3d0ea4a8	0.034824997
194	0x3d110347	0.035403516
195	0x3d09dc30	0.033657253
196	0x3c53c52d	0.012925428
197	0x3cb2b35f	0.021814046
198	0xbbd97b4b	-0.006637012
199	0xbcc939f3	-0.024563765
200	0xbc721cbb	-0.014777358
201	0x3bc9e4b3	0.0061612963
202	0x3cc13d1f	0.023588715
203	0x3cf4e58c	0.029894613
204	0x3caa1adc	0.02076476
205	0xbccb7d0d	-0.024839902
206	0xba36b753	-0.00069700665
207	0x3ba1a542	0.0049330303
208	0xbc9396b6	-0.0180162
209	0x3a31c6e5	0.0006781652
210	0xbce6dac7	-0.028180493
211	0xbb1740c0	-0.0023079365
212	0x3c3af9d7	0.0114121055
213	0xbc8061c0	-0.01567161
214	0x3c6911d8	0.014225446
215	0x3cef31f8	0.029198632
216	0xbca4b6de	-0.02010673
217	0x3d0fb05a	0.03508029
218	0x3d2cc48f	0.04217964
219	0xbc22471f	-0.009904652
220	0xbd6fb0a8	-0.058518082
221	0x3cf0280d	0.029315973
222	0xbcbfe2f4	-0.02342365
223	0xbc18b468	-0.009320356
224	0xbc2eb4c6	-0.010663217
225	0xbc0b999d	-0.008520511
226	0x3c62c65f	0.013841241
227	0xbce4ad97	-0.027914805
228	0xbc3e8c6f	-0.011630162
229	0xbcae4c36	-0.021276575
230	0x3bcb61e5	0.0062067383
231	0x3c5d521a	0.013508344
232	0x3c3e3d8c	0.011611354
233	0xbcc08b50	-0.02350393
234	0x3c35f4f2	0.011105763
235	0xb9e86e06	-0.00044332462
236	0xbc91e7e2	-0.017810766
237	0xbbb6fc09	-0.005584244
238	0x3cd1a5fc	0.025591843
239	0x3c78dd7a	0.015189523
240	0x3d2ccfc4	0.04219033
241	0x3c25b4b5	0.010113885
242	0x3cf87dd7	0.030333443
243	0x3b8da6bc	0.004322855
244	0x3bf64ed0	0.0075167194
245	0x3b8f2088	0.0043678917
246	0x3c946659	0.01811521
247	0x3d21ea27	0.039529946
248	0xbbe88d93	-0.007096955
249	0xbb73cad0	-0.0037199743
250	0xbd01b8d8	-0.03167042
251	0x3d5361b7	0.05160686
252	0xbace4def	-0.0015739779
253	0xbd48511a	-0.04890547
254	0x3b0ba548	0.0021308232
255	0xbcdb8652	-0.026797447

network_body._body_endoder.seq_layers.0.bias f4 [128]
0	0x3c9a0248	0.018799916
1	0xbb8afb99	-0.0042414186
2	0x3b6a2ad2	0.003573109
3	0xbaf68c79	-0.0018810175
4	0x3c92fa94	0.01794175
5	0xbc391573	-0.011296618
6	0xbc08266a	-0.00830994
7	0xbc01c7f1	-0.007921205
8	0x3c2834c6	0.010266488
9	0x3c7a6090	0.015281811
10	0xbc1827b3	-0.009286809
11	0x3c5b852c	0.01339845
12	0x3c4eedbf	0.012629925
13	0xbc092eba	-0.008372957
14	0x3bce4117	0.0062943804
15	0xbc2c44af	-0.010514422
16	0xbc34f0f6	-0.011043778
17	0x3c0d526a	0.008625606
18	0xbc7ad19d	-0.015308765
19	0x3b04f615	0.0020288278
20	0xbb896530	-0.0041929707
21	0x3b71c929	0.0036893582
22	0xbc9bec42	-0.019033555
23	0x3ca439a1	0.02004701
24	0xbc58279e	-0.013193039
25	0x3c83be22	0.016081873
26	0xbca358fc	-0.019939892
27	0xbc12b95d	-0.008955327
28	0x3c58975e	0.0132196825
29	0xbc4e7897	-0.012601993
30	0x3c5082d1	0.012726502
31	0xbb3f97bd	-0.002923473
32	0xbc3dd128	-0.011585511
33	0x3c6c8cd6	0.014437875
34	0xbbfeeae0	-0.007779464
35	0x3bb2dfa3	0.0054587885
36	0xbb2c3db9	-0.0026281907
37	0x3a58e8f8	0.0008274461
38	0xbc3b3360	-0.011425823
39	0x3c0a428e	0.008438719
40	0x3bc66ee5	0.0060557
41	0xbc33b506	-0.010968452
42	0x3c81f055	0.01586167
43	0xbb8c6546	-0.0042845337
44	0x3c3911b9	0.011295729
45	0x3b42cf76	0.0029725707
46	0x3b7cf220	0.0038596466
47	0xbc8ca182	-0.017166857
48	0xbc23fd13	-0.010009068
49	0x3b6e4998	0.0036359783
50	0xbc19da00	-0.009390354
51	0xbc7bbf97	-0.015365503
52	0xbbd907ac	-0.006623229
53	0x3c2aae5f	0.01041755
54	0x3c601285	0.01367629
55	0x3b2263b6	0.002477867
56	0xbbb37437	-0.0054765004
57	0x3badd320	0.005304709
58	0x3c11f5e3	0.008908722
59	0xbcc421ca	-0.023941893
60	0x3cbb49bb	0.022862306
61	0xbc3b32d5	-0.0114256935
62	0xbbf4d373	-0.007471496
63	0x3c3247cc	0.0108813755
64	0xbc1c2195	-0.009529491
65	0x3c86ecc7	0.016470326
66	0x3c990138	0.018677339
67	0xbad1bbee	-0.0016001442
68	0x3c562ec0	0.0130726695
69	0x3c5d9fb4	0.013526846
70	0xbc4cdfc9	-0.012504526
71	0x3c3c098e	0.011476887
72	0x3b1bef6e	0.0023793834
73	0xbc90fbfc	-0.01769828
74	0xbbb27c2c	-0.0054469313
75	0x3c35dc53	0.011099893
76	0x3c8920cd	0.016739273
77	0xbc45bd93	-0.012069124
78	0x3c857e4b	0.016295573
79	0x3c0141ed	0.007889253
80	0xbcb8f6b4	-0.022578575
81	0xbc86ab1b	-0.016439011
82	0xbba40b30	-0.0050062165
83	0x3c799962	0.015234323
84	0xb8509c7f	-4.9736813e-05
85	0xbc482482	-0.012215735
86	0xbc0730c0	-0.008251369
87	0x3c038176	0.008026471
88	0x3c1687e7	0.009187675
89	0x3ba83727	0.005133528
90	0x3c41c5f6	0.011826983
91	0x3acce484	0.0015632068
92	0x3c939bda	0.018018652
93	0xb7ef75d0	-2.8545881e-05
94	0x3c8842a9	0.016633349
95	0x3cb12114	0.021622218
96	0x3bf15fea	0.00736617
97	0xbc207c85	-0.009795313
98	0x3bb18b39	0.005418208
99	0xbbb19826	-0.005419749
100	0x3c541a87	0.012945778
101	0xbc651856	-0.013982853
102	0xbb9e8ec2	-0.0048387954
103	0x3c83385d	0.016018087
104	0x3c14e8ee	0.009088738
105	0x3c1d9e1a	0.009620214
106	0xbbe7d1cc	-0.0070745703
107	0x3c2adb0b	0.0104282005
108	0xbbc9e036	-0.006160761
109	0xbc2bf374	-0.0104950555
110	0xbbe32495	-0.006931851
111	0xbc7fbea3	-0.015609416
112	0xbbb7df51	-0.005611338
113	0x3c3ce9c0	0.01153034
114	0x3c94e375	0.018174866
115	0xbc8c16c3	-0.017100697
116	0x3c842c36	0.016134363
117	0xbbb1a41b	-0.005421174
118	0x39b4cf0a	0.00034486532
119	0xbb37bf43	-0.0028037585
120	0xbbab2cd5	-0.0052238503
121	0x3c3f22bb	0.011665995
122	0x3b442b21	0.0029932933
123	0xbac626cb	-0.0015117762
124	0x3bb86831	0.005627655
125	0x3b84c070	0.0040512607
126	0xbce0a63c	-0.027423017
127	0xbb2c073b	-0.0026249427

network_body._body_endoder.seq_layers.0.weight f4 [128, 10]
0	0xbe39c8e7	-0.18143044
1	0xbec4f6c6	-0.38469523
2	0x3eaad95e	0.33368963
3	0x3f11c48b	0.56940526
4	0x3e71c1a4	0.23609024
5	0x3eecbf3d	0.46239653
6	0x3dbd1aeb	0.0923365
7	0xbe0b2615	-0.13588746
8	0x3d8a73f0	0.067603946
9	0x3ed60cfd	0.41806784
10	0x3f2d5caa	0.6771952
11	0x3eb14569	0.34623268
12	0xbe08dc91	-0.1336539
13	0x3ebfdbd3	0.374724
14	0x3e1a625e	0.15076587
15	0x3ee9d3f9	0.45669535
16	0xbcc290e8	-0.023750737
17	0xbecc93d6	-0.3995654
18	0xbebc29e4	-0.3675071
19	0xbee734ec	-0.45157564
20	0x3ee12e3d	0.4398059
21	0x3d6e5a26	0.05819144
22	0xbe920c9e	-0.2852525
23	0x3f0951aa	0.53640234
24	0xbe4c31a6	-0.19940814
25	0xbd947145	-0.07248167
26	0x3d802b92	0.062583104
27	0x3d56276f	0.0522837
28	0x3ec552f5	0.38539854
29	0x3e3e49a0	0.18582773
30	0x3e49a310	0.1969111
31	0x3eeed68c	0.4664806
32	0x3e6ecfc2	0.23321441
33	0x3de87017	0.113495044
34	0x3e111a3b	0.14170162
35	0xbdc9bc63	-0.09850385
36	0x3e446c88	0.19182026
37	0xbe79be21	-0.24388935
38	0xbf4372c8	-0.7634702
39	0x3e8bb1e7	0.27284166
40	0xbd059fa2	-0.03262294
41	0x3e950220	0.29103184
42	0x3f07c745	0.53038436
43	0x3f237abc	0.6385915
44	0xbf1d542d	-0.6145657
45	0xbeca01f3	-0.39454612
46	0xbdb61014	-0.088897854
47	0x3ea4d4cb	0.32193598
48	0x3d09052e	0.033452205
49	0x3ed78f5f	0.4210157
50	0x3e212389	0.15736212
51	0x3eb11f8e	0.34594387
52	0xbc92dbdb	-0.0179271
53	0x3b617d66	0.0034407019
54	0xbe41f246	-0.18940076
55	0xbe3f5251	-0.18683745
56	0x3e852803	0.2600709
57	0xbe120de8	-0.14263117
58	0x3d5b1f9c	0.053496942
59	0xbdd0ada8	-0.10189372
60	0xbe0b6559	-0.1361288
61	0xbe8f570e	-0.27996105
62	0xbe9331c0	-0.28748894
63	0xbeac3218	-0.33631968
64	0x3e9d9c24	0.30783188
65	0x3e659158	0.22418725
66	0x3c9c5beb	0.019086799
67	0xbee7fd8e	-0.45310634
68	0xbd3c4db9	-0.04597256
69	0xbbb49085	-0.005510392
70	0x3e518c2a	0.20463625
71	0x3d3681cc	0.044557378
72	0xbe9172b6	-0.2840783
73	0x3cbd7bea	0.023130376
74	0x3e72df37	0.23717962
75	0xbf3e98ff	-0.74452204
76	0xbdda8961	-0.10670734
77	0x3ed777a5	0.4208347
78	0x3d8c08f1	0.06837643
79	0x3f3034d7	0.6883063
80	0xbf0deea7	-0.5544228
81	0xbd86138f	-0.06546699
82	0x3e4e7d0b	0.20164888
83	0xbcd34c60	-0.025793254
84	0x3ddecacb	0.108785234
85	0x3da036e9	0.07822973
86	0x3e9958ac	0.29950464
87	0x3e56947f	0.20955084
88	0xbe396010	-0.18103051
89	0xbe6283c1	-0.22120573
90	0xbf620254	-0.882848
91	0x3e69130c	0.22761172
92	0x3edc1fb9	0.42992952
93	0x3d0c7b16	0.03429707
94	0x3e0187e2	0.12649491
95	0x3f3d3c40	0.7392006
96	0x3e5c48d6	0.2151216
97	0x3edac972	0.42731816
98	0xbd7a0abf	-0.061045405
99	0x3ec32490	0.38113832
100	0x3e7556c5	0.23958881
101	0x3e363afe	0.17795941
102	0xbe2913a5	-0.165114
103	0x3dc4c147	0.09607177
104	0xbf771399	-0.9651428
105	0xbf5cef6d	-0.86302835
106	0x3dc88a40	0.09791994
107	0x3dc65154	0.09683481
108	0xbe18fe99	-0.14940871
109	0xbb072505	-0.002062143
110	0xbe552c73	-0.20817737
111	0xba106646	-0.0005508404
112	0x3de34f86	0.11099152
113	0x3ed96c65	0.4246551
114	0xbe13146c	-0.14363259
115	0x3e745e37	0.23864065
116	0x3ed29a08	0.41133142
117	0x3d844ca8	0.064599335
118	0xbe150afc	-0.14554971
119	0x3ec35b11	0.38155416
120	0x3e0f7227	0.1400839
121	0xbca08f53	-0.019599592
122	0x3e3c5ea2	0.18395475
123	0xbf1cd623	-0.61264247
124	0xbe8b3f68	-0.27196813
125	0x3e81ac38	0.25326705
126	0x3e0e0e05	0.13872536
127	0xbea4c188	-0.32178903
128	0xbe48bd83	-0.19603543
129	0xbe2cb962	-0.16867593
130	0x3ea6a111	0.3254476
131	0xbef21acd	-0.47286072
132	0x3d9f6349	0.07782609
133	0xbe267466	-0.1625534
134	0xbeb471cc	-0.3524307
135	0xbd65d202	-0.056108482
136	0x3ea94659	0.33061484
137	0x3e8464e7	0.25858232
138	0xbf1c6605	-0.6109317
139	0x3d912abd	0.0708823
140	0x3da2342b	0.079201065
141	0xbecdcc44	-0.40194905
142	0x3ed3b300	0.41347504
143	0xbeb0eb47	-0.34554502
144	0x3de70377	0.11279958
145	0x3dac56d2	0.08414997
146	0x3e366c30	0.17814708
147	0xbdb47210	-0.08810818
148	0xbd50a6fe	-0.050940506
149	0x3f2d9543	0.6780588
150	0xbd4467c9	-0.04795054
151	0xbde4489f	-0.11146664
152	0xbc3376c7	-0.010953612
153	0xbd276792	-0.040870257
154	0x3d813e08	0.0631066
155	0xbecc6e19	-0.39927748
156	0xbec06d19	-0.37583235
157	0xbeedf97f	-0.46479413
158	0xbeeb8b0c	-0.46004522
159	0xbe0a3d7f	-0.13500021
160	0x3c19a6fa	0.009378189
161	0xbf147bd2	-0.58001435
162	0xbf163801	-0.58679205
163	0x3df1bdf9	0.118038125
164	0xbef762c2	-0.48317534
165	0xbebc78b9	-0.36810854
166	0xbe5c12ed	-0.21491595
167	0xbdcfa84f	-0.10139524
168	0x3dae49d9	0.08510179
169	0x3d4b58be	0.049645178
170	0xbc7c9a0e	-0.015417589
171	0xbe6c4386	-0.23072633
172	0xbf158c5f	-0.58417314
173	0xbe75959c	-0.23982853
174	0x3e43ef36	0.1913422
175	0x3f0f749d	0.5603731
176	0x3c8f5e17	0.01750092
177	0x3f10feeb	0.56638974
178	0x3ef4959a	0.47770387
179	0xbeb41a85	-0.35176483
180	0x3d34615a	0.044038154
181	0xbe907a5a	-0.28218347
182	0xbf11c3b7	-0.5693926
183	0xbd27ceb2	-0.040968604
184	0xbee54b38	-0.4478395
185	0x3e304067	0.17212068
186	0x3e1050a7	0.14093266
187	0x3e7a19bc	0.2442388
188	0x3e4f1bcf	0.20225452
189	0x3ebbd181	0.36683276
190	0x3e00f60e	0.12593862
191	0x3e9e6739	0.30938128
192	0xbf0bfbbd	-0.54681
193	0x3e6df794	0.23238975
194	0xbc8227e1	-0.015888156
195	0xbe95c4c5	-0.29251686
196	0x3dfdcaa4	0.12392166
197	0xbd835285	-0.06412224
198	0xbea4bc4c	-0.3217491
199	0x3eda5855	0.42645517
200	0x3ed6295a	0.41828424
201	0xbf2498e6	-0.64295805
202	0xbd6854c8	-0.05672148
203	0x3e4c4277	0.1994723
204	0xbe4920ea	-0.19641462
205	0x3e1cc61c	0.15309948
206	0x3e8a0767	0.26958773
207	0xbf30a45f	-0.6900081
208	0xbed5993b	-0.41718468
209	0x3bdcad31	0.006734513
210	0xbeb0e832	-0.3455215
211	0xbe8d0778	-0.2754476
212	0xbe52cd4a	-0.20586124
213	0x3eaf6a23	0.34260663
214	0x3e267d6f	0.16258787
215	0xbe11fa9b	-0.14255755
216	0x3ea64230	0.32472372
217	0x3ef74e2f	0.48301837
218	0x3df60dca	0.12014349
219	0x3e22520c	0.15851611
220	0x3e0d3e75	0.13793357
221	0xbe76062c	-0.24025792
222	0xbd2d77f9	-0.042350743
223	0xbe68e685	-0.22744186
224	0xbecc51f5	-0.39906278
225	0x3d169f6f	0.03677314
226	0x3e71b0c1	0.23602583
227	0xbe4fb113	-0.20282392
228	0xbea4ecfb	-0.32212052
229	0xbe01d6cf	-0.12679599
230	0xbf1b241d	-0.6060198
231	0xbf1a7e3c	-0.6034887
232	0x3ee04862	0.43805224
233	0x3e1e3bf0	0.15452552
234	0xbc725c4a	-0.014792511
235	0x3ebeffa7	0.37304422
236	0x3e0a4b8b	0.1350538
237	0x3db0906c	0.08621296
238	0xbf14aa31	-0.5807219
239	0xbd793967	-0.06084576
240	0x3ef9f8b8	0.4882257
241	0xbd58e25c	-0.052950248
242	0x3dab92c1	0.083776005
243	0x3dfacf9a	0.12246628
244	0xbeb8ead3	-0.36116657
245	0x3c7cd218	0.01543095
246	0xbe8d0075	-0.2753941
247	0x3ee2085b	0.44147
248	0xbdb37ea0	-0.08764386
249	0x3f650653	0.89462775
250	0xbe86c4c5	-0.26321998
251	0x3e5494f3	0.20759945
252	0xbe946949	-0.28986576
253	0x3e31c070	0.17358565
254	0xbe156e75	-0.14592917
255	0xbd2282cc	-0.03967552

network_body._body_endoder.seq_layers.2.bias f4 [128]
0	0xbc844606	-0.016146671
1	0x3be57719	0.007002723
2	0xbb2e1cdf	-0.0026567501
3	0xbbc1fdb7	-0.0059201377
4	0x3c36fb3c	0.011168297
5	0x3a94ae44	0.0011343439
6	0x3b998419	0.0046849367
7	0xbb31a1c1	-0.002710447
8	0x3c6235ac	0.013806742
9	0x3c4f503a	0.012653405
10	0x3957854c	0.00020553655
11	0x3c74cf8d	0.014942062
12	0xbca1cc38	-0.0197507
13	0xbc7a6ce0	-0.015284747
14	0xbbaf85a1	-0.005356506
15	0xbc81f7cb	-0.015865227
16	0xbc400851	-0.011720733
17	0xba3db841	-0.0007237234
18	0x3c3ddcf2	0.011588322
19	0xbc71ad7d	-0.0147508355
20	0x3c6d3b35	0.014479448
21	0x3bb18da7	0.0054184976
22	0x3c4ab200	0.01237154
23	0x3bbd8d8a	0.005784695
24	0xbc53bdcc	-0.012923669
25	0x3c5e824e	0.013580872
26	0xbb293010	-0.0025816
27	0xbc307fb0	-0.010772631
28	0xba5e908e	-0.0008490168
29	0x3c07121f	0.0082440665
30	0x3c26f60e	0.0101905
31	0x3c01028a	0.0078741405
32	0xbb06f3d3	-0.0020592108
33	0x3c509ff6	0.01273345
34	0x3c07a08c	0.008278023
35	0xbc41e432	-0.011834191
36	0xb9c4f74b	-0.0003756828
37	0x3b7fec52	0.003905077
38	0x3c7679cc	0.015043687
39	0xbc43740e	-0.011929525
40	0x3c16552e	0.009175582
41	0x3c178298	0.009247445
42	0xbaf7c69b	-0.0018903794
43	0xbb37cb45	-0.0028044742
44	0x3b0d0174	0.0021515759
45	0x3c62d582	0.01384485
46	0xbb3a0823	-0.0028386198
47	0x3c9d547c	0.019205324
48	0xbc45dac9	-0.012076088
49	0xbaf9d05b	-0.0019059287
50	0xbc5a2b3b	-0.013315971
51	0x3ae0d2fb	0.0017152721
52	0xbc1b39da	-0.009474242
53	0x3c4ebab5	0.012617757
54	0xba1a8c23	-0.0005895516
55	0x3c245953	0.010031062
56	0x3c59e7bf	0.0132998815
57	0x3c32e6b1	0.010919259
58	0x3c229da2	0.009925278
59	0x3c67bc80	0.014144063
60	0xbc4347a2	-0.011918934
61	0xb99f930a	-0.00030436396
62	0x3ba7a449	0.00511602
63	0x3b533b3a	0.0032231347
64	0xbc1ce74b	-0.009576629
65	0xbbfcf74e	-0.0077199107
66	0x38997e01	7.3190786e-05
67	0xbb0c7b81	-0.0021435919
68	0x3b2206c3	0.0024723269
69	0xbbcc4767	-0.0062340978
70	0x3c55cf88	0.013049968
71	0x3c4e74bc	0.012601074
72	0x3c5411c6	0.012943691
73	0xbc3916d6	-0.011296948
74	0xbb880865	-0.0041513913
75	0x3c0ca73a	0.008584792
76	0x3b83040f	0.0039982866
77	0xb98be526	-0.00026682875
78	0x3c8df817	0.017330213
79	0xbc6cbe68	-0.014449693
80	0x3c5b8712	0.0133989025
81	0xbb86380f	-0.004096038
82	0x3ba2b255	0.0049651065
83	0x3c80a59a	0.015703965
84	0xbbbfaf1b	-0.0058497316
85	0x3b936482	0.0044980654
86	0xbc50d5f5	-0.012746324
87	0x3aecca37	0.0018065636
88	0x3c47a7cb	0.012186001
89	0x3c0c910a	0.008579502
90	0xbb94e02a	-0.004543324
91	0x3c700764	0.0146502
92	0x3ba14bf9	0.0049223867
93	0xbc0392f4	-0.008030642
94	0x3c4bd619	0.012441182
95	0xbc4c957a	-0.01248681
96	0xbc39dd81	-0.011344315
97	0xbc679a6f	-0.014135941
98	0xbb83ae7e	-0.004018604
99	0x3bd15d1c	0.0063892733
100	0x3bd4ed15	0.006497989
101	0x3c48e8c3	0.012262526
102	0xbc82fb75	-0.015989045
103	0xbc47bdc4	-0.01219124
104	0x3c54f88f	0.012998714
105	0x3be5a1fc	0.0070078354
106	0xbc628d6e	-0.013827665
107	0x3c166048	0.009178229
108	0x3bc4a307	0.0060008797
109	0x3ca1bcac	0.019743286
110	0xbb4102b9	-0.0029451086
111	0x3b90e759	0.00442211
112	0xbbe3a5f6	-0.0069472743
113	0xbc54229c	-0.012947705
114	0x3aa47835	0.0012548032
115	0xbc8e5719	-0.017375516
116	0x3c370bfe	0.011172293
117	0xbc55f333	-0.0130584715
118	0xbbb69130	-0.005571507
119	0x3b399423	0.0028317056
120	0x3c651871	0.013982878
121	0xbc39f883	-0.011350754
122	0x3b1afad8	0.002364805
123	0x3c28da54	0.01030596
124	0x3c0961b2	0.008385109
125	0xbab9947e	-0.0014158634
126	0xbc98c43d	-0.018648261
127	0x3c117db9	0.008880072

network_body._body_endoder.seq_layers.2.weight f4 [128, 128]
0	0x3d83283f	0.06404161
1	0x3c4b86d5	0.012422283
2	0x3e1a19ca	0.150489
3	0x3da10202	0.07861711
4	0x3aba551e	0.0014216041
5	0xbe39ea9f	-0.18155907
6	0x3db0446e	0.08606802
7	0xbdc31d5d	-0.09527085
8	0x3c88c152	0.016693745
9	0xbd2c57a7	-0.04207578
10	0x3d7de9f0	0.06199068
11	0x3d832b91	0.06404794
12	0x3d69e875	0.057106454
13	0x3a721367	0.00092344586
14	0xbded5842	-0.115890995
15	0x3d2de94c	0.042458817
16	0x3cd92152	0.026505146
17	0x3d973824	0.07383755
18	0xbdbf2cbf	-0.093347065
19	0xbdce7ca1	-0.10082365
20	0x3c6d67de	0.014490096
21	0xbd2ea362	-0.042636283
22	0xbc52cd6e	-0.012866361
23	0x3dfbe02e	0.12298618
24	0xbd4b2410	-0.04959494
25	0x3d528bd1	0.05140287
26	0xbd491b69	-0.049098406
27	0x3d5de04e	0.05416899
28	0xbe3e0f00	-0.1856041
29	0xbdaea91c	-0.08528349
30	0xbe088a7d	-0.13334079
31	0x3cecde29	0.028914528
32	0x3cc6b9a9	0.024258452
33	0xbd0166dd	-0.03159224
34	0xbe259954	-0.16171771
35	0x3ca5b897	0.02022962
36	0xbd0bb166	-0.034104727
37	0x3e2983e6	0.16554222
38	0x3e1b229b	0.1514992
39	0x3e086003	0.13317876
40	0xba845a27	-0.0010097668
41	0xbca858c2	-0.020550136
42	0x3c9c4008	0.019073501
43	0x3ce8986d	0.028392995
44	0xbd54666d	-0.051855493
45	0xbc06c936	-0.008226683
46	0xbd64f828	-0.055900723
47	0x3d32acc2	0.043621786
48	0x3dbe2438	0.09284252
49	0xbc8b6154	-0.017014183
50	0xbb83a37d	-0.004017292
51	0x3dd89257	0.10574787
52	0x3cc7ac8a	0.024374265
53	0xbe017dc3	-0.1264563
54	0xbd9d9f7a	-0.07696433
55	0xbdd54ce0	-0.10415053
56	0xbd5bc084	-0.053650394
57	0x3c5115bb	0.012761529
58	0xbd6e8875	-0.058235604
59	0x3db8071d	0.08985732
60	0x3de3b023	0.1111758
61	0x3be68f52	0.007036128
62	0x3add1e84	0.0016870056
63	0x3e0723a3	0.13197188
64	0x3d790eba	0.06080506
65	0xbd641273	-0.055681657
66	0xbd7662a0	-0.06015265
67	0x3cc606a3	0.024173087
68	0xbc923880	-0.017849207
69	0x3e0a6c7e	0.13517949
70	0xbde81812	-0.11332716
71	0x3d65747e	0.0560193
72	0xbe6aa829	-0.2291571
73	0xbc9f58f7	-0.019451601
74	0xbc7ec902	-0.015550854
75	0xbd359ab3	-0.044336986
76	0xbdb77652	-0.08958115
77	0xbcd2a4b9	-0.025713312
78	0xbcf07a3d	-0.029355163
79	0xbbabcf0e	-0.0052431887
80	0x3d245849	0.040123258
81	0xbd5a09ed	-0.053232122
82	0x3cccf1c7	0.025017632
83	0xbcc87267	-0.024468614
84	0x39a24fec	0.00030958594
85	0xbb3f38ee	-0.002917822
86	0x3db6f436	0.08933298
87	0x3c843202	0.016137127
88	0x3d993422	0.07480647
89	0xbdbebe9a	-0.09313698
90	0x3db571c8	0.08859593
91	0xbc267008	-0.010158546
92	0xbd4d7ea9	-0.05016962
93	0xbd0e84b1	-0.034794513
94	0xbcd14c5d	-0.025549108
95	0x3be8b3bf	0.0071015055
96	0x3dc4f60e	0.09617244
97	0xbd3238e3	-0.043511283
98	0xbd8bd63d	-0.06827972
99	0x3c10c4ed	0.008836013
100	0x3df7f3d1	0.12107051
101	0x3d92391e	0.071398005
102	0xbd1bd15d	-0.03804146
103	0xbdd956d5	-0.10612265
104	0x3ce84ad2	0.02835599
105	0x3c81184d	0.015758658
106	0x3c03ae4b	0.00803716
107	0xbdb91eb8	-0.09039062
108	0x3d885386	0.06656556
109	0xbd527b01	-0.051386837
110	0x3d556ca8	0.052105576
111	0x3da88e2f	0.08230244
112	0x3acfa1d8	0.001584108
113	0xbe9098c3	-0.28241548
114	0x3d94b23c	0.07260558
115	0xbde64bd9	-0.112449355
116	0xbc2aa3cf	-0.010415032
117	0x3d88732b	0.066625915
118	0xbd48e39e	-0.049045198
119	0xbd158201	-0.036500935
120	0xbcfef831	-0.031124206
121	0xbcc8f6c1	-0.024531724
122	0x3b80414b	0.0039140335
123	0x3c9384b1	0.018007608
124	0xbe0256c5	-0.12728412
125	0xbd7f7476	-0.062366925
126	0xbd5377d4	-0.05162795
127	0x3d5afcfa	0.053463914
128	0x3a2a51a5	0.00064971513
129	0x3e180914	0.14847213
130	0x3d6ec56e	0.058293752
131	0x3920b2b5	0.00015325363
132	0xbd9c68cd	-0.07637177
133	0x3e25c252	0.16187409
134	0xbe17386d	-0.14767618
135	0x3bbdd8c7	0.005793664
136	0xbdfd7f98	-0.12377852
137	0xbe1357b1	-0.1438892
138	0xbce634a0	-0.028101265
139	0x3d521168	0.05128613
140	0xbcfbc25f	-0.030732332
141	0x3e342073	0.17590503
142	0xbcb5ca96	-0.022191327
143	0xbdca0047	-0.09863334
144	0x3d923760	0.07139468
145	0xbdb405f5	-0.08790199
146	0xbdd9dcff	-0.10637855
147	0x3e075120	0.1321454
148	0x3c5e82a0	0.013580948
149	0xbdf3dc3a	-0.11907239
150	0x3d8638e7	0.06553822
151	0xbde1d68c	-0.1102725
152	0x3cf72d94	0.0301731
153	0xbb01f3f8	-0.0019829255
154	0x3d9aa751	0.07551444
155	0xbd49fc20	-0.04931271
156	0x3d80cac7	0.06288677
157	0x3e191e06	0.1495286
158	0xbd8cfb7b	-0.068839036
159	0x3c95c06f	0.018280236
160	0xbdf85f69	-0.12127573
161	0x3e3781e4	0.17920643
162	0x3d71a921	0.058999185
163	0x3cd1d7e9	0.02561565
164	0x3e01c705	0.12673576
165	0x3d6798c4	0.056542173
166	0xbdb6988e	-0.08915816
167	0xbc31d1c6	-0.010853237
168	0x3e0a6831	0.13516308
169	0x3dc9a273	0.09845438
170	0xbd0e4efc	-0.034743294
171	0xbd6a3a9a	-0.057184793
172	0x3c802600	0.01564312
173	0x3db2fdc3	0.087398075
174	0x3da6c25c	0.0814254
175	0xbd96c91f	-0.073625796
176	0xbddc9aed	-0.10771737
177	0x3d9e7943	0.077379726
178	0x3ddcb15d	0.10776017
179	0x3c0a6168	0.008446075
180	0xbda8d174	-0.08243075
181	0xbe0eea13	-0.1395648
182	0xbe2d3fa2	-0.16918805
183	0xbdb2110e	-0.08694659
184	0xbca6c68d	-0.020358348
185	0x3d6ad832	0.057335086
186	0x3e06f2e4	0.13178593
187	0x3c34caef	0.011034711
188	0xbe805f69	-0.25072792
189	0xbd9e8f63	-0.077421926
190	0xbd8074ef	-0.06272303
191	0x3e16be11	0.14720942
192	0x3e504bfe	0.20341489
193	0xbd685680	-0.056723118
194	0xbe49c1f5	-0.19702895
195	0x3bee3618	0.007269632
196	0x3cd7114f	0.02625337
197	0xbd6952a4	-0.056963578
198	0x3da973ac	0.08274016
199	0x3d009c31	0.031398956
200	0x3dd7baa1	0.105336435
201	0xbd1e465d	-0.038641322
202	0x3d8fe536	0.070261404
203	0xbe30a309	-0.17249693
204	0xbd9f7f8f	-0.07788002
205	0xbdcc27a0	-0.09968495
206	0x3d3d9258	0.046282142
207	0xbdeb6929	-0.11494667
208	0xbce85ee0	-0.028365552
209	0xbd6ca403	-0.0577736
210	0x3d80cb55	0.062887825
211	0x3db5be5d	0.088741995
212	0x3cdc8253	0.026917612
213	0x3d1af61f	0.037832376
214	0x3db6fa57	0.08934467
215	0xbd8b66a7	-0.06806689
216	0xbd8074c4	-0.06272271
217	0x3d93ebf6	0.0722274
218	0xbd8295e2	-0.06376244
219	0x3d31447d	0.043278206
220	0x3ddeca34	0.10878411
221	0xbd0ada42	-0.033899553
222	0x3de7642f	0.112984054
223	0x3e014d44	0.12627131
224	0x3dbb0d47	0.09133392
225	0x3cfea682	0.031085256
226	0xbd19c444	-0.03754069
227	0x3df1f8fd	0.11815069
228	0xbd0e44a6	-0.034733437
229	0xbb3f7158	-0.0029211845
230	0x3d71f042	0.05906702
231	0xbd6d1859	-0.057884548
232	0x3e3beda7	0.18352376
233	0xbc03f65a	-0.00805434
234	0x3dbeaf67	0.09310799
235	0x3b168728	0.0022968743
236	0x3c65db13	0.014029282
237	0x3e298bf5	0.16557296
238	0x3e35c5a3	0.17751174
239	0x3d13f8ea	0.036126055
240	0xbc46be8f	-0.012130394
241	0x3d02a09d	0.031891454
242	0x3ca4c3fd	0.020112986
243	0x3d21b4fa	0.039479233
244	0xbd8039a6	-0.062609956
245	0xbc3a928b	-0.011387478
246	0xbd856ac7	-0.06514507
247	0x3e05b6b7	0.13057981
248	0xbd219ef7	-0.03945824
249	0x3d2eb679	0.04265449
250	0x3bf09d79	0.007342991
251	0xbcd691f9	-0.026192652
252	0x3d842425	0.064522065
253	0x3ce6e858	0.028186962
254	0x3cd2ee8a	0.02574851
255	0xbb9cffba	-0.004791227
