Foosbots_working/results/foosballTraining/Foosbots_working/Foosbots_working-2176.onnx (onnx, 74687 bytes, 7 tensors)

action_model._continuous_distribution.log_sigma f4 [1, 2]
0	0xbb3b2b08	-0.0028559584
1	0xbc10eb8b	-0.00884522

action_model._continuous_distribution.mu.bias f4 [2]
0	0xbbb8181a	-0.0056181075
1	0x3b81690b	0.0039492897

action_model._continuous_distribution.mu.weight f4 [2, 128]
0	0xbd57501c	-0.052566633
1	0x3cde4dbc	0.027136676
2	0x3cdb0db3	0.02673993
3	0x3d06a0dc	0.03286825
4	0xbd24d214	-0.04023941
5	0x3ce74c0f	0.02823451
6	0xbd0c855e	-0.034306876
7	0x3d2d28ae	0.042275123
8	0x3c77147a	0.015080566
9	0xbd33c6f5	-0.043890912
10	0xbd2155f3	-0.03938861
11	0x3bf9acd4	0.0076194797
12	0xbd0d6b91	-0.03452641
13	0xbb858d5e	-0.00407569
14	0xbbcffbcc	-0.006347155
15	0xbd627683	-0.055288803
16	0x3c99fb6a	0.018796641
17	0x3c965b84	0.018354185
18	0xbd321d6a	-0.043485083
19	0x3cc404e9	0.023928123
20	0xbd09e4f9	-0.03366563
21	0xbb2972b7	-0.002585573
22	0xbd20b508	-0.039235145
23	0xbc9e68e4	-0.019337125
24	0xbd0abaa0	-0.033869386
25	0xbd1cb4cf	-0.03825837
26	0x3d4d0117	0.050049867
27	0xbd02efc9	-0.03196696
28	0x3cbb60a4	0.02287323
29	0xbd4facfb	-0.050702076
30	0x3c96697d	0.018360848
31	0x3d7b7b80	0.061397076
32	0xbd163171	-0.036668245
33	0x3c6c3959	0.01441797
34	0xbcf0b867	-0.029384805
35	0xbcbc173d	-0.0229603
36	0xbd151bfd	-0.036403645
37	0xbb8182ac	-0.003952345
38	0xbd0d55c0	-0.034505606
39	0xbd0249b4	-0.03180857
40	0xba82356b	-0.0009934133
41	0x3cc4e728	0.024036005
42	0xbcf0de17	-0.029402776
43	0xbc9e6880	-0.019336939
44	0x3cf4beaf	0.029876081
45	0xbce16b51	-0.027516993
46	0xbd2f55ab	-0.04280631
47	0x3cdd9d82	0.027052645
48	0x3cb4709b	0.02202635
49	0x3bbd9846	0.0057859747
50	0xbc61f099	-0.013790273
51	0xbc6bc28d	-0.014389646
52	0x3d25732a	0.040393032
53	0xbc961874	-0.018322207
54	0x3b6639da	0.0035129697
55	0xbcda79c7	-0.026669396
56	0x3c4d20b7	0.012520007
57	0xbc0a2367	-0.008431292
58	0x3ca7ba6b	0.020474633
59	0xbcf9a1d4	-0.030472673
60	0x3abe10cf	0.0014500859
61	0xbcf840d8	-0.030304357
62	0x3d28ce00	0.041212082
63	0x3bf89c1c	0.007586969
64	0xbd0e6ec2	-0.034773596
65	0xbb4b9586	-0.0031064465
66	0xbd5f5476	-0.054523908
67	0x3cfe2632	0.031024072
68	0x3ce28ddf	0.02765554
69	0x3d051a6e	0.03249591
70	0x3d0bc31b	0.034121614
71	0xbcde7ebc	-0.027160041
72	0xbcb8bfc5	-0.02255238
73	0xbd5077c0	-0.050895452
74	0x3c4a1631	0.012334392
75	0x3d30cba5	0.04316296
76	0x3d723e63	0.059141528
77	0xbd5cede2	-0.0539378
78	0xbca1aac8	-0.019734755
79	0x3cd23ff8	0.025665268
80	0x3d091701	0.033469204
81	0x3c425c4c	0.011862826
82	0xbceaa028	-0.028640822
83	0x3d0d9005	0.034561176
84	0x3d2262f1	0.03964514
85	0xbc15abf2	-0.009135233
86	0x3d109679	0.035299752
87	0xbc3a4346	-0.011368578
88	0x3d2c2fe3	0.042037856
89	0x3c5ae97b	0.01336133
90	0xbcef2349	-0.02919163
91	0xbc0ca6ba	-0.008584673
92	0x3d44743e	0.04796242
93	0x3cb5ec1e	0.022207316
94	0xbd3e6e61	-0.046491984
95	0x3b83d59d	0.0040232674
96	0xbcb84fd1	-0.022498997
97	0x3d33b351	0.04387218
98	0x3c109f12	0.008826988
99	0x3d140f35	0.036147315
100	0x3cebca4f	0.028782992
101	0xbc8e5034	-0.017372228
102	0xbd03a806	-0.03214266
103	0x3bf80b33	0.0075696944
104	0x3c931f91	0.017959388
105	0xbc61afb0	-0.013774797
106	0x3d1ae857	0.037819233
107	0x3ccedd02	0.02525187
108	0x3d39b9f6	0.04534336
109	0xbcedd010	-0.029029876
110	0xbb3960a9	-0.0028286374
111	0x3d21a972	0.039468236
112	0x3d222862	0.039589293
113	0xbd35e649	-0.04440907
114	0xbd59b091	-0.053146902
115	0xbd11d579	-0.035603974
116	0x3c247caa	0.010039488
117	0x3ce8f8b8	0.02843891
118	0x3aa42075	0.001252188
119	0xbc606378	-0.01369559
120	0xbd464f6c	-0.048415586
121	0x3cba5a43	0.022748118
122	0xbd17bedb	-0.03704725
123	0xbcdf3783	-0.02724815
124	0xbc8111db	-0.015755584
125	0x3d4932f3	0.049120855
126	0x3ca88fdb	0.020576408
127	0xbd80a480	-0.06281376
128	0x3c2bb027	0.01047901
129	0xbbe729a9	-0.007054527
130	0xbcd81074	-0.026375033
131	0x3c030b98	0.00799837
132	0x3c9a8ea7	0.01886685
133	0x3b1c9678	0.0023893397
134	0x3c99654a	0.018725056
135	0xbc8bf55f	-0.017084775
136	0xbc23d8e8	-0.010000445
137	0x3d1844ee	0.03717511
138	0x3d22db1b	0.039759737
139	0x3c92fa8a	0.017941732
140	0x3c7c1c29	0.015387573
141	0xbb97453e	-0.0046164086
142	0xbbeae436	-0.007168318
143	0x3c8518b8	0.016247138
144	0xbcaf5ca9	-0.021406488
145	0xbc220f2c	-0.009891313
146	0xbaa96fff	-0.0012927054
147	0x3d5d300f	0.05400091
148	0xbc8eeeea	-0.017447907
149	0x3cc2e861	0.023792448
150	0xbc1ea551	-0.009682969
151	0x3c97b2f4	0.018517949
152	0xba5c6ac4	-0.00084082433
153	0x3cb4ac51	0.022054823
154	0x3bdc7dc1	0.006728858
155	0x3c8637a8	0.01638396
156	0xbd19a52f	-0.037511047
157	0x3d0c19b0	0.034204185
158	0x3c9815a8	0.018565014
159	0x3c82c24f	0.015961794
160	0x3c146c22	0.009058984
161	0x3c639f3f	0.013892948
162	0x3bd69d38	0.0065495037
163	0x3d0c2765	0.034217257
164	0x3d77aaf1	0.060465757
165	0xbbf6e8f8	-0.0075350963
166	0x3becdccf	0.007228471
167	0x3bbaae94	0.005697081
168	0xbc88410d	-0.016632581
169	0xbbc30b49	-0.005952273
170	0x3b42a12e	0.0029698121
171	0x3ca1f60d	0.019770646
172	0xbd17c68b	-0.03705458
173	0x3c9216d4	0.01783315
174	0x3d121126	0.035660885
175	0xbb7755fa	-0.0037740455
176	0xbcffa455	-0.03120629
177	0xbc67a057	-0.014137349
178	0x3c2ccd6e	0.010547025
179	0xbb9ec7e1	-0.0048456048
180	0xbbbab00a	-0.005697255
181	0x3cbd1444	0.023080952
182	0x3c93572b	0.0179859
183	0xbaac201d	-0.0013132129
184	0xbb88dc98	-0.0041766874
185	0xbbec546b	-0.007212212
186	0xbd35611c	-0.044282064
187	0x3cdf7f77	0.02728246
188	0x3c96e40d	0.01841929
189	0xbd033f92	-0.032043047
190	0xbc94666e	-0.018115249
191	0x3d1845e0	0.037176013
192	0x3c9e81ec	0.019349061
193	0x39db7390	0.00041857036
194	0x3cb90b91	0.022588523
195	0xbc7c1fb4	-0.015388418
196	0x3c3ffe4e	0.011718346
197	0xbc5cd326	-0.013478076
198	0xbc62c2ac	-0.013840359
199	0x3d1b5d20	0.037930608
200	0x3b91118f	0.004427142
201	0x3d14552d	0.036214042
202	0xbc2aedab	-0.010432641
203	0xbcacd45a	-0.02109735
204	0xbc5bd45b	-0.013417329
205	0x3c2a3ce6	0.010390496
206	0xbb88bf5c	-0.0041732024
207	0x3c938305	0.01800681
208	0x3b77e608	0.0037826318
209	0xbd32b337	-0.043627944
210	0x3d479b32	0.04873199
211	0x3c7f540b	0.015584002
212	0xbcdc1ca4	-0.026869126
213	0xbbad16d2	-0.0052822614
214	0xbca4a4b1	-0.020098062
215	0x3ca0f4ec	0.019648038
216	0xbb0cbffc	-0.0021476736
217	0xbc72cada	-0.014818871
218	0x3cf815e1	0.03028387
219	0x3c8f15a9	0.017466383
220	0xbc07b1f8	-0.008282177
221	0xbc82f714	-0.015986957
222	0x3d2863ba	0.04111073
223	0x3cb49926	0.022045683
224	0xbc19b427	-0.009381331
225	0xbd1ce451	-0.038303677
226	0xbca453ca	-0.020059485
227	0xbc8348c7	-0.016025914
228	0xbad1e2c9	-0.0016013022
229	0x3cd3be0d	0.02584746
230	0x3d22f15a	0.039780952
231	0x3c19b96b	0.009382586
232	0xbc813350	-0.015771538
233	0x3b548c7c	0.0032432368
234	0x3c869ce4	0.016432233
235	0xbc29ccce	-0.010363771
236	0xbccf34e0	-0.025293767
237	0x3c898cce	0.016790774
238	0xbc3ed41a	-0.011647249
239	0x3b5ccb0c	0.0033690361
240	0xbbe4833b	-0.0069736517
241	0xbba9a698	-0.00517733
242	0xbcdca09e	-0.026932057
243	0xba9ba6bf	-0.0011875256
244	0xbcd7fdab	-0.026366076
245	0xbd03a0b3	-0.032135677
246	0x3ca58e1b	0.020209363
247	0x3c4aa544	0.012368504
248	0x3a2c4cdf	0.0006572734
249	0xbbddb47c	-0.0067659
250	0x3ca8eea6	0.020621609
251	0x3ce7a3c2	0.028276328
252	0x3cc64976	0.02420495
253	0xbceba838	-0.028766736
254	0xbbcc52dc	-0.0062354635
255	0x3cb0722e	0.02153882

network_body._body_endoder.seq_layers.0.bias f4 [128]
0	0x3bbd77d9	0.005782109
1	0xbbea3331	-0.007147216
2	0x3b4ebacd	0.0031544447
3	0x3aef1987	0.0018241861
4	0x3c0be253	0.008537847
5	0x3ba23dc9	0.004951213
6	0xbb1cf307	-0.0023948567
7	0xbc353e65	-0.011062239
8	0x3b91b68e	0.004446811
9	0xbb9c9fba	-0.004779783
10	0x396bd784	0.00022491632
11	0xbb9cce4c	-0.0047853347
12	0xba97147c	-0.001152649
13	0x3bd777b1	0.0065755476
14	0x3ba725c2	0.0051009366
15	0x3b197821	0.002341755
16	0x3b3caf34	0.0028790953
17	0x3a8f4e66	0.0010933399
18	0x3bf4fe12	0.0074765766
19	0x3bee7004	0.007276537
20	0xba66bff7	-0.00088024087
21	0x3bf20af5	0.00738656
22	0x3c3f0e12	0.0116610695
23	0xb9d31407	-0.00040259978
24	0x3ac9d21c	0.00153977
25	0xbb23aa6b	-0.0024973403
26	0xbb2ba330	-0.0026189797
27	0x3b291298	0.0025798436
28	0x3c427e8f	0.011870994
29	0x3b83339d	0.0040039555
30	0xb9d4f9bb	-0.00040621855
31	0x3b972e06	0.0046136407
32	0x3a1d788c	0.00060070376
33	0x3c4064ca	0.01174278
34	0xbb963d59	-0.00458495
35	0xbb822fc4	-0.0039729793
36	0x3c5687a6	0.013093865
37	0x3bd9b4d6	0.006643872
38	0x3b2f8284	0.0026780674
39	0x3ba13275	0.004919345
40	0x3c2a0407	0.010376937
41	0xb99b94fd	-0.0002967491
42	0x3c74a26a	0.014931301
43	0x3a545c1c	0.00081008836
44	0x397c76ad	0.00024076803
45	0x3c12ef89	0.008968242
46	0x3a171ac7	0.0005764183
47	0x39e6809f	0.0004396485
48	0x3c034a11	0.008013264
49	0x3c42bde1	0.011886091
50	0xbbff37f0	-0.0077886507
51	0xbb9d7afb	-0.00480592
52	0x3b858e86	0.004075828
53	0x3bb61773	0.0055569946
54	0xbb229b41	-0.0024811777
55	0x3a599f55	0.00083016354
56	0x3b4c1542	0.00311406
57	0x3c565de1	0.013083906
58	0x3b016333	0.0019742965
59	0x3c49ddd6	0.012320956
60	0x3b9de65e	0.0048187217
61	0x3a8b2fcc	0.0010619103
62	0xb9c3a19b	-0.00037313704
63	0xbc4e3f0c	-0.012588274
64	0x3b78a215	0.0037938405
65	0x3c3f587b	0.01167881
66	0xbbb8e1cb	-0.005642151
67	0xbb8be939	-0.0042697457
68	0x3c12f658	0.008969866
69	0xbb008aa2	-0.0019613882
70	0x3bb01683	0.0053737774
71	0x3c91a670	0.017779559
72	0x3bc90ed0	0.006135799
73	0x39f544f2	0.0004678141
74	0xba77abeb	-0.000944792
75	0x3c0d8c41	0.008639396
76	0x3badc5ef	0.0053031365
77	0xb8d0e648	-9.961106e-05
78	0xbb9084da	-0.0044103684
79	0x3c4a6926	0.012354171
80	0x3b1fe603	0.0024398572
81	0xbbef195e	-0.007296725
82	0x38b3ce15	8.573771e-05
83	0xbbd574a9	-0.006514151
84	0x3c5c11a7	0.013431943
85	0x3c3da934	0.011575986
86	0x3a3b21e7	0.0007138536
87	0xbc0d4124	-0.008621488
88	0xbaaefd83	-0.0013350699
89	0x3a39d398	0.000708872
90	0xbaa97c22	-0.0012930671
91	0xbbc28110	-0.0059357956
92	0x3c1b1edc	0.009467807
93	0x3b079fbd	0.0020694577
94	0x3c199ee9	0.009376266
95	0x3c82ae1d	0.015952164
96	0xbad55cf2	-0.001627831
97	0x3c0e90e6	0.008701539
98	0x3a49412a	0.00076772517
99	0x3bab4a3a	0.0052273544
100	0x3bdbc1e0	0.0067064613
101	0x3bd1f1a2	0.0064069787
102	0xbad6c3f2	-0.00163853
103	0xbb6ee377	-0.0036451498
104	0x3c7a0987	0.015261061
105	0x3c0dc489	0.008652815
106	0xbc36fe23	-0.011168989
107	0xbaf2e099	-0.001853007
108	0x3bb71bf9	0.0055880514
109	0xbb97c9a5	-0.004632192
110	0xb9c85418	-0.00038209627
111	0xbb197469	-0.0023415333
112	0x3b6ad68b	0.0035833444
113	0x3c074950	0.008257225
114	0xbba6a8d0	-0.005086042
115	0x3b8d24c1	0.00430736
116	0xbc5471f5	-0.012966623
117	0x3b446e58	0.0029972997
118	0x3a592186	0.00082828884
119	0x3a8f8468	0.0010949494
120	0x3baac1e8	0.0052111037
121	0x3c413621	0.0117926905
122	0xba654b25	-0.0008746854
123	0xbbaa072d	-0.0051888437
124	0x3b8fc7e6	0.0043878434
125	0x3a1ae64d	0.0005908951
126	0xbb8ff0dc	-0.0043927263
127	0xbbc877c0	-0.006117791

network_body._body_endoder.seq_layers.0.weight f4 [128, 10]
0	0x3ed45e49	0.41478184
1	0x3ee715f1	0.45133927
2	0x3e8c92b5	0.2745568
3	0xbe9bd351	-0.3043466
4	0xbf0f1947	-0.55897945
5	0xbebcb2f0	-0.36855268
6	0x3e924465	0.28567806
7	0xbeda1b4a	-0.42598945
8	0x3f025956	0.50917566
9	0x3f51b25a	0.8191277
10	0x3ea7e746	0.32793635
11	0x3b563136	0.003268314
12	0xbe7915d6	-0.24324736
13	0xbef99b6a	-0.48751384
14	0xbe764fb7	-0.24053846
15	0x3f06d6ca	0.5267149
16	0x3e570f2c	0.21001881
17	0xbe424010	-0.1896975
18	0xbe15a7c4	-0.14614779
19	0xbe85c680	-0.26128006
20	0xbe5316bf	-0.20614146
21	0x3e523fd8	0.20532167
22	0x3e1d4ddd	0.15361734
23	0xbe864639	-0.2622545
24	0x3e2733af	0.1632831
25	0xbe9d276d	-0.30694142
26	0x3e3e97cc	0.18612593
27	0xbe3894f4	-0.18025571
28	0xbe8fe38b	-0.2810329
29	0xbe87eece	-0.2654938
30	0xbf38144b	-0.71905965
31	0x3dd170e9	0.10226614
32	0x3e37f51f	0.179646
33	0xbd368fa2	-0.044570573
34	0x3f2b2665	0.6685546
35	0x3e3a6f23	0.18206458
36	0x3c9aaf7a	0.018882502
37	0xbe79d2a7	-0.24396764
38	0x3b48a995	0.0030618657
39	0xbd9d5db7	-0.0768389
40	0x3ef80f60	0.4844923
41	0xbf4093f5	-0.75225765
42	0x3d957b7e	0.07298945
43	0xbf1845e7	-0.5948166
44	0x3e6d6621	0.2318349
45	0x3f15a5de	0.5845622
46	0xbe2d0ff8	-0.16900623
47	0x3eef9242	0.46791273
48	0x3e0629f6	0.13101944
49	0xbe08fce4	-0.1337772
50	0x3db99de7	0.090633206
51	0x3eeba8c6	0.460272
52	0xbec91d1d	-0.39280024
53	0xbeb62a49	-0.35579136
54	0xbf26c572	-0.6514503
55	0xbd283d22	-0.041073926
56	0x3d9957c5	0.07487444
57	0x3e70775d	0.23483033
58	0x3e83af9f	0.25719926
59	0x3ddce258	0.10785359
60	0xbe3bb5a6	-0.18331012
61	0x3e69db45	0.22837551
62	0xbda91eef	-0.08257853
63	0xbdb8f303	-0.09030726
64	0xbf3595c0	-0.70931625
65	0xbe34f4df	-0.17671536
66	0x3ebb1e0a	0.36546355
67	0x3daf6446	0.085640475
68	0xbecf9ace	-0.40547794
69	0x3e934e1a	0.28770524
70	0x3ec4722b	0.38368353
71	0x3e50b543	0.20381646
72	0xbdb950d9	-0.090486236
73	0x3e83ee29	0.2576764
74	0x3ed6f229	0.4198163
75	0xbeb061e3	-0.34449682
76	0x3d84e946	0.06489806
77	0x3e092b67	0.13395463
78	0xbdd93dfb	-0.10607525
79	0x3e34b7d9	0.17648257
80	0x3edd8bb4	0.43270648
81	0x3da6e139	0.081484266
82	0x3e3e3c69	0.18577732
83	0x3e11d4de	0.14241359
84	0xbf36c9e8	-0.71401834
85	0x3e9bda36	0.3043992
86	0x3e02a1a0	0.12756968
87	0x3e2c84ff	0.16847609
88	0x3e235d3b	0.15953533
89	0x3e2ee607	0.17079936
90	0xbe0d651d	-0.13808103
91	0xbd8e4573	-0.0694684
92	0x3ef437b9	0.47698763
93	0x3df94981	0.12172223
94	0xbcae5c29	-0.02128418
95	0xbeded24b	-0.43519816
96	0xbeb41e60	-0.35179424
97	0xbe132147	-0.14368163
98	0x3de946c2	0.11390449
99	0x3ed02c6f	0.406589
100	0x3eaab6a4	0.3334247
101	0x3e2dd646	0.1697627
102	0xbf1c29e9	-0.6100145
103	0x3e8fb0b6	0.28064507
104	0xbeba0fd5	-0.36340204
105	0xbd564740	-0.052314043
106	0xbf19e81c	-0.60119796
107	0x3f05a416	0.522035
108	0xbe6bdfef	-0.23034643
109	0xbe455ee2	-0.19274476
110	0xbe9158b2	-0.28387982
111	0xbed772be	-0.4207973
112	0x3f20abf1	0.6276236
113	0xbf3259c4	-0.6966822
114	0x3df337ef	0.11875903
115	0x3e8cfce1	0.2753668
116	0xbe4afbfe	-0.1982269
117	0x3f27aa45	0.65494186
118	0x3ee63333	0.44960937
119	0x3dff46f0	0.12464702
120	0xbe945df3	-0.28977928
121	0x3eaa97d3	0.33318958
122	0xbeadf5c7	-0.33976576
123	0x3ed1dad7	0.40987274
124	0xbda7d980	-0.08195782
125	0x3e73327f	0.23749731
126	0x3e08426f	0.13306592
127	0xbeaba398	-0.3352325
128	0x3dd6df16	0.10491769
129	0xbf286d6f	-0.6579198
130	0x3d3601f3	0.044435453
131	0xbe2a2178	-0.1661433
132	0xbe8e4cd6	-0.27792996
133	0xbe8c1f64	-0.273677
134	0x3f27a725	0.6548942
135	0xbe30ab07	-0.17252742
136	0x3d9f8ac2	0.07790138
137	0x3e83ade5	0.25718608
138	0x3d29a26c	0.041414663
139	0xbd945b3a	-0.072439626
140	0xbeb3261f	-0.34990022
141	0xbed9795b	-0.424754
142	0xbe7d8026	-0.24755916
143	0xbe989a41	-0.29805186
144	0x3e37a273	0.17933063
145	0xbdd9a92c	-0.1062797
146	0x3e7ad136	0.2449387
147	0x3e2af397	0.16694485
148	0x3eb8ef7d	0.36120215
149	0x3e44620e	0.1917803
150	0x3f08881c	0.53332686
151	0xbdc42c76	-0.09578793
152	0x3e31ec5c	0.1737532
153	0xbe5f3e7e	-0.21801183
154	0x3e9c33a4	0.3050815
155	0x3e8d09d9	0.27546576
156	0xbf1a35dc	-0.6023843
157	0x3ea5a0dd	0.3234929
158	0xbdfcff5a	-0.12353392
159	0xbf25fe0f	-0.6484079
160	0x3e4dedae	0.20110199
161	0xbd1aced1	-0.03779489
162	0x3ea3dd66	0.3200485
163	0x3dc9dc90	0.09856522
164	0x3de72764	0.1128681
165	0xbed101f8	-0.40821815
166	0xbc4a2bfb	-0.012339587
167	0x3e808df6	0.25108308
168	0x3d9043a1	0.07044149
169	0xbdf50b6e	-0.11965071
170	0xbef05636	-0.46940774
171	0x3f0f6588	0.560143
172	0xbd491f9a	-0.049102403
173	0x3e66c6ba	0.22536746
174	0xbee21c32	-0.44162136
175	0xbe4eeebe	-0.2020826
176	0x3e14fa7c	0.14548677
177	0xbed78fcb	-0.42101893
178	0x3eb0cc52	0.34530884
179	0x3eac2722	0.33623606
180	0x3e9afcf4	0.30271113
181	0x3f5130bd	0.81714994
182	0x3e0451a2	0.12921765
183	0xbdc3dabd	-0.095632054
184	0x3de6dbe9	0.11272413
185	0x3ed5f8d0	0.4179139
186	0x3e236f4c	0.15960425
187	0xbea2dfeb	-0.3181146
188	0x3c84820f	0.016175298
189	0x3da2ac61	0.07943035
190	0x3e76f67d	0.24117465
191	0x3e80a10b	0.25122866
192	0xbdd88dc1	-0.105739124
193	0xbe9d490e	-0.307198
194	0x3f05caf8	0.5226283
195	0xbdace4e7	-0.08442097
196	0xbeae9d04	-0.34104168
197	0xbe980d46	-0.29697627
198	0x3daaca42	0.08339359
199	0xbeb549a0	-0.35407734
200	0xbdc149e1	-0.094379194
201	0xbe57014e	-0.20996591
202	0xbe6f8b81	-0.2339306
203	0xbdde0a72	-0.10841836
204	0x3e5385b3	0.20656471
205	0xbe993f08	-0.29930902
206	0x3e2b373c	0.16720289
207	0xbc7e56da	-0.015523637
208	0x3eabc884	0.3355142
209	0xbe83a1e0	-0.25709438
210	0x3ede192d	0.43378583
211	0xbe27a1aa	-0.16370264
212	0xbf1178bc	-0.5682485
213	0x3d6713be	0.056415312
214	0xbd5fc22a	-0.05462853
215	0x3e24e27f	0.16102026
216	0xbe8b6fcb	-0.2723373
217	0xbebdb1b8	-0.3704965
218	0xbe85df9e	-0.2614717
219	0xbe8b121a	-0.27162248
220	0x3f0b71e8	0.5447068
221	0xbe8aed1d	-0.27134028
222	0xbc7670e7	-0.015041566
223	0xbe7eb355	-0.24873097
224	0xbed25b86	-0.41085452
225	0xbe879761	-0.2648268
226	0xbf303206	-0.6882633
227	0x3f09a0e7	0.5376114
228	0x3ef58b6e	0.4795794
229	0x3e787d12	0.2426646
230	0xbe1b5532	-0.15169218
231	0xbe9f5a1a	-0.3112343
232	0x3d83dacb	0.06438216
233	0x3ecc8d7b	0.3995169
234	0xbdc608e7	-0.09669667
235	0xbea308a3	-0.31842527
236	0x3dd7f9df	0.10545706
237	0xbda76abc	-0.08174655
238	0xbe41d9c0	-0.18930721
239	0xbec25ba8	-0.37960553
240	0x3cd584cc	0.026064299
241	0xbc9ac3dd	-0.018892223
242	0xbd914b9a	-0.07094498
243	0xbdf8c47b	-0.12146851
244	0x3eae4abd	0.34041396
245	0xbe31d2a7	-0.17365514
246	0xbf1f997a	-0.6234356
247	0xbdae51e6	-0.08511715
248	0x3e6f9f17	0.23400532
249	0xbf6ee520	-0.93318367
250	0xbe7ff2bf	-0.24994944
251	0xbec400fd	-0.38282004
252	0x3e90e6a0	0.28300953
253	0xbec84017	-0.39111397
254	0x3c531d14	0.012885351
255	0x3e36239a	0.17787018

network_body._body_endoder.seq_layers.2.bias f4 [128]
0	0x3c152ba4	0.009104643
1	0x3ad22b78	0.0016034683
2	0x3b1337b7	0.0022463629
3	0xbb6e155c	-0.003632865
4	0x3c2d7af6	0.010588398
5	0xbb280ac4	-0.0025641182
6	0x3c2f4ee9	0.010699966
7	0xb910a8d9	-0.00013795811
8	0xbbdaf380	-0.0066818595
9	0x3c299192	0.010349648
10	0x3c0d0eb4	0.0086094625
11	0xbb51e0b0	-0.0032024793
12	0x3bcbbe57	0.0062177586
13	0x3b6cc330	0.0036127083
14	0xbb712d25	-0.003680059
15	0x3c283da9	0.010268607
16	0xba8dc02f	-0.0010814721
17	0x3ba67d3b	0.0050808466
18	0x3bcb2168	0.0061990507
19	0xba8b89a0	-0.0010645874
20	0x3ac614c0	0.0015112385
21	0x3b2921d9	0.0025807528
22	0x3b34f0c5	0.002760933
23	0x3b69590f	0.0035606062
24	0x3b53b523	0.003230401
25	0x3c6462c9	0.013939568
26	0xba37521d	-0.0006993132
27	0x3ba39ad3	0.0049928217
28	0xbadbdedd	-0.0016774792
29	0x3c1b080b	0.009462367
30	0xb9555af4	-0.00020347146
31	0xb9a73452	-0.00031891704
32	0x3c299fb9	0.010353022
33	0xbbacfa43	-0.005278857
34	0x3b1074eb	0.0022042345
35	0x3be7f97a	0.0070793005
36	0x3bffe089	0.007808749
37	0x3b048be2	0.0020224978
38	0x3c02877a	0.00796687
39	0x3c1404a6	0.009034311
40	0x3a309610	0.0006736228
41	0xba84e83e	-0.0010140014
42	0x3b8553fb	0.004068849
43	0x3ba408be	0.005005925
44	0xbb532b10	-0.0032221712
45	0x3c658834	0.014009524
46	0x3c1e8335	0.009674837
47	0xbb35541e	-0.0027668546
48	0xbaffc9c0	-0.0019515082
49	0xba044b91	-0.00050466607
50	0xba451c9f	-0.00075192185
51	0xbb881906	-0.0041533737
52	0xbb41eab1	-0.002958935
53	0x3bbf0224	0.0058291126
54	0x3aa392ec	0.0012479699
55	0x3b49e1af	0.0030804684
56	0x3b6d057c	0.00361666
57	0xbbd9973e	-0.006640344
58	0xbb203388	-0.0024444778
59	0x3c35d713	0.011098641
60	0xba301254	-0.0006716598
61	0x39b21639	0.00033967363
62	0xbb71a080	-0.0036869347
63	0xba07e4a1	-0.00051839097
64	0x3bb0a41c	0.005390657
65	0x3b810228	0.0039370246
66	0x3c124b39	0.008929067
67	0x3abf48ad	0.0014593803
68	0x3ad23923	0.0016038757
69	0xbb8dec47	-0.004331145
70	0xbb08b87a	-0.002086191
71	0x3c43afdc	0.011943784
72	0x3b81ce50	0.003961362
73	0x3c2bb3d3	0.010479885
74	0xbbd21cde	-0.0064121326
75	0xbba454c8	-0.0050149895
76	0xbb75b8c0	-0.0037494153
77	0x3c55bc5d	0.013045398
78	0xbad13766	-0.0015961945
79	0xbb38b389	-0.0028183183
80	0xbb654001	-0.0034980776
81	0xbb052c9a	-0.0020320774
82	0x3bd0ea9d	0.0063756243
83	0x3ab54ef3	0.0013832733
84	0xbb7c162e	-0.0038465369
85	0x3b615fce	0.003438938
86	0x3b29992c	0.002587865
87	0x3a96dbf7	0.0011509646
88	0xbbd218b9	-0.0064116386
89	0xbb900cc8	-0.004396055
90	0x3bffce15	0.0078065493
91	0x3ab1fb67	0.0013578952
92	0xb948c38e	-0.00019146336
93	0xbb356b60	-0.0027682409
94	0x3c287ff4	0.010284413
95	0xb94c9cb9	-0.0001951334
96	0x3b37deb5	0.0028056328
97	0xbb5f3b7f	-0.0034062562
98	0xb922cfa5	-0.00015526878
99	0xbb319de5	-0.002710217
100	0xbb83bb8b	-0.0040201596
101	0x3ba9deb5	0.0051840195
102	0x3c13aaf5	0.009012927
103	0xba5b6591	-0.00083693216
104	0xbb854da0	-0.0040680915
105	0x3b8bc47d	0.0042653666
106	0xbb66b820	-0.0035204962
107	0xbb62f6fa	-0.0034632073
108	0xbb6da633	-0.0036262393
109	0x3b8fb557	0.004385631
110	0x3acf1304	0.0015798514
111	0xba3c70e4	-0.0007188453
112	0x3980dfeb	0.00024580894
113	0x3bda0841	0.006653816
114	0x3a213b23	0.00061504747
115	0x3b43775e	0.0029825787
116	0xbbc0af9b	-0.005880309
117	0xbb137daf	-0.0022505333
118	0xbac6ab57	-0.0015157264
119	0x3b5877b3	0.003303033
120	0x3ba15c85	0.0049243593
121	0x3ab8db1c	0.0014103386
122	0x3c40230c	0.011727106
123	0x3c1480d8	0.009063922
124	0x3b4ab61f	0.0030931307
125	0x3aa3ba22	0.0012491385
126	0xbbc7114e	-0.006075061
127	0x3c1092b0	0.0088240355

network_body._body_endoder.seq_layers.2.weight f4 [128, 128]
0	0xbdbb6591	-0.09150232
1	0xbdc5eaa2	-0.09663893
2	0xbd7ade22	-0.061247
3	0x3dcdd1a8	0.100497544
4	0x3d9b2aef	0.07576548
5	0xbd3667ac	-0.044532463
6	0x3cad368f	0.02114418
7	0xbc3e99e7	-0.011633373
8	0xbbbc18b2	-0.0057402486
9	0xbe1a76c7	-0.15084372
10	0x3ddbb531	0.10727919
11	0xbe24328a	-0.16034904
12	0xbd060c55	-0.032726604
13	0xbd0068c5	-0.031349916
14	0xbb34dd3c	-0.0027597686
15	0xbc83fe77	-0.01611255
16	0x3d45776f	0.048209604
17	0x3d0fafda	0.035079814
18	0x3df5607e	0.11981295
19	0x3b3ac184	0.0028496692
20	0xbd65584a	-0.055992402
21	0x3dcd1d86	0.10015397
22	0x3d2819a9	0.041040096
23	0xbd98aded	-0.07455049
24	0x3d50746e	0.050892286
25	0xbc7c8ee6	-0.015414929
26	0xbe0b1b35	-0.13584597
27	0x3c84b19c	0.016197972
28	0x3dcb397c	0.09923074
29	0xbd3da594	-0.046300486
30	0xba9bc045	-0.0011882862
31	0xbd2c1a61	-0.042017344
32	0xbe0a014b	-0.13477056
33	0x3c946bf3	0.01811788
34	0xbd60ead5	-0.054911453
35	0xbe0e8f51	-0.13921858
36	0x3ceb9467	0.028757287
37	0xbe1c129b	-0.15241472
38	0xbda1bf0a	-0.07897766
39	0x3df341d6	0.118777916
40	0x3ded031d	0.115728594
41	0x3d06ea76	0.032938443
42	0xbbe640da	-0.007026774
43	0x3d11e94a	0.035622872
44	0x3da06c08	0.07833105
45	0xbd41ab7c	-0.04728268
46	0x3c694b74	0.014239181
47	0xbe790215	-0.243172
48	0x3d2159cc	0.039392278
49	0x3d945902	0.072435394
50	0xbe2eae9a	-0.17058793
51	0xbdcd8b30	-0.100363135
52	0x3d9633e4	0.07334116
53	0x3d58a864	0.052894965
54	0xbdae4689	-0.08509547
55	0x3cac89a4	0.021061726
56	0x3d1cd8c7	0.038292672
57	0xbd9f1449	-0.07767541
58	0xbe15afc5	-0.14617832
59	0x3d94aac0	0.072591305
60	0x3c6b100a	0.014347086
61	0xbda55414	-0.08072677
62	0xbdce5b34	-0.10075989
63	0x3bc5bfd0	0.0060348287
64	0x3dc2a1a8	0.0950349
65	0x3dd48f81	0.10378934
66	0x3da2d3f5	0.07950584
67	0x3e455e5d	0.19274278
68	0x3e1a4771	0.15066315
69	0xbdfe145b	-0.12406226
70	0x3e61947a	0.22029296
71	0x3d633d92	0.05547864
72	0xbd13c5af	-0.036077198
73	0xbd0939bd	-0.03350233
74	0xbddb6188	-0.10711962
75	0x3d0b7087	0.03404286
76	0xbd9f63d2	-0.07782711
77	0xbdf3de85	-0.119076766
78	0x3c7519ae	0.014959736
79	0x3dacbb8a	0.08434208
80	0x3bd995af	0.006640158
81	0x3ccbbefa	0.024871338
82	0xbd6055f8	-0.054769486
83	0x3d83b739	0.06431431
84	0xb9aa0424	-0.00032428012
85	0x3deb5d04	0.11492351
86	0xbc9493ea	-0.018136937
87	0xbd606f2c	-0.05479352
88	0xbd0bae26	-0.034101628
89	0xbe02c46f	-0.12770246
90	0xbe075a71	-0.13218094
91	0xbd4988b3	-0.049202632
92	0xbddeeaab	-0.10884603
93	0x3da3c4d9	0.0799653
94	0xbc744ce5	-0.014910911
95	0x3e083032	0.13299635
96	0x3d01be5c	0.03167568
97	0x3dc652c4	0.09683755
98	0xbdcec9ff	-0.100971214
99	0xbe08852d	-0.13332053
100	0xbd6e32e4	-0.058154
101	0xbb84cf04	-0.0040529985
102	0xbd6dc86b	-0.05805246
103	0xbd98ce62	-0.074612394
104	0x3dbe57a7	0.09294062
105	0x3d3cf8fd	0.04613589
106	0xbdc1473f	-0.09437417
107	0xbe586093	-0.2113059
108	0xbd6972e0	-0.05699432
109	0xbd90b277	-0.070652895
110	0xbd46b9b5	-0.048516948
111	0xbd648d1f	-0.055798646
112	0x3d022c66	0.031780623
113	0xbdf180fe	-0.117921814
114	0xbd68de7b	-0.0568528
115	0x3dde8821	0.10865808
116	0xbb34281f	-0.0027489734
117	0xbd6c77b8	-0.05773136
118	0xbd559c61	-0.052151088
119	0xbde54ef4	-0.111967
120	0xbda0e5b0	-0.078563094
121	0x3de6eba7	0.11275416
122	0xbd15d188	-0.036576778
123	0xbdbdcc5f	-0.09267496
124	0xbc8d5706	-0.01725341
125	0xbe09f65a	-0.13472882
126	0x3d0c3ff7	0.03424069
127	0xbd12b1b4	-0.035814002
128	0x3dc3bba5	0.09557275
129	0xbca3df11	-0.020003827
130	0xbe3f62c3	-0.18690018
131	0xbc964a7a	-0.01834606
132	0xbd731bed	-0.059352804
133	0x3d911f41	0.07086039
134	0xbd276a18	-0.040872663
135	0xbd2bf87f	-0.04198503
136	0x3d56f77f	0.052482124
137	0xbda6524b	-0.08121165
138	0x3d65bb20	0.05608666
139	0x3b928b33	0.0044721602
140	0xbbdd0528	-0.0067449994
141	0xbd682a97	-0.05668124
142	0x3da7d695	0.08195225
143	0x3bcd50dc	0.0062657427
144	0x3d80c66a	0.062878445
145	0x3ce36fd0	0.027763277
146	0x3d712fd8	0.058883518
147	0xbe2cb08b	-0.16864221
148	0x3e1401c1	0.14453794
149	0xbdd47a67	-0.10374909
150	0xbe351376	-0.17683205
151	0xbc95b942	-0.018276814
152	0xbd5f2e34	-0.054487422
153	0x3b0caf28	0.0021466706
154	0x3d939e12	0.07207884
155	0xbdf521a1	-0.11969305
156	0xbcd0fa29	-0.02550991
157	0xbbb8b0bd	-0.005636303
158	0xbddf545b	-0.109047614
159	0xbdd9299c	-0.106036395
160	0xbc818c5e	-0.015814003
161	0x3e78c3cf	0.24293445
162	0x3cd337f1	0.02578351
163	0xbcbbdc52	-0.022932205
164	0x3e1d287e	0.15347478
165	0xbd415409	-0.047199283
166	0xbe19444b	-0.14967458
167	0xbda56f4e	-0.0807787
168	0xbca9e7d3	-0.020740425
169	0xbcf25121	-0.0295797
170	0xbdc2a3e3	-0.09503915
171	0xbd523a1f	-0.05132496
172	0xbd7d6cf8	-0.0618715
173	0x3c050f3b	0.008121307
174	0x3e257d0e	0.16160986
175	0xbdc5fe73	-0.09667673
176	0xbd599dc1	-0.05312896
177	0xbd43b806	-0.04778292
178	0x3d00e5ee	0.031469278
179	0x3e180363	0.14845042
180	0x3d922167	0.07135277
181	0x3c8382be	0.016053554
182	0xbc8fea16	-0.017567676
183	0xbce66ace	-0.0281271
184	0xbdeda95f	-0.116045706
185	0x3dd7e6f9	0.105421014
186	0xbcf8080b	-0.030277273
187	0xbdd3feeb	-0.10351356
188	0x3c6e58fd	0.014547584
189	0x3de75ac8	0.11296612
190	0xbd05ffbe	-0.032714598
191	0xbcaac442	-0.020845536
192	0xbdde1706	-0.10844235
193	0x3db9a7f4	0.09065238
194	0xbb8e0465	-0.00433402
195	0xbd183cd5	-0.03716739
196	0xbc52ad9f	-0.012858777
197	0x3c7ed983	0.0155547885
198	0x3d9f9120	0.07791352
199	0xbd8eb6e2	-0.06968476
200	0x3daabaa5	0.08336381
201	0xbdcd9c82	-0.10039617
202	0x3d77a961	0.060464267
203	0x3d08e555	0.033421833
204	0x3e1f79e3	0.1557384
205	0xbaaf568c	-0.0013377233
206	0xbe2c2271	-0.16810013
207	0x3d543dd3	0.051816773
208	0x3d3df558	0.046376556
209	0xbc72cf5d	-0.014819947
210	0x3b6e6682	0.0036377017
211	0x3b7bf5f1	0.0038446153
212	0x3d276367	0.04086628
213	0x3e0320c4	0.12805468
214	0x3d1f478d	0.038886596
215	0xbc1fe8d5	-0.009760101
216	0x3d1b18a0	0.03786528
217	0xba75d68d	-0.0009377979
218	0x3da2d8dc	0.07951519
219	0xbd0dbb88	-0.03460267
220	0xbd8e8b2b	-0.06960138
221	0xbd1221d8	-0.035676807
222	0xbd67faa7	-0.056635525
223	0xbe0d68ce	-0.13809511
224	0x3d02be80	0.031919956
225	0x3d900903	0.07032969
226	0x3d075e95	0.033049185
227	0xbdc831e3	-0.0977514
228	0x3d97c8a4	0.07411316
229	0xbd5efe8f	-0.054441985
230	0x3dbe9b0e	0.09306918
231	0x3d4168a4	0.047218934
232	0xbdb41854	-0.08793703
233	0xbd9752da	-0.073888496
234	0xbdfafdcd	-0.1225544
235	0xbd8abb61	-0.06774021
236	0x3dab2b3b	0.08357855
237	0xbdccc7f2	-0.09999074
238	0x3da93ba8	0.08263332
239	0x3cda4cf9	0.026648032
240	0x3e5286ca	0.2055923
241	0xbe1651ec	-0.14679688
242	0xbc3b33cb	-0.011425923
243	0xbd75e68d	-0.060034323
244	0xbe3dc32b	-0.18531482
245	0xbd700f36	-0.058608256
246	0xbde4575e	-0.111494765
247	0x3c89aadf	0.01680511
248	0x3da3a0ac	0.0798963
249	0xbe37793d	-0.17917342
250	0x3e5f07ac	0.2178027
251	0xbda52aa9	-0.080647774
252	0xbcb30b3d	-0.021855945
253	0x3e06b14f	0.13153575
254	0x3cff2643	0.031146174
255	0x3e3b913e	0.18317124
