Foosbots_working/results/foosballTraining/Foosbots_working/Foosbots_working-23378.onnx (onnx, 74687 bytes, 7 tensors)

action_model._continuous_distribution.log_sigma f4 [1, 2]
000000 e2 60 1e be 6b 9b f0 bd
       -0.15466645 -0.117483936

action_model._continuous_distribution.mu.bias f4 [2]
000000 9b 8e ef 3c d3 e2 8e 3d
       0.029242804 0.06976857

action_model._continuous_distribution.mu.weight f4 [2, 128]
000000 9a ed 74 3c 2a ea 0d be f2 74 21 3e c2 c3 1c be
       0.014949227 -0.13858858 0.15767267 -0.1530905
000010 79 63 16 3e 2d 60 04 3e 21 7c f0 bd 25 59 1b be
       0.14686383 0.12927313 -0.11742426 -0.15170725
000020 ef b6 10 3c 05 0d e5 3d 8c 3d fb 3d 46 df 23 3e
       0.008832677 0.11184124 0.122675985 0.16003141
000030 d8 0e 0d 3e 77 23 03 be 82 02 0f be 5c 1d 09 be
       0.13775194 -0.12806498 -0.139658 -0.13390106
000040 26 08 46 3b 01 75 19 3e e5 ae 56 3d 2a dc 09 3e
       0.003021726 0.1498604 0.052412886 0.13462892
000050 73 f7 1b 3e 49 8a a8 3d e7 11 1d 3e 67 82 ee bd
       0.15231113 0.08229501 0.1533886 -0.11645966
000060 c4 c4 03 be b8 d1 04 be 14 d7 03 be 74 66 1b 3e
       -0.12868029 -0.12970626 -0.12875015 0.15175802
000070 f1 be 2a be 51 c9 0f be 6b 97 10 be 61 c3 e5 3d
       -0.16674401 -0.1404164 -0.14120261 0.11218906
000080 7a 4d d1 3d 10 5d fb 3d be c3 96 bc a0 e6 02 be
       0.102198556 0.1227361 -0.018403884 -0.12783289
000090 86 df 9a 3b ef 76 0a 3e a6 23 b9 3d b9 6f 26 bd
       0.004726353 0.13521932 0.090400025 -0.04063389
0000a0 8d c9 0c 3e 55 6d 11 3e 9a d1 1c be 73 37 0f 3e
       0.1374876 0.14201863 -0.15314332 0.13985996
0000b0 35 ba 05 3e 74 fc 12 3e b9 7f 27 3e 60 a8 13 3e
       0.13059314 0.14354116 0.16357316 0.14419699
0000c0 f1 3c 12 3e 77 71 0b be af d5 1d 3e d2 6b 0e be
       0.1428106 -0.13617502 0.15413545 -0.13908318
0000d0 c2 e0 12 3e b3 09 98 bd f5 59 d4 3d 53 7c 14 3e
       0.14343551 -0.07423725 0.103687204 0.14500551
0000e0 17 59 39 be ef c9 13 be aa b8 90 bd 77 23 6e bd
       -0.18100391 -0.144325 -0.07066472 -0.05813929
0000f0 5e b3 00 be d7 27 10 3e bd 5a 13 be 2e 24 0d 3e
       -0.12568423 0.14077698 -0.14390083 0.13783333
000100 f8 f8 32 3e 19 ee 03 be 6a 5a 14 3e ef 0b 29 be
       0.17477787 -0.12883796 0.14487615 -0.16508459
000110 38 51 07 3e e1 10 d6 3d 46 48 27 be 1a 1e 09 3e
       0.13214576 0.10452438 -0.16336164 0.13390389
000120 46 cf 56 bd 0e 4d 1f be e4 cf e6 bd 1e 54 12 3e
       -0.052443765 -0.15556738 -0.11270121 0.142899
000130 e1 8f 56 bc 04 40 11 3e de 66 f0 bd 1e d5 18 3e
       -0.013095827 0.14184576 -0.1173837 0.14925048
000140 a4 cf 02 3e 7b a6 f1 3d c3 a2 f3 bd 47 66 f8 bd
       0.12774521 0.11799332 -0.11896279 -0.12128883
000150 11 7e 18 3e 96 fd 04 3e f4 73 06 3e cc 56 f1 3d
       0.1489184 0.1298736 0.1313017 0.11784133
000160 7c ad 17 3e a7 f7 0e be d7 6c c1 3d c5 6d 14 be
       0.14812273 -0.1396166 0.09444588 -0.14494999
000170 93 f1 ec 3d 5e e4 1c be 30 ec 12 be dd 7d 19 be
       0.11569514 -0.1532149 -0.14347911 -0.1498942
000180 f2 01 15 be 7a 35 f9 bd 4d 6d 1e be bc c2 09 3e
       -0.14551523 -0.12168403 -0.15471382 0.13453192
000190 c9 05 11 3e cd 6a 4f 3b 8c 55 02 3e c9 03 05 3e
       0.14162363 0.0031649352 0.12727946 0.12989725
0001a0 3b 32 36 3e 8b 13 ff bd 77 63 e6 3d 5b ba 09 be
       0.17792599 -0.124548994 0.1124944 -0.13449995
0001b0 e1 9c bd 3d e3 76 ee 3d 6a 9c 18 3e 26 f7 13 3d
       0.09258438 0.116437696 0.14903417 0.03612437
0001c0 6d 7b 03 3e f9 72 00 be 6f ab ee 3d d5 29 16 3e
       0.12840052 -0.12543859 0.11653792 0.14664395
0001d0 05 e9 fa bd 69 e8 0c be be 41 a6 bd ed 2c 0a be
       -0.12251476 -0.13760532 -0.08118008 -0.134937
0001e0 d0 49 0b be 2c 3f 02 be 0f fb fd bd 36 31 1f be
       -0.13602376 -0.1271941 -0.12401401 -0.15546116
0001f0 58 10 01 be cc 2c 0c 3e 29 40 e4 3d 11 e4 fd bd
       -0.12603891 0.13688964 0.1114505 -0.12397016
000200 ce 95 c5 3d 07 5a b5 3d 97 89 89 bd 1d 9b 24 3d
       0.096477136 0.08855062 -0.06715696 0.04018699
000210 dd db aa bd 39 b4 fd bd 77 90 c5 3d d8 ed ad 3d
       -0.08342717 -0.1238789 0.09646695 0.08492631
000220 7d 4a cd 3d 6f 8e d4 bd b6 84 8d bd 55 a4 eb bc
       0.10023973 -0.103787296 -0.06910078 -0.028764883
000230 e6 b9 9f bc 14 24 c2 3d 07 92 d7 3d ed ca c3 3d
       -0.019497823 0.094795376 0.105258994 0.095601894
000240 7d fd be bd 24 4e 99 bd 6c 7c 82 3d 62 b3 b9 ba
       -0.09325693 -0.07485607 0.06371388 -0.001416784
000250 a1 ac e8 bc c7 2d d0 3c 92 c1 62 bd 00 12 8a 3c
       -0.028402628 0.025412453 -0.055360384 0.016854286
000260 68 81 15 3d 4f fe 9d 3d 45 ec 38 3d 32 43 0c bd
       0.036500365 0.07714521 0.0451472 -0.03424377
000270 72 c2 ab 3d de b3 ac 3d d5 2d b7 3d 87 bd e4 bd
       0.08386697 0.084327444 0.08944289 -0.11168962
000280 fe 38 36 3b 20 97 05 3d 0a be b4 3d 44 4d 76 3d
       0.0027804966 0.032614827 0.088253096 0.06013228
000290 08 12 e4 bd b5 6f d6 bc 4b e7 e5 bd e9 3a 08 3e
       -0.11136252 -0.026176313 -0.11225756 0.13303722
0002a0 42 75 4c bd d6 d9 38 bd 07 fc 78 3d 7b 41 90 bd
       -0.049916513 -0.04512962 0.060787227 -0.070437394
0002b0 1e f8 19 bd af 91 98 bc ff e1 86 ba 05 3a 75 bd
       -0.03759014 -0.018624155 -0.0010290741 -0.059869785
0002c0 b8 0f 12 bd a0 52 00 3e cb 52 72 bd 32 15 c5 3d
       -0.03565952 0.12531519 -0.05916099 0.09623183
0002d0 a7 86 6a bd ac ba f3 3d 38 ab 0e 3d ab 68 b3 3c
       -0.05725732 0.11900839 0.034831256 0.021900496
0002e0 ef 8f 94 3d f4 05 4f 3d 51 3d df 3d 39 b2 c6 3d
       0.07254016 0.050542787 0.10900367 0.09701962
0002f0 22 f2 07 3c fa 7e 23 bd 6e f3 82 3d 86 04 b9 bd
       0.008297475 -0.039916016 0.06394087 -0.09034066
000300 d9 43 72 bd 55 48 54 3d 0a 82 d1 bc 87 59 ad 3d
       -0.059146736 0.051826794 -0.025574703 0.084643416
000310 5d c5 b5 bd 51 9d d5 bd 60 4b 91 3d cb cd 48 bd
       -0.08875535 -0.10430396 0.07094455 -0.049024384
000320 f9 a6 eb 3d 38 88 42 3d d1 71 e8 3d 85 d0 9e bd
       0.11506457 0.04749319 0.11349834 -0.07754616
000330 bb 9f df 3d 90 4f 96 bd 34 8c f8 3d cb 59 18 bc
       0.10919138 -0.07339394 0.121361166 -0.009298752
000340 c6 68 c5 bd f5 28 a7 bc bb 1f fb 3d 1f 87 ed 3d
       -0.096391246 -0.020405272 0.122619115 0.11598038
000350 26 5b 39 bd e0 20 9b 3c 04 67 8c bd dc 0c e5 bd
       -0.04525294 0.018936574 -0.06855586 -0.11184093
000360 d6 0f c2 bd f0 b7 d1 3d 2f d5 f4 bd c8 7d 67 3d
       -0.09475677 0.102401614 -0.11954724 0.05651644
000370 6e 67 99 bd f4 e4 e3 3d a7 56 5a 3d 11 2f 02 3d
       -0.07490431 0.11127654 0.053305294 0.031783167
000380 67 a6 1c 3c 0a 3e c7 3d b0 b4 9c 3d a7 b0 49 bd
       0.009561158 0.0972863 0.07651651 -0.049240734
000390 b2 5e b1 bd d4 c6 f2 bd cb fd a8 bd 9d 02 9c bd
       -0.0866064 -0.1185433 -0.08251532 -0.07617686
0003a0 12 d4 46 bd eb 84 84 3d ca da 11 be 05 10 f0 3d
       -0.04854209 0.064706646 -0.14243618 0.117218055
0003b0 9a ab d2 bd 97 47 0c bd f3 df 30 bd aa f3 b7 3d
       -0.10286637 -0.03424796 -0.043182325 0.08982022
0003c0 bd 6c 57 3b 71 07 b8 3b 49 87 7f bd 2c 67 50 bd
       0.003287121 0.0056161215 -0.062384877 -0.050879642
0003d0 80 8d d9 3d d5 ee 2e 3d 46 34 ed 3d 38 59 df 3d
       0.10622692 0.042708237 0.11582236 0.10905689
0003e0 bc e1 97 3d e0 40 b1 3d a9 49 fe 3c 9b 01 bd 3d
       0.07416102 0.08654952 0.031040983 0.09228822
0003f0 49 d8 7f 3d b0 da 94 bd f3 ca f1 bd 45 a7 e6 3d
       0.062462125 -0.07268274 -0.118062876 0.11262373

network_body._body_endoder.seq_layers.0.bias f4 [128]
000000 75 99 10 bc ec f2 6a 3d d0 c7 85 bd 14 13 36 bd
       -0.0088256495 0.057360575 -0.06532252 -0.044451788
000010 f0 44 cc 3c 3d 95 e1 3c 02 40 6f bd f7 c9 39 3d
       0.024935216 0.027536983 -0.058410652 0.045358624
000020 0d db 76 3a eb 0b 9f 3c 52 de 8b bc 13 6b 0c 3d
       0.00094167964 0.019414863 -0.017073784 0.0342818
000030 e4 10 bb 3b cd 46 e6 3b 5e ef 02 3d 35 bf fe bc
       0.0057088006 0.007027483 0.03196656 -0.031097034
000040 48 37 94 bb 07 8e 53 bd aa a2 2e bd ad 18 1a 3d
       -0.0045231916 -0.05164912 -0.042635597 0.03762119
000050 12 ea 28 bd 6d e1 84 3b 30 52 8e bb 8c b7 02 3d
       -0.04123885 0.004055193 -0.0043432936 0.031913325
000060 4b 80 26 3d c4 8c 9c bd 88 40 06 bc 20 bf d6 3c
       0.040649693 -0.076440364 -0.008194096 0.026214182
000070 e6 6f 21 bd 07 be 2a bc c0 1c 9e 3d ec 88 d6 bc
       -0.039413355 -0.010421283 0.077203274 -0.026188336
000080 24 66 cd bb ca f0 62 bd c2 03 e9 3c 79 c7 d0 bb
       -0.0062682796 -0.055405416 0.028444175 -0.0063714352
000090 b5 7a cb 3c ae 16 25 bd c8 c2 4b 3c 9f 2c 4f bc
       0.024838785 -0.040304832 0.012436576 -0.012644916
0000a0 97 5c bc 3c f4 49 27 3d 03 3d 71 3c 93 79 34 3c
       0.022993369 0.04084201 0.014724019 0.011015314
0000b0 64 d1 a1 3c 3a 31 40 3d ec 63 6b 3c d4 b6 13 3d
       0.019753166 0.046921946 0.014367085 0.03606303
0000c0 5d 53 81 bc 50 bd bd 3c a1 67 90 3a 41 ed 12 bd
       -0.015786821 0.02316156 0.0011017212 -0.035870794
0000d0 74 7e 2c 3c 36 57 de 3b 93 15 b9 bb 10 80 5a 39
       0.010528196 0.0067852987 -0.005648324 0.00020837807
0000e0 07 7e 26 bd d6 cc f9 3c 73 26 0b 3d ab ae 60 3c
       -0.040647533 0.030493181 0.033972215 0.013713519
0000f0 34 cc 23 3d 1a 22 0e bd 5f 61 0f 3d 81 29 f0 3c
       0.039989665 -0.03470049 0.03500497 0.029316666
000100 10 d5 86 3a 39 93 3c 3c 92 bb 8e bb 64 88 8f 3c
       0.0010286886 0.01150971 -0.004355856 0.01752109
000110 a1 24 e8 3c ea 72 2e bc 57 58 b5 bb 07 4a f1 3c
       0.028337779 -0.010647515 -0.0055342126 0.029454244
000120 5a 65 3f bd 61 0f e3 3a dc 3d e3 3c 53 cc e9 3c
       -0.046727516 0.0017323309 0.027739458 0.028539812
000130 26 03 b6 bc c2 a3 ee 3c c4 fb 81 3c 20 4b a2 3c
       -0.022218298 0.02913082 0.015867122 0.019811213
000140 2f 4a 95 3c b7 6a 23 bc 29 e8 49 3b 77 3e ad 3c
       0.01822385 -0.009974173 0.0030808544 0.02114795
000150 30 61 f2 bb d8 fb 75 3c e2 72 6f bb b5 55 6a 3c
       -0.0073968396 0.0150136575 -0.0036536981 0.014302661
000160 55 c2 df b9 52 ea 0e 3d 67 70 13 3d 0c fd 21 3b
       -0.00042678663 0.034891434 0.035995867 0.0024717478
000170 66 99 dc bb 0b c6 c3 3c b2 a1 38 3c 16 1e 43 3c
       -0.0067321537 0.023898145 0.01126902 0.0119090285
000180 fb a9 de 3c 0e 25 0e 3d e9 a3 5e bc 4c 61 bd 3b
       0.027180662 0.034703307 -0.013588884 0.005779421
000190 a1 26 f3 bc b1 b4 61 bc 22 80 2a 3d 43 50 43 3c
       -0.029681506 -0.01377599 0.041626103 0.011920991
0001a0 f0 bf 99 3b 14 bb 1b bb 42 b1 83 3c 4c 5b cd 3c
       0.00469207 -0.002376263 0.016075734 0.025067948
0001b0 ef e1 9c 3b 57 d3 de 3b 15 be cd 3c 05 4c af 3c
       0.0047876756 0.006800096 0.025115052 0.021398554
0001c0 2f 2d 7f bd 37 69 25 3c 3f 9d 7d 3c fe 6a e5 bb
       -0.06229895 0.010095886 0.015479385 -0.00700128
0001d0 da fa 1e bb 73 8a 90 bb a1 49 85 3c 69 52 51 bd
       -0.0024258406 -0.0044110357 0.01627046 -0.051103983
0001e0 4d bd 0c 3c 3a 93 c0 3c cf 17 b8 3c e2 c3 3b bd
       0.008590055 0.023507703 0.02247229 -0.045841105
0001f0 c7 15 6b bc 76 03 57 3d e2 c9 aa 3d 9e 17 1a 3d
       -0.014348454 0.052493535 0.08339287 0.03762018

network_body._body_endoder.seq_layers.0.weight f4 [128, 10]
000000 27 c7 7e be 46 33 d6 3e 2f 08 55 be 3f f1 8f bd
       -0.24880658 0.41835994 -0.20803903 -0.07028436
000010 26 49 a8 be 90 ce 2b 3f 82 74 66 bc 30 d6 38 bf
       -0.32868308 0.67112064 -0.014065864 -0.72201824
000020 04 ef 0b 3e 97 86 d8 bd 45 b2 ab be 82 87 92 bd
       0.13665396 -0.10572546 -0.33534446 -0.07154752
000030 f4 48 2f 3e 94 fc c2 3e 5e b5 ae 3e 14 7a ce be
       0.17117673 0.38083327 0.34122747 -0.40327513
000040 3e be d7 3e 6c 00 67 3e e5 86 58 3e 21 5d 57 3b
       0.4213733 0.22558755 0.21145208 0.0032861906
000050 32 8a 3e 3e 40 ab 1d bf 98 18 17 bf a1 c7 b3 be
       0.18607405 -0.6158943 -0.590219 -0.35113242
000060 b6 75 10 bf 21 90 86 be 53 93 e0 3d 69 a4 ec bc
       -0.5642961 -0.26281837 0.109656 -0.02888699
000070 57 8c ee 3e f7 0c a3 3d c8 20 c5 3e 16 00 8f be
       0.46591446 0.07961457 0.38501573 -0.27929753
000080 84 20 5c be 92 26 f2 3e 72 0c bf be a1 62 6f 3d
       -0.21496779 0.47295052 -0.37314183 0.05844367
000090 f2 f6 c9 bd 44 9a 8a 3e b4 ec 56 3e 7d 58 30 be
       -0.09861554 0.2707082 0.20988733 -0.17221256
0000a0 38 34 08 3f db 8f 85 be 1e 97 4f 3e a2 e3 96 be
       0.5320468 -0.26086316 0.2027249 -0.29470545
0000b0 f5 c6 c5 3e df 7b 5f 3f cf 0f 70 3e 24 f3 8e 3e
       0.38628355 0.8729839 0.2344353 0.27919877
0000c0 8d e6 55 3e 19 b5 a5 3e 41 24 56 bf 62 ea 9c 3e
       0.2088873 0.3236473 -0.8364907 0.3064757
0000d0 0d d3 c2 be 09 1b 07 3f ec 1b 76 3e 4d 80 68 3e
       -0.38051644 0.5277563 0.24034089 0.22705193
0000e0 2a 19 80 3d 88 2e 0c bf ac 77 f8 bc 35 1e f6 3e
       0.062548 -0.547585 -0.030330501 0.4806992
0000f0 13 d5 57 3e 73 8f 0d 3e 22 e3 3d be ef aa 00 be
       0.21077375 0.13824253 -0.18543676 -0.12565206
000100 70 22 0f 3f 64 39 e0 be be b2 b2 3d 8c a1 e4 3d
       0.5591192 -0.43793786 0.087254986 0.11163625
000110 d7 aa 35 bc 12 d6 a9 3d c1 30 05 3e 28 ba ab be
       -0.011088095 0.08292784 0.1300688 -0.33540463
000120 56 57 d2 bd 86 89 91 3e 9a 85 9d 3e a7 91 bc bd
       -0.10270564 0.28425235 0.30765992 -0.092074685
000130 bb 68 02 be 06 4a 47 bc 9e fc 24 be a1 48 aa 3e
       -0.12735264 -0.012163645 -0.16111991 0.33258536
000140 bc 89 79 be 41 7e b5 be a3 56 76 3e 6d d5 bd be
       -0.24368948 -0.35447887 0.24056487 -0.37076893
000150 d6 a9 27 be 29 81 19 3f b0 67 aa bd 82 15 fa 3c
       -0.16373381 0.5996271 -0.08320558 0.030527834
000160 89 c3 c6 3d c9 b6 0c be 8b 75 40 3e bf dc 97 be
       0.09705264 -0.13741602 0.18794839 -0.29660603
000170 4e 13 fe 3d 0e 3c a3 3e 6f cb 27 3f 78 16 69 be
       0.12406026 0.31881756 0.6554479 -0.22762477
000180 3f 68 c9 be 33 cc 78 3e 08 5d eb 3e f9 87 b0 be
       -0.39337346 0.24296646 0.45969415 -0.3447874
000190 a7 da 61 3e 87 4d 2f 3e b5 e7 0a 3f 8b 26 b2 be
       0.22056065 0.17119418 0.54259807 -0.3479503
0001a0 0b 16 c2 be d3 b0 c5 3e 5b 36 87 bd d6 b2 68 3e
       -0.37907442 0.3861147 -0.06602164 0.2272447
0001b0 b9 f8 13 3f 45 8f 2e bd d5 38 2a 3e df 29 51 bc
       0.57801396 -0.0426171 0.16623242 -0.0127663305
0001c0 71 1a be be da e1 cd bd cc 28 d6 bd 96 8b 5a be
       -0.37129548 -0.100528434 -0.10457 -0.2134231
0001d0 ca a2 a5 3e 65 7c 2c bf 40 bb 8e bb 67 50 a7 be
       0.3235076 -0.6737731 -0.004355818 -0.3267853
0001e0 37 4c 06 bf 38 65 c6 be ab e1 5c be 63 a7 a3 bc
       -0.52460045 -0.387491 -0.2157046 -0.019977277
0001f0 40 6c c0 3e 85 a4 c2 3b 9a dc b3 3e 4d 01 04 3e
       0.37582588 0.0059400224 0.35129243 0.12891121
000200 82 46 93 3e dd 7c 90 3e 52 1f 12 bf 44 a0 c2 bd
       0.2876473 0.28220263 -0.5707904 -0.095032245
000210 b7 ec 04 be 2f ff 10 bd ab 95 87 3d af 32 12 3f
       -0.12980925 -0.035399612 0.06620344 0.5710859
000220 22 1c 07 3f c8 98 29 3f 7d 0e f4 3e 25 9a 7b 3d
       0.527773 0.6624875 0.47667304 0.0614263
000230 ea c7 2f 3f 8e f6 03 be fe bc 82 3e b8 4b e8 3c
       0.6866442 -0.12887022 0.25534815 0.028356418
000240 8d c0 34 3e 1d 6d 8e 3e cb ac 08 bf 67 19 72 3e
       0.17651577 0.27817622 -0.5338866 0.23642503
000250 94 1f e5 3d c5 0f f0 be 94 fd 53 3e b4 e9 6a be
       0.11187664 -0.4688703 0.20702201 -0.22940713
000260 2e c4 59 be 45 a1 14 3f 93 0a 27 be c4 a6 f8 be
       -0.21266243 0.5805858 -0.16312627 -0.48564732
000270 87 1f 67 3e 4a 9e 02 3f c0 74 0b be 63 58 b0 3d
       0.2257062 0.5102278 -0.13618755 0.086106084
000280 41 ed 4b bf 08 1d 24 3e a4 99 8b 3d 62 17 97 be
       -0.79658896 0.160267 0.06816414 -0.29510027
000290 bd 26 56 3e a0 ca f6 bc 14 92 c5 be d2 27 23 bf
       0.20913215 -0.030125916 -0.3858801 -0.63732636
0002a0 85 75 1d be b9 f3 a7 3e 41 b8 4b 3e 2a 62 8b 3e
       -0.15376861 0.32803133 0.19894506 0.2722333
0002b0 d6 e6 90 be fe 72 51 be da 2a 39 bf e4 f3 b6 3d
       -0.28301114 -0.20454022 -0.7233101 0.08933237
0002c0 1f 7f bf 3d 77 6e 4b be f4 51 39 bf 6c d1 8b 3e
       0.09350418 -0.19866358 -0.72390676 0.27308214
0002d0 39 ff 84 3e fd b4 ca be 95 5b 4f 3e 7b e7 8b be
       0.2597597 -0.39591208 0.2024978 -0.27325043
0002e0 c0 1e 1f bf 63 6c e2 be 89 df 58 3e ff b7 a3 3e
       -0.62156296 -0.44223318 0.21179022 0.31976315
0002f0 00 52 60 3d 58 50 13 3f 9a c6 08 3e 95 be 4d 3f
       0.0547657 0.5754447 0.1335701 0.8036893
000300 9a 09 5c 3f 7c 2f 6d 3e f7 b2 81 3e cd 3d e3 3c
       0.8595215 0.23162645 0.25331852 0.02773943
000310 df 81 e8 bd 63 7e ab 3d e8 1d bd be b1 4f c8 3d
       -0.11352896 0.08373716 -0.3693688 0.09780825
000320 e0 d7 2e be 28 8d d8 3d 76 ff 86 3e 61 17 72 be
       -0.17074537 0.105737984 0.26366776 -0.23641731
000330 a0 74 e6 bd 2d 31 c6 bd 7d 2a c2 be d6 42 1d bb
       -0.11252713 -0.09677348 -0.3792304 -0.0023996136
000340 ab 4b 2a bd a3 80 8f bc 7e 10 97 3e 16 ea 39 3f
       -0.04157607 -0.017517393 0.2950477 0.7262281
000350 68 bf 91 3d c1 8e 51 3e a2 f8 16 be d6 56 ce be
       0.07116586 0.20464613 -0.14743283 -0.40300626
000360 3a b9 aa bd 63 f8 1d bf 05 73 ed bd 84 a8 91 3d
       -0.083361104 -0.61707133 -0.11594204 0.0711222
000370 1f 53 23 bf 7c 25 d7 3d 77 73 19 be d3 8a 02 3e
       -0.6379871 0.105051965 -0.14985453 0.1274827
000380 0c 88 49 3e 6d 2a 10 bf cb a4 ea ba 57 59 c0 be
       0.19680804 -0.56314737 -0.0017901895 -0.3756816
000390 a8 c0 34 bd 29 cf bd 3e 00 ed ad be ab c8 43 3e
       -0.044129044 0.37072113 -0.3396988 0.19119518
0003a0 52 3f 87 bc 3d 10 ee 3e 43 77 95 be eb 75 90 3e
       -0.016509686 0.46496764 -0.29192552 0.28214964
0003b0 28 6b 8f be e4 dd c9 3c 2f 42 31 bc e1 6e f4 3d
       -0.2801144 0.024641939 -0.010819002 0.11935211
0003c0 0f 99 0d bf 08 07 c1 3e 23 bd 24 bd 10 11 b7 3e
       -0.55311674 0.37700677 -0.040219437 0.35755205
0003d0 0f 1d d6 3e 0e 1c 7c 3e fe e7 4c 3d 58 51 0e bf
       0.41819045 0.24620077 0.050025932 -0.5559287
0003e0 49 9f 86 bd ce 23 1d 3e 25 07 07 3e a1 0e 9e be
       -0.0657335 0.1534569 0.13186319 -0.30870536
0003f0 4e 4e 33 bd 3e 82 36 be 59 41 ba 3e 50 66 fa 3d
       -0.04377585 -0.17823121 0.3637798 0.12226546

network_body._body_endoder.seq_layers.2.bias f4 [128]
000000 ba 2b 9a 3d f7 02 00 3d 35 a9 e1 3c af 03 91 bc
       0.075278714 0.031252827 0.027546505 -0.017701952
000010 7b a5 85 3c d1 6f a8 bc 44 1b 5a 3d b2 07 7d 3c
       0.016314259 -0.02056113 0.05324866 0.015443729
000020 d7 32 98 3d 1f cf 9c bc 33 53 08 3d 60 68 5f 3d
       0.07431572 -0.019141732 0.03328247 0.0545429
000030 0f db 74 3d 9c 52 21 3d f7 53 26 3d 76 b6 03 3d
       0.059779223 0.039385423 0.04060742 0.03215643
000040 4f 40 92 bd cc 47 c4 3c 0d e5 8e 3d 08 24 78 3d
       -0.07141172 0.023960017 0.06977282 0.060581237
000050 41 2b 60 3d 21 64 84 3d 8a 1c 19 3d 66 2a 0c bd
       0.05472875 0.064644106 0.037380733 -0.03422012
000060 5c be a0 bc 1d 77 4b 3c 99 c4 16 bc b8 48 4a 3d
       -0.01962202 0.012418536 -0.009202146 0.049385756
000070 a6 86 3e 3c b6 2b a9 3c d6 47 cf 3c cc 5d 61 bc
       0.011628782 0.020650726 0.025302809 -0.013755273
000080 90 3b 41 3d 43 fe 8e 3d df 0f b6 3d dc b8 09 3a
       0.047175944 0.0698209 0.08889746 0.00052536814
000090 1a a3 9d bd 9e b4 64 3d 05 a8 0f bd 69 4f 9d 3d
       -0.07697125 0.055836312 -0.035072345 0.07681162
0000a0 8b 4a 26 3d 45 74 50 3d 7f c2 f1 bb 97 69 03 3d
       0.040598433 0.050892133 -0.007377922 0.03208312
0000b0 d4 61 4a 3d d9 bb 6c 3d 8a d6 78 3d a8 39 1c 3d
       0.049409702 0.057796333 0.060751475 0.038140923
0000c0 9c 85 54 3d 2a 8b 73 3d d8 ba 1e 3d d8 e0 ef 3c
       0.051885232 0.05945889 0.038752407 0.029282019
0000d0 76 2d 0d 3d e8 40 a3 3d 16 53 84 3d bb 64 7a 3d
       0.034467183 0.07971364 0.0646116 0.06113122
0000e0 9c cb c4 3b bf b9 1e bc 2e 99 b0 3d a1 2c 7d 3d
       0.0060057174 -0.00968784 0.08622967 0.06181014
0000f0 b3 6f 30 bd a0 d7 52 3d ef 82 c7 bb 7e 7d 84 3c
       -0.043075275 0.051475167 -0.0060886065 0.01617312
000100 ed dc 15 3d 91 d4 b1 bb 32 2a 5f 3d 18 f2 83 3c
       0.036587644 -0.005426951 0.0544836 0.01610665
000110 7c ad dd 3b 4a 4e bd bc 18 fa 36 3b 33 83 3c 3d
       0.0067650657 -0.02310862 0.0027920064 0.04602356
000120 57 9d ae 3d 9c 04 7e bc 9b 88 93 3d f8 87 bf 3c
       0.08526104 -0.015504029 0.0720379 0.023380265
000130 fe 36 93 3d ef 18 d3 3c 92 ed 89 3d e5 dd 6e 3d
       0.07188223 0.025768725 0.06734766 0.058317084
000140 16 b0 cf 3b 86 b5 54 3d cb 6f 76 3d 3e 5b 6a 3d
       0.0063381298 0.051930927 0.060165208 0.05721592
000150 03 b1 3e 3d 87 f7 83 3d 25 38 ed 3c e8 6c 97 bc
       0.04655553 0.064436965 0.028957436 -0.018484548
000160 cc 0d 44 3c 8d b8 30 3d 9c 63 19 bd 50 2f 49 bb
       0.01196618 0.04314475 -0.03744851 -0.0030698366
000170 05 a1 86 3c 4e 18 20 3d a1 f4 4b bc e1 04 cb bc
       0.016434202 0.03908568 -0.012448461 -0.0247826
000180 d0 be 03 bd b7 4a 56 3d 4e 8a 27 3c ef 3a 4b 3d
       -0.032164395 0.052317347 0.0102258455 0.04961675
000190 4e e6 48 3c 24 3b 99 bd 57 a8 9b 3c 32 8d d0 3c
       0.01226194 -0.07481983 0.01900117 0.025457952
0001a0 24 4a 20 3d 9d 59 50 3c 40 de 07 bd a3 48 5b 3d
       0.039133206 0.012716678 -0.03317094 0.05353607
0001b0 cb b7 08 bd e5 5e 48 3d 38 7a 1e 3d e6 e3 a4 3d
       -0.033378404 0.048918623 0.038690776 0.08051281
0001c0 54 9b 73 3d 79 a2 1f bd 0c ea d1 3c d5 9f 31 3d
       0.059474304 -0.038973305 0.025624298 0.04336532
0001d0 ea 1b 67 3d e7 6a 4c bc 6c 24 a7 3d 94 b0 3e 3d
       0.056423105 -0.012476659 0.08161244 0.046555117
0001e0 bf 91 3b 3c f2 9a ca 3c b0 43 e7 bc 23 ca d4 3c
       0.011448323 0.024732087 -0.028230518 0.025975293
0001f0 ca ca 03 3b 8c 81 e7 3c 8c ba aa bc 85 e6 6f 3d
       0.0020109885 0.028260015 -0.020840906 0.05856945

network_body._body_endoder.seq_layers.2.weight f4 [128, 128]
000000 a9 e8 16 3c 0c fc a0 3d bb ab 90 3c ad b7 47 3d
       0.009210744 0.07860574 0.017660012 0.04875915
000010 53 ea 8d 3d 3b 3c 8b bd 79 79 8a be da 3d aa 3d
       0.069294594 -0.067985974 -0.270458 0.083125785
000020 29 2f 8b bc 40 d8 20 3d db 4f 64 be 4c 5f b6 3d
       -0.016990261 0.039268732 -0.22296087 0.08904895
000030 6a 1d b0 3d d3 6f 64 3e e9 86 c4 b9 73 5a 91 bb
       0.0859936 0.22308283 -0.0003748455 -0.004435831
000040 e5 66 4d 3d 80 a2 fc bd 96 99 af bc 3c 1b 91 bc
       0.050146956 -0.12335682 -0.02143554 -0.017713182
000050 32 2f 4a 3d ca 58 b2 3d b1 ce 0c 3e 6a 53 99 3d
       0.049361415 0.087083414 0.13750722 0.07486613
000060 6f 45 4a 3d 32 f2 c1 bd 9b 43 1a be 17 6e d5 bb
       0.049382623 -0.09470023 -0.15064852 -0.006513368
000070 0a be d3 bd 0c 43 d1 3d 29 45 15 bb d6 a8 40 be
       -0.103389814 0.10217866 -0.0022776818 -0.18814406
000080 52 93 dc bd fc 85 89 3d 23 6b b1 3d 7a d7 42 3c
       -0.107702866 0.067150086 0.08663013 0.011892194
000090 6e 31 31 be da bb ce 3c 01 dc 8a 3c e2 1f bf 3d
       -0.17304012 0.025236059 0.01695061 0.09332253
0000a0 79 e3 cd bd 10 22 30 3d 9c db 38 bd d4 be ab 3c
       -0.100531526 0.043001235 -0.04513131 0.020965017
0000b0 a9 f5 a1 bb 8e 52 c8 bc 7a 21 0a 3e 4f b1 09 3d
       -0.004942615 -0.024453428 0.13489333 0.03361636
0000c0 d1 95 f5 3d 09 17 3b 3d 25 34 fa 3d c8 f5 a2 bd
       0.11991466 0.045676265 0.12216977 -0.07957035
0000d0 aa 10 9e 3b f9 34 3d be fe 2a 4f bd b4 6d 07 bd
       0.004823764 -0.18477239 -0.05057811 -0.033063605
0000e0 c9 d4 da bd e8 39 b1 bd 35 83 f6 bd 8a 6f 35 be
       -0.10685117 -0.08653623 -0.120367445 -0.1771833
0000f0 1e 47 77 bd 3b 15 84 bd 84 71 6e 3d 22 bc f0 3d
       -0.060370557 -0.06449362 0.058213726 0.117546335
000100 0c de 85 bd bb 77 97 3c ba c6 0c 3c 56 b9 a1 bc
       -0.06536493 0.01848971 0.008592302 -0.019741695
000110 3a bc 87 bd 71 df 15 be 1a 8c 15 bc ef 25 b0 3d
       -0.06627698 -0.14636017 -0.009127641 0.08600985
000120 3e 3f de bd a6 83 d9 bd d7 29 01 bd 2e a7 94 3c
       -0.10851906 -0.10620813 -0.031534042 0.018146124
000130 d2 fc 57 bc 9f cd 27 3e 26 12 c4 3d 2a ab 73 3c
       -0.013182836 0.16387032 0.09573774 0.014872352
000140 1f 10 93 bc 5b 89 82 bc 4c bd bd bc bd f7 01 3e
       -0.017952023 -0.015934637 -0.023161553 0.12692161
000150 c9 a5 4b 3d fb 56 b1 3c 94 6d 96 3d 2a 2d e0 3d
       0.049718652 0.02164792 0.07345119 0.10946114
000160 77 ba dd 3d 4e b6 32 3e 61 e4 43 be c9 90 c7 bd
       0.10826581 0.17452356 -0.19130088 -0.097444125
000170 b2 3e a3 bd 10 83 b8 bd dd 59 05 3d a4 d0 85 bd
       -0.079709426 -0.09009373 0.032556403 -0.06533936
000180 14 2c 9a bd 18 a6 ea 3c f5 45 93 3d fe 31 0f 3e
       -0.075279385 0.028643653 0.071910776 0.13983914
000190 00 15 5a bd 61 09 97 3d 6b 81 98 3c a7 c6 8e bd
       -0.053242683 0.07374836 0.018616399 -0.06971484
0001a0 52 9d 2c 3e 9e 39 ae 3d a4 48 74 bd fe a3 47 3d
       0.16856888 0.08507083 -0.059639588 0.04874038
0001b0 73 cc a0 3d 1c c8 26 3d 8f b3 12 be 93 55 d4 3c
       0.078514956 0.040718183 -0.14326309 0.025919711
0001c0 76 57 12 3d 2b d3 20 3d ba 44 1e 3d 71 19 de bc
       0.03572794 0.039263885 0.03863976 -0.02711174
0001d0 b5 07 f9 3b 70 98 f4 3c 9a a9 97 bd f4 0e 47 be
       0.0075997957 0.029857844 -0.07405396 -0.19439298
0001e0 65 ae 1e bc 4f 28 dd 3d b2 62 ec bc 80 bf e0 bd
       -0.009685134 0.10798704 -0.028855655 -0.10974026
0001f0 67 34 4f be 6f 47 28 3e e0 79 30 bc 6d db 83 bc
       -0.20234834 0.164335 -0.010771245 -0.016095841
000200 0a 60 5d 3e 6b e8 09 3e 87 5e 63 bd 1f 88 fa bd
       0.21618667 0.13467567 -0.05551007 -0.12232994
000210 9c 82 97 be d1 b6 19 3e 13 5b e6 bd 67 4d 5d 3d
       -0.29591835 0.15011145 -0.1124784 0.054028895
000220 40 66 f3 bc f0 2e 92 3d 2a 84 bb be 02 65 17 bd
       -0.029711843 0.07137859 -0.3662427 -0.036961563
000230 13 73 57 3d 3c 11 8f 3e 2d 17 d2 bd a0 58 2b be
       0.052599978 0.27942836 -0.10258327 -0.16733027
000240 dc 4f b4 3d 73 3a 36 bd c8 00 4d be 31 ca c0 bd
       0.088042945 -0.044489335 -0.2001983 -0.09413565
000250 3c 9b ed 3d 67 a6 26 bd 24 a3 d5 3d 0e c8 94 3d
       0.11601874 -0.040686037 0.10431507 0.0726472
000260 59 1c 03 3e 3c dc 02 be cf 9f 2b bd e0 0c da bd
       0.12803783 -0.12779325 -0.041900452 -0.10646987
000270 84 c8 9c 3d 91 59 17 3e e1 2b 09 3e 86 28 69 be
       0.07655433 0.1478026 0.13395645 -0.22769365
000280 64 f4 d4 3d 3b 0a 3b be 68 92 78 be 3f be 0b 3e
       0.10398176 -0.18265621 -0.242746 0.13646792
000290 ca fe 93 3c e3 9d 96 bd 84 21 c4 be 41 cb 4c be
       0.018065829 -0.07354333 -0.3830682 -0.1999941
0002a0 f9 b3 49 3d ee 0d 46 bd 4c 9f f4 3c 5c ac 17 3c
       0.0492439 -0.048353128 0.029861115 0.009257402
0002b0 a4 78 51 bd de 6c 85 3e 5a 06 a7 3e e0 29 29 3e
       -0.051140442 0.26059622 0.32622033 0.1651988
0002c0 37 35 4e bc bd 85 45 3b 33 4c 90 be 92 f3 d5 3c
       -0.01258593 0.0030139529 -0.28183135 0.02611712
0002d0 cc 59 02 3d d2 be 2d 3d dc de 10 3e 7a 71 c5 3d
       0.03182392 0.04241831 0.14147514 0.096407846
0002e0 17 f3 df bd 1e e2 61 be b3 91 c2 bd f9 8c 58 bd
       -0.109350376 -0.22058913 -0.09500446 -0.052868817
0002f0 ca 23 3a be 87 09 69 bd ac a9 1a be 46 d3 38 3e
       -0.18177715 -0.05689385 -0.15103787 0.18049344
000300 19 f8 6d 3e e9 ab 89 be 20 28 7d 3d bd 09 85 be
       0.23239173 -0.2688897 0.061805844 -0.25983992
000310 1c 6c f8 bd d4 ee 6e bd ec 2c 94 3e f0 48 ba 3d
       -0.12129995 -0.058333233 0.28940523 0.09095943
000320 6e 43 2b be bd 0b 4b be d2 e1 4c be b5 49 5e be
       -0.16724941 -0.19828697 -0.20008019 -0.21707805
000330 27 76 fe 3d aa d4 e4 bd 07 ab dc bd 63 29 7c 3e
       0.124248795 -0.11173375 -0.107748084 0.24625163
000340 f6 0a 13 3e 6b 3e d3 3d 97 50 02 3e 36 1a 12 be
       0.1435965 0.1031464 0.12726055 -0.14267811
000350 9b 5c a8 3e a4 91 57 be e3 85 88 3e 1b 32 7d be
       0.32883152 -0.21051651 0.26664647 -0.24726145
000360 05 e1 48 3e c4 03 01 be 38 c1 79 be da d0 62 3e
       0.19617088 -0.12599093 -0.24390113 0.22149983
000370 33 ac d4 3d 28 c2 e1 bd 70 4c b2 bb a8 6a 8c 3e
       0.10384407 -0.110233605 -0.005441241 0.27425122
000380 c6 cc 98 bd 22 69 86 3d f1 1f b8 bd dc b6 fe bc
       -0.074609324 0.06563021 -0.08990467 -0.031093054
000390 23 e1 87 3d 28 af ba 3d d8 49 96 3d 75 9e 8f 3d
       0.06634738 0.0911544 0.07338303 0.07012645
0003a0 93 26 46 3e b5 47 17 3e 40 4d f2 bc 3f b7 ad bd
       0.19350652 0.14773448 -0.029577851 -0.08482217
0003b0 e7 5f 2a 3e 6a 56 b1 be c3 6f 28 bd 2a e8 16 be
       0.16638146 -0.3463624 -0.04112221 -0.14737001
0003c0 c4 18 f6 3c c8 80 3e 3e 11 90 d3 3d a3 aa 35 be
       0.030041106 0.18603814 0.10330213 -0.17740874
0003d0 b0 c6 ab 3d e4 5d 12 3e f9 12 95 3d 8e 25 81 bd
       0.08387506 0.14293629 0.07279009 -0.06305991
0003e0 34 86 44 be cf c2 dc 3d 44 03 3b be 24 06 05 be
       -0.1919182 0.10779344 -0.18262964 -0.12990624
0003f0 90 8f 03 be 19 d0 01 3e a1 dc 45 3e a5 cb 33 3e
       -0.12847733 0.12677039 0.19322444 0.17558153
