Foosbots_working/results/foosballTraining/Foosbots_working/Foosbots_working-1070.onnx (onnx, 74687 bytes, 7 tensors)

action_model._continuous_distribution.log_sigma f4 [1, 2]
000000 75 54 94 3b 8c 59 e5 bc
       0.0045266696 -0.0279968

action_model._continuous_distribution.mu.bias f4 [2]
000000 28 89 3b bc da 45 06 3c
       -0.011446275 0.008195365

action_model._continuous_distribution.mu.weight f4 [2, 128]
000000 3d f3 1c bd 94 93 89 3c 82 8f d6 bc 44 23 e4 bc
       -0.038317908 0.016794004 -0.026191477 -0.027848847
000010 df 0a 42 bd a3 a8 3d bc 34 86 1e 3d d9 ed df 3c
       -0.04737365 -0.011575851 0.038702205 0.027335094
000020 3b af d0 bc e6 4a 3b 3d 0c ce b7 3c e7 0c 24 bd
       -0.025474181 0.045725726 0.022437118 -0.040051367
000030 87 83 3b bc c2 46 9f 3a 6d 74 da bc f1 73 46 bd
       -0.011444933 0.0012151825 -0.026666844 -0.048450414
000040 5f b4 20 3d b4 c4 c5 bc 74 ca 3f 3d bf f6 c6 3c
       0.039234515 -0.024141647 0.046823934 0.02428758
000050 c8 20 57 bc 42 34 d4 bc d1 a8 ec 3c ce 3a ef 3c
       -0.013130374 -0.025903825 0.028889092 0.029202845
000060 03 41 d6 bc 14 79 b1 bc 88 2f 32 bd a3 98 04 3d
       -0.026154047 -0.02166418 -0.04350236 0.03237213
000070 82 b0 0c bd 78 2d 53 3d be 4b 9d 3a c0 f4 6d 3c
       -0.03434802 0.051557034 0.0012000722 0.014523685
000080 51 e9 c3 3c 8a f0 b9 bc 7b 83 1c bd 59 ff cb bc
       0.023914965 -0.022697706 -0.038211327 -0.024902033
000090 1d 2c 92 bc 5f ab 4c 3c 85 57 c5 bc 2d bd 16 bd
       -0.0178433 0.01249203 -0.024089584 -0.036801506
0000a0 d5 ec 43 bd ef 82 cf 3c 58 67 95 bd e5 08 b9 3b
       -0.047833283 0.025330989 -0.07295102 0.0056468123
0000b0 2a 01 96 3c 3a fd 63 bc d1 ec 28 3c b5 08 a0 3c
       0.018311102 -0.013915354 0.010310368 0.019535402
0000c0 14 28 aa 3b fe cb 83 bc ce 4b 01 3d 30 38 a3 bb
       0.005192766 -0.016088482 0.031566434 -0.0049810633
0000d0 05 c3 d3 3c d6 e1 fa 3b 62 bc 22 bd f7 06 26 bd
       0.025849828 0.0076563163 -0.039730437 -0.040533986
0000e0 4a 52 83 3c fe cc 4f bc 23 d0 96 3c 4a 51 a6 3c
       0.01603045 -0.012683151 0.018409794 0.020302434
0000f0 77 d3 0a bd 30 cd 06 bd 34 e2 cc 3c 68 00 eb 3c
       -0.033893075 -0.032910526 0.025010206 0.028686717
000100 71 b9 2b 3d cb 33 2c 3c 8b f2 e9 3c ee 80 e6 3c
       0.041924898 0.010510395 0.028558036 0.02813765
000110 06 68 51 3d 43 e4 02 bd 67 ab a6 3c 21 14 1e bd
       0.051124595 -0.03195597 0.020345403 -0.038593415
000120 7d 32 89 bb 6a 07 57 bc 01 f3 38 bd da 9b 88 3b
       -0.004186927 -0.013124326 -0.04515362 0.0041689696
000130 34 c0 fe bc dc 87 68 bc 4c af 2a 3d 41 75 e9 3c
       -0.031097509 -0.014192548 0.041671082 0.028498294
000140 0c 5f 36 3d 6b 6a 2c 3d df 10 25 bd f9 2b 28 3d
       0.044524238 0.042093676 -0.040299293 0.04105756
000150 5f fe 54 bc 4c c4 05 bb 83 d6 66 bc 9d ea 71 bc
       -0.0130001 -0.0020411192 -0.0140892295 -0.014765409
000160 5f 6e 3f 3d 42 f2 7b bc 33 11 fd bb 0a c2 79 3c
       0.046736117 -0.015377583 -0.0077229976 0.015244016
000170 30 00 c1 3b 37 94 3e bc ab 3a 83 bb f2 d6 d7 3c
       0.005889915 -0.011632017 -0.0040047965 0.026347611
000180 38 d5 4a b9 05 ed 5c bb 7f a7 ef 3c 50 70 92 bb
       -0.00019343651 -0.003371061 0.029254673 -0.004468955
000190 79 a0 8d 3c 39 c6 fe 3a 81 e2 3e bc 18 99 82 3c
       0.017288433 0.0019437737 -0.011650682 0.015942141
0001a0 f7 06 34 bd f6 27 9e bc 30 4c 1a 3d 14 0f 54 3d
       -0.043951955 -0.019306164 0.037670314 0.051772192
0001b0 c0 39 16 3c 70 35 92 bc 0c 7a fb bc b6 ed ae bc
       0.009169042 -0.017847747 -0.030697845 -0.021353584
0001c0 ad b0 a8 3d 47 32 d8 bc d0 ac 83 3c cf 86 18 bd
       0.08236823 -0.026391162 0.016073614 -0.03723794
0001d0 e2 38 df bb 59 5c d3 bc 95 2b 9b 3c 34 16 69 bc
       -0.006812201 -0.02580087 0.01894168 -0.014226485
0001e0 d8 48 83 bc 2a 48 0b 3d 9e a8 ce bc d3 38 6a bd
       -0.016025946 0.034004368 -0.025226887 -0.057183098
0001f0 0c 90 a3 bb 25 e7 73 bc 36 5d 5f 3b 81 2f c1 bc
       -0.004991537 -0.014886652 0.0034082658 -0.023582222
000200 5a 6e 95 b7 47 36 bb 3c 15 69 19 bd 38 11 b1 3c
       -1.781357e-05 0.02285303 -0.03745373 0.021614656
000210 71 27 08 bc 05 d0 2f bc a5 13 36 3c dd 45 8e bc
       -0.008310185 -0.010730748 0.011113082 -0.017367298
000220 e8 2c 53 bb cd 99 c0 3b 28 d2 34 3d 56 f3 ae bc
       -0.003222281 0.0058777095 0.044145733 -0.021356266
000230 3a 62 47 39 db 96 af bb cb d3 45 bd 1c 17 38 3b
       0.00019014711 -0.0053585595 -0.048297685 0.0028089946
000240 0b 9e 1d 3c 37 8c d1 ba dd 9a 36 bc 18 9b a6 3b
       0.0096202 -0.0015987222 -0.011145321 0.0050844066
000250 98 0e 12 bb 6c 17 a3 ba 94 f0 d1 3c fb e0 72 3c
       -0.002228653 -0.0012442893 0.025627412 0.014824147
000260 58 b0 3f bb f3 2a 4c bc 68 6f f0 bb 9a 8c d8 ba
       -0.0029249396 -0.012461412 -0.0073374994 -0.0016521395
000270 4c fe b4 bb a1 33 b2 3c 7d be dd 3a 3c 75 1b 3d
       -0.0055234786 0.021753134 0.0016917732 0.0379536
000280 04 9a 4f bb 91 02 49 3a a7 ef e3 3b 2c 6f e7 bc
       -0.0031677494 0.0007667924 0.006956059 -0.028251253
000290 af a8 d5 39 a2 c7 b4 3a 5f a8 a6 3c 9c e0 86 bc
       0.00040752205 0.0013792405 0.020343957 -0.016464524
0002a0 5f aa b2 39 18 e9 0d 39 c2 a3 38 3c b8 87 c3 bb
       0.00034077742 0.00013533642 0.011269512 -0.0059671067
0002b0 10 b3 c9 3c 17 fe 48 3d 7f 61 0a bc 60 40 01 3d
       0.024621516 0.049070444 -0.008446096 0.031555533
0002c0 a0 a0 eb bc fd e6 a4 39 60 d4 83 3c 48 ec ae bc
       -0.028763115 0.00031452617 0.01609248 -0.021352902
0002d0 49 b1 1f bc 87 42 b9 bb b6 3f 52 bd 7d 6a cf bc
       -0.009746858 -0.0056536826 -0.05133029 -0.025319332
0002e0 7a 54 4b bc a3 1f 42 bd bc 57 62 3b 0b af 65 bc
       -0.0124102775 -0.047393452 0.0034537157 -0.014018784
0002f0 44 59 79 bc 1f 99 a1 bc 2d ba 0d bd cf fd 2c 3c
       -0.0152190365 -0.019726334 -0.03460138 0.01055856
000300 27 57 41 3c 3b 60 a4 3c f6 c4 a8 3b 53 76 42 3c
       0.011800564 0.020065418 0.0051504327 0.011869031
000310 16 75 a5 3c 3f b7 e1 ba 9d ac d9 ba 4c 14 84 bc
       0.020197432 -0.0017220749 -0.0016607229 -0.01612296
000320 d8 f9 b3 bc 77 ff e7 3a 70 82 da bc b6 39 9b 3c
       -0.02196972 0.0017700036 -0.026673526 0.018948417
000330 a6 31 b0 bc de ec 83 3c e0 1d 25 3d 59 e7 8c 3b
       -0.02150805 0.016104158 0.040311694 0.0043000397
000340 c3 f9 4b 3c 87 ca 84 bc 1d e9 93 bb 50 8f 13 ba
       0.012449685 -0.016209854 -0.0045138733 -0.000562896
000350 45 28 9c bb 56 98 17 bc 7d 1f 36 3c ba 3d a8 bc
       -0.0047655427 -0.009252628 0.011115906 -0.020537246
000360 26 41 8d 3c 93 a5 c6 bc 60 c6 bf 3c e2 82 b9 bc
       0.01724298 -0.024248874 0.023410022 -0.022645418
000370 0d a0 a5 3b cc f0 5e 3d 5e 48 ab bb d3 28 c8 3c
       0.00505448 0.05442886 -0.0052271327 0.024433529
000380 4a 85 3b bc e6 c7 89 bc b9 e2 59 3a 3c 5d 9c ba
       -0.011445353 -0.016818952 0.00083116774 -0.0011929641
000390 95 19 0c 3d 1f 61 18 3d 3c de 3e bc 50 80 fb 3c
       0.034204084 0.037201997 -0.0116496645 0.030700833
0003a0 61 63 c2 bc b9 8e 0e bc 3b 09 c4 3c 87 dd 8a 3c
       -0.023729028 -0.00870102 0.023930183 0.016951336
0003b0 4e 8e 11 bd 0d 97 d7 bc d6 0f 42 bc 47 f2 d8 bb
       -0.035536103 -0.026317144 -0.011844596 -0.0066206786
0003c0 a5 d1 d3 3c 5d 87 21 bd 31 84 fd bc d9 fa 1e bd
       0.025856802 -0.039435733 -0.030946823 -0.038813446
0003d0 37 c9 d6 bc 1b fa 87 bc 83 2f a0 bc a7 f4 76 bc
       -0.026218994 -0.016598752 -0.019553905 -0.015072978
0003e0 15 29 e5 3c 70 61 82 bc 4a cb b5 bc 72 5c 61 3b
       0.027973691 -0.015915602 -0.022191662 0.0034387377
0003f0 cb 74 cb bc 96 8c 3e bc f2 e9 a4 3c 2a b9 36 3a
       -0.024835965 -0.011630198 0.020131085 0.00069703406

network_body._body_endoder.seq_layers.0.bias f4 [128]
000000 e7 dd be bb 2b f9 81 bc ad 73 8b ba f8 1f 8f 3c
       -0.0058247927 -0.015865883 -0.0010639332 0.017471299
000010 3b f2 be 3b 6b 28 86 bc fb cc 06 bc 31 d1 6b 3b
       0.005827216 -0.016376695 -0.008227582 0.0035982842
000020 a0 ae d3 bb 7b 1f 9b bc db eb 87 3c 57 52 3c 3c
       -0.006460026 -0.01893591 0.016591957 0.011494241
000030 61 3a ee 3b 85 f9 a6 bc 0b 2c 91 bc 52 84 3e bc
       0.007270143 -0.020382652 -0.017721197 -0.011628227
000040 1f 51 9a 3b 1c be 55 3b f5 86 d5 bb e4 0a 98 3c
       0.0047093774 0.0032614535 -0.0065163323 0.01855988
000050 72 8c 08 39 ca e5 6f 3c 01 ca 8a 3c 84 44 54 3c
       0.0001302229 0.014642188 0.016942026 0.0129557885
000060 1f eb 67 bc fc 16 02 bc 2b b7 87 3b 26 c7 d1 3b
       -0.014155178 -0.00794005 0.0041417084 0.006401914
000070 c7 00 e3 3b c2 d2 7f 3c 84 73 9e 3c 22 a9 37 bc
       0.006927583 0.015614213 0.019342192 -0.011209758
000080 74 41 51 bc 24 e9 31 3c 30 13 59 bb ff 2c f2 bb
       -0.012771953 0.010858808 -0.003312301 -0.007390618
000090 ed 98 94 3c bf 69 19 3c 6d 38 1b 3c b3 f1 87 3c
       0.018139327 0.009363591 0.009473902 0.016594743
0000a0 d0 ef fc bb 15 41 89 3b 4a ac 1a 3c 6a 8b 74 bc
       -0.0077190176 0.0041886666 0.009440491 -0.014925817
0000b0 73 96 37 bc 31 85 89 3b f1 52 a6 ba 64 41 a2 bb
       -0.0112053035 0.004196786 -0.0012689513 -0.004951643
0000c0 57 30 2b 3c 9a 3c 00 3c e6 3c e5 3a 29 26 9b bb
       0.010448537 0.007826949 0.0017489463 -0.0047347737
0000d0 95 0a 19 3c 7e 91 c9 3a 68 fc a8 bc fe 1f 8c bb
       0.009340902 0.0015378443 -0.02062817 -0.0042762747
0000e0 68 0f 67 bb 31 2f 72 3c c4 1c c6 3b 02 25 a4 3c
       -0.0035256986 0.014781759 0.0060459096 0.020037178
0000f0 dc f1 de 3b e2 85 78 3c f0 f1 78 3c 08 58 8d 3c
       0.006803734 0.015168639 0.015194401 0.01725389
000100 95 37 a3 3b a6 83 5c 3b 19 7c 7b bc dd 55 88 3b
       0.004980991 0.0033647805 -0.015349411 0.0041606263
000110 52 5e 90 3c fb d3 2f bc fc fb e5 3b 46 16 6e 3c
       0.0176231 -0.010731692 0.0070185643 0.014531678
000120 6a f7 62 3c f7 8e 9e 3b 0c 25 d2 3b ca f9 6f 3c
       0.013852933 0.00483882 0.0064131077 0.014646957
000130 7d 11 75 3c 69 d5 03 bc f3 ad 96 3b a2 03 86 bc
       0.014957783 -0.008046486 0.004598373 -0.016359154
000140 52 94 15 3c d0 e9 c6 3a d2 bc 17 bc 73 3f 76 3c
       0.009129601 0.0015175883 -0.009261327 0.015029776
000150 19 3f 7c bb 37 b2 be bb 0e 02 87 3c 47 18 98 3c
       -0.0038489758 -0.0058195847 0.016480472 0.018566264
000160 51 0b 26 3c 61 0b 15 3b 00 88 b4 bb f3 8c 9a bc
       0.010134534 0.0022742378 -0.0055093765 -0.018866038
000170 00 db c1 bb 9d 49 88 3c 51 07 8f 3b 64 21 89 3c
       -0.0059159994 0.016636664 0.004364886 0.016739555
000180 56 c2 68 bc 7b 18 2d bc 81 ca 81 bc 8a 67 22 3a
       -0.01420649 -0.010564919 -0.015843632 0.0006195238
000190 da 6c c5 bb bf f0 6a 3c 5b 7e 31 bc 88 1a 08 bc
       -0.006024939 0.014339625 -0.010833348 -0.008307107
0001a0 4d f8 55 bc 31 06 0c 3c f4 96 6e 3c b3 8e 85 bc
       -0.013059688 0.008546398 0.014562357 -0.016303396
0001b0 99 2d 47 3c 4c 4b 8a bc 11 27 08 bb 94 39 60 bc
       0.012156867 -0.016881607 -0.0020775239 -0.013685603
0001c0 df cc 96 3c 6e 9d 21 3c 18 bd 53 bb c6 1b da 3b
       0.018408237 0.009864194 -0.0032308754 0.006656143
0001d0 39 84 60 3a 14 77 69 bc 26 53 80 bc 15 4b 17 bb
       0.00085646246 -0.014249582 -0.015664648 -0.0023085524
0001e0 c5 0b 56 bb 81 00 60 bb 54 15 af bc 2e bb 08 bc
       -0.0032660824 -0.0034179988 -0.021372475 -0.008345408
0001f0 a9 e7 92 3c 9a ea 69 3c 3e 09 ab 3c bb 62 cd 3b
       0.01793273 0.014277125 0.02087843 0.006267873

network_body._body_endoder.seq_layers.0.weight f4 [128, 10]
000000 24 b2 a6 3e 49 71 5b be cc 1d cd 3e 86 11 66 be
       0.32557786 -0.21429934 0.40061796 -0.22467622
000010 fc fa fa 3e c5 d5 f2 be 9f 8b e3 bb 80 fc ac 3e
       0.4901961 -0.47428718 -0.0069441344 0.33786392
000020 82 27 7c 3e 1c f1 50 be 33 65 95 3e 31 75 89 3e
       0.24624446 -0.20404476 0.2917877 0.26847222
000030 9c 32 5a 3d 33 df c4 be df 90 86 3e 2c 7a 9d bd
       0.05327092 -0.38451537 0.26282403 -0.07689318
000040 00 e1 04 3f 15 82 eb bd 01 70 8c 3e e9 c3 82 be
       0.5190582 -0.114994206 0.27429202 -0.25540093
000050 1e 15 0b 3f 4c 4b 36 3f d3 e8 01 3c e7 7f 29 3d
       0.543291 0.71208644 0.007929045 0.041381743
000060 37 4a fb bd f7 f9 88 3e 02 c5 b3 3e 22 7f 71 bc
       -0.12270015 0.26753208 0.35111243 -0.0147397835
000070 2f 47 92 be 7e e5 15 be 3a 3d 5c be b5 cd e4 3e
       -0.28569934 -0.14638326 -0.21507731 0.44688192
000080 4e 3a a5 be 31 54 a0 3d c5 86 44 be 8f e9 ea be
       -0.32271045 0.07828558 -0.19192035 -0.45881316
000090 a5 26 06 bd ba 2d 69 3c ea 4a 08 3e 40 f4 89 bb
       -0.032751698 0.0142320935 0.13309827 -0.004210025
0000a0 b6 91 22 bf 74 38 44 3e 2c 93 1a 3e d2 33 20 bf
       -0.6350359 0.1916216 0.15095204 -0.6257907
0000b0 24 19 30 bf f4 30 37 be 1f 89 a0 be 0c 7b 9a be
       -0.6878836 -0.17889768 -0.31354615 -0.30172002
0000c0 c0 82 2b be c7 98 00 3f a3 82 ce 3d c5 05 1a be
       -0.16749096 0.5023312 0.10083511 -0.15041263
0000d0 d1 76 a5 bd a3 bf 46 3d d2 a4 81 3e cb ff 28 3e
       -0.08079303 0.048522603 0.2532106 0.16503827
0000e0 3c 9e 85 be e0 50 64 bd 5d 5e 1c bc 5f ab 5b be
       -0.26097286 -0.05574119 -0.009543982 -0.21452092
0000f0 aa 78 a8 3e 60 c5 17 3f b6 27 d3 3d 1d 98 1f 3e
       0.3290456 0.59285545 0.10310309 0.1558537
000100 f6 94 e1 3e 18 bd a9 3f 47 f4 b1 be 72 bf 81 be
       0.4405896 1.3260832 -0.3475668 -0.25341374
000110 da 1d ec 3e 76 5b 6e bd 75 5c 27 be 47 de 64 be
       0.46116525 -0.058192693 -0.16343863 -0.22350417
000120 6c b8 2c 3e 8c 72 4b bd f3 1c e7 be 12 69 66 3f
       0.16867226 -0.049669787 -0.45139274 0.90004075
000130 5f 83 eb bd 39 4a 1d be 4c 06 8e 3e 85 9a 85 be
       -0.114996664 -0.15360345 0.2773918 -0.26094452
000140 2d e2 c0 3c 7d 34 93 be 7a 4e 52 3e 61 de af 3e
       0.023545349 -0.28750983 0.20537749 0.3434935
000150 0e 00 ce be 38 e5 8b be 2a e7 d6 3e ca b9 ad be
       -0.40234417 -0.27323318 0.4197324 -0.33930808
000160 d7 98 91 be ca 6e 9e bf ed 7d a4 3c 13 6c f6 be
       -0.2843692 -1.237756 0.020079577 -0.4812933
000170 ab e0 46 3e 5c 3c 79 3d ba 38 52 3d 57 6e 84 3e
       0.19421642 0.06084858 0.05132363 0.25865433
000180 04 3b cb be 60 9f e1 bb 70 26 54 3e 0e 5a fe 3e
       -0.39693463 -0.006885454 0.20717788 0.4967808
000190 e9 e8 04 bf 92 01 41 3e af 81 81 be bb 84 a0 3e
       -0.5191789 0.18848255 -0.25294253 0.31351265
0001a0 e2 5d 17 be 68 73 96 bd f3 0c 0b be 27 02 39 3d
       -0.14781907 -0.07346231 -0.13579158 0.04516807
0001b0 71 59 b3 3c c2 c3 1d be 2a 4d b8 be c5 bd fe 3d
       0.021893235 -0.15406707 -0.35996372 0.124385394
0001c0 a4 3a ef 3e 39 6d 25 bf fb 9d c8 3d ca 98 4c 3f
       0.46724427 -0.64619786 0.097957574 0.7992064
0001d0 13 82 ae 3d 40 16 78 3e aa 49 63 3e e9 c5 eb be
       0.085209034 0.24227238 0.2219607 -0.4604943
0001e0 2d d8 0d be 55 d5 9d 3d 1b 91 36 3d 70 51 fd be
       -0.13851996 0.077067055 0.044571977 -0.49476194
0001f0 dd e6 c9 be fd 08 1f 3e 97 c7 b7 3d d3 e0 60 3e
       -0.39433947 0.15530773 0.089736156 0.21960764
000200 ee f9 9e 3d 59 ef 1f 3f b2 d0 9a 3d d8 82 a7 3e
       0.07762514 0.6247459 0.07559337 0.32717013
000210 e0 c4 0f bf e3 03 0c 3d 39 8d 2d bd 14 4d f2 3e
       -0.5615978 0.034183394 -0.04237101 0.4732443
000220 6d 28 4e be ef a4 cd bd dd f6 ff be c9 02 c1 3a
       -0.20132609 -0.10041224 -0.4999303 0.0014725561
000230 27 67 aa 3e 24 ce aa be fa c7 3d 3e 1f c9 4d bf
       0.33281824 -0.33360398 0.18533316 -0.8038501
000240 b7 0e 88 3e 58 22 aa be b2 46 4b be 12 55 18 bf
       0.26573727 -0.33229327 -0.19851187 -0.59504807
000250 83 2e f9 3e 36 a0 42 be 9a b1 52 3e 49 c6 db be
       0.48668298 -0.19006428 0.20575562 -0.42924717
000260 f7 14 96 3d 76 61 10 bf 7b d7 86 be 13 dd 90 3f
       0.073282175 -0.56398714 -0.26336274 1.1317466
000270 8a a7 82 3b 5e 64 8b be d5 5f 77 3f 19 b6 57 3e
       0.0039872574 -0.27225012 0.96630603 0.21065558
000280 b7 50 e2 be af b2 20 bf 2f db 31 bf 28 78 b7 bd
       -0.44202206 -0.6277265 -0.6947507 -0.08958465
000290 65 64 0e 3d 1b c6 46 3f 5d 16 47 3e 25 c9 de bd
       0.034763712 0.77646035 0.19442125 -0.10878209
0002a0 3a ca d6 bc 15 84 7b bd eb 42 e6 be a9 ca e3 be
       -0.026219476 -0.06140526 -0.4497293 -0.44490555
0002b0 fb 4a 64 3e 33 81 63 bd b9 90 c7 3e 5a c2 2b 3f
       0.22294228 -0.055543136 0.38977602 0.6709343
0002c0 3e c7 0e 3e 4a 9d 6b be df 83 b4 3d c7 c3 75 be
       0.13943192 -0.2300922 0.08814215 -0.24000464
0002d0 86 88 ad be c6 98 92 3e 4b bc 1b bc 4c e9 66 3e
       -0.33893222 0.28632182 -0.009505342 0.22549933
0002e0 eb f9 18 bf 54 a1 c4 3d 23 60 ca 3e 0c 9d 27 bf
       -0.59756345 0.096010834 0.39526471 -0.6547401
0002f0 e9 49 8a be 07 17 8d be 9d 70 26 bf a3 b7 ff be
       -0.27009514 -0.2755663 -0.65015584 -0.4994479
000300 9a 69 fa bc a9 16 b4 bd 57 43 8e be a8 ac ea 39
       -0.030567933 -0.087933846 -0.2778575 0.00044760597
000310 56 8e 92 3e e9 8e 1d be ba 85 bf bc 2e 2d 8f 3e
       0.2862422 -0.15386547 -0.023379195 0.27964157
000320 c1 fe 80 be 11 41 de bd be 42 05 bf 54 a7 63 3b
       -0.25194362 -0.10852254 -0.52054965 0.0034737187
000330 93 27 be 3e e3 00 43 3f db c2 00 be 61 71 10 3e
       0.37139568 0.7617323 -0.12574331 0.1410575
000340 17 bf 49 bf fa 85 d5 bd 59 6a d2 bd ea 1b 99 bd
       -0.78807205 -0.104259446 -0.102741905 -0.07476027
000350 9e 6a 5d be 8b 05 08 3e 6b c7 29 be 77 62 a1 3e
       -0.21622702 0.13283364 -0.16579978 0.31520435
000360 ab 76 1b 3e f1 d8 61 be 59 3e 38 3e 1e cf bb 3e
       0.15181987 -0.22055413 0.17992534 0.36681455
000370 9e a7 ac bd f6 91 13 bf 67 95 e3 3e 99 16 77 3c
       -0.08430408 -0.57644594 0.44449922 0.015081071
000380 3c d9 4d bf 76 32 01 bf f6 47 31 bf 21 49 90 be
       -0.804096 -0.5046762 -0.6925043 -0.28180793
000390 0f 27 cb 3e e7 6f e7 3e 07 3b 96 be b7 0a 95 3e
       0.39678237 0.45202562 -0.2934191 0.29109737
0003a0 9b 89 60 be 28 7d ab be d2 43 9a 3d ba 99 89 bd
       -0.21927492 -0.33493924 0.07532467 -0.06718774
0003b0 38 7d 6f bd 8d 41 67 3f 9c f4 5f 3e 4b a7 1a 3e
       -0.058469027 0.903344 0.21870655 0.1510288
0003c0 79 6a 84 3d af ce f0 be d6 e9 b3 bd a6 74 29 3e
       0.064656205 -0.47032687 -0.08784835 0.16548404
0003d0 a1 3c 9c 3e fc 4f 8e 3e 14 da 2e be 01 6f 73 3e
       0.30515006 0.27795398 -0.17075378 0.23772813
0003e0 a8 b2 7d be 04 58 03 be 05 3c 13 3e ee 2d 22 bd
       -0.24775183 -0.12826544 0.14378364 -0.039594583
0003f0 d5 4c 80 3d ae 1f da bd bd 7e b8 be 9e 47 6a be
       0.062646545 -0.10650574 -0.36034194 -0.22878882

network_body._body_endoder.seq_layers.2.bias f4 [128]
000000 0f 7f 86 3c f7 65 72 3b f8 58 91 3a 6d 9d 49 3c
       0.016418008 0.0036987045 0.0011089137 0.0123056
000010 e9 18 6a 3c 73 76 45 3b 88 0e 39 bc ca 34 50 bc
       0.014288166 0.0030130416 -0.011294968 -0.012707898
000020 6a ce 93 3c 71 59 4c bc 08 a0 7d 3b f9 62 34 3c
       0.018042762 -0.012472496 0.0038700122 0.011009925
000030 74 aa 88 3c d0 61 ce bb ea 88 83 ba 72 1b 85 3c
       0.01668284 -0.0062982813 -0.001003531 0.016248439
000040 fb 7a 46 bc 0a 37 8e 3c 01 a8 71 bc 02 6e fa bb
       -0.012114282 0.017360229 -0.014749528 -0.0076425085
000050 4b d1 07 3c 3c 1f 8f 3c 7a 16 50 bb eb ea 0a bc
       0.008289645 0.017470948 -0.0031751678 -0.00847886
000060 af 93 8c 3c e3 2b 58 3c 02 06 65 3c 7d d3 89 bc
       0.017160265 0.013194057 0.013978483 -0.016824478
000070 d4 c3 83 3c 2c da 09 bc 63 8d 40 39 31 5e bd 3b
       0.016084589 -0.008413833 0.00018363218 0.0057790508
000080 60 a9 8d bc 4e e8 95 3c 08 dc 8c 3c d5 e0 21 3b
       -0.017292678 0.018299248 0.017194763 0.002470066
000090 75 c6 92 3c 6a c7 86 bc 82 df 43 3c 4b e7 21 3c
       0.017916897 -0.01645251 0.011955144 0.009881805
0000a0 3a 6b 73 3c 57 4c 73 bc 42 df 81 3c 75 90 f2 bb
       0.014857108 -0.014849744 0.015853528 -0.0074024745
0000b0 82 6b 40 3b b3 e7 2b 3c 99 98 33 bc 9c 2b 45 3b
       0.0029360955 0.010492253 -0.010961675 0.0030085808
0000c0 25 78 26 bc b7 30 94 3c 6a a4 15 bc ad fa 86 bb
       -0.010160481 0.018089635 -0.009133438 -0.0041192384
0000d0 21 3d 82 bc 91 8d 13 bc f7 cc ec 3a 89 8e 31 3c
       -0.01589829 -0.00900592 0.0018066455 0.010837206
0000e0 d8 35 37 bc ab 15 84 bb 4a 63 87 bc 42 38 77 bc
       -0.011182271 -0.0040309033 -0.016526837 -0.0150890965
0000f0 0e 6f 57 3c df 4c 2c 3c 63 e7 4d bc 09 6f 47 bc
       0.013149036 0.010516374 -0.012567374 -0.012172469
000100 a2 f5 30 bc 9a e6 b4 3b 17 1c 7e bc 80 b8 51 bc
       -0.010800751 0.005520654 -0.015509627 -0.012800336
000110 fd 9e 1c bc 94 4a 8f 3c 09 12 8a bc cf da 52 3c
       -0.00955939 0.017491616 -0.016854303 0.012869551
000120 0f be 92 bb 0e 5d 83 3c 13 01 fd 3b e5 4d d4 3b
       -0.004478223 0.016035583 0.0077210753 0.0064790123
000130 ae ee 0e 3c 34 fd 47 3c b9 7f 8a ba 35 8e 81 bc
       0.008723898 0.012206364 -0.0010566629 -0.01581488
000140 0f da 3d bc b9 18 85 bc ef 74 5b 3c fb 50 80 bc
       -0.011587634 -0.01624714 0.013394578 -0.015663614
000150 87 40 83 3c 0f f0 58 bb 78 ca 60 3c eb 75 2f ba
       0.01602198 -0.003310207 0.013720147 -0.00066932914
000160 e6 71 23 bc 81 9c 62 3b ac 9d 2a 3c 5d cc 40 bc
       -0.009975886 0.0034578147 0.0104135685 -0.011767474
000170 73 de 00 bc e9 1c 28 3c e7 f6 f2 3a 0c f7 54 ba
       -0.007865536 0.010260799 0.0018536717 -0.0008123971
000180 44 3e f7 bb 2f 03 79 bb 9b 6f 88 bc 63 78 e8 3b
       -0.0075452644 -0.0037996282 -0.01665478 0.0070944293
000190 f4 43 68 3b aa e9 0e 3c ef ec d7 b9 df 6d 2f 3a
       0.0035440894 0.008722702 -0.00041184525 0.0006692092
0001a0 a4 87 2d 3c 5c 29 5d 3c 29 57 98 bb c3 bc 22 bc
       0.010591421 0.01349863 -0.004649062 -0.0099327
0001b0 8d 51 2c bc 23 30 94 ba 1b 89 7a 3c 68 62 8d 3c
       -0.01051749 -0.001130585 0.015291478 0.017258838
0001c0 08 cb 17 bc 47 58 07 38 8c 67 3e bc da f6 5a 3b
       -0.009264715 3.2268723e-05 -0.011621367 0.0033411295
0001d0 3c 3c dc bb 7e 64 0e 3c a1 25 58 bc e1 22 2d 3b
       -0.0067210477 0.008690951 -0.013192565 0.0026418495
0001e0 eb e0 3a 3c 06 02 3d bc 7c 7b f6 3b 11 51 7e 3c
       0.011406164 -0.011536127 0.0075220447 0.015522257
0001f0 d9 cd 69 bb aa c0 21 3c 1d c8 02 3c 8d 21 93 3c
       -0.0035675673 0.009872595 0.007982281 0.017960334

network_body._body_endoder.seq_layers.2.weight f4 [128, 128]
000000 14 1d c5 3d ec 45 82 bd e8 06 f7 3d b9 d7 98 3d
       0.09624687 -0.06360993 0.12061864 0.07463021
000010 5f 57 4f 3d 78 2c 1c be a2 1c bc bd 9d c1 8e 3d
       0.050620433 -0.15251338 -0.09185149 0.069705226
000020 ef 98 70 bd 00 ff cf 3d a5 86 0a 3c 17 7d 90 bd
       -0.0587396 0.10156059 0.008454953 -0.07055109
000030 c5 20 cd bc 7e e2 ff bd a6 dd e2 3d 4a 01 18 3e
       -0.02504004 -0.12494372 0.11077432 0.14844242
000040 02 40 e5 bd 29 40 82 3d c0 8f 47 bd d6 27 d3 bd
       -0.11193849 0.06359894 -0.048721075 -0.103103325
000050 ae b7 a4 bc 4f 1d e8 3a e3 53 fa 3c 67 4d 4b 3b
       -0.020107117 0.001770893 0.030557578 0.0031021477
000060 ef eb 7d 3a af 54 0c 3d ec b1 4c 3d ed 5a fc 3b
       0.0009686341 0.034260448 0.049974367 0.007701269
000070 25 57 ba 3d 82 e7 6d 3c f1 5c a8 3d bd e6 40 be
       0.09098653 0.014520528 0.08220852 -0.1883802
000080 52 c5 51 ba 1f d5 52 3d c8 1d 45 be 2e 1d 07 bd
       -0.00080021203 0.05147278 -0.19249642 -0.032986812
000090 7a 77 ce 3c c6 7a 9b 3b 95 47 90 bd 9d 2a 13 be
       0.025203455 0.0047448603 -0.07044903 -0.14371724
0000a0 33 b8 93 3d ae e3 7a bd 8c 04 17 3e 40 c9 5b bc
       0.072128676 -0.06125229 0.14747828 -0.013414681
0000b0 3e 15 33 bd 8b 73 84 bd 8a 44 03 be 17 01 09 be
       -0.04372143 -0.064673506 -0.12819114 -0.13379322
0000c0 de c1 ca 3c 20 04 5a bb 3d 72 06 3e 45 36 92 3d
       0.024750646 -0.003326662 0.13129516 0.07139257
0000d0 e3 f1 56 3d 68 d6 ea 3d 81 a2 9c bd 8b 76 3f 3d
       0.052476775 0.11466676 -0.07648183 0.04674391
0000e0 38 2e 81 bc 23 ba f5 3c 2d fa 60 bd ac d3 87 3c
       -0.01576911 0.029995983 -0.054926086 0.016580425
0000f0 f4 75 0b 3d 44 29 1a 3d 32 75 97 3c 72 34 53 3e
       0.034048036 0.03763701 0.0184885 0.20625475
000100 5e cd 6e bd 63 57 ad bd 61 9b 00 3e 45 96 d3 3c
       -0.058301322 -0.08463933 0.12559272 0.02582849
000110 49 97 95 3d 38 a6 66 be 93 6f 28 bc c2 f8 20 bd
       0.07304246 -0.22524345 -0.010280508 -0.039299734
000120 fc 57 04 3d 0e 47 90 bd 05 00 e8 3c ce 56 81 3d
       0.03231047 -0.070448026 0.028320322 0.06315385
000130 a4 f1 a2 3c 8f 2b 39 bc 61 cc e7 bb 77 ac 07 be
       0.019890614 -0.011301889 -0.0070739244 -0.13249384
000140 c4 55 9d 3d f6 a8 0e 3d ab 95 93 3c 14 1d 18 3e
       0.07682374 0.034829102 0.018015703 0.14854842
000150 7a bb 32 bc f2 08 b4 bd 58 b3 c8 bc 09 21 ef 3c
       -0.010908956 -0.08790769 -0.02449958 0.029190557
000160 ac e8 2e 3e 07 a0 49 3c 35 56 23 bd 6c e2 ca bc
       0.17080945 0.01230622 -0.039877135 -0.02476617
000170 1d c5 f9 bd 3c 8a 94 bd f7 96 4b 3b a2 b2 ad bc
       -0.121957995 -0.072529286 0.0031065324 -0.021203343
000180 1e 02 33 bd 48 56 04 bc 76 d0 0b bd 05 4b 1b 3e
       -0.04370319 -0.008077212 -0.03413435 0.15165336
000190 d0 79 b8 bb f7 7a ec bc ea 8a 10 bd 52 fc 00 3e
       -0.0056297556 -0.028867228 -0.03528873 0.12596253
0001a0 7d 93 e0 bc 38 f4 9a bd ce d1 ae 3d a5 e9 de 3d
       -0.027414078 -0.07566112 0.08536111 0.10884408
0001b0 78 92 70 bd 6e 8c f2 3b 6f 51 a3 bc ec b5 e9 bd
       -0.058733433 0.0074019944 -0.019936292 -0.11411652
0001c0 46 07 ad 3d cb 06 97 3d ff e3 f5 3c 74 5a ce 3d
       0.08448653 0.073743425 0.030015944 0.10075846
0001d0 76 45 df bd 6a de 93 3d a9 3d 28 3e 5f 3b 84 3d
       -0.109019205 0.072201565 0.16429771 0.06456637
0001e0 10 b3 9c bb 0a 80 2e 3e d2 a0 1b bc 3c 69 31 be
       -0.004782088 0.1704103 -0.009498792 -0.173253
0001f0 05 bb 58 3d 92 f8 22 3d 99 f6 b5 3d c4 05 c1 bd
       0.05291273 0.039787836 0.088849254 -0.09424928
000200 79 dc d5 3d 04 6e a5 3d 61 83 9a 3d 6c 14 2c bc
       0.104424424 0.080776244 0.0754459 -0.010502916
000210 b8 e9 91 bd a2 19 a7 3d 63 b0 6b 3c f9 ce 50 3d
       -0.071246564 0.08159186 0.014385316 0.050978635
000220 2e 5a 2a 3c 92 45 41 3d 39 39 3f 3d 9b c5 42 3d
       0.010397477 0.047185488 0.04668543 0.047551733
000230 e3 e4 5f 3d 3f 0e 5d 3d bc 2d 66 bb 4e a9 93 bd
       0.054661643 0.053968664 -0.0035122475 -0.07210027
000240 e5 2d 86 bd da ea 04 3d eb c2 7c bd 0d c2 91 3d
       -0.065517224 0.032450534 -0.061709326 0.071170904
000250 4b b3 f5 bc cc fe 01 3e 52 f9 8a bc fc fc 4e 3d
       -0.02999272 0.12694854 -0.016964588 0.050534233
000260 95 40 dd 3d ae 5b fb bd d2 49 08 bd 79 7a 0f 3d
       0.10803334 -0.12273346 -0.033273526 0.03502891
000270 f4 b0 94 bd fc 08 d6 bc 55 26 fb bd fa 09 67 3d
       -0.07260314 -0.026127331 -0.12263171 0.056406
000280 72 33 a1 bd 19 d3 6e bd 3f d1 ae 3d 8d 68 1b 3d
       -0.078711405 -0.058306787 0.08536004 0.037941504
000290 0d ed 6c 3d cd f3 7b bd be bc 08 bd 5e b6 53 be
       0.057843257 -0.061511803 -0.033383124 -0.20675036
0002a0 e7 99 4b bc bc 7f 43 3c 62 77 5b bc e7 d6 48 3d
       -0.01242683 0.01193231 -0.013395162 0.04903307
0002b0 74 4c 12 3e e3 9b 38 3d 3d a7 8f 3d c9 9e 51 3e
       0.14286977 0.04507054 0.0701432 0.20470728
0002c0 42 e7 2a be 26 b3 33 3d 51 24 d6 3d e6 32 be 3d
       -0.1668978 0.04387202 0.104561456 0.09287052
0002d0 cc be a0 bd ee fb e3 3d 27 9e 2d 3d a7 38 fb 3d
       -0.078488916 0.11132036 0.042387154 0.12266665
0002e0 7a 4a a5 bd 8a 9d b2 3d 30 e0 4c bd b0 9f d3 bc
       -0.08070846 0.087214544 -0.05001849 -0.02583298
0002f0 a9 1a 74 bd 76 4c 1c 3d df 51 3b bd dd 0e 13 3d
       -0.059595738 0.038158856 -0.045732375 0.035902847
000300 97 da b2 bd f6 74 ed bc f2 a6 38 3e f6 b2 bb bb
       -0.08733099 -0.028986435 0.18032435 -0.005728121
000310 94 d3 04 3e af 0e 35 3d c9 d5 d3 bd 0d 4d 10 3e
       0.12971336 0.044203456 -0.10343511 0.14091893
000320 f7 fe 97 bd 5d d9 2a 3e 2f 88 cb bc 6a e9 69 be
       -0.074216776 0.1668448 -0.02484521 -0.22842947
000330 9b 39 08 be f7 64 e4 3b 07 bb 50 bd c9 1b 8e 3c
       -0.13303225 0.0069700438 -0.050959613 0.017347233
000340 be a5 2f 3d 82 e0 ea bc a1 bf 19 3d a2 2f 1b 3c
       0.042882673 -0.028671507 0.037536267 0.009471806
000350 4d b2 2c bd 13 a9 fa 3d b5 70 08 be be 0b c7 bc
       -0.04216223 0.122392796 -0.13324244 -0.024297591
000360 c2 cf 7f 3d 31 0f 47 3d 20 16 a7 3d 9c 91 5b bd
       0.062453993 0.048598472 0.08158517 -0.05360566
000370 56 12 bc 3d dd a2 ae 3d 26 11 3d 3b ef 62 e5 3c
       0.09183185 0.085271575 0.0028849333 0.028001277
000380 5a bc c9 3d 03 40 0d 3e 9f 84 ac 3c 70 49 ce 3c
       0.09850378 0.1379395 0.021059332 0.025181502
000390 9d bd a2 3c 1e 9c f2 bd 06 39 85 bc b3 cb 33 3e
       0.019865805 -0.11846183 -0.016262542 0.17558174
0003a0 47 e2 91 3d 15 a6 26 be db 22 98 bc a5 9a 15 bc
       0.07123237 -0.16274293 -0.018571308 -0.009131108
0003b0 2d bf 1b 3d 5d b0 7f bd d8 de c5 bd d8 b0 b5 3d
       0.038024116 -0.062424053 -0.09661645 0.08871621
0003c0 a2 25 80 3b f7 39 ad bc 82 f5 67 3d 65 bc 09 be
       0.003910736 -0.021145804 0.05663062 -0.13450773
0003d0 53 d0 54 bc d0 11 97 3d 6f e3 7b bd 13 75 26 be
       -0.0129891215 0.07376444 -0.061496194 -0.16255598
0003e0 77 a4 f8 bd 1c 39 fd bd da 82 6b bd 4c 4d 4c 3c
       -0.12140744 -0.123644084 -0.057497837 0.012469601
0003f0 17 04 e1 3c cd df 33 bd 2a 63 af bd d4 47 63 3d
       0.02746777 -0.043914605 -0.08563836 0.055488423
