Foosbots_working/results/foosballTraining/Foosbots_working/Foosbots_working-2176.pt (torch, 451487 bytes, 36 tensors)

network_body._body_endoder.seq_layers.0.weight f4 [128, 10]
00000000: 495e d43e f115 e73e b592 8c3e 51d3 9bbe
00000010: 4719 0fbf f0b2 bcbe 6544 923e 4a1b dabe
00000020: 5659 023f 5ab2 513f 46e7 a73e 3631 563b
00000030: d615 79be 6a9b f9be b74f 76be cad6 063f
00000040: 2c0f 573e 1040 42be c4a7 15be 80c6 85be
00000050: bf16 53be d83f 523e dd4d 1d3e 3946 86be
00000060: af33 273e 6d27 9dbe cc97 3e3e f494 38be
00000070: 8be3 8fbe ceee 87be 4b14 38bf e970 d13d
00000080: 1ff5 373e a28f 36bd 6526 2b3f 236f 3a3e
00000090: 7aaf 9a3c a7d2 79be 95a9 483b b75d 9dbd
000000a0: 600f f83e f593 40bf 7e7b 953d e745 18bf
000000b0: 2166 6d3e dea5 153f f80f 2dbe 4292 ef3e
000000c0: f629 063e e4fc 08be e79d b93d c6a8 eb3e
000000d0: 1d1d c9be 492a b6be 72c5 26bf 223d 28bd
000000e0: c557 993d 5d77 703e 9faf 833e 58e2 dc3d
000000f0: a6b5 3bbe 45db 693e ef1e a9bd 03f3 b8bd
00000100: c095 35bf dff4 34be 0a1e bb3e 4664 af3d
00000110: ce9a cfbe 1a4e 933e 2b72 c43e 43b5 503e
00000120: d950 b9bd 29ee 833e 29f2 d63e e361 b0be
00000130: 46e9 843d 672b 093e fb3d d9bd d9b7 343e
00000140: b48b dd3e 39e1 a63d 693c 3e3e ded4 113e
00000150: e8c9 36bf 36da 9b3e a0a1 023e ff84 2c3e
00000160: 3b5d 233e 07e6 2e3e 1d65 0dbe 7345 8ebd
00000170: b937 f43e 8149 f93d 295c aebc 4bd2 debe
00000180: 601e b4be 4721 13be c246 e93d 6f2c d03e
00000190: a4b6 aa3e 46d6 2d3e e929 1cbf b6b0 8f3e
000001a0: d50f babe 4047 56bd 1ce8 19bf 16a4 053f
000001b0: efdf 6bbe e25e 45be b258 91be be72 d7be
000001c0: f1ab 203f c459 32bf ef37 f33d e1fc 8c3e
000001d0: fefb 4abe 45aa 273f 3333 e63e f046 ff3d
000001e0: f35d 94be d397 aa3e c7f5 adbe d7da d13e
000001f0: 80d9 a7bd 7f32 733e 6f42 083e 98a3 abbe
00000200: 16df d63d 6f6d 28bf f301 363d 7821 2abe
00000210: d64c 8ebe 641f 8cbe 25a7 273f 07ab 30be
00000220: c28a 9f3d e5ad 833e 6ca2 293d 3a5b 94bd
00000230: 1f26 b3be 5b79 d9be 2680 7dbe 419a 98be
00000240: 73a2 373e 2ca9 d9bd 36d1 7a3e 97f3 2a3e
00000250: 7def b83e 0e62 443e 1c88 083f 762c c4bd
00000260: 5cec 313e 7e3e 5fbe a433 9c3e d909 8d3e
00000270: dc35 1abf dda0 a53e 5aff fcbd 0ffe 25bf
00000280: aeed 4d3e d1ce 1abd 66dd a33e 90dc c93d
00000290: 6427 e73d f801 d1be fb2b 4abc f68d 803e
000002a0: a143 903d 6e0b f5bd 3656 f0be 8865 0f3f
000002b0: 9a1f 49bd bac6 663e 321c e2be beee 4ebe
000002c0: 7cfa 143e cb8f d7be 52cc b03e 2227 ac3e
000002d0: f4fc 9a3e bd30 513f a251 043e bdda c3bd
000002e0: e9db e63d d0f8 d53e 4c6f 233e ebdf a2be
000002f0: 0f82 843c 61ac a23d 7df6 763e 0ba1 803e
00000300: c18d d8bd 0e49 9dbe f8ca 053f e7e4 acbd
00000310: 049d aebe 460d 98be 42ca aa3d a049 b5be
00000320: e149 c1bd 4e01 57be 818b 6fbe 720a debd
00000330: b385 533e 083f 99be 3c37 2b3e da56 7ebc
00000340: 84c8 ab3e e0a1 83be 2d19 de3e aaa1 27be
00000350: bc78 11bf be13 673d 2ac2 5fbd 7fe2 243e
00000360: cb6f 8bbe b8b1 bdbe 9edf 85be 1a12 8bbe
00000370: e871 0b3f 1ded 8abe e770 76bc 55b3 7ebe
00000380: 865b d2be 6197 87be 0632 30bf e7a0 093f
00000390: 6e8b f53e 127d 783e 3255 1bbe 1a5a 9fbe
000003a0: cbda 833d 7b8d cc3e e708 c6bd a308 a3be
000003b0: dff9 d73d bc6a a7bd c0d9 41be a85b c2be
000003c0: cc84 d53c ddc3 9abc 9a4b 91bd 7bc4 f8bd
000003d0: bd4a ae3e a7d2 31be 7a99 1fbf e651 aebd
000003e0: 179f 6f3e 20e5 6ebf bff2 7fbe fd00 c4be
000003f0: a0e6 903e 1740 c8be 141d 533c 9a23 363e
0.41478184 0.45133927 0.2745568 -0.3043466 -0.55897945 -0.36855268 0.28567806 -0.42598945
0.50917566 0.8191277 0.32793635 0.003268314 -0.24324736 -0.48751384 -0.24053846 0.5267149
0.21001881 -0.1896975 -0.14614779 -0.26128006 -0.20614146 0.20532167 0.15361734 -0.2622545
0.1632831 -0.30694142 0.18612593 -0.18025571 -0.2810329 -0.2654938 -0.71905965 0.10226614
0.179646 -0.044570573 0.6685546 0.18206458 0.018882502 -0.24396764 0.0030618657 -0.0768389
0.4844923 -0.75225765 0.07298945 -0.5948166 0.2318349 0.5845622 -0.16900623 0.46791273
0.13101944 -0.1337772 0.090633206 0.460272 -0.39280024 -0.35579136 -0.6514503 -0.041073926
0.07487444 0.23483033 0.25719926 0.10785359 -0.18331012 0.22837551 -0.08257853 -0.09030726
-0.70931625 -0.17671536 0.36546355 0.085640475 -0.40547794 0.28770524 0.38368353 0.20381646
-0.090486236 0.2576764 0.4198163 -0.34449682 0.06489806 0.13395463 -0.10607525 0.17648257
0.43270648 0.081484266 0.18577732 0.14241359 -0.71401834 0.3043992 0.12756968 0.16847609
0.15953533 0.17079936 -0.13808103 -0.0694684 0.47698763 0.12172223 -0.02128418 -0.43519816
-0.35179424 -0.14368163 0.11390449 0.406589 0.3334247 0.1697627 -0.6100145 0.28064507
-0.36340204 -0.052314043 -0.60119796 0.522035 -0.23034643 -0.19274476 -0.28387982 -0.4207973
0.6276236 -0.6966822 0.11875903 0.2753668 -0.1982269 0.65494186 0.44960937 0.12464702
-0.28977928 0.33318958 -0.33976576 0.40987274 -0.08195782 0.23749731 0.13306592 -0.3352325
0.10491769 -0.6579198 0.044435453 -0.1661433 -0.27792996 -0.273677 0.6548942 -0.17252742
0.07790138 0.25718608 0.041414663 -0.072439626 -0.34990022 -0.424754 -0.24755916 -0.29805186
0.17933063 -0.1062797 0.2449387 0.16694485 0.36120215 0.1917803 0.53332686 -0.09578793
0.1737532 -0.21801183 0.3050815 0.27546576 -0.6023843 0.3234929 -0.12353392 -0.6484079
0.20110199 -0.03779489 0.3200485 0.09856522 0.1128681 -0.40821815 -0.012339587 0.25108308
0.07044149 -0.11965071 -0.46940774 0.560143 -0.049102403 0.22536746 -0.44162136 -0.2020826
0.14548677 -0.42101893 0.34530884 0.33623606 0.30271113 0.81714994 0.12921765 -0.095632054
0.11272413 0.4179139 0.15960425 -0.3181146 0.016175298 0.07943035 0.24117465 0.25122866
-0.105739124 -0.307198 0.5226283 -0.08442097 -0.34104168 -0.29697627 0.08339359 -0.35407734
-0.094379194 -0.20996591 -0.2339306 -0.10841836 0.20656471 -0.29930902 0.16720289 -0.015523637
0.3355142 -0.25709438 0.43378583 -0.16370264 -0.5682485 0.056415312 -0.05462853 0.16102026
-0.2723373 -0.3704965 -0.2614717 -0.27162248 0.5447068 -0.27134028 -0.015041566 -0.24873097
-0.41085452 -0.2648268 -0.6882633 0.5376114 0.4795794 0.2426646 -0.15169218 -0.3112343
0.06438216 0.3995169 -0.09669667 -0.31842527 0.10545706 -0.08174655 -0.18930721 -0.37960553
0.026064299 -0.018892223 -0.07094498 -0.12146851 0.34041396 -0.17365514 -0.6234356 -0.08511715
0.23400532 -0.93318367 -0.24994944 -0.38282004 0.28300953 -0.39111397 0.012885351 0.17787018

network_body._body_endoder.seq_layers.0.bias f4 [128]
00000000: d977 bd3b 3133 eabb cdba 4e3b 8719 ef3a
00000010: 53e2 0b3c c93d a23b 07f3 1cbb 653e 35bc
00000020: 8eb6 913b ba9f 9cbb 84d7 6b39 4cce 9cbb
00000030: 7c14 97ba b177 d73b c225 a73b 2178 193b
00000040: 34af 3c3b 664e 8f3a 12fe f43b 0470 ee3b
00000050: f7bf 66ba f50a f23b 120e 3f3c 0714 d3b9
00000060: 1cd2 c93a 6baa 23bb 30a3 2bbb 9812 293b
00000070: 8f7e 423c 9d33 833b bbf9 d4b9 062e 973b
00000080: 8c78 1d3a ca64 403c 593d 96bb c42f 82bb
00000090: a687 563c d6b4 d93b 8482 2f3b 7532 a13b
000000a0: 0704 2a3c fd94 9bb9 6aa2 743c 1c5c 543a
000000b0: ad76 7c39 89ef 123c c71a 173a 9f80 e639
000000c0: 114a 033c e1bd 423c f037 ffbb fb7a 9dbb
000000d0: 868e 853b 7317 b63b 419b 22bb 559f 593a
000000e0: 4215 4c3b e15d 563c 3363 013b d6dd 493c
000000f0: 5ee6 9d3b cc2f 8b3a 9ba1 c3b9 0c3f 4ebc
00000100: 15a2 783b 7b58 3f3c cbe1 b8bb 39e9 8bbb
00000110: 58f6 123c a28a 00bb 8316 b03b 70a6 913c
00000120: d00e c93b f244 f539 ebab 77ba 418c 0d3c
00000130: efc5 ad3b 48e6 d0b8 da84 90bb 2669 4a3c
00000140: 03e6 1f3b 5e19 efbb 15ce b338 a974 d5bb
00000150: a711 5c3c 34a9 3d3c e721 3b3a 2441 0dbc
00000160: 83fd aeba 98d3 393a 227c a9ba 1081 c2bb
00000170: dc1e 1b3c bd9f 073b e99e 193c 1dae 823c
00000180: f25c d5ba e690 0e3c 2a41 493a 3a4a ab3b
00000190: e0c1 db3b a2f1 d13b f2c3 d6ba 77e3 6ebb
000001a0: 8709 7a3c 89c4 0d3c 23fe 36bc 99e0 f2ba
000001b0: f91b b73b a5c9 97bb 1854 c8b9 6974 19bb
000001c0: 8bd6 6a3b 5049 073c d0a8 a6bb c124 8d3b
000001d0: f571 54bc 586e 443b 8621 593a 6884 8f3a
000001e0: e8c1 aa3b 2136 413c 254b 65ba 2d07 aabb
000001f0: e6c7 8f3b 4de6 1a3a dcf0 8fbb c077 c8bb
0.005782109 -0.007147216 0.0031544447 0.0018241861 0.008537847 0.004951213 -0.0023948567 -0.011062239
0.004446811 -0.004779783 0.00022491632 -0.0047853347 -0.001152649 0.0065755476 0.0051009366 0.002341755
0.0028790953 0.0010933399 0.0074765766 0.007276537 -0.00088024087 0.00738656 0.0116610695 -0.00040259978
0.00153977 -0.0024973403 -0.0026189797 0.0025798436 0.011870994 0.0040039555 -0.00040621855 0.0046136407
0.00060070376 0.01174278 -0.00458495 -0.0039729793 0.013093865 0.006643872 0.0026780674 0.004919345
0.010376937 -0.0002967491 0.014931301 0.00081008836 0.00024076803 0.008968242 0.0005764183 0.0004396485
0.008013264 0.011886091 -0.0077886507 -0.00480592 0.004075828 0.0055569946 -0.0024811777 0.00083016354
0.00311406 0.013083906 0.0019742965 0.012320956 0.0048187217 0.0010619103 -0.00037313704 -0.012588274
0.0037938405 0.01167881 -0.005642151 -0.0042697457 0.008969866 -0.0019613882 0.0053737774 0.017779559
0.006135799 0.0004678141 -0.000944792 0.008639396 0.0053031365 -9.961106e-05 -0.0044103684 0.012354171
0.0024398572 -0.007296725 8.573771e-05 -0.006514151 0.013431943 0.011575986 0.0007138536 -0.008621488
-0.0013350699 0.000708872 -0.0012930671 -0.0059357956 0.009467807 0.0020694577 0.009376266 0.015952164
-0.001627831 0.008701539 0.00076772517 0.0052273544 0.0067064613 0.0064069787 -0.00163853 -0.0036451498
0.015261061 0.008652815 -0.011168989 -0.001853007 0.0055880514 -0.004632192 -0.00038209627 -0.0023415333
0.0035833444 0.008257225 -0.005086042 0.00430736 -0.012966623 0.0029972997 0.00082828884 0.0010949494
0.0052111037 0.0117926905 -0.0008746854 -0.0051888437 0.0043878434 0.0005908951 -0.0043927263 -0.006117791

network_body._body_endoder.seq_layers.2.weight f4 [128, 128]
00000000: 9165 bbbd a2ea c5bd 22de 7abd a8d1 cd3d
00000010: ef2a 9b3d ac67 36bd 8f36 ad3c e799 3ebc
00000020: b218 bcbb c776 1abe 31b5 db3d 8a32 24be
00000030: 550c 06bd c568 00bd 3cdd 34bb 77fe 83bc
00000040: 6f77 453d daaf 0f3d 7e60 f53d 84c1 3a3b
00000050: 4a58 65bd 861d cd3d a919 283d edad 98bd
00000060: 6e74 503d e68e 7cbc 351b 0bbe 9cb1 843c
00000070: 7c39 cb3d 94a5 3dbd 45c0 9bba 611a 2cbd
00000080: 4b01 0abe f36b 943c d5ea 60bd 518f 0ebe
00000090: 6794 eb3c 9b12 1cbe 0abf a1bd d641 f33d
000000a0: 1d03 ed3d 76ea 063d da40 e6bb 4ae9 113d
000000b0: 086c a03d 7cab 41bd 744b 693c 1502 79be
000000c0: cc59 213d 0259 943d 9aae 2ebe 308b cdbd
000000d0: e433 963d 64a8 583d 8946 aebd a489 ac3c
000000e0: c7d8 1c3d 4914 9fbd c5af 15be c0aa 943d
000000f0: 0a10 6b3c 1454 a5bd 345b cebd d0bf c53b
00000100: a8a1 c23d 818f d43d f5d3 a23d 5d5e 453e
00000110: 7147 1a3e 5b14 febd 7a94 613e 923d 633d
00000120: afc5 13bd bd39 09bd 8861 dbbd 8770 0b3d
00000130: d263 9fbd 85de f3bd ae19 753c 8abb ac3d
00000140: af95 d93b fabe cb3c f855 60bd 39b7 833d
00000150: 2404 aab9 045d eb3d ea93 94bc 2c6f 60bd
00000160: 26ae 0bbd 6fc4 02be 715a 07be b388 49bd
00000170: abea debd d9c4 a33d e54c 74bc 3230 083e
00000180: 5cbe 013d c452 c63d ffc9 cebd 2d85 08be
00000190: e432 6ebd 04cf 84bb 6bc8 6dbd 62ce 98bd
000001a0: a757 be3d fdf8 3c3d 3f47 c1bd 9360 58be
000001b0: e072 69bd 77b2 90bd b5b9 46bd 1f8d 64bd
000001c0: 662c 023d fe80 f1bd 7bde 68bd 2188 de3d
000001d0: 1f28 34bb b877 6cbd 619c 55bd f44e e5bd
000001e0: b0e5 a0bd a7eb e63d 88d1 15bd 5fcc bdbd
000001f0: 0657 8dbc 5af6 09be f73f 0c3d b4b1 12bd
00000200: a5bb c33d 11df a3bc c362 3fbe 7a4a 96bc
00000210: ed1b 73bd 411f 913d 186a 27bd 7ff8 2bbd
00000220: 7ff7 563d 4b52 a6bd 20bb 653d 338b 923b
00000230: 2805 ddbb 972a 68bd 95d6 a73d dc50 cd3b
00000240: 6ac6 803d d06f e33c d82f 713d 8bb0 2cbe
00000250: c101 143e 677a d4bd 7613 35be 42b9 95bc
00000260: 342e 5fbd 28af 0c3b 129e 933d a121 f5bd
00000270: 29fa d0bc bdb0 b8bb 5b54 dfbd 9c29 d9bd
00000280: 5e8c 81bc cfc3 783e f137 d33c 52dc bbbc
00000290: 7e28 1d3e 0954 41bd 4b44 19be 4e6f a5bd
000002a0: d3e7 a9bc 2151 f2bc e3a3 c2bd 1f3a 52bd
000002b0: f86c 7dbd 3b0f 053c 0e7d 253e 73fe c5bd
000002c0: c19d 59bd 06b8 43bd eee5 003d 6303 183e
000002d0: 6721 923d be82 833c 16ea 8fbc ce6a e6bc
000002e0: 5fa9 edbd f9e6 d73d 0b08 f8bc ebfe d3bd
000002f0: fd58 6e3c c85a e73d beff 05bd 42c4 aabc
00000300: 0617 debd f4a7 b93d 6504 8ebb d53c 18bd
00000310: 9fad 52bc 83d9 7e3c 2091 9f3d e2b6 8ebd
00000320: a5ba aa3d 829c cdbd 61a9 773d 55e5 083d
00000330: e379 1f3e 8c56 afba 7122 2cbe d33d 543d
00000340: 58f5 3d3d 5dcf 72bc 8266 6e3b f1f5 7b3b
00000350: 6763 273d c420 033e 8d47 1f3d d5e8 1fbc
00000360: a018 1b3d 8dd6 75ba dcd8 a23d 88bb 0dbd
00000370: 2b8b 8ebd d821 12bd a7fa 67bd ce68 0dbe
00000380: 80be 023d 0309 903d 955e 073d e331 c8bd
00000390: a4c8 973d 8ffe 5ebd 0e9b be3d a468 413d
000003a0: 5418 b4bd da52 97bd cdfd fabd 61bb 8abd
000003b0: 3b2b ab3d f2c7 ccbd a83b a93d f94c da3c
000003c0: ca86 523e ec51 16be cb33 3bbc 8de6 75bd
000003d0: 2bc3 3dbe 360f 70bd 5e57 e4bd dfaa 893c
000003e0: aca0 a33d 3d79 37be ac07 5f3e a92a a5bd
000003f0: 3d0b b3bc 4fb1 063e 4326 ff3c 3e91 3b3e
-0.09150232 -0.09663893 -0.061247 0.100497544 0.07576548 -0.044532463 0.02114418 -0.011633373
-0.0057402486 -0.15084372 0.10727919 -0.16034904 -0.032726604 -0.031349916 -0.0027597686 -0.01611255
0.048209604 0.035079814 0.11981295 0.0028496692 -0.055992402 0.10015397 0.041040096 -0.07455049
0.050892286 -0.015414929 -0.13584597 0.016197972 0.09923074 -0.046300486 -0.0011882862 -0.042017344
-0.13477056 0.01811788 -0.054911453 -0.13921858 0.028757287 -0.15241472 -0.07897766 0.118777916
0.115728594 0.032938443 -0.007026774 0.035622872 0.07833105 -0.04728268 0.014239181 -0.243172
0.039392278 0.072435394 -0.17058793 -0.100363135 0.07334116 0.052894965 -0.08509547 0.021061726
0.038292672 -0.07767541 -0.14617832 0.072591305 0.014347086 -0.08072677 -0.10075989 0.0060348287
0.0950349 0.10378934 0.07950584 0.19274278 0.15066315 -0.12406226 0.22029296 0.05547864
-0.036077198 -0.03350233 -0.10711962 0.03404286 -0.07782711 -0.119076766 0.014959736 0.08434208
0.006640158 0.024871338 -0.054769486 0.06431431 -0.00032428012 0.11492351 -0.018136937 -0.05479352
-0.034101628 -0.12770246 -0.13218094 -0.049202632 -0.10884603 0.0799653 -0.014910911 0.13299635
0.03167568 0.09683755 -0.100971214 -0.13332053 -0.058154 -0.0040529985 -0.05805246 -0.074612394
0.09294062 0.04613589 -0.09437417 -0.2113059 -0.05699432 -0.070652895 -0.048516948 -0.055798646
0.031780623 -0.117921814 -0.0568528 0.10865808 -0.0027489734 -0.05773136 -0.052151088 -0.111967
-0.078563094 0.11275416 -0.036576778 -0.09267496 -0.01725341 -0.13472882 0.03424069 -0.035814002
0.09557275 -0.020003827 -0.18690018 -0.01834606 -0.059352804 0.07086039 -0.040872663 -0.04198503
0.052482124 -0.08121165 0.05608666 0.0044721602 -0.0067449994 -0.05668124 0.08195225 0.0062657427
0.062878445 0.027763277 0.058883518 -0.16864221 0.14453794 -0.10374909 -0.17683205 -0.018276814
-0.054487422 0.0021466706 0.07207884 -0.11969305 -0.02550991 -0.005636303 -0.109047614 -0.106036395
-0.015814003 0.24293445 0.02578351 -0.022932205 0.15347478 -0.047199283 -0.14967458 -0.0807787
-0.020740425 -0.0295797 -0.09503915 -0.05132496 -0.0618715 0.008121307 0.16160986 -0.09667673
-0.05312896 -0.04778292 0.031469278 0.14845042 0.07135277 0.016053554 -0.017567676 -0.0281271
-0.116045706 0.105421014 -0.030277273 -0.10351356 0.014547584 0.11296612 -0.032714598 -0.020845536
-0.10844235 0.09065238 -0.00433402 -0.03716739 -0.012858777 0.0155547885 0.07791352 -0.06968476
0.08336381 -0.10039617 0.060464267 0.033421833 0.1557384 -0.0013377233 -0.16810013 0.051816773
0.046376556 -0.014819947 0.0036377017 0.0038446153 0.04086628 0.12805468 0.038886596 -0.009760101
0.03786528 -0.0009377979 0.07951519 -0.03460267 -0.06960138 -0.035676807 -0.056635525 -0.13809511
0.031919956 0.07032969 0.033049185 -0.0977514 0.07411316 -0.054441985 0.09306918 0.047218934
-0.08793703 -0.073888496 -0.1225544 -0.06774021 0.08357855 -0.09999074 0.08263332 0.026648032
0.2055923 -0.14679688 -0.011425923 -0.060034323 -0.18531482 -0.058608256 -0.111494765 0.01680511
0.0798963 -0.17917342 0.2178027 -0.080647774 -0.021855945 0.13153575 0.031146174 0.18317124

network_body._body_endoder.seq_layers.2.bias f4 [128]
00000000: a42b 153c 782b d23a b737 133b 5c15 6ebb
00000010: f67a 2d3c c40a 28bb e94e 2f3c d9a8 10b9
00000020: 80f3 dabb 9291 293c b40e 0d3c b0e0 51bb
00000030: 57be cb3b 30c3 6c3b 252d 71bb a93d 283c
00000040: 2fc0 8dba 3b7d a63b 6821 cb3b a089 8bba
00000050: c014 c63a d921 293b c5f0 343b 0f59 693b
00000060: 23b5 533b c962 643c 1d52 37ba d39a a33b
00000070: ddde dbba 0b08 1b3c f45a 55b9 5234 a7b9
00000080: b99f 293c 43fa acbb eb74 103b 7af9 e73b
00000090: 89e0 ff3b e28b 043b 7a87 023c a604 143c
000000a0: 1096 303a 3ee8 84ba fb53 853b be08 a43b
000000b0: 102b 53bb 3488 653c 3583 1e3c 1e54 35bb
000000c0: c0c9 ffba 914b 04ba 9f1c 45ba 0619 88bb
000000d0: b1ea 41bb 2402 bf3b ec92 a33a afe1 493b
000000e0: 7c05 6d3b 3e97 d9bb 8833 20bb 13d7 353c
000000f0: 5412 30ba 3916 b239 80a0 71bb a1e4 07ba
00000100: 1ca4 b03b 2802 813b 394b 123c ad48 bf3a
00000110: 2339 d23a 47ec 8dbb 7ab8 08bb dcaf 433c
00000120: 50ce 813b d3b3 2b3c de1c d2bb c854 a4bb
00000130: c0b8 75bb 5dbc 553c 6637 d1ba 89b3 38bb
00000140: 0140 65bb 9a2c 05bb 9dea d03b f34e b53a
00000150: 2e16 7cbb ce5f 613b 2c99 293b f7db 963a
00000160: b918 d2bb c80c 90bb 15ce ff3b 67fb b13a
00000170: 8ec3 48b9 606b 35bb f47f 283c b99c 4cb9
00000180: b5de 373b 7f3b 5fbb a5cf 22b9 e59d 31bb
00000190: 8bbb 83bb b5de a93b f5aa 133c 9165 5bba
000001a0: a04d 85bb 7dc4 8b3b 20b8 66bb faf6 62bb
000001b0: 33a6 6dbb 57b5 8f3b 0413 cf3a e470 3cba
000001c0: ebdf 8039 4108 da3b 233b 213a 5e77 433b
000001d0: 9baf c0bb af7d 13bb 57ab c6ba b377 583b
000001e0: 855c a13b 1cdb b83a 0c23 403c d880 143c
000001f0: 1fb6 4a3b 22ba a33a 4e11 c7bb b092 103c
0.009104643 0.0016034683 0.0022463629 -0.003632865 0.010588398 -0.0025641182 0.010699966 -0.00013795811
-0.0066818595 0.010349648 0.0086094625 -0.0032024793 0.0062177586 0.0036127083 -0.003680059 0.010268607
-0.0010814721 0.0050808466 0.0061990507 -0.0010645874 0.0015112385 0.0025807528 0.002760933 0.0035606062
0.003230401 0.013939568 -0.0006993132 0.0049928217 -0.0016774792 0.009462367 -0.00020347146 -0.00031891704
0.010353022 -0.005278857 0.0022042345 0.0070793005 0.007808749 0.0020224978 0.00796687 0.009034311
0.0006736228 -0.0010140014 0.004068849 0.005005925 -0.0032221712 0.014009524 0.009674837 -0.0027668546
-0.0019515082 -0.00050466607 -0.00075192185 -0.0041533737 -0.002958935 0.0058291126 0.0012479699 0.0030804684
0.00361666 -0.006640344 -0.0024444778 0.011098641 -0.0006716598 0.00033967363 -0.0036869347 -0.00051839097
0.005390657 0.0039370246 0.008929067 0.0014593803 0.0016038757 -0.004331145 -0.002086191 0.011943784
0.003961362 0.010479885 -0.0064121326 -0.0050149895 -0.0037494153 0.013045398 -0.0015961945 -0.0028183183
-0.0034980776 -0.0020320774 0.0063756243 0.0013832733 -0.0038465369 0.003438938 0.002587865 0.0011509646
-0.0064116386 -0.004396055 0.0078065493 0.0013578952 -0.00019146336 -0.0027682409 0.010284413 -0.0001951334
0.0028056328 -0.0034062562 -0.00015526878 -0.002710217 -0.0040201596 0.0051840195 0.009012927 -0.00083693216
-0.0040680915 0.0042653666 -0.0035204962 -0.0034632073 -0.0036262393 0.004385631 0.0015798514 -0.0007188453
0.00024580894 0.006653816 0.00061504747 0.0029825787 -0.005880309 -0.0022505333 -0.0015157264 0.003303033
0.0049243593 0.0014103386 0.011727106 0.009063922 0.0030931307 0.0012491385 -0.006075061 0.0088240355

action_model._continuous_distribution.log_sigma f4 [1, 2]
00000000: 082b 3bbb 8beb 10bc
-0.0028559584 -0.00884522

action_model._continuous_distribution.mu.weight f4 [2, 128]
00000000: 1c50 57bd bc4d de3c b30d db3c dca0 063d
00000010: 14d2 24bd 0f4c e73c 5e85 0cbd ae28 2d3d
00000020: 7a14 773c f5c6 33bd f355 21bd d4ac f93b
00000030: 916b 0dbd 5e8d 85bb ccfb cfbb 8376 62bd
00000040: 6afb 993c 845b 963c 6a1d 32bd e904 c43c
00000050: f9e4 09bd b772 29bb 08b5 20bd e468 9ebc
00000060: a0ba 0abd cfb4 1cbd 1701 4d3d c9ef 02bd
00000070: a460 bb3c fbac 4fbd 7d69 963c 807b 7b3d
00000080: 7131 16bd 5939 6c3c 67b8 f0bc 3d17 bcbc
00000090: fd1b 15bd ac82 81bb c055 0dbd b449 02bd
000000a0: 6b35 82ba 28e7 c43c 17de f0bc 8068 9ebc
000000b0: afbe f43c 516b e1bc ab55 2fbd 829d dd3c
000000c0: 9b70 b43c 4698 bd3b 99f0 61bc 8dc2 6bbc
000000d0: 2a73 253d 7418 96bc da39 663b c779 dabc
000000e0: b720 4d3c 6723 0abc 6bba a73c d4a1 f9bc
000000f0: cf10 be3a d840 f8bc 00ce 283d 1c9c f83b
00000100: c26e 0ebd 8695 4bbb 7654 5fbd 3226 fe3c
00000110: df8d e23c 6e1a 053d 1bc3 0b3d bc7e debc
00000120: c5bf b8bc c077 50bd 3116 4a3c a5cb 303d
00000130: 633e 723d e2ed 5cbd c8aa a1bc f83f d23c
00000140: 0117 093d 4c5c 423c 28a0 eabc 0590 0d3d
00000150: f162 223d f2ab 15bc 7996 103d 4643 3abc
00000160: e32f 2c3d 7be9 5a3c 4923 efbc baa6 0cbc
00000170: 3e74 443d 1eec b53c 616e 3ebd 9dd5 833b
00000180: d14f b8bc 51b3 333d 129f 103c 350f 143d
00000190: 4fca eb3c 3450 8ebc 06a8 03bd 330b f83b
000001a0: 911f 933c b0af 61bc 57e8 1a3d 02dd ce3c
000001b0: f6b9 393d 10d0 edbc a960 39bb 72a9 213d
000001c0: 6228 223d 49e6 35bd 91b0 59bd 79d5 11bd
000001d0: aa7c 243c b8f8 e83c 7520 a43a 7863 60bc
000001e0: 6c4f 46bd 435a ba3c dbbe 17bd 8337 dfbc
000001f0: db11 81bc f332 493d db8f a83c 80a4 80bd
00000200: 27b0 2b3c a929 e7bb 7410 d8bc 980b 033c
00000210: a78e 9a3c 7896 1c3b 4a65 993c 5ff5 8bbc
00000220: e8d8 23bc ee44 183d 1bdb 223d 8afa 923c
00000230: 291c 7c3c 3e45 97bb 36e4 eabb b818 853c
00000240: a95c afbc 2c0f 22bc ff6f a9ba 0f30 5d3d
00000250: eaee 8ebc 61e8 c23c 51a5 1ebc f4b2 973c
00000260: c46a 5cba 51ac b43c c17d dc3b a837 863c
00000270: 2fa5 19bd b019 0c3d a815 983c 4fc2 823c
00000280: 226c 143c 3f9f 633c 389d d63b 6527 0c3d
00000290: f1aa 773d f8e8 f6bb cfdc ec3b 94ae ba3b
000002a0: 0d41 88bc 490b c3bb 2ea1 423b 0df6 a13c
000002b0: 8bc6 17bd d416 923c 2611 123d fa55 77bb
000002c0: 55a4 ffbc 57a0 67bc 6ecd 2c3c e1c7 9ebb
000002d0: 0ab0 babb 4414 bd3c 2b57 933c 1d20 acba
000002e0: 98dc 88bb 6b54 ecbb 1c61 35bd 777f df3c
000002f0: 0de4 963c 923f 03bd 6e66 94bc e045 183d
00000300: ec81 9e3c 9073 db39 910b b93c b41f 7cbc
00000310: 4efe 3f3c 26d3 5cbc acc2 62bc 205d 1b3d
00000320: 8f11 913b 2d55 143d abed 2abc 5ad4 acbc
00000330: 5bd4 5bbc e63c 2a3c 5cbf 88bb 0583 933c
00000340: 08e6 773b 37b3 32bd 329b 473d 0b54 7f3c
00000350: a41c dcbc d216 adbb b1a4 a4bc ecf4 a03c
00000360: fcbf 0cbb daca 72bc e115 f83c a915 8f3c
00000370: f8b1 07bc 14f7 82bc ba63 283d 2699 b43c
00000380: 27b4 19bc 51e4 1cbd ca53 a4bc c748 83bc
00000390: c9e2 d1ba 0dbe d33c 5af1 223d 6bb9 193c
000003a0: 5033 81bc 7c8c 543b e49c 863c cecc 29bc
000003b0: e034 cfbc ce8c 893c 1ad4 3ebc 0ccb 5c3b
000003c0: 3b83 e4bb 98a6 a9bb 9ea0 dcbc bfa6 9bba
000003d0: abfd d7bc b3a0 03bd 1b8e a53c 44a5 4a3c
000003e0: df4c 2c3a 7cb4 ddbb a6ee a83c c2a3 e73c
000003f0: 7649 c63c 38a8 ebbc dc52 ccbb 2e72 b03c
-0.052566633 0.027136676 0.02673993 0.03286825 -0.04023941 0.02823451 -0.034306876 0.042275123
0.015080566 -0.043890912 -0.03938861 0.0076194797 -0.03452641 -0.00407569 -0.006347155 -0.055288803
0.018796641 0.018354185 -0.043485083 0.023928123 -0.03366563 -0.002585573 -0.039235145 -0.019337125
-0.033869386 -0.03825837 0.050049867 -0.03196696 0.02287323 -0.050702076 0.018360848 0.061397076
-0.036668245 0.01441797 -0.029384805 -0.0229603 -0.036403645 -0.003952345 -0.034505606 -0.03180857
-0.0009934133 0.024036005 -0.029402776 -0.019336939 0.029876081 -0.027516993 -0.04280631 0.027052645
0.02202635 0.0057859747 -0.013790273 -0.014389646 0.040393032 -0.018322207 0.0035129697 -0.026669396
0.012520007 -0.008431292 0.020474633 -0.030472673 0.0014500859 -0.030304357 0.041212082 0.007586969
-0.034773596 -0.0031064465 -0.054523908 0.031024072 0.02765554 0.03249591 0.034121614 -0.027160041
-0.02255238 -0.050895452 0.012334392 0.04316296 0.059141528 -0.0539378 -0.019734755 0.025665268
0.033469204 0.011862826 -0.028640822 0.034561176 0.03964514 -0.009135233 0.035299752 -0.011368578
0.042037856 0.01336133 -0.02919163 -0.008584673 0.04796242 0.022207316 -0.046491984 0.0040232674
-0.022498997 0.04387218 0.008826988 0.036147315 0.028782992 -0.017372228 -0.03214266 0.0075696944
0.017959388 -0.013774797 0.037819233 0.02525187 0.04534336 -0.029029876 -0.0028286374 0.039468236
0.039589293 -0.04440907 -0.053146902 -0.035603974 0.010039488 0.02843891 0.001252188 -0.01369559
-0.048415586 0.022748118 -0.03704725 -0.02724815 -0.015755584 0.049120855 0.020576408 -0.06281376
0.01047901 -0.007054527 -0.026375033 0.00799837 0.01886685 0.0023893397 0.018725056 -0.017084775
-0.010000445 0.03717511 0.039759737 0.017941732 0.015387573 -0.0046164086 -0.007168318 0.016247138
-0.021406488 -0.009891313 -0.0012927054 0.05400091 -0.017447907 0.023792448 -0.009682969 0.018517949
-0.00084082433 0.022054823 0.006728858 0.01638396 -0.037511047 0.034204185 0.018565014 0.015961794
0.009058984 0.013892948 0.0065495037 0.034217257 0.060465757 -0.0075350963 0.007228471 0.005697081
-0.016632581 -0.005952273 0.0029698121 0.019770646 -0.03705458 0.01783315 0.035660885 -0.0037740455
-0.03120629 -0.014137349 0.010547025 -0.0048456048 -0.005697255 0.023080952 0.0179859 -0.0013132129
-0.0041766874 -0.007212212 -0.044282064 0.02728246 0.01841929 -0.032043047 -0.018115249 0.037176013
0.019349061 0.00041857036 0.022588523 -0.015388418 0.011718346 -0.013478076 -0.013840359 0.037930608
0.004427142 0.036214042 -0.010432641 -0.02109735 -0.013417329 0.010390496 -0.0041732024 0.01800681
0.0037826318 -0.043627944 0.04873199 0.015584002 -0.026869126 -0.0052822614 -0.020098062 0.019648038
-0.0021476736 -0.014818871 0.03028387 0.017466383 -0.008282177 -0.015986957 0.04111073 0.022045683
-0.009381331 -0.038303677 -0.020059485 -0.016025914 -0.0016013022 0.02584746 0.039780952 0.009382586
-0.015771538 0.0032432368 0.016432233 -0.010363771 -0.025293767 0.016790774 -0.011647249 0.0033690361
-0.0069736517 -0.00517733 -0.026932057 -0.0011875256 -0.026366076 -0.032135677 0.020209363 0.012368504
0.0006572734 -0.0067659 0.020621609 0.028276328 0.02420495 -0.028766736 -0.0062354635 0.02153882

action_model._continuous_distribution.mu.bias f4 [2]
00000000: 1a18 b8bb 0b69 813b
-0.0056181075 0.0039492897

exp_avg f4 [128, 10]
00000000: fa77 9735 dbca 4a33 eb4a a033 5071 d0b3
00000010: 21bc 0334 c2d6 8733 07c4 75b3 4678 1334
00000020: 4e74 8b33 9c23 a4af 3c6a ccb6 e4c1 b4b3
00000030: 0ee0 0eb4 0072 2cb2 9ad7 6ab4 4c28 f2b3
00000040: c20f db33 ee71 83b4 429a f8b3 e94d 1230
00000050: c3a2 cc38 8d25 0834 2f3a 5734 a592 4333
00000060: 29e2 b034 a664 3634 4bff 24b4 5c02 c634
00000070: 713f 3b34 9064 5cb0 2afb 68b9 8764 aa33
00000080: c9ae 0634 208c 2cb4 5c60 5d34 ae45 e433
00000090: 2a80 ceb3 29d1 7734 2759 ea33 60ea 09b0
000000a0: 738e 3b39 e2b2 2a35 b3ec 8635 f396 02b5
000000b0: 2cc6 dd35 95ae 6435 0adf 4eb5 db42 f835
000000c0: c6c4 6a35 aa29 8ab1 5353 1b39 0d3b 0434
000000d0: 6309 5134 d427 dab3 aacb ab34 9425 3134
000000e0: 6240 20b4 6050 c034 9fdc 3534 9e0d 56b0
000000f0: 386a 55b9 5ba7 afb4 4ed7 0ab5 6445 a634
00000100: 2036 64b5 ea51 ebb4 51e0 d434 b477 7fb5
00000110: 5895 f1b4 562c 0e31 af02 1038 518a 1034
00000120: 137f 6434 34eb 29b4 dfc9 bb34 50a3 4134
00000130: 672b 2fb4 7e37 d234 beca 4634 f6fa 69b0
00000140: 7475 b9b7 0513 0bb4 f2da 5bb4 7225 3033
00000150: d4af b4b4 b250 3ab4 8e8b 2834 5444 cab4
00000160: 1f46 3fb4 b921 6130 69bd bbb8 e5ff ebb2
00000170: 278a 3ab3 c377 39b2 6c4e 99b3 f314 1eb3
00000180: 3a01 0f33 c39d abb3 3b4a 22b3 5d04 3f2f
00000190: ad66 7a37 d7e7 74b3 7a94 c1b3 ae1f bbb1
000001a0: cf17 1fb4 560c a4b3 db66 9433 db17 32b4
000001b0: 026a a8b3 cd39 c62f 0df5 4db9 9a47 11b4
000001c0: 79aa 65b4 d0da b933 d1bf bcb4 f1a0 42b4
000001d0: c910 3034 d84a d3b4 1bcf 47b4 722d 6b30
000001e0: 3d01 e3b8 2eb3 45b4 4b44 9cb4 3a06 4834
000001f0: 4f6d 00b5 646d 84b4 0f98 6f34 f3c3 0fb5
00000200: b8f3 87b4 6c04 a030 27d5 5338 fe3c b133
00000210: eb17 0c34 4e17 4cb4 2145 6634 5271 ed33
00000220: 07cc d6b3 d2e2 8034 30c3 f333 a174 0fb0
00000230: 580d 3bb9 1928 4bb4 7594 a0b4 ee23 ce33
00000240: c6f8 03b5 1f15 88b4 0835 7634 c9bb 13b5
00000250: 5cb4 8bb4 116f a430 1d85 9fb9 a4c8 8cb5
00000260: d38e deb5 3026 1d35 71e8 36b6 f99a bcb5
00000270: f39d aa35 d3c0 4cb6 1aa0 c1b5 3ae6 e331
00000280: c4eb 21b9 e412 f7b4 124b 43b5 c714 8c34
00000290: 2e80 a0b5 0880 25b5 24b7 1535 74ab b3b5
000002a0: b5e7 29b5 f1fa 4731 8762 03b9 1184 fcb3
000002b0: 4298 47b4 4265 bc33 2d09 a4b4 2e25 29b4
000002c0: 5303 1934 80a0 b7b4 c5a5 2db4 8362 4c30
000002d0: 4770 2339 c7c1 df34 ebdc 3035 9eda b1b4
000002e0: 995a 9135 aae1 1535 1e96 07b5 c7b6 a235
000002f0: eede 1935 931b 35b1 62f5 8338 a9d6 0a34
00000300: af7b 5b34 b56c 8fb4 8561 b434 e3ff 3934
00000310: 8642 28b4 b3ec c934 40f3 3e34 11c0 60b0
00000320: 56bf 9cb8 b5d8 7db3 a5a5 c8b3 615b e333
00000330: 5ae6 24b4 7a09 aab3 d4d1 9933 6198 38b4
00000340: 0990 aeb3 5976 cd2f 2442 a137 90b8 a833
00000350: 665c 0534 a55f 20b4 4c34 5b34 3b08 e233
00000360: 6079 ccb3 4b62 7534 3e0c e833 d48f 08b0
00000370: 07d0 0739 d20d 1135 f44e 6535 383e e4b4
00000380: bb74 bc35 7753 4235 c3ca 2fb5 b9f6 d235
00000390: 947f 4735 cfcf 6ab1 9027 64b8 4c15 8db4
000003a0: 0008 dfb4 d6cb 6234 0c4c 37b5 ac01 bdb4
000003b0: d9fa aa34 5330 4db5 8409 c2b4 4f62 e430
000003c0: 94a4 2638 c4de a2b3 92bc 00b4 d182 3033
000003d0: 619a 53b4 bb31 dab3 4062 c533 16e0 6cb4
000003e0: 6c00 e0b3 94d3 0330 9936 fbb8 ea5d 12b2
000003f0: 6062 67b2 fc77 8533 0b2a beb2 3716 44b2
1.1285294e-06 4.7216286e-08 7.464208e-08 -9.706366e-08 1.2268767e-07 6.3254916e-08 -5.7221794e-08 1.3734197e-07
6.4938476e-08 -2.9856728e-10 -6.092041e-06 -8.417172e-08 -1.3306291e-07 -1.0037638e-08 -2.1871384e-07 -1.1276333e-07
1.02008485e-07 -2.4483546e-07 -1.1576459e-07 5.322521e-10 9.757795e-05 1.2679648e-07 2.0044602e-07 4.5535348e-08
3.2947108e-07 1.6986687e-07 -1.5366565e-07 3.688209e-07 1.7438812e-07 -8.017844e-10 -0.0002221881 7.934528e-08
1.2543309e-07 -1.6069725e-07 2.0617284e-07 1.0629752e-07 -9.6159354e-08 2.307976e-07 1.0912691e-07 -5.0173377e-10
0.00017886776 6.3590244e-07 1.0052667e-06 -4.8648434e-07 1.6523459e-06 8.519067e-07 -7.7065545e-07 1.8496897e-06
8.7458136e-07 -4.0210653e-09 0.00014812993 1.231494e-07 1.9468057e-07 -1.0158661e-07 3.1999417e-07 1.649808e-07
-1.4924584e-07 3.5821267e-07 1.69372e-07 -7.78721e-10 -0.00020352833 -3.2718057e-07 -5.1722316e-07 3.0970398e-07
-8.501538e-07 -4.383176e-07 3.965129e-07 -9.5169094e-07 -4.499841e-07 2.0688922e-09 3.4334775e-05 1.3461364e-07
2.1280384e-07 -1.5824918e-07 3.4978345e-07 1.8033938e-07 -1.6313935e-07 3.9155924e-07 1.8513944e-07 -8.5121543e-10
-2.2108412e-05 -1.2952303e-07 -2.0475616e-07 4.101225e-08 -3.3655544e-07 -1.7351957e-07 1.5696989e-07 -3.7675147e-07
-1.7813771e-07 8.1902446e-10 -8.952135e-05 -2.7473968e-08 -4.343215e-08 -1.0795648e-08 -7.1388826e-08 -3.6806295e-08
3.3295898e-08 -7.991505e-08 -3.7786076e-08 1.7372899e-10 1.4925067e-05 -5.7021534e-08 -9.0142706e-08 -5.446018e-09
-1.481669e-07 -7.639089e-08 6.910496e-08 -1.658622e-07 -7.842392e-08 3.605706e-10 -0.00019641612 -1.3530226e-07
-2.1389305e-07 8.6545356e-08 -3.5157294e-07 -1.8126208e-07 1.6397384e-07 -3.935627e-07 -1.8608664e-07 8.5557084e-10
-0.00010824434 -1.841224e-07 -2.9106954e-07 1.8628717e-07 -4.784278e-07 -2.4666508e-07 2.2313928e-07 -5.3556795e-07
-2.5323038e-07 1.1642789e-09 5.0504834e-05 8.253299e-08 1.3047217e-07 -1.9007459e-07 2.1445568e-07 1.1056785e-07
-1.0002264e-07 2.400689e-07 1.1351074e-07 -5.2188837e-10 -0.0001783868 -1.8920436e-07 -2.991034e-07 9.599158e-08
-4.9163316e-07 -2.5347342e-07 2.2929828e-07 -5.503503e-07 -2.6021996e-07 1.1964137e-09 -0.0003042602 -1.0489207e-06
-1.6581856e-06 5.854263e-07 -2.7255412e-06 -1.4052195e-06 1.2711956e-06 -3.0510607e-06 -1.4426216e-06 6.6327432e-09
-0.00015441986 -4.602108e-07 -7.27524e-07 2.609215e-07 -1.1958234e-06 -6.16536e-07 5.577333e-07 -1.3386439e-06
-6.3294584e-07 2.9100955e-09 -0.00012529838 -1.1758687e-07 -1.858871e-07 8.772851e-08 -3.0554057e-07 -1.5752877e-07
1.4250445e-07 -3.4203185e-07 -1.6172187e-07 7.435476e-10 0.00015586718 4.1677978e-07 6.588659e-07 -3.3127884e-07
1.0829709e-06 5.583521e-07 -5.050987e-07 1.2123136e-06 5.7321347e-07 -2.635464e-09 6.292273e-05 1.2930344e-07
2.044096e-07 -2.671492e-07 3.3598567e-07 1.7322559e-07 -1.567042e-07 3.761139e-07 1.7783623e-07 -8.176367e-10
-7.474299e-05 -5.9103247e-08 -9.343356e-08 1.0587133e-07 -1.5357492e-07 -7.917966e-08 7.162785e-08 -1.719177e-07
-8.128706e-08 3.7373374e-10 1.9223495e-05 7.856681e-08 1.2420205e-07 -1.4935956e-07 2.041499e-07 1.0525442e-07
-9.521568e-08 2.2853162e-07 1.0805569e-07 -4.9680904e-10 0.000129521 5.403682e-07 8.542404e-07 -4.251358e-07
1.4041065e-06 7.239209e-07 -6.548764e-07 1.5718025e-06 7.431893e-07 -3.4169607e-09 -5.439628e-05 -2.6278792e-07
-4.1542808e-07 2.1122045e-07 -6.8283475e-07 -3.520521e-07 3.1847483e-07 -7.643877e-07 -3.614224e-07 1.6617124e-09
3.973076e-05 -7.584234e-08 -1.198953e-07 4.109717e-08 -1.9707069e-07 -1.0160462e-07 9.191399e-08 -2.2060735e-07
-1.04308896e-07 4.7958193e-10 -0.00011978782 -8.519672e-09 -1.3468338e-08 6.21512e-08 -2.213803e-08 -1.1413753e-08

exp_avg_sq f4 [128, 10]
00000000: 20e5 be35 a792 402d c2a0 f02d 390c 172d
00000010: 2c63 a22e 83cf ac2d ff38 8d2d dbaa cb2e
00000020: 9b21 b62d 1651 fc25 5db5 0d34 bac2 9b2b
00000030: 22a1 422c 28ab 8e2b 0741 022d b6c6 0b2c
00000040: 787b e12b fabb 242d a150 132c 7015 4c24
00000050: dd7e 7334 3d9e 172c 1974 bd2c bf33 0d2c
00000060: 45b3 7a2d 9a12 882c fb85 572c 665a a02d
00000070: ab65 8f2c eba7 c624 5da7 5735 6ed3 0a2d
00000080: 0278 ad2d cae5 e02c 5a0e 6a2e ed28 792d
00000090: a781 4b2d f1d2 922e 6c4c 832d 25e5 b525
000000a0: f397 b535 ba6a 4d2d a956 002e b839 3c2d
000000b0: 027f ac2e 1259 b82d 01ad 952d 5e40 d92e
000000c0: 6147 c22d 9d92 0626 311e 8a35 54e5 232d
000000d0: 71cb cc2d f9bb 092d 1818 8a2e 0e14 932d
000000e0: 1714 702d 9756 ad2e 5602 9b2d 28be d625
000000f0: 9cdb 8335 e095 2d2d 01e7 d82d 0595 182d
00000100: 29f6 912e 8cc7 9b2d c672 7d2d 0996 b72e
00000110: 672c a42d 4e70 e325 3bd6 9733 6c5d 192b
00000120: c1a2 bf2b ce09 3c2b 5d53 7a2c f39e 892b
00000130: e088 552b 5e33 a22c 9a0c 912b ddf1 c823
00000140: a5c4 5e35 bf1f e82c 3406 912d 1a30 b92c
00000150: 769a 432e 604d 502d 300b 2a2d 3a7f 752e
00000160: a189 5b2d a411 9825 3353 a634 1ca1 3a2c
00000170: 8433 e92c ee75 242c 3307 9d2d 247b a72c
00000180: 5860 882c a861 c52d 9082 b02c 7787 f424
00000190: 92c6 b334 5ef8 382c c020 e72c 0752 1d2c
000001a0: 4046 9b2d 58fc a52c ecb4 862c 75a0 c32d
000001b0: d6f0 ae2c fa5a f224 6c58 d035 c576 7e2d
000001c0: 4cfb 1e2e 5d50 572d 0838 d62e 7a5a e42d
000001d0: a91d ba2d e88f 062f 9daa f02d 53b4 2626
000001e0: 2fb4 6e34 e93f 0e2c 3cbf b12c b67a 0c2c
000001f0: 7e26 6e2d b751 7f2c d238 4e2c eb71 962d
00000200: 5f89 862c 9761 ba24 3c12 6835 f7e2 072d
00000210: c9cb a92d 7cfe dc2c 1928 652e d3e1 732d
00000220: 9c4b 472d 25b7 8f2e bf84 802d 3d0b b225
00000230: e715 4a34 bb75 fb2b cd1a 9d2c b7d5 f62b
00000240: 6cf3 512d bfa9 612c 158d 352c 33f9 842d
00000250: 37d3 6d2c 79bc a424 7a6f 3236 3993 d22d
00000260: ac8f 832e 8a8f b22d 0ba4 2f2f 0502 3d2e
00000270: b7c3 172e e9b4 5e2f 4f28 472e b2f3 8926
00000280: 41cb 1035 2d30 a82c 6e28 522d 69ef 8b2c
00000290: 0348 0c2e 67f5 162d 056c f22c b4e0 312e
000002a0: 9c11 1f2d e05d 5c25 f00c 9434 0a72 282c
000002b0: d07a d22c cd5f 302c d290 8b2d 6d29 972c
000002c0: 5a5a 702c 5c26 b22d e64f 9f2c 34b4 dc24
000002d0: 2978 3e35 5d47 e42c 3b9f 8e2d cc76 ce2c
000002e0: d7de 3f2e dedc 4c2d a78e 262d 2f6e 712e
000002f0: b2e6 572d ce8c 9525 bf8e 1f36 6627 be2d
00000300: f99a 6d2e 7bcb a12d d8e1 1f2f 90a3 2a2e
00000310: 72d4 0a2e f71b 492f ebd7 332e bd25 7926
00000320: 4936 6c35 ae60 072d f528 a92d 1dc1 dc2c
00000330: a418 642e a8f7 722d 8744 462d 4f2d 8f2e
00000340: 8809 802d 8c60 b125 9a5e 0f35 cb76 9f2c
00000350: cf41 472d 770a 862c 6563 062e ca1a 0f2d
00000360: 20a7 e92c afa6 282e 4fd1 162d a9ef 5025
00000370: 13a3 1d36 737b a52d f3c6 4e2e fd79 942d
00000380: fb0c 0b2f 0182 142e 4d66 f12d 2504 2f2f
00000390: 7882 1c2e 51d2 5826 2cf5 7f34 1cc9 062c
000003a0: a26b a82c 24ce 122c 2555 5d2d 03f3 712c
000003b0: 2d79 3d2c 0a8d 8e2d 69f4 7e2c fc99 b024
000003c0: 0487 4034 0f1f d82b bf06 872c ec23 a72b
000003d0: a649 352d 9ff2 412c 572e 1d2c 9792 642d
000003e0: 2267 4c2c dc95 8d24 e5ed 4d35 7580 fd2c
000003f0: 6e61 9e2d c201 cf2c 30b5 552e 607c 632d
1.4222787e-06 1.09465e-11 2.7356232e-11 8.58607e-12 7.3845235e-11 1.964629e-11 1.6055155e-11 9.261721e-11
2.0705928e-11 4.3769978e-16 1.3197628e-07 1.106746e-12 2.7658505e-12 1.0137212e-12 7.404083e-12 1.9863395e-12
1.6021481e-12 9.36406e-12 2.0934714e-12 4.4253607e-17 2.2677291e-07 2.154623e-12 5.3845925e-12 2.006603e-12
1.42506605e-11 3.8674177e-12 3.0627712e-12 1.8230039e-11 4.075592e-12 8.6153276e-17 8.0337287e-07 7.891339e-12
1.9721117e-11 6.3919746e-12 5.3218187e-11 1.4163099e-11 1.1568003e-11 6.676782e-11 1.4926914e-11 3.155377e-16
1.3529774e-06 1.1676599e-11 2.91808e-11 1.0699379e-11 7.8442156e-11 2.0957933e-11 1.7016168e-11 9.8794514e-11
2.2086945e-11 4.6689287e-16 1.0290588e-06 9.316398e-12 2.3282461e-11 7.829287e-12 6.2797934e-11 1.6720871e-11
1.3646881e-11 7.8825106e-11 1.7622497e-11 3.7251937e-16 9.824175e-07 9.86719e-12 2.4658943e-11 8.673289e-12
6.6375634e-11 1.7710076e-11 1.440687e-11 8.348528e-11 1.866436e-11 3.9454324e-16 7.070454e-08 5.448617e-13
1.361654e-12 6.6804624e-13 3.5573413e-12 9.778553e-13 7.5862754e-13 4.61002e-12 1.0306367e-12 2.1786477e-17
8.29876e-07 6.597361e-12 1.6487346e-11 5.2633566e-12 4.4475056e-11 1.1840612e-11 9.665865e-12 5.581955e-11
1.24792685e-11 2.637975e-16 3.0980445e-07 2.6521623e-12 6.6279777e-12 2.3371266e-12 1.785203e-11 4.760097e-12
3.876049e-12 2.2439675e-11 5.016716e-12 1.0604762e-16 3.3485827e-07 2.6285844e-12 6.569051e-12 2.2356576e-12
1.7652657e-11 4.717598e-12 3.8285954e-12 2.224019e-11 4.9721156e-12 1.0510489e-16 1.5522942e-06 1.44646005e-11
3.6148237e-11 1.2239179e-11 9.7415465e-11 2.5960779e-11 2.1158924e-11 1.2238355e-10 2.7360609e-11 5.7837204e-16
2.2231028e-07 2.021489e-12 5.051874e-12 1.9963315e-12 1.3537281e-11 3.628304e-12 2.9305902e-12 1.7103615e-11
3.8237603e-12 8.0829965e-17 8.645327e-07 7.724258e-12 1.9303574e-11 6.2810295e-12 5.2104186e-11 1.3863094e-11
1.1328629e-11 6.53542e-11 1.4610866e-11 3.0885693e-16 1.8820684e-07 1.7867299e-12 4.465184e-12 1.7538669e-12
1.1934325e-11 3.2068651e-12 2.5799963e-12 1.511733e-11 3.3796973e-12 7.144295e-17 2.6588955e-06 2.3939616e-11
5.9827115e-11 2.0300001e-11 1.5974437e-10 4.297542e-11 3.4507255e-11 2.0255055e-10 4.5283163e-11 9.572338e-16
5.3939954e-07 4.7801958e-12 1.1946095e-11 3.9771975e-12 3.1896274e-11 8.581003e-12 6.8900463e-12 4.0444717e-11
9.042014e-12 1.9113764e-16 2.7576561e-07 2.393754e-12 5.982194e-12 2.5064284e-12 1.5866784e-11 4.2962773e-12
3.4156207e-12 2.0253292e-11 4.5279223e-12 9.571507e-17 7.095537e-07 6.4880727e-12 1.6214243e-11 5.8680612e-12
4.3626294e-11 1.16451e-11 9.467683e-12 5.489492e-11 1.227256e-11 2.5942793e-16 2.3775935e-06 2.1617996e-11
5.4025204e-11 1.8393944e-11 1.4541202e-10 3.8798798e-11 3.1566257e-11 1.8290779e-10 4.089166e-11 8.6440374e-16
8.7995846e-07 7.695329e-12 1.9231264e-11 6.274216e-12 5.1863083e-11 1.3811098e-11 1.1270213e-11 6.5109355e-11
1.4556148e-11 3.0770028e-16 5.3409315e-07 4.5322405e-12 1.1326453e-11 3.809671e-12 3.0556353e-11 8.134557e-12
6.640813e-12 3.8346822e-11 8.572989e-12 1.8122324e-16 2.3489745e-06 1.881315e-11 4.701568e-11 1.6879826e-11
1.2646588e-10 3.376677e-11 2.7443959e-11 1.591763e-10 3.5586173e-11 7.5225086e-16 2.3837919e-07 1.9154183e-12
4.786797e-12 2.086228e-12 1.25813015e-11 3.4383058e-12 2.6925781e-12 1.6206165e-11 3.6231246e-12 7.658869e-17
1.7930512e-07 1.5356344e-12 3.8376797e-12 1.1876034e-12 1.0305012e-11 2.7561631e-12 2.2336766e-12 1.2992849e-11
2.9047394e-12 6.1402874e-17 7.6714633e-07 7.204954e-12 1.8005788e-11 5.883489e-12 4.859152e-11 1.2931073e-11

exp_avg f4 [128]
00000000: a0e5 b237 7b75 1fb8 8235 7038 d650 1638
00000010: dd95 9639 c44c 6938 dcf4 1ab9 b204 7f38
00000020: ce5f 75b8 0331 50b7 800c d8b7 5029 80b8
00000030: 9e67 aeb8 b95a 1c38 f637 b3b8 f763 f8b9
00000040: 0ef6 59b9 0fc3 5eb8 4964 4539 58f5 7438
00000050: acef dfb7 2fd7 1438 acec 7f39 37eb f8b8
00000060: e8ad 0fb8 841f 81b6 f932 f838 1775 d3b7
00000070: 84dd 7338 a050 b339 eb06 a337 9d0d 6338
00000080: b67a d837 c89f 5836 7295 b935 81f5 2d39
00000090: 6f4d b5b8 2db2 3937 28ec 15b9 644e 8236
000000a0: 0ded a238 6997 45b8 84a9 d638 ce15 4fb7
000000b0: 6d9b a837 2d67 e438 dc1a 3bb9 2eb1 7a37
000000c0: dbe1 8b36 90bc bc38 4f00 0538 ba8b cab8
000000d0: 9302 bab8 9d47 9bb7 7b0f 9e38 e96b 8238
000000e0: 5602 9238 3d31 90b8 df19 f836 0cc4 2ab9
000000f0: a480 4139 c183 89b8 038d 5ab8 b5ff 02b9
00000100: fcca 4fb9 5cbe f138 b3d0 a7b8 78d5 60b8
00000110: 58a9 8438 5be8 b038 812c a2b6 2fed 9638
00000120: e995 fc38 ea27 1e38 8e27 1239 51bb dbb8
00000130: 53c5 f437 642e bf36 bb2d 3137 14bb d937
00000140: f84f 14b8 20f3 1238 7158 c038 7f8c e538
00000150: 60c0 3db8 e349 8bb7 3d3a 28b7 318c 0eb8
00000160: 1cfb 2639 6e82 7e37 32fc 85b8 67fe 9ab4
00000170: b77e ef38 6357 4ab6 6be0 60b8 017b 9e38
00000180: d999 1738 c507 1a39 ae18 b138 9394 0039
00000190: 9e66 f138 46c0 4339 1c8b 21b9 e478 9838
000001a0: 813b bb38 cb1b 97b8 ece0 ca37 4209 5438
000001b0: 8c09 8338 8446 6938 946e 1f36 8de4 ea36
000001c0: 82dc 89b8 af7c 8539 c92d 61b7 31c7 3838
000001d0: 286a 8438 e32e 91b8 7b8a 8439 250a 2536
000001e0: 06da e437 50cb 18b9 b4c5 14b8 680f b638
000001f0: 7e66 3f37 a58d 4d36 724a f237 0e28 f0b8
2.1326181e-05 -3.8017966e-05 5.7270292e-05 3.583807e-05 0.00028721886 5.5623022e-05 -0.00014777802 6.080111e-05
-5.8501777e-05 -1.24091775e-05 -2.5755027e-05 -6.111211e-05 -8.316267e-05 3.727779e-05 -8.545809e-05 -0.00047376726
-0.00020786395 -5.3110587e-05 0.00018824743 5.8402627e-05 -2.6695277e-05 3.5486355e-05 0.00024406862 -0.00011869374
-3.425582e-05 -3.8481685e-06 0.00011835056 -2.5207684e-05 5.8142017e-05 0.0003420161 1.9434336e-05 5.4133696e-05
2.5806348e-05 3.2279513e-06 1.3827068e-06 0.00016590023 -8.645176e-05 1.1068344e-05 -0.00014297722 3.883428e-06
7.768916e-05 -4.710947e-05 0.0001023589 -1.2343238e-05 2.0099536e-05 0.00010891105 -0.00017843716 1.4942414e-05
4.168816e-06 8.999661e-05 3.170996e-05 -9.658137e-05 -8.8696506e-05 -1.8510787e-05 7.5369106e-05 6.218983e-05
6.9622576e-05 -6.8756264e-05 7.3939877e-06 -0.00016285497 0.00018453837 -6.55721e-05 -5.2106578e-05 -0.00012493024
-0.00019816676 0.00011527233 -8.002054e-05 -5.360457e-05 6.325793e-05 8.4356136e-05 -4.833157e-06 7.196736e-05
0.00012044219 3.770731e-05 0.0001393838 -0.00010477624 2.9178953e-05 5.697644e-06 1.056067e-05 2.595553e-05
-3.5360426e-05 3.503554e-05 9.171747e-05 0.0001094574 -4.5240275e-05 -1.6604497e-05 -1.002714e-05 -3.3986e-05
0.00015924539 1.5169948e-05 -6.388909e-05 -2.8869837e-07 0.000114200106 -3.0151211e-06 -5.3614767e-05 7.556938e-05
3.6144487e-05 0.00014689479 8.444615e-05 0.0001226238 0.000115108895 0.00018668277 -0.00015405979 7.2704424e-05
8.927938e-05 -7.205418e-05 2.4185014e-05 5.055336e-05 6.248345e-05 5.56172e-05 2.3757211e-06 7.0003503e-06
-6.573742e-05 0.00025460633 -1.3421705e-05 4.405453e-05 6.3140236e-05 -6.922872e-05 0.00025280178 2.459282e-06
2.7281243e-05 -0.0001457159 -3.5470075e-05 8.681306e-05 1.14083505e-05 3.0629828e-06 2.8883314e-05 -0.000114515526

exp_avg_sq f4 [128]
00000000: 6bdd 1536 f16e 7234 63fc eb34 4413 d835
00000010: 44dc 1f36 6d18 ff35 a416 0736 58b4 ee33
00000020: f6a4 b435 493d 1135 cbf2 0f35 aa07 4636
00000030: 8767 dd34 1b80 d335 2db1 c334 e6df a336
00000040: 5ae3 8235 9916 0335 f4a6 b135 83fb 9336
00000050: 5bb5 d235 9132 7835 49c8 8036 6cc9 d134
00000060: db30 a834 0548 c535 b687 0236 99da b935
00000070: c244 1d36 cba8 1836 9851 ad34 debd cb34
00000080: 09f9 cd34 938c 4234 b5cd be34 21b6 5735
00000090: bb11 8935 5b73 e033 8495 3135 eb43 1834
000000a0: cc13 8436 9d0a 5336 8f53 4436 2f74 1c35
000000b0: 7818 6434 1103 d935 0885 5235 b19e 6434
000000c0: c235 1036 a52d a735 2728 8e34 f1ec 3335
000000d0: 8336 d035 2009 2f36 3b02 b534 7b85 f434
000000e0: 7797 1635 d5bc 9636 f4ff f635 8301 9636
000000f0: 650e 3b35 b57e a135 998f cd35 6861 b634
00000100: 0014 3f36 30ec 6c36 538c e535 f636 f133
00000110: c350 1636 3158 6535 1c94 8f35 085d 2435
00000120: a2a6 fe34 1951 2035 72a7 3b35 50cd 4f36
00000130: bc24 4735 72df 9b35 7c7a 5434 ebc3 7336
00000140: 9462 8c35 b1db 4b34 3037 3236 1f81 ad34
00000150: c9a3 0a36 b78d 5936 3ddf 0636 8fac 1635
00000160: 7091 1f35 33d1 8336 7d78 d335 d46a 9334
00000170: 4267 c434 ecf6 7b35 2452 0e36 03f1 3b36
00000180: a936 1436 e80d 1236 4136 d534 0ade 0d36
00000190: 4303 9d36 0ad8 4136 b1cd 7635 7bf9 cb35
000001a0: f54c 8c35 5a2b db35 701d 8834 04db 5436
000001b0: 1d60 9335 c563 9f35 6406 c035 e547 5b34
000001c0: 7589 bb35 84f5 1736 3258 c435 486b f235
000001d0: 8e27 3035 a3e9 be35 87bc c535 447e 8c35
000001e0: 421d f635 9c58 1c36 f25e 0935 c060 9e35
000001f0: 1d70 2336 25cd 4d35 a2d0 8435 f9b4 0536
2.2331612e-06 2.2578367e-07 4.3955797e-07 1.6098861e-06 2.3821058e-06 1.9006089e-06 2.0129746e-06 1.1115543e-07
1.3459055e-06 5.410589e-07 5.362496e-07 2.950876e-06 4.1239784e-07 1.5758009e-06 3.6450493e-07 4.8838438e-06
9.751923e-07 4.8834187e-07 1.3236117e-06 4.410221e-06 1.5699001e-06 9.2460783e-07 3.8380135e-06 3.9075837e-07
3.1327986e-07 1.4698604e-06 1.9450504e-06 1.3847194e-06 2.3434845e-06 2.2748015e-06 3.2283128e-07 3.7949843e-07
3.8365422e-07 1.8118799e-07 3.553993e-07 8.0358774e-07 1.0212456e-06 1.0451796e-07 6.615521e-07 1.4180812e-07
3.936211e-06 3.1447628e-06 2.9254913e-06 5.82836e-07 2.1243056e-07 1.6168652e-06 7.842468e-07 2.1291886e-07
2.1488963e-06 1.2455754e-06 2.6478776e-07 6.702749e-07 1.5513073e-06 2.6082344e-06 3.37155e-07 4.5545661e-07
5.6099765e-07 4.4923313e-06 1.840292e-06 4.4705243e-06 6.9683875e-07 1.2032311e-06 1.5315483e-06 3.3971014e-07
2.847286e-06 3.530422e-06 1.7102669e-06 1.12324344e-07 2.2398751e-06 8.5437483e-07 1.0697436e-06 6.123014e-07
4.7432428e-07 5.972266e-07 6.9906594e-07 3.0964911e-06 7.418673e-07 1.1613431e-06 1.9788598e-07 3.632386e-06
1.0459503e-06 1.8985772e-07 2.655619e-06 3.231771e-07 2.0658938e-06 3.2418009e-06 2.0097498e-06 5.613046e-07
5.9443755e-07 3.928458e-06 1.5755792e-06 2.745861e-07 3.6582975e-07 9.3864105e-07 2.120746e-06 2.8005459e-06
2.2085535e-06 2.176379e-06 3.9713817e-07 2.113988e-06 4.6793443e-06 2.8884992e-06 9.194146e-07 1.5197287e-06
1.045321e-06 1.6329388e-06 2.5353393e-07 3.1717946e-06 1.0980326e-06 1.187546e-06 1.4306975e-06 2.042212e-07
1.3972591e-06 2.2643662e-06 1.4628806e-06 1.8061628e-06 6.562267e-07 1.42241e-06 1.4732512e-06 1.0467561e-06
1.8336943e-06 2.329739e-06 5.117464e-07 1.1800075e-06 2.4354151e-06 7.6666976e-07 9.895487e-07 1.9923884e-06
