Foosbots_working/results/foosballTraining/Foosbots_working/Foosbots_working-1600.pt (torch, 451487 bytes, 36 tensors)

network_body._body_endoder.seq_layers.0.weight f4 [128, 10]
00000000: e7c8 39be c6f6 c4be 5ed9 aa3e 8bc4 113f
00000010: a4c1 713e 3dbf ec3e eb1a bd3d 1526 0bbe
00000020: f073 8a3d fd0c d63e aa5c 2d3f 6945 b13e
00000030: 91dc 08be d3db bf3e 5e62 1a3e f9d3 e93e
00000040: e890 c2bc d693 ccbe e429 bcbe ec34 e7be
00000050: 3d2e e13e 265a 6e3d 9e0c 92be aa51 093f
00000060: a631 4cbe 4571 94bd 922b 803d 6f27 563d
00000070: f552 c53e a049 3e3e 10a3 493e 8cd6 ee3e
00000080: c2cf 6e3e 1770 e83d 3b1a 113e 63bc c9bd
00000090: 886c 443e 21be 79be c872 43bf e7b1 8b3e
000000a0: a29f 05bd 2002 953e 45c7 073f bc7a 233f
000000b0: 2d54 1dbf f301 cabe 1410 b6bd cbd4 a43e
000000c0: 2e05 093d 5f8f d73e 8923 213e 8e1f b13e
000000d0: dbdb 92bc 667d 613b 46f2 41be 5152 3fbe
000000e0: 0328 853e e80d 12be 9c1f 5b3d a8ad d0bd
000000f0: 5965 0bbe 0e57 8fbe c031 93be 1832 acbe
00000100: 249c 9d3e 5891 653e eb5b 9c3c 8efd e7be
00000110: b94d 3cbd 8590 b4bb 2a8c 513e cc81 363d
00000120: b672 91be ea7b bd3c 37df 723e ff98 3ebf
00000130: 6189 dabd a577 d73e f108 8c3d d734 303f
00000140: a7ee 0dbf 8f13 86bd 0b7d 4e3e 604c d3bc
00000150: cbca de3d e936 a03d ac58 993e 7f94 563e
00000160: 1060 39be c183 62be 5402 62bf 0c13 693e
00000170: b91f dc3e 167b 0c3d e287 013e 403c 3d3f
00000180: d648 5c3e 72c9 da3e bf0a 7abd 9024 c33e
00000190: c556 753e fe3a 363e a513 29be 47c1 c43d
000001a0: 9913 77bf 6def 5cbf 408a c83d 5451 c63d
000001b0: 99fe 18be 0525 07bb 732c 55be 4666 10ba
000001c0: 864f e33d 656c d93e 6c14 13be 375e 743e
000001d0: 089a d23e a84c 843d fc0a 15be 115b c33e
000001e0: 2772 0f3e 538f a0bc a25e 3c3e 23d6 1cbf
000001f0: 683f 8bbe 38ac 813e 050e 0e3e 88c1 a4be
00000200: 83bd 48be 62b9 2cbe 11a1 a63e cd1a f2be
00000210: 4963 9f3d 6674 26be cc71 b4be 02d2 65bd
00000220: 5946 a93e e764 843e 0566 1cbf bd2a 913d
00000230: 2b34 a23d 44cc cdbe 00b3 d33e 47eb b0be
00000240: 7703 e73d d256 ac3d 306c 363e 1072 b4bd
00000250: fea6 50bd 4395 2d3f c967 44bd 9f48 e4bd
00000260: c776 33bc 9267 27bd 083e 813d 196e ccbe
00000270: 196d c0be 7ff9 edbe 0c8b ebbe 7f3d 0abe
00000280: faa6 193c d27b 14bf 0138 16bf f9bd f13d
00000290: c262 f7be b978 bcbe ed12 5cbe 4fa8 cfbd
000002a0: d949 ae3d be58 4b3d 0e9a 7cbc 8643 6cbe
000002b0: 5f8c 15bf 9c95 75be 36ef 433e 9d74 0f3f
000002c0: 175e 8f3c ebfe 103f 9a95 f43e 851a b4be
000002d0: 5a61 343d 5a7a 90be b7c3 11bf b2ce 27bd
000002e0: 384b e5be 6740 303e a750 103e bc19 7a3e
000002f0: cf1b 4f3e 81d1 bb3e 0ef6 003e 3967 9e3e
00000300: bdfb 0bbf 94f7 6d3e e127 82bc c5c4 95be
00000310: a4ca fd3d 8552 83bd 4cbc a4be 5558 da3e
00000320: 5a29 d63e e698 24bf c854 68bd 7742 4c3e
00000330: ea20 49be 1cc6 1c3e 6707 8a3e 5fa4 30bf
00000340: 3b99 d5be 31ad dc3b 32e8 b0be 7807 8dbe
00000350: 4acd 52be 236a af3e 6f7d 263e 9bfa 11be
00000360: 3042 a63e 2f4e f73e ca0d f63d 0c52 223e
00000370: 753e 0d3e 2c06 76be f977 2dbd 85e6 68be
00000380: f551 ccbe 6f9f 163d c1b0 713e 13b1 4fbe
00000390: fbec a4be cfd6 01be 1d24 1bbf 3c7e 1abf
000003a0: 6248 e03e f03b 1e3e 4a5c 72bc a7ff be3e
000003b0: 8b4b 0a3e 6c90 b03d 31aa 14bf 6739 79bd
000003c0: b8f8 f93e 5ce2 58bd c192 ab3d 9acf fa3d
000003d0: d3ea b8be 18d2 7c3c 7500 8dbe 5b08 e23e
000003e0: a07e b3bd 5306 653f c5c4 86be f394 543e
000003f0: 4969 94be 70c0 313e 756e 15be cc82 22bd
-0.18143044 -0.38469523 0.33368963 0.56940526 0.23609024 0.46239653 0.0923365 -0.13588746
0.067603946 0.41806784 0.6771952 0.34623268 -0.1336539 0.374724 0.15076587 0.45669535
-0.023750737 -0.3995654 -0.3675071 -0.45157564 0.4398059 0.05819144 -0.2852525 0.53640234
-0.19940814 -0.07248167 0.062583104 0.0522837 0.38539854 0.18582773 0.1969111 0.4664806
0.23321441 0.113495044 0.14170162 -0.09850385 0.19182026 -0.24388935 -0.7634702 0.27284166
-0.03262294 0.29103184 0.53038436 0.6385915 -0.6145657 -0.39454612 -0.088897854 0.32193598
0.033452205 0.4210157 0.15736212 0.34594387 -0.0179271 0.0034407019 -0.18940076 -0.18683745
0.2600709 -0.14263117 0.053496942 -0.10189372 -0.1361288 -0.27996105 -0.28748894 -0.33631968
0.30783188 0.22418725 0.019086799 -0.45310634 -0.04597256 -0.005510392 0.20463625 0.044557378
-0.2840783 0.023130376 0.23717962 -0.74452204 -0.10670734 0.4208347 0.06837643 0.6883063
-0.5544228 -0.06546699 0.20164888 -0.025793254 0.108785234 0.07822973 0.29950464 0.20955084
-0.18103051 -0.22120573 -0.882848 0.22761172 0.42992952 0.03429707 0.12649491 0.7392006
0.2151216 0.42731816 -0.061045405 0.38113832 0.23958881 0.17795941 -0.165114 0.09607177
-0.9651428 -0.86302835 0.09791994 0.09683481 -0.14940871 -0.002062143 -0.20817737 -0.0005508404
0.11099152 0.4246551 -0.14363259 0.23864065 0.41133142 0.064599335 -0.14554971 0.38155416
0.1400839 -0.019599592 0.18395475 -0.61264247 -0.27196813 0.25326705 0.13872536 -0.32178903
-0.19603543 -0.16867593 0.3254476 -0.47286072 0.07782609 -0.1625534 -0.3524307 -0.056108482
0.33061484 0.25858232 -0.6109317 0.0708823 0.079201065 -0.40194905 0.41347504 -0.34554502
0.11279958 0.08414997 0.17814708 -0.08810818 -0.050940506 0.6780588 -0.04795054 -0.11146664
-0.010953612 -0.040870257 0.0631066 -0.39927748 -0.37583235 -0.46479413 -0.46004522 -0.13500021
0.009378189 -0.58001435 -0.58679205 0.118038125 -0.48317534 -0.36810854 -0.21491595 -0.10139524
0.08510179 0.049645178 -0.015417589 -0.23072633 -0.58417314 -0.23982853 0.1913422 0.5603731
0.01750092 0.56638974 0.47770387 -0.35176483 0.044038154 -0.28218347 -0.5693926 -0.040968604
-0.4478395 0.17212068 0.14093266 0.2442388 0.20225452 0.36683276 0.12593862 0.30938128
-0.54681 0.23238975 -0.015888156 -0.29251686 0.12392166 -0.06412224 -0.3217491 0.42645517
0.41828424 -0.64295805 -0.05672148 0.1994723 -0.19641462 0.15309948 0.26958773 -0.6900081
-0.41718468 0.006734513 -0.3455215 -0.2754476 -0.20586124 0.34260663 0.16258787 -0.14255755
0.32472372 0.48301837 0.12014349 0.15851611 0.13793357 -0.24025792 -0.042350743 -0.22744186
-0.39906278 0.03677314 0.23602583 -0.20282392 -0.32212052 -0.12679599 -0.6060198 -0.6034887
0.43805224 0.15452552 -0.014792511 0.37304422 0.1350538 0.08621296 -0.5807219 -0.06084576
0.4882257 -0.052950248 0.083776005 0.12246628 -0.36116657 0.01543095 -0.2753941 0.44147
-0.08764386 0.89462775 -0.26321998 0.20759945 -0.28986576 0.17358565 -0.14592917 -0.03967552

network_body._body_endoder.seq_layers.0.bias f4 [128]
00000000: 4802 9a3c 99fb 8abb d22a 6a3b 798c f6ba
00000010: 94fa 923c 7315 39bc 6a26 08bc f1c7 01bc
00000020: c634 283c 9060 7a3c b327 18bc 2c85 5b3c
00000030: bfed 4e3c ba2e 09bc 1741 ce3b af44 2cbc
00000040: f6f0 34bc 6a52 0d3c 9dd1 7abc 15f6 043b
00000050: 3065 89bb 29c9 713b 42ec 9bbc a139 a43c
00000060: 9e27 58bc 22be 833c fc58 a3bc 5db9 12bc
00000070: 5e97 583c 9778 4ebc d182 503c bd97 3fbb
00000080: 28d1 3dbc d68c 6c3c e0ea febb a3df b23b
00000090: b93d 2cbb f8e8 583a 6033 3bbc 8e42 0a3c
000000a0: e56e c63b 06b5 33bc 55f0 813c 4665 8cbb
000000b0: b911 393c 76cf 423b 20f2 7c3b 82a1 8cbc
000000c0: 13fd 23bc 9849 6e3b 00da 19bc 97bf 7bbc
000000d0: ac07 d9bb 5fae 2a3c 8512 603c b663 223b
000000e0: 3774 b3bb 20d3 ad3b e3f5 113c ca21 c4bc
000000f0: bb49 bb3c d532 3bbc 73d3 f4bb cc47 323c
00000100: 9521 1cbc c7ec 863c 3801 993c eebb d1ba
00000110: c02e 563c b49f 5d3c c9df 4cbc 8e09 3c3c
00000120: 6eef 1b3b fcfb 90bc 2c7c b2bb 53dc 353c
00000130: cd20 893c 93bd 45bc 4b7e 853c ed41 013c
00000140: b4f6 b8bc 1bab 86bc 300b a4bb 6299 793c
00000150: 7f9c 50b8 8224 48bc c030 07bc 7681 033c
00000160: e787 163c 2737 a83b f6c5 413c 84e4 cc3a
00000170: da9b 933c d075 efb7 a942 883c 1421 b13c
00000180: ea5f f13b 857c 20bc 398b b13b 2698 b1bb
00000190: 871a 543c 5618 65bc c28e 9ebb 5d38 833c
000001a0: eee8 143c 1a9e 1d3c ccd1 e7bb 0bdb 2a3c
000001b0: 36e0 c9bb 74f3 2bbc 9524 e3bb a3be 7fbc
000001c0: 51df b7bb c0e9 3c3c 75e3 943c c316 8cbc
000001d0: 362c 843c 1ba4 b1bb 0acf b439 43bf 37bb
000001e0: d52c abbb bb22 3f3c 212b 443b cb26 c6ba
000001f0: 3168 b83b 70c0 843b 3ca6 e0bc 3b07 2cbb
0.018799916 -0.0042414186 0.003573109 -0.0018810175 0.01794175 -0.011296618 -0.00830994 -0.007921205
0.010266488 0.015281811 -0.009286809 0.01339845 0.012629925 -0.008372957 0.0062943804 -0.010514422
-0.011043778 0.008625606 -0.015308765 0.0020288278 -0.0041929707 0.0036893582 -0.019033555 0.02004701
-0.013193039 0.016081873 -0.019939892 -0.008955327 0.0132196825 -0.012601993 0.012726502 -0.002923473
-0.011585511 0.014437875 -0.007779464 0.0054587885 -0.0026281907 0.0008274461 -0.011425823 0.008438719
0.0060557 -0.010968452 0.01586167 -0.0042845337 0.011295729 0.0029725707 0.0038596466 -0.017166857
-0.010009068 0.0036359783 -0.009390354 -0.015365503 -0.006623229 0.01041755 0.01367629 0.002477867
-0.0054765004 0.005304709 0.008908722 -0.023941893 0.022862306 -0.0114256935 -0.007471496 0.0108813755
-0.009529491 0.016470326 0.018677339 -0.0016001442 0.0130726695 0.013526846 -0.012504526 0.011476887
0.0023793834 -0.01769828 -0.0054469313 0.011099893 0.016739273 -0.012069124 0.016295573 0.007889253
-0.022578575 -0.016439011 -0.0050062165 0.015234323 -4.9736813e-05 -0.012215735 -0.008251369 0.008026471
0.009187675 0.005133528 0.011826983 0.0015632068 0.018018652 -2.8545881e-05 0.016633349 0.021622218
0.00736617 -0.009795313 0.005418208 -0.005419749 0.012945778 -0.013982853 -0.0048387954 0.016018087
0.009088738 0.009620214 -0.0070745703 0.0104282005 -0.006160761 -0.0104950555 -0.006931851 -0.015609416
-0.005611338 0.01153034 0.018174866 -0.017100697 0.016134363 -0.005421174 0.00034486532 -0.0028037585
-0.0052238503 0.011665995 0.0029932933 -0.0015117762 0.005627655 0.0040512607 -0.027423017 -0.0026249427

network_body._body_endoder.seq_layers.2.weight f4 [128, 128]
00000000: 3f28 833d d586 4b3c ca19 1a3e 0202 a13d
00000010: 1e55 ba3a 9fea 39be 6e44 b03d 5d1d c3bd
00000020: 52c1 883c a757 2cbd f0e9 7d3d 912b 833d
00000030: 75e8 693d 6713 723a 4258 edbd 4ce9 2d3d
00000040: 5221 d93c 2438 973d bf2c bfbd a17c cebd
00000050: de67 6d3c 62a3 2ebd 6ecd 52bc 2ee0 fb3d
00000060: 1024 4bbd d18b 523d 691b 49bd 4ee0 5d3d
00000070: 000f 3ebe 1ca9 aebd 7d8a 08be 29de ec3c
00000080: a9b9 c63c dd66 01bd 5499 25be 97b8 a53c
00000090: 66b1 0bbd e683 293e 9b22 1b3e 0360 083e
000000a0: 275a 84ba c258 a8bc 0840 9c3c 6d98 e83c
000000b0: 6d66 54bd 36c9 06bc 28f8 64bd c2ac 323d
000000c0: 3824 be3d 5461 8bbc 7da3 83bb 5792 d83d
000000d0: 8aac c73c c37d 01be 7a9f 9dbd e04c d5bd
000000e0: 84c0 5bbd bb15 513c 7588 6ebd 1d07 b83d
000000f0: 23b0 e33d 528f e63b 841e dd3a a323 073e
00000100: ba0e 793d 7312 64bd a062 76bd a306 c63c
00000110: 8038 92bc 7e6c 0a3e 1218 e8bd 7e74 653d
00000120: 29a8 6abe f758 9fbc 02c9 7ebc b39a 35bd
00000130: 5276 b7bd b9a4 d2bc 3d7a f0bc 0ecf abbb
00000140: 4958 243d ed09 5abd c7f1 cc3c 6772 c8bc
00000150: ec4f a239 ee38 3fbb 36f4 b63d 0232 843c
00000160: 2234 993d 9abe bebd c871 b53d 0870 26bc
00000170: a97e 4dbd b184 0ebd 5d4c d1bc bfb3 e83b
00000180: 0ef6 c43d e338 32bd 3dd6 8bbd edc4 103c
00000190: d1f3 f73d 1e39 923d 5dd1 1bbd d556 d9bd
000001a0: d24a e83c 4d18 813c 4bae 033c b81e b9bd
000001b0: 8653 883d 017b 52bd a86c 553d 2f8e a83d
000001c0: d8a1 cf3a c398 90be 3cb2 943d d94b e6bd
000001d0: cfa3 2abc 2b73 883d 9ee3 48bd 0182 15bd
000001e0: 31f8 febc c1f6 c8bc 4b41 803b b184 933c
000001f0: c556 02be 7674 7fbd d477 53bd fafc 5a3d
00000200: a551 2a3a 1409 183e 6ec5 6e3d b5b2 2039
00000210: cd68 9cbd 52c2 253e 6d38 17be c7d8 bd3b
00000220: 987f fdbd b157 13be a034 e6bc 6811 523d
00000230: 5fc2 fbbc 7320 343e 96ca b5bc 4700 cabd
00000240: 6037 923d f505 b4bd ffdc d9bd 2051 073e
00000250: a082 5e3c 3adc f3bd e738 863d 8cd6 e1bd
00000260: 942d f73c f8f3 01bb 51a7 9a3d 20fc 49bd
00000270: c7ca 803d 061e 193e 7bfb 8cbd 6fc0 953c
00000280: 695f f8bd e481 373e 21a9 713d e9d7 d13c
00000290: 05c7 013e c498 673d 8e98 b6bd c6d1 31bc
000002a0: 3168 0a3e 73a2 c93d fc4e 0ebd 9a3a 6abd
000002b0: 0026 803c c3fd b23d 5cc2 a63d 1fc9 96bd
000002c0: ed9a dcbd 4379 9e3d 5db1 dc3d 6861 0a3c
000002d0: 74d1 a8bd 13ea 0ebe a23f 2dbe 0e11 b2bd
000002e0: 8dc6 a6bc 32d8 6a3d e4f2 063e efca 343c
000002f0: 695f 80be 638f 9ebd ef74 80bd 11be 163e
00000300: fe4b 503e 8056 68bd f5c1 49be 1836 ee3b
00000310: 4f11 d73c a452 69bd ac73 a93d 319c 003d
00000320: a1ba d73d 5d46 1ebd 36e5 8f3d 09a3 30be
00000330: 8f7f 9fbd a027 ccbd 5892 3d3d 2969 ebbd
00000340: e05e e8bc 03a4 6cbd 55cb 803d 5dbe b53d
00000350: 5382 dc3c 1ff6 1a3d 57fa b63d a766 8bbd
00000360: c474 80bd f6eb 933d e295 82bd 7d44 313d
00000370: 34ca de3d 42da 0abd 2f64 e73d 444d 013e
00000380: 470d bb3d 82a6 fe3c 44c4 19bd fdf8 f13d
00000390: a644 0ebd 5871 3fbb 42f0 713d 5918 6dbd
000003a0: a7ed 3b3e 5af6 03bc 67af be3d 2887 163b
000003b0: 13db 653c f58b 293e a3c5 353e eaf8 133d
000003c0: 8fbe 46bc 9da0 023d fdc3 a43c fab4 213d
000003d0: a639 80bd 8b92 3abc c76a 85bd b7b6 053e
000003e0: f79e 21bd 79b6 2e3d 799d f03b f991 d6bc
000003f0: 2524 843d 58e8 e63c 8aee d23c baff 9cbb
0.06404161 0.012422283 0.150489 0.07861711 0.0014216041 -0.18155907 0.08606802 -0.09527085
0.016693745 -0.04207578 0.06199068 0.06404794 0.057106454 0.00092344586 -0.115890995 0.042458817
0.026505146 0.07383755 -0.093347065 -0.10082365 0.014490096 -0.042636283 -0.012866361 0.12298618
-0.04959494 0.05140287 -0.049098406 0.05416899 -0.1856041 -0.08528349 -0.13334079 0.028914528
0.024258452 -0.03159224 -0.16171771 0.02022962 -0.034104727 0.16554222 0.1514992 0.13317876
-0.0010097668 -0.020550136 0.019073501 0.028392995 -0.051855493 -0.008226683 -0.055900723 0.043621786
0.09284252 -0.017014183 -0.004017292 0.10574787 0.024374265 -0.1264563 -0.07696433 -0.10415053
-0.053650394 0.012761529 -0.058235604 0.08985732 0.1111758 0.007036128 0.0016870056 0.13197188
0.06080506 -0.055681657 -0.06015265 0.024173087 -0.017849207 0.13517949 -0.11332716 0.0560193
-0.2291571 -0.019451601 -0.015550854 -0.044336986 -0.08958115 -0.025713312 -0.029355163 -0.0052431887
0.040123258 -0.053232122 0.025017632 -0.024468614 0.00030958594 -0.002917822 0.08933298 0.016137127
0.07480647 -0.09313698 0.08859593 -0.010158546 -0.05016962 -0.034794513 -0.025549108 0.0071015055
0.09617244 -0.043511283 -0.06827972 0.008836013 0.12107051 0.071398005 -0.03804146 -0.10612265
0.02835599 0.015758658 0.00803716 -0.09039062 0.06656556 -0.051386837 0.052105576 0.08230244
0.001584108 -0.28241548 0.07260558 -0.112449355 -0.010415032 0.066625915 -0.049045198 -0.036500935
-0.031124206 -0.024531724 0.0039140335 0.018007608 -0.12728412 -0.062366925 -0.05162795 0.053463914
0.00064971513 0.14847213 0.058293752 0.00015325363 -0.07637177 0.16187409 -0.14767618 0.005793664
-0.12377852 -0.1438892 -0.028101265 0.05128613 -0.030732332 0.17590503 -0.022191327 -0.09863334
0.07139468 -0.08790199 -0.10637855 0.1321454 0.013580948 -0.11907239 0.06553822 -0.1102725
0.0301731 -0.0019829255 0.07551444 -0.04931271 0.06288677 0.1495286 -0.068839036 0.018280236
-0.12127573 0.17920643 0.058999185 0.02561565 0.12673576 0.056542173 -0.08915816 -0.010853237
0.13516308 0.09845438 -0.034743294 -0.057184793 0.01564312 0.087398075 0.0814254 -0.073625796
-0.10771737 0.077379726 0.10776017 0.008446075 -0.08243075 -0.1395648 -0.16918805 -0.08694659
-0.020358348 0.057335086 0.13178593 0.011034711 -0.25072792 -0.077421926 -0.06272303 0.14720942
0.20341489 -0.056723118 -0.19702895 0.007269632 0.02625337 -0.056963578 0.08274016 0.031398956
0.105336435 -0.038641322 0.070261404 -0.17249693 -0.07788002 -0.09968495 0.046282142 -0.11494667
-0.028365552 -0.0577736 0.062887825 0.088741995 0.026917612 0.037832376 0.08934467 -0.06806689
-0.06272271 0.0722274 -0.06376244 0.043278206 0.10878411 -0.033899553 0.112984054 0.12627131
0.09133392 0.031085256 -0.03754069 0.11815069 -0.034733437 -0.0029211845 0.05906702 -0.057884548
0.18352376 -0.00805434 0.09310799 0.0022968743 0.014029282 0.16557296 0.17751174 0.036126055
-0.012130394 0.031891454 0.020112986 0.039479233 -0.062609956 -0.011387478 -0.06514507 0.13057981
-0.03945824 0.04265449 0.007342991 -0.026192652 0.064522065 0.028186962 0.02574851 -0.004791227

network_body._body_endoder.seq_layers.2.bias f4 [128]
00000000: 0646 84bc 1977 e53b df1c 2ebb b7fd c1bb
00000010: 3cfb 363c 44ae 943a 1984 993b c1a1 31bb
00000020: ac35 623c 3a50 4f3c 4c85 5739 8dcf 743c
00000030: 38cc a1bc e06c 7abc a185 afbb cbf7 81bc
00000040: 5108 40bc 41b8 3dba f2dc 3d3c 7dad 71bc
00000050: 353b 6d3c a78d b13b 00b2 4a3c 8a8d bd3b
00000060: ccbd 53bc 4e82 5e3c 1030 29bb b07f 30bc
00000070: 8e90 5eba 1f12 073c 0ef6 263c 8a02 013c
00000080: d3f3 06bb f69f 503c 8ca0 073c 32e4 41bc
00000090: 4bf7 c4b9 52ec 7f3b cc79 763c 0e74 43bc
000000a0: 2e55 163c 9882 173c 9bc6 f7ba 45cb 37bb
000000b0: 7401 0d3b 82d5 623c 2308 3abb 7c54 9d3c
000000c0: c9da 45bc 5bd0 f9ba 3b2b 5abc fbd2 e03a
000000d0: da39 1bbc b5ba 4e3c 238c 1aba 5359 243c
000000e0: bfe7 593c b1e6 323c a29d 223c 80bc 673c
000000f0: a247 43bc 0a93 9fb9 49a4 a73b 3a3b 533b
00000100: 4be7 1cbc 4ef7 fcbb 017e 9938 817b 0cbb
00000110: c306 223b 6747 ccbb 88cf 553c bc74 4e3c
00000120: c611 543c d616 39bc 6508 88bb 3aa7 0c3c
00000130: 0f04 833b 26e5 8bb9 17f8 8d3c 68be 6cbc
00000140: 1287 5b3c 0f38 86bb 55b2 a23b 9aa5 803c
00000150: 1baf bfbb 8264 933b f5d5 50bc 37ca ec3a
00000160: cba7 473c 0a91 0c3c 2ae0 94bb 6407 703c
00000170: f94b a13b f492 03bc 19d6 4b3c 7a95 4cbc
00000180: 81dd 39bc 6f9a 67bc 7eae 83bb 1c5d d13b
00000190: 15ed d43b c3e8 483c 75fb 82bc c4bd 47bc
000001a0: 8ff8 543c fca1 e53b 6e8d 62bc 4860 163c
000001b0: 07a3 c43b acbc a13c b902 41bb 59e7 903b
000001c0: f6a5 e3bb 9c22 54bc 3578 a43a 1957 8ebc
000001d0: fe0b 373c 33f3 55bc 3091 b6bb 2394 393b
000001e0: 7118 653c 83f8 39bc d8fa 1a3b 54da 283c
000001f0: b261 093c 7e94 b9ba 3dc4 98bc b97d 113c
-0.016146671 0.007002723 -0.0026567501 -0.0059201377 0.011168297 0.0011343439 0.0046849367 -0.002710447
0.013806742 0.012653405 0.00020553655 0.014942062 -0.0197507 -0.015284747 -0.005356506 -0.015865227
-0.011720733 -0.0007237234 0.011588322 -0.0147508355 0.014479448 0.0054184976 0.01237154 0.005784695
-0.012923669 0.013580872 -0.0025816 -0.010772631 -0.0008490168 0.0082440665 0.0101905 0.0078741405
-0.0020592108 0.01273345 0.008278023 -0.011834191 -0.0003756828 0.003905077 0.015043687 -0.011929525
0.009175582 0.009247445 -0.0018903794 -0.0028044742 0.0021515759 0.01384485 -0.0028386198 0.019205324
-0.012076088 -0.0019059287 -0.013315971 0.0017152721 -0.009474242 0.012617757 -0.0005895516 0.010031062
0.0132998815 0.010919259 0.009925278 0.014144063 -0.011918934 -0.00030436396 0.00511602 0.0032231347
-0.009576629 -0.0077199107 7.3190786e-05 -0.0021435919 0.0024723269 -0.0062340978 0.013049968 0.012601074
0.012943691 -0.011296948 -0.0041513913 0.008584792 0.0039982866 -0.00026682875 0.017330213 -0.014449693
0.0133989025 -0.004096038 0.0049651065 0.015703965 -0.0058497316 0.0044980654 -0.012746324 0.0018065636
0.012186001 0.008579502 -0.004543324 0.0146502 0.0049223867 -0.008030642 0.012441182 -0.01248681
-0.011344315 -0.014135941 -0.004018604 0.0063892733 0.006497989 0.012262526 -0.015989045 -0.01219124
0.012998714 0.0070078354 -0.013827665 0.009178229 0.0060008797 0.019743286 -0.0029451086 0.00442211
-0.0069472743 -0.012947705 0.0012548032 -0.017375516 0.011172293 -0.0130584715 -0.005571507 0.0028317056
0.013982878 -0.011350754 0.002364805 0.01030596 0.008385109 -0.0014158634 -0.018648261 0.008880072

action_model._continuous_distribution.log_sigma f4 [1, 2]
00000000: 2224 9bbc 94c5 653a
-0.018938128 0.0008765098

action_model._continuous_distribution.mu.weight f4 [2, 128]
00000000: bfe2 4dbc b4b3 983c 57f3 6e3b f996 32bc
00000010: 9f91 123c a01a 393c a5f8 733b eec1 f3bb
00000020: 299f b73c c827 023d d4e3 043c f11d a63c
00000030: 4394 9fbb 548b a2bc d213 21b9 eea5 9cbc
00000040: a82b 5bbc 696f c8bb 0d85 de3c ddae f2bc
00000050: 858c 7e3c e028 c6ba 7c7f 9c3c b69a 8d3c
00000060: c555 2ebd 1d3a 2d3c 18e8 e5bb d207 dabc
00000070: 64ac d33b 88c9 3a3c 0abf a13c 0eb2 953b
00000080: 2f78 743b 3a87 c23c ec4c 903c 7cf9 ffbc
00000090: 9b7f 1b3b 290c 98ba 8ba9 793c 28dc 63bc
000000a0: 5eaf ad3c 6017 db3c e611 91b9 b61f 36bc
000000b0: 2b23 5d3b dc63 1c3d fbdc 1cbc 2274 303b
000000c0: 6ce7 d0bc 40ac 88b9 1943 5dbc 5b89 08bb
000000d0: 2b70 8dbc 09f0 e13a 6826 b23a e77e 1b3d
000000e0: 6c4e bf3b 1815 183d 2102 9a3b 7870 0a3d
000000f0: 3aab 01bd f0c3 d1b8 f467 563c 4aea 7d3c
00000100: 4ad7 51bc 485a 8dbc f53d 813b c3ea 753b
00000110: 6296 023c 73fb bcbb 5039 023d b28f c43c
00000120: 6a76 643c da1b 98bc 2682 88bb 3555 f33c
00000130: 5fd3 4c3c dee4 65bb fe06 053c d4eb dbbc
00000140: 6111 993c d541 6cbb 746c bc3b b157 7c3c
00000150: b99b bd3b e8b8 1e3c 581d a3bc 5ef7 ef3b
00000160: eaf3 eb3c f399 fb3c b020 e8bb 9e35 623c
00000170: 9a15 5b3c 4ff4 68bc f8da e83c 795e 4dbc
00000180: ab0d e3bc ca96 1bbd d233 9e3b 3f3f 173c
00000190: b53f c0b9 1d70 9e3c eaa1 23bc b4c8 9abc
000001a0: dcaa ea3c afc6 b43b 1800 8ebc 6485 833c
000001b0: 6c79 153b 9c38 173b 80fa 073a 56ea 883b
000001c0: cbf2 9ebc 820f 8abc 1f5f d13b c6e8 13bc
000001d0: e658 1a3c 33ad 54bd e6c6 7e3b 0b8a 323c
000001e0: df7a 313c d4ce bebc fe68 753a 67ff 713d
000001f0: f382 c33b e41a 86bc 6eef 1ebc fda7 463c
00000200: bb7e 97bb e775 013d 70b3 d63b d546 0e3d
00000210: e49c 81bc 296c 933c 2f24 82bb 1fb6 2a3d
00000220: d842 33bb 1c4d e7bc 563e b83c f571 23bc
00000230: 0527 a43b 823c f3bb 17ef 0f3b cecf 8d3a
00000240: 5d91 823c 4e0b 7fbb 5a48 91bc 7ae5 563b
00000250: 182e ebbb 0396 84bb b6d1 9d3b 7871 bbbc
00000260: 16b7 923c 7d7c 46bc 6f7e 803d 3556 ebbb
00000270: 9f2d 513c 464e afbc f4dc ccbc 9831 afbc
00000280: 25b6 bb3c d17e 193c 3a37 cf3b 93a1 b53c
00000290: 2995 d0bc 8809 44bc 2290 09bc f875 853c
000002a0: 282e 383c 4cab 8e3c 7d94 1f3d 9c9b b3bc
000002b0: 28bf 403b 80f6 95bb b3b0 76bc 841b dabb
000002c0: 5b88 8e3c 589a eabc 8441 273c efdf f0bc
000002d0: 3963 823c 8cd7 51bc 0730 153d b5d1 013d
000002e0: c44a bfbb 4f6b 74bb b1ca bdba 55ca 7abc
000002f0: c86c e43c a006 8abc 5a86 34bd a6aa 343d
00000300: 0f81 a23c a8a4 0e3d 4703 113d 30dc 093d
00000310: 2dc5 533c 5fb3 b23c 4b7b d9bb f339 c9bc
00000320: bb1c 72bc b3e4 c93b 1f3d c13c 8ce5 f43c
00000330: dc1a aa3c 0d7d cbbc 53b7 36ba 42a5 a13b
00000340: b696 93bc e5c6 313a c7da e6bc c040 17bb
00000350: d7f9 3a3c c061 80bc d811 693c f831 ef3c
00000360: deb6 a4bc 5ab0 0f3d 8fc4 2c3d 1f47 22bc
00000370: a8b0 6fbd 0d28 f03c f4e2 bfbc 68b4 18bc
00000380: c6b4 2ebc 9d99 0bbc 5fc6 623c 97ad e4bc
00000390: 6f8c 3ebc 364c aebc e561 cb3b 1a52 5d3c
000003a0: 8c3d 3e3c 508b c0bc f2f4 353c 066e e8b9
000003b0: e2e7 91bc 09fc b6bb fca5 d13c 7add 783c
000003c0: c4cf 2c3d b5b4 253c d77d f83c bca6 8d3b
000003d0: d04e f63b 8820 8f3b 5966 943c 27ea 213d
000003e0: 938d e8bb d0ca 73bb d8b8 01bd b761 533d
000003f0: ef4d ceba 1a51 48bd 48a5 0b3b 5286 dbbc
-0.0125662675 0.018640377 0.003646096 -0.0109002525 0.008945852 0.011297852 0.003722706 -0.0074388897
0.02241476 0.03177622 0.008110959 0.020277949 -0.004869969 -0.019841827 -0.0001536154 -0.01912209
-0.013377108 -0.0061167968 0.027163053 -0.029624397 0.015536432 -0.0015118383 0.019103758 0.017285686
-0.042562265 0.010572937 -0.007016193 -0.026615057 0.0064597595 0.011400588 0.019744415 0.004568345
0.003730308 0.023746122 0.017614804 -0.031246893 0.0023727182 -0.0011600304 0.015238176 -0.01390747
0.021201786 0.026744545 -0.0002766989 -0.011115959 0.0033742886 0.03818117 -0.00957417 0.002692469
-0.025500976 -0.00026068278 -0.013504767 -0.0020833823 -0.0172654 0.0017237674 0.0013591768 0.03796282
0.005838206 0.03712949 0.004699961 0.033798665 -0.031657435 -0.00010002393 0.013086308 0.015497753
-0.012807677 -0.017254964 0.0039441534 0.0037523962 0.007970424 -0.00576728 0.03179294 0.0239943
0.013944248 -0.018567968 -0.0041659055 0.029703716 0.012501567 -0.0035079042 0.008119343 -0.02684585
0.018685045 -0.003604998 0.0057502333 0.015401767 0.005786386 0.00968764 -0.019911453 0.0073231896
0.02880283 0.030713057 -0.007083975 0.013806729 0.013371849 -0.014218404 0.028424725 -0.012534731
-0.027716478 -0.0379856 0.004827955 0.009231388 -0.0003666856 0.01934057 -0.009987334 -0.01889453
0.028645925 0.005516849 -0.01733403 0.016054817 0.0022807969 0.0023074513 0.0005187169 0.0041783256
-0.019402882 -0.016853098 0.006389513 -0.0090276655 0.009420609 -0.05192299 0.0038875877 0.01089717
0.010832517 -0.023291983 0.00093616534 0.05908146 0.005966538 -0.016370244 -0.009700639 0.012125012
-0.0046232617 0.03160658 0.0065521523 0.03473552 -0.015821882 0.01799591 -0.0039715986 0.04167759
-0.0027353074 -0.02823501 0.022490662 -0.0099759 0.0050095343 -0.0074229846 0.0021962577 0.0010819377
0.015938455 -0.003891665 -0.017734695 0.0032790587 -0.0071771257 -0.004046203 0.0048162593 -0.022881255
0.017909568 -0.012114641 0.06274115 -0.0071819075 0.012767225 -0.021399628 -0.025007702 -0.021385953
0.022914002 0.009368614 0.006323722 0.022171771 -0.02546175 -0.011965163 -0.00839618 0.016291603
0.011241473 0.017415665 0.03895997 -0.021924786 0.0029410813 -0.004576504 -0.015056777 -0.006656112
0.017399004 -0.02863805 0.010208491 -0.029403655 0.015916454 -0.012807738 0.036422756 0.031694133
-0.00583777 -0.0037295406 -0.0014479962 -0.015307029 0.027883902 -0.016848862 -0.04407344 0.044108056
0.01983693 0.034824997 0.035403516 0.033657253 0.012925428 0.021814046 -0.006637012 -0.024563765
-0.014777358 0.0061612963 0.023588715 0.029894613 0.02076476 -0.024839902 -0.00069700665 0.0049330303
-0.0180162 0.0006781652 -0.028180493 -0.0023079365 0.0114121055 -0.01567161 0.014225446 0.029198632
-0.02010673 0.03508029 0.04217964 -0.009904652 -0.058518082 0.029315973 -0.02342365 -0.009320356
-0.010663217 -0.008520511 0.013841241 -0.027914805 -0.011630162 -0.021276575 0.0062067383 0.013508344
0.011611354 -0.02350393 0.011105763 -0.00044332462 -0.017810766 -0.005584244 0.025591843 0.015189523
0.04219033 0.010113885 0.030333443 0.004322855 0.0075167194 0.0043678917 0.01811521 0.039529946
-0.007096955 -0.0037199743 -0.03167042 0.05160686 -0.0015739779 -0.04890547 0.0021308232 -0.026797447

action_model._continuous_distribution.mu.bias f4 [2]
00000000: bde4 5b3c 2673 5b3a
0.013421235 0.00083713455

exp_avg f4 [128, 10]
00000000: b8cf 5eb9 cc58 60b4 4754 b1b4 75f1 23b5
00000010: 8e6f 93b4 cb46 96b4 af68 c4b1 9524 23b5
00000020: c346 9ab4 cc95 b530 e529 b3b9 00b0 2cb6
00000030: 167f 88b6 b705 0cb7 0cf9 62b6 a058 67b6
00000040: cb2e 97b3 4827 fbb6 f780 6db6 bac5 8b32
00000050: 5e5c adb9 229a 77b6 f3b5 c3b6 1331 40b7
00000060: f8b7 a2b6 9cda a5b6 acc4 d8b3 cc0d 34b7
00000070: b244 aab6 6668 c832 e16f a0b8 06c9 a6b5
00000080: c7d4 03b6 0fe1 84b6 1337 dbb5 6670 dfb5
00000090: fa03 12b3 be91 72b6 dd62 e5b5 bffe 0632
000000a0: 0aed 0ab9 0eeb be33 0be8 1634 a734 0835
000000b0: 27ef fa33 f7c4 ff33 a724 2731 81d5 8a34
000000c0: e249 0334 3887 1ab0 ec79 1e38 03e6 c834
000000d0: 8ccb 1e35 d12b 9735 aa06 0435 e991 0635
000000e0: 71e1 2f32 6c17 9235 d726 0a35 2d9b 22b1
000000f0: bb64 7c37 3b2c 9035 58ea e335 57f0 4e36
00000100: 8b7e bd35 4325 c135 1e70 fc32 a3ae 5136
00000110: 5049 c635 a862 e9b1 85de a5b7 e054 08b6
00000120: 0285 57b6 ee9c d5b6 2930 33b6 0aa4 36b6
00000130: 5ab5 6eb3 2a47 c6b6 8480 3bb6 28b1 5c32
00000140: cba4 1bba 7722 1d36 f767 7836 f60e e436
00000150: e187 4e36 a282 5236 1391 8933 9988 e436
00000160: 011d 5836 2b5e 7eb2 19d7 36ba 484b 9334
00000170: 87d9 e834 1b1f 2535 c598 c134 ce53 c534
00000180: a0f3 0032 c838 5635 4794 ca34 2970 eeb0
00000190: f814 b637 92f0 70b4 d971 beb4 29b7 74b5
000001a0: 1a57 9eb4 2664 a1b4 83ef d2b1 8735 2fb5
000001b0: d4af a5b4 ee03 c330 066d a0b9 13e1 8332
000001c0: 787b d032 ec44 6e34 1756 ad32 11ad b032
000001d0: abe9 e62f 91cd 3f33 f760 b532 457c d5ae
000001e0: 2ef6 b4b9 5019 2eb6 ae9c 89b6 2354 00b7
000001f0: f1d3 64b6 ad3c 69b6 1e6b 98b3 c634 fdb6
00000200: e771 6fb6 2bea 8c32 09bc 7d38 774c c4b5
00000210: ca28 1bb6 bc3d a3b6 d000 01b6 257d 03b6
00000220: 8bda 2bb3 1fbf 8eb6 14fd 06b6 14e2 1e32
00000230: 2641 03b8 43b5 3fb5 e087 97b5 5d4f 0db6
00000240: fbf8 7bb5 f269 80b5 afd5 a7b2 8768 0bb6
00000250: eed4 83b5 e12a 9b31 adf4 8e38 aad1 c935
00000260: d085 1f36 7036 9136 89a1 0436 c22f 0736
00000270: c2af 3033 cac2 9236 e4c8 0a36 eb59 23b2
00000280: 8e86 3b39 7526 3433 3765 8e33 c976 beb4
00000290: 24c8 6c33 2158 7133 6cb7 9d30 fc00 0334
000002a0: 7bc4 7733 35d0 91af 9e1b 1db9 d70c 4235
000002b0: c961 9935 ddad 1836 070d 7f35 90fb 8135
000002c0: 97e2 a932 861c 0d36 3b71 8535 2a10 9db1
000002d0: 0f3f 4439 54c3 e335 8b07 3436 d676 a336
000002e0: 4aae 1536 9e90 1836 5866 4733 8ca0 a536
000002f0: 2ba0 1c36 a659 38b2 a16c a6b8 00f5 fbb5
00000300: 2c27 47b6 9dbc bfb6 a294 25b6 64c5 28b6
00000310: b594 5cb3 8638 b7b6 5c43 2db6 c5ee 4b32
00000320: 4a19 f3b8 3fcd dfb5 fce5 30b6 05e1 bcb6
00000330: d913 13b6 56e9 15b6 87ee 43b3 1bbf a2b6
00000340: cde6 19b6 d824 3532 43d2 e4b7 af03 2535
00000350: 736e 8235 817c 0536 3ce3 5835 1211 5d35
00000360: 1877 9032 6dfe ef35 60f3 6235 d18f 85b1
00000370: 51fb 6d38 57e8 56b5 45de a9b5 9341 2bb6
00000380: 873b 8db5 2ff4 8fb5 2e25 bcb2 5e47 1cb6
00000390: 0ec9 93b5 f1f1 ad31 d8e8 16b9 6569 c2b4
000003a0: f3aa 19b5 121e 84b5 b386 ffb4 9239 02b5
000003b0: a133 2ab2 d55f 8db5 e3b0 05b5 165b 1d31
000003c0: 5574 dfb8 d194 ddb5 b024 2fb6 f81b b4b6
000003d0: 4a9e 11b6 956c 14b6 e5fc 41b3 c021 a1b6
000003e0: ea5f 18b6 c458 3332 759d 2eb9 d9e1 84b5
000003f0: 1811 d2b5 d214 3ab6 8fa7 aeb5 1205 b2b5
-0.00021248951 -2.089393e-07 -3.303014e-07 -6.10736e-07 -2.746205e-07 -2.7991186e-07 -5.716252e-09 -6.0775466e-07
-2.873622e-07 1.3212058e-09 -0.00034172754 -2.5732443e-06 -4.0679106e-06 -8.345981e-06 -3.3821589e-06 -3.447327e-06
-7.039997e-08 -7.484956e-06 -3.539082e-06 1.6271645e-08 -0.0003306595 -3.6895585e-06 -5.8326345e-06 -1.1455518e-05
-4.849393e-06 -4.9428327e-06 -1.0094058e-07 -1.0732048e-05 -5.074392e-06 2.333054e-08 -7.6502336e-05 -1.2426469e-06
-1.9644374e-06 -3.960107e-06 -1.63328e-06 -1.6647507e-06 -3.399689e-08 -3.6145643e-06 -1.7090603e-06 7.857749e-09
-0.0001324901 8.890321e-08 1.4054255e-07 5.074057e-07 1.1685034e-07 1.19101905e-07 2.4322533e-09 2.5859848e-07
1.2227204e-07 -5.621703e-10 3.7783684e-05 3.7420259e-07 5.9155786e-07 1.1263129e-06 4.918353e-07 5.013122e-07
1.02376e-08 1.0884664e-06 5.1465526e-07 -2.366231e-09 1.5043824e-05 1.0741709e-06 1.6981021e-06 3.0836288e-06
1.4118426e-06 1.4390465e-06 2.9387646e-08 3.1245079e-06 1.4773486e-06 -6.7924084e-09 -1.9773152e-05 -2.0314983e-06
-3.2114917e-06 -6.3661637e-06 -2.6701111e-06 -2.7215597e-06 -5.557863e-08 -5.9091444e-06 -2.7939977e-06 1.2845966e-08
-0.0005937337 2.3414884e-06 3.7015395e-06 6.796671e-06 3.0775484e-06 3.1368477e-06 6.4059485e-08 6.8108316e-06
3.220339e-06 -1.4806157e-08 -0.0006974801 2.7435658e-07 4.337164e-07 6.1512554e-07 3.6060206e-07 3.6755085e-07
7.5059745e-09 7.980384e-07 3.7733318e-07 -1.7348657e-09 2.1705855e-05 -2.2439261e-07 -3.5473093e-07 -9.1163616e-07
-2.9493168e-07 -3.0061454e-07 -6.1390337e-09 -6.527047e-07 -3.0861577e-07 1.4189234e-09 -0.00030598807 1.5352759e-08
2.4270534e-08 2.2190551e-07 2.0179e-08 2.0567798e-08 4.2002787e-10 4.4657614e-08 2.1115268e-08 -9.708193e-11
-0.00034515694 -2.5942754e-06 -4.101158e-06 -7.648984e-06 -3.4098014e-06 -3.4755024e-06 -7.097536e-08 -7.546131e-06
-3.5680075e-06 1.6404632e-08 6.0495022e-05 -1.4625392e-06 -2.3120542e-06 -4.8649654e-06 -1.922297e-06 -1.9593365e-06
-4.0012804e-08 -4.254179e-06 -2.0114867e-06 9.248215e-09 -3.1293508e-05 -7.1416815e-07 -1.1289922e-06 -2.1056833e-06
-9.38671e-07 -9.567577e-07 -1.953853e-08 -2.0773457e-06 -9.822231e-07 4.5159685e-09 6.816662e-05 1.5036687e-06
2.3770735e-06 4.327674e-06 1.9763559e-06 2.0144366e-06 4.1138044e-08 4.3738155e-06 2.0680536e-06 -9.508294e-09
0.00017883835 4.1944492e-08 6.630801e-08 -3.5476685e-07 5.513006e-08 5.6192338e-08 1.1475385e-09 1.2200684e-07
5.7687867e-08 -2.6523286e-10 -0.00014982975 7.2289316e-07 1.1427848e-06 2.2750967e-06 9.501386e-07 9.684463e-07
1.977723e-08 2.102724e-06 9.942227e-07 -4.571139e-09 0.00018715508 1.6969666e-06 2.682648e-06 4.871613e-06
2.230418e-06 2.2733943e-06 4.642638e-08 4.9360733e-06 2.3339041e-06 -1.0730593e-08 -7.9357305e-05 -1.8772262e-06
-2.9676112e-06 -5.714201e-06 -2.4673432e-06 -2.5148847e-06 -5.135799e-08 -5.460405e-06 -2.5818217e-06 1.1870445e-08
-0.000115918534 -1.6674529e-06 -2.6359912e-06 -5.6290323e-06 -2.191626e-06 -2.233855e-06 -4.5618915e-08 -4.850224e-06
-2.293312e-06 1.0543964e-08 -2.7277629e-05 6.147265e-07 9.7179e-07 1.9891015e-06 8.079694e-07 8.2353756e-07
1.6817964e-08 1.7880935e-06 8.454572e-07 -3.8871595e-09 5.673926e-05 -8.005931e-07 -1.265617e-06 -2.5519155e-06
-1.0522643e-06 -1.0725397e-06 -2.1902988e-08 -2.3287353e-06 -1.1010868e-06 5.0624682e-09 -0.00014391856 -3.6212e-07
-5.7245705e-07 -9.843518e-07 -4.7595458e-07 -4.851255e-07 -9.907041e-09 -1.053321e-06 -4.9803765e-07 2.2898283e-09
-0.00010655137 -1.6509094e-06 -2.6098387e-06 -5.367674e-06 -2.169882e-06 -2.2116922e-06 -4.516632e-08 -4.802103e-06
-2.2705594e-06 1.0439354e-08 -0.0001665259 -9.900497e-07 -1.5651194e-06 -2.7728279e-06 -1.3012776e-06 -1.3263509e-06

exp_avg_sq f4 [128, 10]
00000000: 0dff 2234 d790 9a2b ea22 412c 33af 962c
00000010: 9373 052c fab3 0a2c 9a22 6d26 7b78 232d
00000020: 562f 122c a284 4a24 4286 fb34 6915 922c
00000030: a889 362d 1d37 632d 4a00 fc2c 3117 032d
00000040: d00c 6027 fc7f 1a2e aa29 0a2d 9867 3f25
00000050: f7ff 1335 49d7 c12c 6036 722d 2a94 a02d
00000060: 42f0 262d 7ef1 2d2d 9349 9527 3202 4d2e
00000070: 9754 372d 69fa 7d25 db9b 2234 7f0c c42b
00000080: 97f8 742c bb07 742c f9d6 282c caeb 2f2c
00000090: 18cd 9626 ec57 4f2d 226b 392c 736f 8024
000000a0: e443 4534 c6cb cc2b b2e6 7f2c a126 bc2c
000000b0: d6cc 302c 6dc7 372c 380e 9d26 4098 582d
000000c0: 0eb1 412c 792a 8624 1038 6d33 8036 292b
000000d0: 5370 d32b 7dca 8f2b dc95 902b a6cb 972b
000000e0: 8bf0 0326 38f6 b22c b509 a02b acb5 dd23
000000f0: 5699 b933 850b a32b 4fbb 4b2c e815 eb2b
00000100: d580 0b2c e648 122c bf09 7c26 3970 2c2d
00000110: 5034 1a2c caa0 5524 5be0 a534 627a 412c
00000120: 58c2 f12c 4c90 142d 65c6 a62c 8d9e ad2c
00000130: afde 1427 f99f cc2d c6fc b62c bd80 fd24
00000140: 4231 9035 051f 0f2d 02d6 b22d 176b d62d
00000150: c3c1 762d 256e 802d 3e77 dc27 e35d 972e
00000160: 665c 872d e785 bb25 1ea6 c735 6d87 362d
00000170: e013 e42d 6559 262e 738b 9d2d 97cb a32d
00000180: 170b 0c28 820b c12e c9a1 ac2d 2128 ef25
00000190: b076 0534 cdb4 9a2b e04f 412c 7ec5 452c
000001a0: e04d 052c cad2 0a2c 9dfc 6d26 8b9e 232d
000001b0: 5f51 122c ccb3 4a24 9925 1535 208c bd2c
000001c0: edd8 6c2d 33a8 4a2d 9542 232d 2717 2a2d
000001d0: a3a5 9127 bc77 482e 1045 332d 3e5a 7825
000001e0: b5ae 0235 3d88 c62c 0913 782d 0d92 752d
000001f0: b79e 2a2d 1c24 322d c83b 9927 5ef8 512e
00000200: 7bc4 3b2d fb0f 8225 8ac1 2035 c837 c22c
00000210: fbae 722d d6eb 7a2d 797d 272d 5848 2e2d
00000220: 0b17 9527 4668 4d2e e4af 372d da78 7e25
00000230: 262e 8432 4a92 5d2a 706e 0a2b 4472 0f2b
00000240: e11e be2a a1ce c62a 8d64 2c25 2c56 ea2b
00000250: a48e d12a e027 1123 f1cc 0534 51f8 ce2b
00000260: 0d4f 812c 9a22 822c 28ec 312c 4db7 392c
00000270: 50de 9f26 dbe4 5a2d 62bf 432c 1297 8724
00000280: 6d74 fc34 8fbd 8a2c a55c 2d2d 69a3 6f2d
00000290: 3e26 ef2c 4bfe f82c af31 5527 cebb 122e
000002a0: b737 032d 83c8 3525 791b 0e34 ce85 912b
000002b0: 2fd6 352c bbf4 762c 8b77 fa2b 2196 022c
000002c0: e609 6026 1de8 192d daa1 092c 69ab 3e24
000002d0: 0359 b234 bb32 712c 89b1 162d 0d6c 2d2d
000002e0: 5fc5 cf2c 1371 d82c d901 3a27 0818 ff2d
000002f0: ab1e e42c 7b03 1e25 74af ff33 f096 b52b
00000300: 5fe7 622c fec0 972c dd5d 1c2c 83f2 222c
00000310: 2720 8c26 290d 402d 53be 2b2c 01ed 6d24
00000320: e019 3135 1aed ca2c 9690 7d2d 318c 822d
00000330: bae6 2e2d ff17 362d 15ec 9b27 099e 562e
00000340: 55ec 3f2d ddf0 8425 97bd a933 6cfc 512b
00000350: 6f31 032c 014b cd2b 199f b32b 5e6a bc2b
00000360: 9a70 2126 7415 de2c a599 c62b e590 0924
00000370: d04c ea33 9eee 6d2b 33a7 142c 5b82 5f2c
00000380: d73a cd2b 5680 d52b b1fb 3626 d4a3 fb2c
00000390: ef07 e12b c0df 1b24 54f4 e933 5ceb 8b2b
000003a0: d3d5 2e2c 6f40 7b2c 16b6 f02b 371a fb2b
000003b0: 6f6a 5826 08fb 132d 2f55 042c f353 3724
000003c0: 9705 8d34 9f3f 1a2c 73bd c02c 37c9 002d
000003d0: 4a19 852c 876a 8a2c 416a ec26 9622 a32d
000003e0: 89e2 912c 401a ca24 5b1d a334 556f 4b2c
000003f0: 4633 fe2c 288d 082d 305c af2c b08e b62c
1.5180213e-07 1.0982559e-12 2.744633e-12 4.2827074e-12 1.8964593e-12 1.9710887e-12 8.2272787e-16 9.292229e-12
2.0774125e-12 4.3914112e-17 4.685008e-07 4.1519466e-12 1.0376068e-11 1.2915694e-11 7.162303e-12 7.451637e-12
3.109319e-15 3.512922e-11 7.853643e-12 1.6601708e-16 5.5134245e-07 5.5092914e-12 1.3768181e-11 1.8255692e-11
9.4893555e-12 9.8875335e-12 4.1435577e-15 4.6613553e-11 1.0421128e-11 2.2029094e-16 1.5144126e-07 1.3930106e-12
3.481248e-12 3.4678777e-12 2.399357e-12 2.4999885e-12 1.0463932e-15 1.178611e-11 2.6349552e-12 5.5699954e-17
1.8371753e-07 1.455163e-12 3.6365741e-12 5.34757e-12 2.5124811e-12 2.6116568e-12 1.0897917e-15 1.2311985e-11
2.7525235e-12 5.818519e-17 5.523185e-08 6.0116495e-13 1.5023628e-12 1.0216963e-12 1.027341e-12 1.0785719e-12
4.577575e-16 5.0864e-12 1.1371378e-12 2.4037809e-17 8.6426255e-08 1.1585044e-12 2.8952012e-12 1.6703834e-12
1.9824604e-12 2.0788315e-12 8.744327e-16 9.8019865e-12 2.1913756e-12 4.6323206e-17 3.0896885e-07 2.7494886e-12
6.8712085e-12 8.444866e-12 4.74003e-12 4.9345584e-12 2.0659843e-15 2.3263157e-11 5.2008146e-12 1.0993935e-16
1.0743172e-06 8.135497e-12 2.0331296e-11 2.437654e-11 1.4026505e-11 1.460083e-11 6.119155e-15 6.8833626e-11
1.5388756e-11 3.2530065e-16 1.4875002e-06 1.0375573e-11 2.5929425e-11 3.782343e-11 1.7910761e-11 1.8621367e-11
7.773966e-15 8.778668e-11 1.9625983e-11 4.1487083e-16 1.2429769e-07 1.099254e-12 2.747129e-12 2.8105014e-12
1.8943666e-12 1.972799e-12 8.256825e-16 9.300681e-12 2.0793018e-12 4.395406e-17 5.556154e-07 5.38726e-12
1.3463214e-11 1.1519718e-11 9.2802615e-12 9.668522e-12 4.042517e-15 4.558108e-11 1.0190307e-11 2.1541146e-16
4.8683006e-07 5.642624e-12 1.41013945e-11 1.3959067e-11 9.698623e-12 1.01261464e-11 4.2530846e-15 4.7741693e-11
1.0673347e-11 2.2562234e-16 5.988628e-07 5.5200046e-12 1.3794961e-11 1.4263221e-11 9.5207115e-12 9.906818e-12
4.138079e-15 4.6704217e-11 1.0441401e-11 2.2071934e-16 1.5387808e-08 1.9679497e-13 4.918071e-13 5.096238e-13
3.3772206e-13 3.5315243e-13 1.495269e-16 1.6650618e-12 3.7224835e-13 7.86891e-18 1.2461147e-07 1.4706102e-12
3.675177e-12 3.6986638e-12 2.5284306e-12 2.6391834e-12 1.1093099e-15 1.24426814e-11 2.7817405e-12 5.880284e-17
4.702337e-07 3.943241e-12 9.854483e-12 1.36218615e-11 6.7970343e-12 7.076816e-12 2.9586622e-15 3.336336e-11
7.458859e-12 1.5767183e-16 1.3234775e-07 1.0340008e-12 2.5840543e-12 3.5094555e-12 1.7796748e-12 1.855745e-12
7.7729027e-16 8.748583e-12 1.9558717e-12 4.1344873e-17 3.3219848e-07 3.427632e-12 8.5659336e-12 9.8579036e-12
5.9052064e-12 6.151643e-12 2.5813687e-15 2.9000816e-11 6.4835546e-12 1.3705495e-16 1.19062776e-07 1.2902717e-12
3.2244968e-12 4.3131046e-12 2.2221038e-12 2.3156206e-12 9.723166e-16 1.09168586e-11 2.4406213e-12 5.1591933e-17
6.597529e-07 5.767509e-12 1.44134895e-11 1.4841546e-11 9.9419865e-12 1.03508304e-11 4.3277103e-15 4.879833e-11
1.0909569e-11 2.3061565e-16 7.904162e-08 7.460202e-13 1.864366e-12 1.4586944e-12 1.2762873e-12 1.3387726e-12
5.60107e-16 6.3120013e-12 1.4111391e-12 2.982987e-17 1.0910446e-07 8.453046e-13 2.112488e-12 3.1762568e-12
1.4582457e-12 1.5170181e-12 6.348504e-16 7.1520376e-12 1.5989414e-12 3.379979e-17 1.0894351e-07 9.941869e-13
2.4845583e-12 3.5705013e-12 1.7103565e-12 1.7841899e-12 7.50843e-16 8.411723e-12 1.8805615e-12 3.9752907e-17
2.6267364e-07 2.1920033e-12 5.4780013e-12 7.320636e-12 3.782895e-12 3.934023e-12 1.640459e-15 1.8546314e-11
4.1462983e-12 8.7648005e-17 3.0382475e-07 2.8909837e-12 7.2248067e-12 7.762048e-12 4.984034e-12 5.1885926e-12

exp_avg f4 [128]
00000000: 80e9 c5b8 fb56 98ba 596d daba 0b22 13ba
00000010: 1f6c 2838 073a 3139 b15e fe39 0589 70ba
00000020: 959e 8a3a 43f0 0139 c38c d4b8 2cae e836
00000030: ba95 99ba 3b2b 2dba 811e a9b9 ea09 323a
00000040: 68ec 9e37 6d2f ab39 00ed 483a de44 5eba
00000050: 636e 45ba 1f92 9139 c995 bdb9 1381 2bb9
00000060: f278 43ba 1373 eab9 d5ff 0d39 e435 6eba
00000070: 04df 87ba b380 a0b7 06d5 c739 7548 f8b9
00000080: 4de9 2aba efd5 94b9 dbe8 9e39 38ba f539
00000090: 86d9 9cba 934f 9aba f358 cbb9 0414 4f3a
000000a0: 4072 be39 bd71 cdb9 285a 5439 39a3 32ba
000000b0: 4ae9 3e3a 7ac0 423a d6c8 c8b8 d192 1639
000000c0: d860 4fba ac36 40b8 393c e4b9 8f4f 713a
000000d0: 5e9d 68b8 288b 633a d547 5eb8 6c73 44ba
000000e0: ff39 f5b9 10c7 d53a 91c8 9dba fdee 7cb8
000000f0: c9f0 9cb8 b957 9cb9 684d a8b9 4986 123a
00000100: 0e34 8fb9 5b32 3cba f8a7 9639 0a5f 6fba
00000110: 21ca d839 613a 97b9 8f7a aab9 96b0 0139
00000120: 0e58 43ba fbb6 c239 4057 79ba c1d7 5d39
00000130: 993a 44ba ca14 ef39 90ed d3b8 5066 763a
00000140: df8f 95b9 4213 2739 5a2f 0aba 99aa 8eb8
00000150: 3f9f 313a 3115 313a da00 ec39 43a3 863a
00000160: 7280 383a 3829 a1b9 dab3 f239 6c47 d5ba
00000170: fd35 2bb9 b85a 973a 9f78 2ab9 acfe 2cb9
00000180: 2867 243a ef11 aeb9 55bd 813a aa23 b539
00000190: ce3a 4139 973e bcb8 4941 eab9 2c1e 02ba
000001a0: 7ebb 013a 64f1 ca39 9418 21ba 1c16 3fba
000001b0: 249f 68ba 1ad3 5836 f151 9bb9 9998 003a
000001c0: 87a8 32b9 ff3f 42ba 1b26 96b9 ab61 20b9
000001d0: 8848 01ba f607 26ba 8b99 4d3a 3420 97ba
000001e0: 5e7b 38ba 3a6c af38 a86d 22ba f34a 8e3a
000001f0: 733c efba eb8a 3f3a e7ef 77b9 320c 83ba
-9.437185e-05 -0.0011622602 -0.0016664668 -0.0005612678 4.0155017e-05 0.00016901652 0.00048517206 -0.0009175691
0.0010575826 0.00012391903 -0.00010135167 6.934415e-06 -0.0011717596 -0.0006605868 -0.0003225692 0.00067916384
1.8945153e-05 0.00032650997 0.000766471 -0.000847889 -0.00075314025 0.00027765424 -0.00036160488 -0.00016355915
-0.0007456682 -0.00044717695 0.00013542113 -0.000908701 -0.0010366146 -1.9133417e-05 0.00038114953 -0.0004735623
-0.000651975 -0.00028388153 0.000303096 0.00046868785 -0.0011966683 -0.0011772983 -0.0003878545 0.0007899406
0.00036324747 -0.0003918539 0.00020251481 -0.0006814483 0.00072826876 0.0007429194 -9.574152e-05 0.00014359808
-0.0007910854 -4.5827284e-05 -0.00043532418 0.00092052756 -5.545967e-05 0.00086800987 -5.2995823e-05 -0.0007494006
-0.00046773252 0.0016309936 -0.0012037923 -6.0304057e-05 -7.4835094e-05 -0.00029819997 -0.0003210113 0.0005589468
-0.0002731387 -0.00071791344 0.00028735376 -0.00091312884 0.00041349328 -0.0002884446 -0.0003251624 0.00012368182
-0.0007451781 0.00037138895 -0.00095115975 0.00021156577 -0.00074855384 0.0004560112 -0.000101055135 0.0009399401
-0.00028526687 0.00015933535 -0.0005271338 -6.802864e-05 0.00067757437 0.0006755172 0.00045014062 0.0010272044
0.0007038183 -0.00030739023 0.00046291837 -0.0016271896 -0.00016327943 0.0011547422 -0.00016257398 -0.00016498071
0.0006271475 -0.00033201228 0.0009898344 0.00034549582 0.00018427821 -8.976197e-05 -0.000446806 -0.00049636024
0.0004948898 0.00038708292 -0.0006145325 -0.00072893663 -0.00088738115 3.2309385e-06 -0.00029624955 0.00049055513
-0.00017038184 -0.0007410049 -0.0002863862 -0.00015295173 -0.00049317675 -0.0006333584 0.0007843009 -0.0011529983
-0.0007037426 8.364809e-05 -0.00061961496 0.0010856077 -0.0018252268 0.0007306772 -0.00023645126 -0.0009998141

exp_avg_sq f4 [128]
00000000: d792 7034 295f 6335 0cda 9635 e291 9834
00000010: 9160 9f34 83af 0334 75c5 7d34 c391 1635
00000020: bbc2 de35 6b0c 0e36 e7ca 7034 b082 9335
00000030: ab80 9a35 2e25 9735 a06e 2c33 b411 a134
00000040: 3bf1 5735 a67f 6234 c7b4 3b35 4651 8d34
00000050: 0cec 9d35 896a 2334 232a 3934 09c7 5934
00000060: 7414 f034 6351 1e35 5cb5 9a34 99f7 cd34
00000070: 7395 ba35 89bd bb32 a9bc 2d35 6943 9d33
00000080: 74e9 2d35 7a31 7734 2198 5234 ca6b 3534
00000090: 8d21 e335 e157 4035 c1ae 1336 e32c ea35
000000a0: 9cde 0834 5b05 8c34 98cb 7f35 a4c8 fa34
000000b0: 3272 cf35 2e3e eb34 721a c734 f336 4834
000000c0: e087 0935 46df ef33 9d51 0635 c622 c835
000000d0: f0bb fe34 7a04 4536 ddc4 d834 04f9 5a34
000000e0: eb06 ad33 d328 0b36 59e6 0636 4370 d334
000000f0: a31f 3634 3cd3 f735 f3d0 c434 14aa 3a36
00000100: 73aa 9d34 3a8b ad35 3301 2734 fcb5 8235
00000110: 9f35 6434 7826 1c34 2058 9434 11ce 3b35
00000120: d088 5834 6987 d833 05b6 2436 f0dd 2f34
00000130: d5eb 4935 08ea dd33 e396 8335 74aa 2335
00000140: c24a cf34 c726 0b35 825b 1b34 67fd 2d35
00000150: e9e6 8534 d337 9e36 238e 3634 9134 6b35
00000160: 9057 ff34 cf86 d134 2107 d834 5361 af35
00000170: fd54 5535 103b 3635 dc3a 1a34 1919 2c33
00000180: 3ff4 9334 0d6d 6e34 96ae 8c35 0504 1234
00000190: 931a 4b35 b553 af34 874b f133 f687 ce34
000001a0: e868 9235 746e a534 aeaf 4a36 6a3c 3535
000001b0: 1a64 4535 a8fc c135 f05e 1535 e605 b535
000001c0: 47e8 9433 b39a 9934 d000 4834 9f4a cb34
000001d0: 0e02 7835 e501 9634 ef38 b534 c4e7 1b35
000001e0: aa4a 2635 16c6 aa33 e9b3 0a35 f373 3a35
000001f0: ad79 8f35 7b97 7d34 2a12 0a34 89d7 b034
2.2405162e-07 8.4702566e-07 1.1239331e-06 2.841835e-07 2.968632e-07 1.2264177e-07 2.3634296e-07 5.6091466e-07
1.6596963e-06 2.1166877e-06 2.2425557e-07 1.0990389e-06 1.1511341e-06 1.1261197e-06 4.0147484e-08 3.0001468e-07
8.044478e-07 2.1094328e-07 6.9925994e-07 2.632243e-07 1.176611e-06 1.5219315e-07 1.7244797e-07 2.0282108e-07
4.4718365e-07 5.897802e-07 2.8816692e-07 3.8364377e-07 1.3901575e-06 2.1855856e-08 6.472206e-07 7.323144e-08
6.478724e-07 2.3021667e-07 1.9613118e-07 1.6896152e-07 1.6922583e-06 7.1653454e-07 2.2006427e-06 1.7447422e-06
1.2746972e-07 2.608093e-07 9.529117e-07 4.6712114e-07 1.5455937e-06 4.3817403e-07 3.708588e-07 1.8646442e-07
5.12342e-07 1.1169918e-07 5.0037653e-07 1.4911282e-06 4.744793e-07 2.9357893e-06 4.0376372e-07 2.0393423e-07
8.0571986e-08 2.0736377e-06 2.0101636e-06 3.9383494e-07 1.696158e-07 1.8464411e-06 3.6659875e-07 2.7815158e-06
2.9367547e-07 1.2930025e-06 1.5553523e-07 9.738719e-07 2.1253662e-07 1.4542627e-07 2.7631268e-07 6.9962795e-07
2.016634e-07 1.0082915e-07 2.4543854e-06 1.6378885e-07 7.5221516e-07 1.03336845e-07 9.804174e-07 6.0970274e-07
3.8611148e-07 5.1837964e-07 1.446879e-07 6.481627e-07 2.494119e-07 4.7152657e-06 1.700178e-07 8.7620816e-07
4.756116e-07 3.902737e-07 4.0238322e-07 1.3066841e-06 7.947236e-07 6.788623e-07 1.436378e-07 4.0069697e-08
2.7558596e-07 2.220515e-07 1.0481624e-06 1.3598772e-07 7.5662064e-07 3.2657195e-07 1.12361754e-07 3.8469415e-07
1.0908379e-06 3.081401e-07 3.0202605e-06 6.751567e-07 7.3533886e-07 1.4453153e-06 5.564498e-07 1.3487268e-06
6.934038e-08 2.861103e-07 1.8626747e-07 3.786599e-07 9.239019e-07 2.7941056e-07 3.3755302e-07 5.8079263e-07
6.194847e-07 7.9522735e-08 5.167081e-07 6.945913e-07 1.0689743e-06 2.361757e-07 1.285886e-07 3.2939377e-07
