Foosbots_working/results/foosballTraining/Foosbots_working/Foosbots_working-12800.onnx (onnx, 74687 bytes, 7 tensors)

action_model._continuous_distribution.log_sigma f4 [1, 2]
-0.05927572 -0.0009221796
00000000: 19cb 72bd 6dbe 71ba

action_model._continuous_distribution.mu.bias f4 [2]
-0.04755925 -0.086335585
00000000: 7dcd 42bd b6d0 b0bd

action_model._continuous_distribution.mu.weight f4 [2, 128]
0.12834556 0.11037193 0.11321709 0.109463304 -0.100841805 -0.12682657 0.09786826 -0.12853721
0.094243765 -0.0657965 0.0990946 -0.15045522 -0.12623383 0.07841638 0.11024013 -0.1447287
-0.078274794 -0.048236173 0.10751328 -0.13623554 0.091287985 0.10944129 0.10142459 0.06511501
0.07964063 0.12322286 0.09698208 0.09089632 -0.12163378 -0.10330564 -0.11684937 0.0076385345
0.07044805 -0.10136549 -0.12792192 0.09375435 -0.12127541 -0.098133296 -0.03382157 0.12538435
-0.13752383 0.014648177 -0.14551465 0.09809939 0.10041286 -0.08696389 -0.15400243 -0.11159825
0.115311645 0.08605331 0.11426761 0.1293164 0.056128908 0.09051416 0.005156275 -0.07390825
0.10147578 -0.122212484 -0.09230736 -0.18013473 0.106286 -0.12480342 -0.033276692 -0.12937163
-0.14818753 -0.13986507 0.1243262 -0.11144278 0.13618286 0.01798273 0.096387826 -0.12869367
0.0697232 0.110730834 -0.11743227 -0.13038759 0.08540958 -0.12255282 -0.12353547 -0.12239734
0.09513364 -0.13258189 -0.10619518 -0.109809875 0.11432696 -0.11711957 -0.13509282 -0.0154009
0.09717757 -0.018148927 -0.08558545 -0.05710384 0.13940366 0.13009635 0.12798196 -0.12369356
-0.092194624 0.09015173 0.059476063 -0.08537571 -0.081620485 -0.13928524 -0.13953725 0.103453435
0.06947518 0.083311245 0.088008344 -0.10438452 -0.14391635 -0.12951726 0.13020925 0.11894949
0.1113729 -0.13298854 -0.085218266 -0.11043854 0.08241378 0.08078831 -0.032557834 -0.15559818
-0.10831392 0.11680616 -0.12489097 -0.093934305 -0.12049817 0.052018087 -0.14818227 0.11723332
-0.057599213 -0.01638493 0.039896607 -0.033282913 0.061260212 0.021774564 -0.047427714 0.022631316
-0.047370143 0.05986909 -0.055892337 0.008127082 0.037100352 -0.0013559124 -0.05889123 -0.001360003
0.033153515 0.09709284 -0.05578941 0.02519683 0.030131767 0.023978999 -0.10793735 0.055488873
0.0060929456 -0.004256065 -0.061532993 -0.050884515 0.044701595 0.0077438676 0.035728857 0.09592435
-0.10375004 0.040801276 0.0057248953 -0.065348454 0.014443716 0.04351221 -0.01785764 -0.047606394
0.021651926 0.14181852 0.0008495408 -0.06457755 -0.042233616 0.10394676 0.028193615 0.05128067
-0.007242417 -0.07355423 0.042943716 -0.05656171 0.044019625 -0.07062019 0.077783994 0.0979485
-0.073436685 0.046050068 -0.023301732 0.017632881 -0.057090294 0.07486893 0.07200631 0.053603977
0.030633885 0.01896 0.03800291 0.011971113 0.0036533133 0.1233839 -0.058346707 0.059728768
-0.0013739348 -0.04554087 0.06920862 -0.0032052374 -0.049852226 0.07265335 0.041943926 0.011225461
0.028036373 0.05394498 0.04798897 0.055234797 0.05422594 0.024025835 0.018322706 0.045732275
-0.070547864 -0.1038141 -0.07130051 0.075373866 0.008135038 -0.020922426 -0.04385802 0.0452381
-0.037571456 -0.07225513 0.03854861 0.064453065 0.036929294 0.018465694 0.008565094 0.0041029346
-0.04843788 -0.060122546 -0.05740652 0.045421235 0.07142737 0.03053586 -0.034202557 -0.045706604
-0.019031696 0.014333725 0.06951982 0.06353793 -0.071531884 -0.078894325 0.13195466 0.018911777
0.022384414 -0.0031598115 -0.0076479665 3.1816075e-05 0.0029237876 -0.07979013 0.022757508 -0.037189823
00000000: 056d 033e ae0a e23d 5dde e73d 4c2e e03d
00000010: 2686 cebd d3de 01be 286f c83d 429f 03be
00000020: e002 c13d 51c0 86bd 1cf2 ca3d ef10 1abe
00000030: 7143 01be c498 a03d 94c5 e13d c333 14be
00000040: 894e a0bd 4b93 45bd ec2f dc3d 5481 0bbe
00000050: 32f5 ba3d c122 e03d b2b7 cf3d 055b 853d
00000060: a01a a33d 445c fc3d 8a9e c63d da27 ba3d
00000070: 221b f9bd e891 d3bd b94e efbd ac4c fa3b
00000080: 1147 903d b698 cfbd f7fd 02be 4802 c03d
00000090: 3e5f f8bd 1cfa c8bd 7d88 0abd c164 003e
000000a0: 0cd3 0cbe e8fe 6f3c cb01 15be 55e8 c83d
000000b0: 42a5 cd3d 201a b2bd d0b2 1dbe a08d e4bd
000000c0: 8328 ec3d b83c b03d 2305 ea3d 856b 043e
000000d0: 6de7 653d 7d5f b93d f8f5 a83b 355d 97bd
000000e0: 89d2 cf3d 8a4a fabd a40b bdbd 3d75 38be
000000f0: 79ac d93d ef98 ffbd 244d 08bd ff79 04be
00000100: 79be 17be ca38 0fbe bc9e fe3d 1d3c e4bd
00000110: 8573 0b3e 8550 933c fb66 c53d 46c8 03be
00000120: 09cb 8e3d d9c6 e23d 5480 f0bd 5384 05be
00000130: 38eb ae3d f9fc fabd 2a00 fdbd 75ab fabd
00000140: 6dd5 c23d 8cc3 07be dc7c d9bd 00e4 e0bd
00000150: 4124 ea3d 63dc efbd c655 0abe 0e54 7cbc
00000160: 0905 c73d 0fad 94bc 6d47 afbd b7e5 69bd
00000170: d5bf 0e3e fa37 053e b40d 033e 0d53 fdbd
00000180: 89d0 bcbd 78a1 b83d 2c9d 733d 76d9 aebd
00000190: a428 a7bd caa0 0ebe dae2 0ebe 65df d33d
000001a0: 0149 8e3d 169f aa3d b83d b43d 8dc7 d5bd
000001b0: cf5e 13be 2ca0 04be 9355 053e ca9b f33d
000001c0: 7a17 e43d 262e 08be ea86 aebd 9a2d e2bd
000001d0: 8ec8 a83d 5774 a53d 5d5b 05bd 2155 1fbe
000001e0: b0d3 ddbd 1138 ef3d d6c6 ffbd a160 c0bd
000001f0: bfc7 f6bd eb10 553d 18bd 17be 0618 f03d
00000200: 27ed 6bbd b039 86bc a06a 233d aa53 08bd
00000210: fdeb 7a3d 9260 b23c 9043 42bd 4f65 b93c
00000220: 3207 42bd 4a39 753d 5def 64bd 7427 053c
00000230: 8af6 173d dfb8 b1ba ee37 71bd 2142 b2ba
00000240: fbcb 073d 9cd8 c63d 7083 64bd 9569 ce3c
00000250: e5d6 f63c 9b6f c43c 420e ddbd 4d48 633d
00000260: 55a7 c73b 7676 8bbb 050a 7cbd 486c 50bd
00000270: 0519 373d 45c0 fd3b 6c58 123d fc73 c43d
00000280: e77a d4bd 3d1f 273d e797 bb3b 69d5 85bd
00000290: 56a5 6c3c dc39 323d 2f4a 92bc ecfe 42bd
000002a0: 615f b13c e038 113e b8b3 5e3a 3c41 84bd
000002b0: 28fd 2cbd 0ae2 d43d 4cf6 e63c ae0b 523d
000002c0: cc51 edbb 9aa3 96bd c0e5 2f3d 40ad 67bd
000002d0: ec4d 343d 51a1 90bd 374d 9f3d 3999 c83d
000002e0: f965 96bd ff9e 3c3d 46e3 bebc d572 903c
000002f0: 83d7 69bd e254 993d 0b78 933d d88f 5b3d
00000300: eaf3 fa3c 0052 9b3c f0a8 1b3d 7d22 443c
00000310: 6d6c 6f3b b3b0 fc3d f5fc 6ebd 27a6 743d
00000320: 9a15 b4ba 1089 3abd 40bd 8d3d f60e 52bb
00000330: d931 4cbd 48cb 943d 65cd 2b3d ffea 373c
00000340: 89ac e53c 69f5 5c3d 1590 443d e23d 623d
00000350: 051c 5e3d d4d1 c43c 8019 963c c451 3b3d
00000360: 667b 90bd 7d9c d4bd 0006 92bd 9d5d 9a3d
00000370: d348 053c 8265 abbc 78a4 33bd 964b 393d
00000380: 87e4 19bd 7ffa 93bd 26e5 1d3d f8ff 833d
00000390: 2c43 173d 5e45 973c 9c54 0c3c e971 863b
000003a0: cc66 46bd 0f43 76bd 1923 6bbd 9e0b 3a3d
000003b0: 8348 923d 5726 fa3c fb17 0cbd d936 3bbd
000003c0: 5ce8 9bbc 00d8 6a3c 6860 8e3d 2d20 823d
000003d0: 4f7f 92bd 5993 a1bd 1f1f 073e dfec 9a3c
000003e0: 855f b73c d714 4fbb cb9b fabb 4072 0538
000003f0: 049d 3f3b 0269 a3bd f46d ba3c 5b54 18bd

network_body._body_endoder.seq_layers.0.bias f4 [128]
-0.06102155 0.04087756 0.04072865 -0.047525074 -0.032074954 0.06763846 0.073076434 0.03628372
-0.02599194 0.057830732 -0.015393974 -0.042961035 0.05818938 0.0493381 0.0444466 -0.04476446
0.03336174 0.07104771 -0.038877577 -0.031343356 0.059991576 -0.04163619 0.0032559508 -0.046012998
0.06886366 -0.05525733 -0.04932476 -0.015397992 0.062798396 0.056255385 0.022028467 0.049567968
0.060910497 0.034664128 0.034999765 0.02764468 -0.030857818 0.06398712 0.04490223 -0.044001766
-0.026005503 0.026026461 -0.011827508 0.05185479 -0.028138353 0.0323751 0.04797965 0.05402441
-0.036974095 -0.05888859 0.055873483 -0.03883374 -0.033215605 -0.044985767 0.032309048 -0.009828142
0.05626515 0.029992273 0.058054645 0.050357454 -0.036342952 -0.050407987 -0.003013773 -0.032681815
-0.058469377 0.059539553 -0.044964537 0.04882935 -0.055155296 0.053596202 -0.039467346 -0.045387324
-0.057247497 -0.040217593 0.02323514 0.0485021 -0.0292147 0.037717678 0.055124976 0.048626974
-0.03815705 -0.05104687 -0.039206885 -0.045681603 0.056920767 -0.00014003295 -0.051369198 -0.034481276
-0.048607275 -0.04769104 -0.0413746 -0.002039343 -0.0019223501 0.041020017 -0.046881363 -0.04326722
0.04068662 0.057073735 -0.056526896 -0.025126044 0.048071247 -0.025280772 0.05040853 0.056854073
-0.038550977 -0.009907176 0.058525812 -0.043498393 0.07275622 0.047692124 0.060141146 0.054033555
0.04618083 0.05206379 -0.04457738 0.06178279 0.032084882 -0.03380493 0.037510935 0.04553921
0.05760105 -0.014475684 -0.043079987 -0.057531126 0.06437641 -0.050418522 0.053077262 -0.04680441
00000000: bcf1 79bd 3a6f 273d 16d3 263d a7a9 42bd
00000010: 0761 03bd 0886 8a3d 19a9 953d 3d9e 143d
00000020: 0ded d4bc ebdf 6c3d 0237 7cbc e9f7 2fbd
00000030: fd57 6e3d bf16 4a3d a30d 363d f05a 37bd
00000040: 52a6 083d 7681 913d 183e 1fbd e461 00bd
00000050: bab9 753d b68a 2abd ca61 553b 2078 3cbd
00000060: 6408 8d3d 8355 62bd c208 4abd dc47 7cbc
00000070: 729c 803d 0c6c 663d 0b75 b43c c807 4b3d
00000080: 497d 793d f9fb 0d3d ea5b 0f3d 1977 e23c
00000090: 89c9 fcbc ae0b 833d 67eb 373d 323b 34bd
000000a0: 7e09 d5bc 7235 d53c 2ac8 41bc b065 543d
000000b0: 6782 e6bc c19b 043d 4f86 443d b348 5d3d
000000c0: 2672 17bd 2a35 71bd 98db 643d 2110 1fbd
000000d0: 160d 08bd ff42 38bd 7e56 043d 3706 21bc
000000e0: 4976 663d 5bb2 f53c b5ca 6d3d 9e43 4e3d
000000f0: 59dc 14bd 9b78 4ebd b882 45bb 5edd 05bd
00000100: 967d 6fbd bfdf 733d bc2c 38bd 4901 483d
00000110: 85ea 61bd b187 5b3d 83a8 21bd 0fe8 39bd
00000120: 5a7c 6abd 34bb 24bd 9f57 be3c 23aa 463d
00000130: ab53 efbc da7d 1a3d baca 613d 142d 473d
00000140: 914a 1cbd 8616 51bd 6697 20bd a21c 3bbd
00000150: c025 693d cfd5 12b9 8268 52bd 3d3c 0dbd
00000160: 6c18 47bd ae57 43bd 6a78 29bd 7fa6 05bb
00000170: 5ef7 fbba 9b04 283d ac06 40bd f838 31bd
00000180: 03a7 263d 26c6 693d bf88 67bd 22d5 cdbc
00000190: 5be6 443d 9f19 cfbc 2d79 4e3d d1df 683d
000001a0: a1e7 1dbd b551 22bc c3b8 6f3d 5f2b 32bd
000001b0: 3701 953d d158 433d 9056 763d 4a52 5d3d
000001c0: 1c28 3d3d d740 553d c596 36bd f30f 7d3d
000001d0: 706b 033d 0a77 0abd 11a5 193d 5387 3a3d
000001e0: 14ef 6b3d 6b2b 6dbc a474 30bd c2a5 6bbd
000001f0: c7d7 833d a783 4ebd 8b67 593d fbb5 3fbd

network_body._body_endoder.seq_layers.0.weight f4 [128, 10]
-0.07355287 0.05346115 -0.36866105 0.21235098 -0.27496082 0.046259977 0.3794127 0.06620739
-0.46955967 0.35158107 0.0876821 0.20662013 0.3209929 -0.12585269 -0.0944268 -0.37202165
-0.18379262 -0.120151274 -0.07770832 -0.36785522 0.17365396 0.056971423 -0.6614144 0.13249898
-0.081983104 -0.13358378 0.00867538 -0.09774244 -0.71692663 0.2914997 -0.15223551 -0.04178334
0.055249393 0.2130928 -0.33874813 0.489367 -0.24074501 -0.28696427 -0.56705457 0.076472454
-0.06778722 -0.114424124 0.4212703 -0.28416464 -0.17514013 0.21986072 -0.014414182 -0.19791993
-0.60426617 0.2709089 0.8252985 -0.14226817 0.026362559 -0.3293221 0.37896323 0.29690376
0.23099175 -0.016715772 -0.10574882 -0.10391829 0.73129547 -0.070173234 -0.13902596 -0.7801391
-0.002564773 0.19400539 0.17275791 0.18841913 0.19982523 0.25687975 0.30936757 0.124626584
-0.3816802 -0.075191155 -0.111705996 0.04851571 -0.086663984 0.5374606 -0.17970598 -0.018484749
-0.45970047 -0.020801835 0.025301384 0.02413798 -0.015458182 0.4750299 -0.30487514 -0.026655048
0.17062685 -0.4961286 0.34757173 -0.08937716 -0.24890509 -0.11964995 0.13999617 -0.3397139
0.08575713 -0.026604973 -0.0065593254 0.02924751 -0.36294535 -0.19250676 0.052380435 -0.06996131
0.09388397 -0.18981028 0.2858542 0.060243364 0.73976946 0.6779523 -0.27985388 -0.4975608
0.23742197 0.03133803 -0.025051488 -0.08168907 -0.09328935 -0.12344515 0.70606416 0.5623438
0.39241853 -0.1660657 -0.45785674 0.073833756 0.47912586 -0.37540135 -0.26795784 -0.14508346
0.12041681 -0.49919143 0.24078129 -0.027858682 0.2595172 -0.2150256 -0.026866524 0.38519177
0.6243085 -0.08111436 -0.2391958 -0.509881 0.2763731 0.2126729 0.08295658 -0.013474243
-0.16409904 0.24590902 -0.36621207 0.1382563 0.2935362 -0.14125873 -0.12827528 -0.38520724
-0.40998217 -0.8297384 -0.17087501 0.30924597 -0.025322001 -0.75927067 -0.62523127 -0.102025256
0.3599017 -0.40972322 -0.13732742 -0.23296723 0.1727205 0.19036825 -0.3563557 0.19962902
-0.046192143 -0.18821403 0.021364357 0.44005302 -0.01160994 -0.08308116 -0.41786006 0.25399134
0.13083026 0.30156028 0.50283986 0.3941834 -0.7506902 -0.3293387 0.1594894 -0.5127561
0.30700123 -0.033391096 0.02336533 -0.6563622 0.019882938 0.16640425 -0.14256273 -0.27300903
-0.2736469 -0.396524 -0.5352593 -0.33449176 -0.69064546 0.13818385 0.10634501 0.2840429
0.28348857 0.16676122 -0.34035987 -0.07608324 -0.18927538 0.16828659 0.19932649 -0.4326581
-0.08681164 -0.29333338 -0.30758947 -0.18550192 -0.12095679 0.260708 0.37267575 0.04198154
-0.043430373 0.15775885 0.41503158 0.3455134 0.23204763 -0.9150361 0.84005857 -0.14483511
-0.15107211 -0.14795858 -0.07268522 0.27871197 0.078858204 0.03941065 -0.240062 0.09923936
0.27739295 0.18958189 0.37436706 0.35148507 0.423299 0.11842564 -0.14485759 -0.49048033
0.30715916 -0.4139018 0.10670172 0.31138203 -0.041325808 0.086788766 -0.6785538 0.23402828
0.28934652 0.03970581 -0.15802763 -0.023561414 0.32747155 0.1857632 -0.055673055 0.024636209
00000000: e3a2 96bd 14fa 5a3d 24c1 bcbe 8972 593e
00000010: aac7 8cbe 1a7b 3d3d 6242 c23e bd97 873d
00000020: 206a f0be 6f02 b43e ac92 b33d 3a94 533e
00000030: 2e59 a43e 87df 00be d762 c1bd 9f79 bebe
00000040: 2234 3cbe df11 f6bd 8a25 9fbd 8557 bcbe
00000050: 58d2 313e de5a 693d 7452 29bf d0ad 073e
00000060: c2e6 a7bd 30ca 08be 2e23 0e3c 302d c8bd
00000070: 8188 37bf 733f 953e a0e3 1bbe 0225 2bbd
00000080: 304d 623d 0035 5a3e 6570 adbe 508e fa3e
00000090: dc85 76be fbec 92be 7d2a 11bf 979d 9c3d
000000a0: 07d4 8abd 3257 eabd beb0 d73e 077e 91be
000000b0: ef57 33be 2b23 613e 7629 6cbc 86ab 4abe
000000c0: 30b1 1abf 92b4 8a3e c346 533f bfae 11be
000000d0: 4bf6 d73c e89c a8be 7807 c23e c503 983e
000000e0: 1a89 6c3e 84ef 88bc d692 d8bd 1dd3 d4bd
000000f0: 2e36 3b3f fcb6 8fbd d25c 0ebe 32b7 47bf
00000100: c015 28bb 59a9 463e 73e7 303e f2f0 403e
00000110: fc9e 4c3e be85 833e 6d65 9e3e 393c ff3d
00000120: 966b c3be d2fd 99bd 1dc6 e4bd 69b8 463d
00000130: e37c b1bd 0597 093f d804 38be 546d 97bc
00000140: dc5d ebbe 9c68 aabc d944 cf3c 03bd c53c
00000150: 5144 7dbc 1e37 f33e 9818 9cbe b05b dabc
00000160: ceb8 2e3e 9104 febe ecf4 b13e 5f0b b7bd
00000170: fae0 7ebe 080b f5bd 285b 0f3e fbee adbe
00000180: 6fa1 af3d acf2 d9bc 9cef d6bb 7998 ef3c
00000190: f9d3 b9be 7e20 45be de8c 563d e047 8fbd
000001a0: 3d46 c03d a05d 42be 7b5b 923e bfc1 763d
000001b0: 8861 3d3f 488e 2d3f 0249 8fbe 4ac0 febe
000001c0: bf1e 733e 4e5c 003d c738 cdbc 994c a7bd
000001d0: 7d0e bfbd d0d0 fcbd 9fc0 343f c3f5 0f3f
000001e0: 15eb c83e 200d 2abe 336c eabe 2736 973d
000001f0: fc4f f53e 9b34 c0be c531 89be c290 14be
00000200: 179d f63d 0596 ffbe 5f8f 763e e437 e4bc
00000210: 70df 843e ac2f 5cbe 2f17 dcbc db37 c53e
00000220: afd2 1f3f 491f a6bd beef 74be 9087 02bf
00000230: c680 8d3e edc6 593e 24e5 a93d 12c3 5cbc
00000240: 9409 28be 93cf 7b3e 2680 bbbe 0f93 0d3e
00000250: 604a 963e 21a6 10be 985a 03be e239 c5be
00000260: 2fe9 d1be bc69 54bf dcf9 2ebe 7d55 9e3e
00000270: 1670 cfbc 905f 42bf 280f 20bf 9ef2 d0bd
00000280: 0945 b83e 3ec7 d1be 8f9f 0cbe f68e 6ebe
00000290: a5dd 303e e5ef 423e 4174 b6be 8d6b 4c3e
000002a0: f933 3dbd 2ebb 40be 4e04 af3c a14e e13e
000002b0: 9e37 3ebc 7526 aabd c1f1 d5be 270b 823e
000002c0: 5ef8 053e 1c66 9a3e 1dba 003f 68d2 c93e
000002d0: 3c2d 40bf 159f a8be 3051 233e fc43 03bf
000002e0: 442f 9d3e 1ac5 08bd a668 bf3c 5a07 28bf
000002f0: 8be1 a23c e065 2a3e f7fb 11be d7c7 8bbe
00000300: 721b 8cbe 3205 cbbe c106 09bf 8142 abbe
00000310: 24ce 30bf 1180 0d3e 6acb d93d 126e 913e
00000320: 6a25 913e 74c3 2a3e a643 aebe 88d1 9bbd
00000330: 68d1 41be 5253 2c3e 3e1c 4c3e 5d85 ddbe
00000340: 4dca b1bd cb2f 96be 5e7c 9dbe 37f4 3dbe
00000350: 32b8 f7bd 857b 853e 5bcf be3e d6f4 2b3d
00000360: 0ce4 31bd 898b 213e 057f d43e 22e7 b03e
00000370: e59d 6d3e ce3f 6abf 140e 573f a84f 14be
00000380: a6b2 1abe 7482 17be fddb 94bd 56b3 8e3e
00000390: 6980 a13d 106d 213d d0d2 75be 013e cb3d
000003a0: 7306 8e3e c121 423e 0aad bf3e daf5 b33e
000003b0: a6ba d83e 2489 f23d 8c55 14be 3d20 fbbe
000003c0: f743 9d3e f0ea d3be 6e86 da3d 776d 9f3e
000003d0: 4045 29bd 4fbe b13d b4b5 2dbf 1ca5 6f3e
000003e0: 3a25 943e 8fa2 223d ffd1 21be de03 c1bc
000003f0: 5aaa a73e b538 3e3e 6e09 64bd e0d1 c93c

network_body._body_endoder.seq_layers.2.bias f4 [128]
-0.010884987 -0.049230244 -0.08562458 -0.024757965 0.018384863 0.05837429 -0.012801138 0.06707462
-0.019767588 -0.0039300257 0.00013475021 0.07031945 0.047261428 -0.061472267 -0.0048219217 0.077826984
0.025193902 -0.037104487 -0.0021097392 0.06272572 -0.0797121 -0.074664794 0.019584214 -0.095829085
-0.0697447 -0.054361537 -0.0020930646 -0.018821746 0.03813674 0.066965476 0.04613365 -0.076154225
0.04129686 0.033374313 0.072365075 0.011174356 0.07711045 0.044402756 0.04321513 -0.018544719
0.064667486 -0.09108655 0.0740733 0.000307729 -0.01947739 -0.018352551 0.056199145 0.032714922
-0.055298354 0.009142161 -0.08321305 -0.010252351 -0.08397603 0.017246742 -0.06326414 -0.0114743905
0.008983676 0.045285564 0.09433433 0.058280688 -0.011632599 0.020960296 -0.03973778 0.032132268
0.05741796 0.06720113 -0.07645368 0.07891676 -0.056847773 -0.08989562 -0.0008966657 0.026086938
-0.052191783 -0.017965848 0.011094072 0.0831897 -0.006499572 0.018921452 0.048891474 0.07322809
-0.08132882 0.034157604 0.030205103 0.02282791 -0.085724756 0.071725704 0.06569035 -0.031401433
0.013241927 0.09093186 0.106152155 -0.015053619 -0.059417546 -0.039445095 -0.025045007 0.044264942
0.09198072 0.01736045 -0.08812298 0.0028034763 0.041067783 0.067593426 0.069582425 -0.06558242
0.0007470148 0.007969179 0.00032643753 0.026231345 0.026326923 0.059932414 -0.028128674 -0.024229487
-0.042608265 0.070258215 0.006500349 0.022137612 0.02431161 0.022258645 -0.06982104 0.061936773
0.07220886 -0.05908612 0.08730678 0.07233922 0.08270504 0.04238973 0.061052322 -0.025798943
00000000: f256 32bc a7a5 49bd f15b afbd 37d1 cabc
00000010: da9b 963c e119 6f3d ddbb 51bc 6b5e 893d
00000020: a3ef a1bc 72c7 80bb bc4b 0d39 a503 903d
00000030: 3395 413d 58ca 7bbd 3601 9ebb c163 9f3d
00000040: 7163 ce3c e0fa 17bd 8d43 0abb 5876 803d
00000050: 1940 a3bd dbe9 98bd 136f a03c 0a42 c4bd
00000060: 4fd6 8ebd 34aa 5ebd cc2b 09bb 1030 9abc
00000070: 4535 1c3d 3225 893d a3f6 3c3d bff6 9bbd
00000080: e526 293d 81b3 083d 2434 943d a514 373c
00000090: 15ec 9d3d aadf 353d 5902 313d 18eb 97bc
000000a0: 6370 843d 968b babd beb3 973d b056 a139
000000b0: 0c8f 9fbc 1758 96bc 1331 663d 1500 063d
000000c0: 8780 62bd 01c9 153c 9b6b aabd 7af9 27bc
000000d0: a0fb abbd 0a49 8d3c a190 81bd 15ff 3bbc
000000e0: 4530 133c 5b7d 393d 5b32 c13d bbb7 6e3d
000000f0: a896 3ebc edb4 ab3c 15c4 22bd 209d 033d
00000100: 182f 6b3d bfa0 893d bf93 9cbd 1c9f a13d
00000110: 36d9 68bd 321b b8bd 370e 6bba 46b4 d53c
00000120: 0dc7 55bd 1d2d 93bc e9c3 353c 5d5f aa3d
00000130: 5dfa d4bb 2901 9b3c 6d42 483d 9cf8 953d
00000140: b98f a6bd d8e8 0b3d b170 f73c 9901 bb3c
00000150: 7690 afbd ede4 923d aa88 863d ca9e 00bd
00000160: abf4 583c 7c3a ba3d 4d66 d93d 74a3 76bc
00000170: d05f 73bd 2e91 21bd 302b cdbc 284f 353d
00000180: 6360 bc3d 8137 8e3c d279 b4bd 87ba 373b
00000190: b136 283d 6c6e 8a3d 3b81 8e3d 1350 86bd
000001a0: 51d3 433a 2991 023c b425 ab39 1ee3 d63c
000001b0: 8fab d73c b17b 753d 1b6e e6bc eb7c c6bc
000001c0: 0186 2ebd 8ae3 8f3d e100 d53b f059 b53c
000001d0: 2429 c73c c357 b63c 55fe 8ebd 6ab1 7d3d
000001e0: 3de2 933d 4a04 72bd e6cd b23d 9626 943d
000001f0: 4361 a93d dba0 2d3d 0012 7a3d 4e58 d3bc

network_body._body_endoder.seq_layers.2.weight f4 [128, 128]
0.056834023 -0.13665187 -0.13455874 -0.04549126 0.15004817 -0.09143297 -0.1814942 0.0071794125
0.12581898 -0.113586925 0.113944076 0.09706638 -0.08966767 0.07845403 -0.1646139 0.04881011
0.07801589 0.0074336 0.25212154 0.22662853 -0.06593618 0.07975829 0.018067025 0.012736384
-0.014045432 0.07555401 0.18261077 -0.06496958 -0.16485533 0.05602801 -0.068839915 -0.042223554
-0.13306981 -0.14073503 -0.16151921 -0.065885715 0.14627904 -0.11374182 -0.10925552 0.107354484
0.036939975 -0.16452901 0.114248954 -0.050503306 0.07658828 -0.067010336 -0.19457428 -0.00637178
-0.10208254 -0.027546437 -0.1094552 0.05230574 -0.049208272 0.027231976 -0.037877 0.007416763
-0.1142514 -0.05871513 -0.066766664 -0.057322226 0.14755344 0.04947053 0.20172232 0.009591359
0.19723323 -0.07833009 0.07509223 0.07449535 -0.05786099 0.02164768 0.13608855 0.009834979
0.017169645 0.12561364 -0.01902114 -0.061791103 0.07234202 -0.12032591 -0.07654403 -0.10084932
0.005082316 0.20825699 0.10676505 -0.04180033 -0.12225173 0.18425934 0.24359024 0.17215481
0.14580688 0.012268035 -0.08936612 0.07271205 0.17785122 0.1226535 0.02629886 0.06383975
-0.10758333 -0.268219 -0.08314919 0.15899615 -0.040619865 0.21296003 -0.07891094 -0.038510025
0.06427099 0.10910016 0.011327455 0.22434281 -0.07036856 -0.34501106 -0.1042213 -0.12486216
-0.14281833 -0.06257009 0.15909232 -0.048609458 -0.014355021 0.13405754 -0.07958073 -0.14041634
-0.15584244 -0.032776944 0.17342055 0.105607465 -0.2834613 0.19119687 -0.044231948 0.016004447
0.08505402 -0.29590893 -0.06780897 0.1359135 0.28947902 -0.11612391 0.012276903 -0.028119884
0.09006261 -0.17724016 0.05889864 0.20369174 -0.012878453 -0.10625021 -0.08952989 0.016948607
0.09863028 -0.16308007 0.06759215 0.047019735 0.017003099 0.05092093 -0.10334005 0.2377313
-0.014668908 0.038398374 0.069770984 0.25301623 -0.01918089 -0.057453204 -0.0040057697 0.0045771827
-0.05151354 -0.060205866 -0.16103679 0.04055651 0.16233237 -0.070601195 -0.10744785 0.115056515
-0.04703818 -0.046354078 -0.23384002 -0.15275449 -0.0656358 -0.11637666 -0.06277228 -0.10019479
-0.014381855 0.15133186 -0.08280659 -0.02788779 -0.12948224 0.116581835 -0.16081129 0.15119809
0.005403299 -0.10212683 -0.03024506 -0.075360574 0.18963733 0.08838881 0.05752323 0.004305342
0.29489198 -0.047530994 0.0010858865 -0.037327837 0.13867925 0.05739328 0.065492265 0.23376629
-0.0048036943 0.09810797 0.09998984 -0.09267272 0.030154167 0.06002832 0.035198554 -0.19283547
0.23215567 0.100766316 0.14516266 0.1383865 -0.07711635 0.084534265 0.11790612 0.078990534
0.08505202 -0.02889663 0.22191475 -0.035839807 -0.0263442 -0.05189017 0.033134878 0.0063899397
-0.18621638 -0.09480804 -0.0138954725 0.11604338 -0.1404346 0.14546283 0.07084727 -0.17690668
0.0010604761 0.057542298 -0.11069594 0.050497416 -0.10336212 -0.031658746 -0.18500198 -0.21456362
0.05841808 -0.17805058 0.088915825 -0.14560752 0.01938009 0.11615444 0.09290332 -0.041343793
-0.13165763 -0.0074521652 0.17221865 0.13522345 -0.16046247 0.099933416 -0.113819346 0.13105313
00000000: cbca 683d 78ee 0bbe c4c9 09be 0b55 3abd
00000010: 3aa6 193e 3541 bbbd 9ed9 39be 4741 eb3b
00000020: b1d6 003e 43a0 e8bd 835b e93d bdca c63d
00000030: afa3 b7bd 82ac a03d 8c90 28be 1ced 473d
00000040: ccc6 9f3d 8e95 f33b 1316 813e 4f11 683e
00000050: 8c09 87bd 5058 a33d 4c01 943c 44ac 503c
00000060: d01e 66bc 10bc 9a3d 51fe 3a3e c50e 85bd
00000070: d6cf 28be a07d 653d f1fb 8cbd 9bf2 2cbd
00000080: 7443 08be d81c 10be 4b65 25be 17ef 86bd
00000090: 2cca 153e 79f1 e8bd 5cc1 dfbd abdc db3d
000000a0: 5f4e 173d 4b7a 28be 5bfb e93d 8edc 4ebd
000000b0: 51da 9c3d b73c 89bd 7b3e 47be 5dca d0bb
000000c0: a710 d1bd 11a9 e1bc 0c2a e0bd 8b3e 563d
000000d0: 9d8e 49bd 9815 df3c ea24 1bbd 5108 f33b
000000e0: a3fc e9bd 477f 70bd f6bc 88bd b6ca 6abd
000000f0: 4018 173e 9ca1 4a3d 4c90 4e3e 1325 1d3c
00000100: 82f7 493e 876b a0bd f5c9 993d 0591 983d
00000110: a5ff 6cbd 7a56 b13c cc5a 0b3e e422 213c
00000120: 5ba7 8c3c dda0 003e 39d2 9bbc ab18 7dbd
00000130: 0e28 943d 6e6d f6bd 1ec3 9cbd 178a cebd
00000140: 8f89 a63b 5241 553e a2a7 da3d d336 2bbd
00000150: 1d5f fabd 7bae 3c3e b86f 793e 5a49 303e
00000160: 664e 153e deff 483c 9605 b7bd 0eea 943d
00000170: a11e 363e c231 fb3d b570 d73c 6abe 823d
00000180: a654 dcbd 0054 89be 1f4a aabd e3cf 223e
00000190: 0461 26bd 3212 5a3e 0f9c a1bd b0bc 1dbd
000001a0: 82a0 833d e86f df3d ca96 393c 1fba 653e
000001b0: 641d 90bd 4aa5 b0be fa71 d5bd bbb7 ffbd
000001c0: f83e 12be bf24 80bd 19e9 223e b61a 47bd
000001d0: 5231 6bbc 6146 093e 39fb a2bd 4dc9 0fbe
000001e0: 2995 1fbe 1e41 06bd 2895 313e ba48 d83d
000001f0: d721 91be 1dc9 433e 8f2c 35bd c21b 833c
00000200: cd30 ae3d 6081 97be 6edf 8abd e92c 0b3e
00000210: 9836 943e 5fd2 edbd 1025 493c ac5b e6bc
00000220: bf72 b83d 727e 35be b33f 713d 9194 503e
00000230: 2600 53bc b699 d9bd 725b b7bd ced7 8a3c
00000240: acfe c93d 76fe 26be c16d 8a3d c497 403d
00000250: 154a 8b3c 7792 503d f3a3 d3bd d56f 733e
00000260: dc55 70bc 9d47 1d3d 17e4 8e3d 588b 813e
00000270: 3e21 9dbc 0d54 6bbd d542 83bb 31fc 953b
00000280: ddff 52bd 6d9a 76bd d4e6 24be 951e 263d
00000290: 753a 263e 5c97 90bd 9e0d dcbd c0a2 eb3d
000002a0: 1bab 40bd c6dd 3dbd c273 6fbe ac6b 1cbe
000002b0: 106c 86bd e356 eebd c18e 80bd ed32 cdbd
000002c0: dfa1 6bbc bdf6 1a3e 8096 a9bd ef74 e4bc
000002d0: fe96 04be 75c2 ee3d b7ab 24be acd3 1a3e
000002e0: 280e b13b df27 d1bd 7dc4 f7bc a556 9abd
000002f0: 4a30 423e 3105 b53d 7a9d 6b3d d413 8d3b
00000300: 15fc 963e dcaf 42bd 4e54 8e3a 13e5 18bd
00000310: ef01 0e3e 3715 6b3d cf20 863d 6e60 6f3e
00000320: 4f68 9dbb d5ec c83d 79c7 cc3d 32cb bdbd
00000330: df05 f73c 41e0 753d 5c2c 103d a976 45be
00000340: 37ba 6d3e 925e ce3d 85a5 143e 31b5 0d3e
00000350: 2def 9dbd 4d20 ad3d c478 f13d cac5 a13d
00000360: c12f ae3d a0b8 ecbc 9f3d 633e c3cc 12bd
00000370: cbcf d7bc c98a 54bd 70b8 073d b362 d13b
00000380: 82af 3ebe b82a c2bd d6a9 63bc 27a8 ed3d
00000390: 16ce 0fbe 35f4 143e 6018 913d 0627 35be
000003a0: acff 8a3a 79b1 6b3d 8eb4 e2bd 61d6 4e3d
000003b0: 85af d3bd 9aac 01bd 2971 3dbe 91b6 5bbe
000003c0: cc47 6f3d e452 36be 8019 b63d 231a 15be
000003d0: ffc2 9e3c 61e2 ed3d 1944 be3d 1c58 29bd
000003e0: 42d1 06be 4b31 f4bb 165a 303e 0478 0a3e
000003f0: 4650 24be e4a9 cc3d 1e1a e9bd cb32 063e
