Foosbots_working/results/foosballTraining/Foosbots_working/Foosbots_working-719.pt (torch, 451423 bytes, 36 tensors)

network_body._body_endoder.seq_layers.0.weight f4 [128, 10]
0.058421597 0.23885013 -0.3849239 -0.023597414 -0.36697719 -0.35917148 0.84594667 -0.105746016
-0.15479094 0.11404158 -0.3759145 0.3430503 0.0071377554 0.043347374 0.4094891 0.40541342
0.0278419 0.36076728 -0.75786096 0.11435214 -0.15518299 0.33886674 0.2352305 0.33758596
0.3238018 0.03581205 -0.12927303 0.4885036 0.057216294 0.057520755 0.066766195 0.29146528
0.33454108 -0.30959007 0.4420026 0.2249794 0.17156549 -0.10560662 0.01868001 -0.089894705
-0.08215988 0.0919036 -0.16164404 0.079621814 0.0201913 -0.13533904 -0.35649025 -0.033460118
0.34020472 -0.5298787 -0.27488393 -0.28293264 -0.22196276 0.3582819 0.3620667 -0.21726643
-0.13528411 -0.1841089 0.24209717 -0.55513537 -0.4605975 0.212265 0.15639156 0.3218523
0.040950164 0.18754323 -0.30937588 0.3147963 0.075433955 -0.7532875 -0.080611855 -0.45050722
0.28178558 -0.5284689 0.15796222 -0.44189665 -0.15039852 -0.7342259 -0.057255745 -0.14514995
0.43900123 -0.14333062 -0.09274014 0.32474 0.59711933 0.0506895 0.33080813 -0.013752926
0.044591248 0.15219373 -0.05567323 -0.21943244 -0.19700985 0.15088786 -0.4079163 0.32972363
-0.06260982 -0.0240125 -0.13203566 0.68299407 0.008060442 0.34545782 -0.39520094 -0.057592805
-0.34628043 0.3261992 0.30556193 -0.027229877 0.40315166 -0.13413474 0.020671615 0.2887325
-0.25116223 0.44333556 0.011268882 0.16066898 0.2369198 -0.24267365 0.49544218 -0.5696693
-0.09481059 0.39924273 -0.022310928 0.062295943 -0.21296608 -0.15706661 0.096714504 -0.29688737
-0.089239866 -0.13784839 0.23784135 0.3926239 -0.221741 0.14023751 -0.16045395 -0.21786787
-0.55670565 -0.118965976 0.10582743 0.6048194 -0.20444986 -0.07166465 -0.08574458 -0.5138238
0.5464789 0.14920568 -0.106728315 0.23806104 -0.32800364 0.12493336 0.12935238 0.26410156
0.13682297 0.23297781 -0.031719983 -0.15358591 -0.40326276 0.29804668 0.4448532 0.033069782
-0.3258239 -0.20616233 0.07985761 -0.45687038 -0.05512742 0.25792262 0.14734997 -0.5032576
-0.03136197 -0.36602327 0.031818125 -0.021527274 0.21838221 0.0677428 0.15788738 0.05780098
-0.58261365 -0.12107033 -0.47061193 -0.15179981 0.15954128 0.09391871 0.26401937 0.43210253
0.61440885 0.67345643 0.05211058 -0.2914787 -0.38972914 -0.086791396 0.061773125 -0.58677757
0.17459933 -0.65338135 0.34688863 0.47959813 0.51316893 0.1394427 -0.5255159 -0.01703809
-0.12756857 0.0041246237 -0.32766685 -0.10195495 0.50548685 -0.5756006 0.6098701 -0.33311382
-0.24031162 -0.06918824 -0.35668102 0.23200175 -0.6819995 0.0406979 0.17010337 0.11248644
0.80924433 0.3088728 0.53085333 0.09830839 0.040090803 -0.16300507 -0.1028302 -0.114469215
-0.5397162 0.5545928 0.3252432 0.17513269 -0.31434128 0.035081863 -0.36957783 -0.2778276
-0.00950004 -0.3550257 0.07127637 -0.082977936 0.16048495 0.19827046 -0.13644195 0.63057375
0.0793966 0.3185108 -0.41991317 0.09976611 -0.25335777 -0.34448612 -0.3917839 -0.06799466
-0.28173977 -0.10076327 0.07724673 0.34028724 -0.68950033 -0.13166893 -0.21554215 -0.22853804
00000000: 7c4b 6f3d 2195 743e bf14 c5be 5d4f c1bc
00000010: 6fe4 bbbe 53e5 b7be f68f 583f 5e91 d8bd
00000020: 8481 1ebe a28e e93d de77 c0be 4aa4 af3e
00000030: d5e3 e93b 048d 313d 8ea8 d13e 5992 cf3e
00000040: b214 e43c 7db6 b83e 2d03 42bf 7431 ea3d
00000050: 4ae8 1ebe f17f ad3e 44e0 703e 11d8 ac3e
00000060: 59c9 a53e a8af 123d 2660 04be 251d fa3e
00000070: a25b 6a3d e29a 6b3d b7bc 883d f03a 953e
00000080: f848 ab3e 9782 9ebe 2a4e e23e 0061 663e
00000090: ddae 2f3e 4948 d8bd d206 993c b71a b8bd
000000a0: 7043 a8bd f437 bc3d 0486 25be c310 a33d
000000b0: 3a68 a53c 5196 0abe e485 b6be 7a0d 09bd
000000c0: 502f ae3e 21a6 07bf 96bd 8cbe 8cdc 90be
000000d0: 354a 63be ba70 b73e ce60 b93e 177b 5ebe
000000e0: eb87 0abe 0b87 3cbe 52e8 773e 5a1d 0ebf
000000f0: 6fd3 ebbe ff5b 593e 1c25 203e d3c9 a43e
00000100: 5cbb 273d 550b 403e 8466 9ebe fb2c a13e
00000110: 1e7d 9a3d 73d7 40bf d417 a5bd e2a8 e6be
00000120: 3346 903e bd49 07bf d9c0 213e 4740 e2be
00000130: 1202 1abe 3bf6 3bbf 0085 6abd 30a2 14be
00000140: c5c4 e03e 43c5 12be 8bee bdbd 5244 a63e
00000150: d0dc 183f cb9f 4f3d af5f a93e f453 61bc
00000160: 50a5 363d acd8 1b3e 9d09 64bd e6b2 60be
00000170: f3bc 49be 5982 1a3e 68da d0be 89d1 a83e
00000180: 9439 80bd ddb5 c4bc 5b34 07be b3d8 2e3f
00000190: f20f 043c d9df b03e c757 cabe 6fe6 6bbd
000001a0: ab4b b1be 9503 a73e 9d72 9c3e 3111 dfbc
000001b0: e569 ce3e 9e5a 09be 8557 a93c bfd4 933e
000001c0: 5698 80be e1fc e23e 1ea1 383c 6986 243e
000001d0: 1b9b 723e 717f 78be 99aa fd3e d9d5 11bf
000001e0: 0e2c c2bd 8b69 cc3e 68c5 b6bc 082a 7f3d
000001f0: c813 5abe 12d6 20be 4112 c63d 9f01 98be
00000200: 64c3 b6bd 2128 0dbe af8c 733e 0006 c93e
00000210: 1310 63be 6c9a 0f3e 0a4e 24be c118 5fbe
00000220: 4384 0ebf 6fa4 f3bd 0dbc d83d 72d5 1a3f
00000230: 4e5b 51be ebc4 92bd db9a afbd f589 03bf
00000240: 0be6 0b3f 60c9 183e 6094 dabd 46c6 733e
00000250: 18f0 a7be 10dd ff3d f374 043e 5238 873e
00000260: 521b 0c3e bc91 6e3e d0ec 01bd a045 1dbe
00000270: 7578 cebe 9399 983e ccc3 e33e 2e74 073d
00000280: 64d2 a6be 381c 53be 638c a33d eaea e9be
00000290: 4acd 61bd 6f0e 843e e9e2 163e 7dd5 00bf
000002a0: 6975 00bd 6767 bbbe b953 023d f759 b0bc
000002b0: 969f 5f3e bdbc 8a3d 3bad 213e b8c0 6c3d
000002c0: 2b26 15bf b9f3 f7bd 0cf4 f0be 6971 1bbe
000002d0: ca5e 233e 7458 c03d 8c2d 873e 8b3c dd3e
000002e0: e649 1d3f a467 2c3f e771 553d b23c 95be
000002f0: 948a c7be b0bf b1bd d105 7d3d 0e37 16bf
00000300: 2bca 323e 0044 27bf 639b b13e e38d f53e
00000310: 0a5f 033f 11ca 0e3e 3688 06bf 7793 8bbc
00000320: 56a1 02be da27 873b f3c3 a7be c2cd d0bd
00000330: 9667 013f 905a 13bf 7220 1c3f e58d aabe
00000340: 4014 76be 90b2 8dbd e59e b6be de91 6d3e
00000350: 8597 2ebf d7b2 263d 942f 2e3e 4a5f e63d
00000360: a32a 4f3f 9324 9e3e 01e6 073f e955 c93d
00000370: 4136 243d cdea 26be a498 d2bd d66e eabd
00000380: d72a 0abf cbf9 0d3f 4786 a63e fc55 333e
00000390: 57f1 a0be 00b2 0f3d 4e39 bdbe 6b3f 8ebe
000003a0: 0ea6 1bbc eec5 b5be 58f9 913d 56f0 a9bd
000003b0: 2b56 243e 6907 4b3e 70b7 0bbe 486d 213f
000003c0: af9a a23d d913 a33e dcfe d6be 2d52 cc3d
000003d0: 1cb8 81be 7c60 b0be e697 c8be c940 8bbd
000003e0: 3240 90be f95c cebd 8933 9e3d 213a ae3e
000003f0: 1883 30bf 38d4 06be 15b7 5cbe e005 6abe

network_body._body_endoder.seq_layers.0.bias f4 [128]
0.00865737 -0.016119577 0.0012903932 0.01599845 -0.017229402 0.003582335 -0.00923544 -0.0175915
0.014484647 -0.0072233663 0.006110888 -0.00082558795 -0.012209604 0.0098143285 -0.01023874 0.0057019065
0.0065243943 0.023684174 0.010122647 0.026479783 -0.020363318 -0.0020038048 0.022915917 -0.0049293786
0.013341322 0.011094449 -0.010899408 0.007913918 -0.01770707 -0.008206874 -0.012046563 0.014514179
-0.00982434 0.006953581 -0.012432772 0.0078021283 -0.012251652 -0.010278147 -0.019436939 0.010676919
-0.004868057 -0.009824232 0.022052078 0.0108411545 -0.009843024 -0.017763732 -0.015253356 0.0035316483
0.009965677 -0.025075963 -0.03024361 -0.004813514 0.006458079 -0.0075667026 -0.02150118 0.0064415266
0.0019129423 -0.0054960623 0.011199994 0.013662564 0.016462956 0.02051437 0.01040646 0.00792405
-0.009148842 0.010610371 0.010484856 -0.009843875 -0.0133325 0.012503191 -0.012561471 -0.01266431
-0.008594657 -0.0066368817 -0.000112785994 0.01711413 0.006550134 -0.0010438511 -0.02194442 0.00907801
-0.009240989 0.0061853067 -0.007470142 0.01685199 0.016219024 0.010193436 0.010319452 -0.007243944
0.00498098 -0.014292902 -0.010018116 0.010806216 0.014965147 -0.011648333 -0.0016492503 0.016330678
0.013395367 -0.0061808596 0.014397013 -0.009841306 -0.0051645185 0.0069107437 -0.02800739 -0.005914673
0.014314074 0.019779598 -0.017297933 -0.013819518 0.016767835 0.0016791795 0.02142951 -0.015284607
0.010530831 -0.018280413 0.0033845494 0.013689362 -0.010233708 -0.0001171782 0.019091373 0.018888522
-0.010279926 0.02519191 -0.016470741 0.009140361 0.013797989 0.0060480693 0.009314234 -0.00940649
00000000: a4d7 0d3c 340d 84bc 6922 a93a 2e0f 833c
00000010: ad24 8dbc 9cc5 6a3b 3e50 17bc 0d1c 90bc
00000020: 0351 6d3c fdb1 ecbb d83d c83b 456c 58ba
00000030: ca0a 48bc 47cc 203c 63c0 27bc 0fd7 ba3b
00000040: 96ca d53b 5005 c23c 75d9 253c 21ec d83c
00000050: f9d0 a6bc 4452 03bb 29ba bb3c a086 a1bb
00000060: 8f95 5a3c 7ec5 353c 6e93 32bc 61a9 013c
00000070: 6b0e 91bc 2076 06bc f35e 45bc e1cc 6d3c
00000080: 45f6 20bc ddda e33b d3b2 4bbc ffa8 ff3b
00000090: 27bb 48bc ac65 28bc 373a 9fbc 3eee 2e3c
000000a0: 3984 9fbb d1f5 20bc 8fa6 b43c 199f 313c
000000b0: a344 21bc 3f85 91bc 36e9 79bc 3a73 673b
000000c0: 1447 233c 1b6c cdbc 72c1 f7bc afba 9dbb
000000d0: 4b9e d33b 1af2 f7bb 3e23 b0bc 7113 d33b
000000e0: b1bb fa3a 5018 b4bb 2e80 373c f2d8 5f3c
000000f0: 52dd 863c c10d a83c db7f 2a3c e0d3 013c
00000100: 06e5 15bc 1fd7 2d3c acc8 2b3c 3448 21bc
00000110: 8f70 5abc 2fda 4c3c a1ce 4dbc f77d 4fbc
00000120: 9bd0 0cbc 337a d9bb 8587 ecb8 ef32 8c3c
00000130: 82a2 d63b d5d1 88ba c9c4 b3bc efbb 143c
00000140: 8467 17bc 1dae ca3b 18c8 f4bb 2f0d 8a3c
00000150: c2dd 843c 5f02 273c eb12 293c 9b5e edbb
00000160: 7d37 a33b c72c 6abc 0623 24bc 8e0c 313c
00000170: 6030 753c a6d8 3ebc a82b d8ba eac7 853c
00000180: 3e78 5b3c cf88 cabb 73e1 6b3c 6e3d 21bc
00000190: 1f3b a9bb 8573 e23b c16f e5bc e0cf c1bb
000001a0: 9485 6a3c d308 a23c 65b4 8dbc 426b 62bc
000001b0: b35c 893c ea17 dc3a f18c af3c 4a6c 7abc
000001c0: 8289 2c3c cec0 95bc 51cf 5d3b 5949 603c
000001d0: 48ab 27bc 91bd f5b8 8365 9c3c 1abc 9a3c
000001e0: 226d 28bc 445f ce3c a6ed 86bc 74c1 153c
000001f0: f610 623c e22e c63b bb9a 183c ae1d 1abc

network_body._body_endoder.seq_layers.2.weight f4 [128, 128]
-0.081610434 -0.06850543 0.034097306 0.114738844 0.15326056 0.117292814 -0.17372964 -0.017927762
-0.022425996 0.012051439 -0.0031980367 -0.14399645 -0.070933625 0.02530054 0.20931917 0.10162063
-0.09371407 -0.0041310857 0.09209107 -0.052282304 0.08200549 -0.057079233 0.107428595 -0.015307252
-0.050247427 0.07581802 -0.083077 0.081345156 -0.063351214 0.045795463 -0.050430074 0.013353023
-0.027283378 0.04657765 -0.06870918 0.017649993 -0.09432159 0.07836512 -0.08485149 0.057091407
-0.16363855 0.18090738 -0.08368983 -0.02442193 -0.065719314 0.1355432 -0.054006133 0.07595352
-0.0075758942 0.074405186 -0.0039747423 0.09521005 -0.07175493 0.073200986 0.15367915 0.06670261
-0.2157232 -0.045985285 -0.01148055 -0.10706378 -0.06857468 0.20909078 -0.15821257 0.08699992
-0.013288701 -0.10747626 -0.059209928 -0.07761039 0.0067555774 -0.092709556 0.03224131 0.07649174
-0.016394846 0.22547776 0.083018936 0.06398944 0.06420749 0.07749113 -0.067611404 0.14498916
-0.020923695 -0.039322734 0.13803476 -0.08419346 -0.101536684 -0.097971275 0.08404978 -0.051925555
-0.04064508 0.104599565 0.02030844 0.079244256 0.10116171 -0.06859509 -0.1705169 -0.12497804
-0.03466846 -0.19114651 -0.07729169 -0.029853804 0.12364291 0.0072714374 -0.06399765 0.048861917
-0.08454385 0.043238375 -0.084426716 0.1330703 -0.068157524 0.09767971 0.013794714 0.020011464
-0.06610301 -0.07658027 0.10728332 -0.038324673 0.05418131 0.044866934 0.02303695 0.1669092
0.0062007466 0.07984912 -0.13090372 0.14444368 -0.17093353 0.02087839 0.029978571 -0.094648704
-0.15793835 -0.0046110977 0.021439647 0.055665735 -0.02121531 -0.049449228 0.14063078 0.04646459
-0.0041513117 -0.08814205 -0.03601473 -0.021081772 0.052213334 -0.09479582 0.02506185 -0.12958059
0.02137462 0.07609607 0.13436478 -0.1111284 -0.047941975 -0.11552472 -0.053475384 0.17702927
0.031696483 -0.08017537 -0.009831915 0.003725245 -0.08565267 -0.012230024 0.007495293 0.0017907966
0.031527136 0.055092353 0.011512791 -0.019643683 -0.021302491 0.0062449956 0.069842085 -0.099516466
0.100776404 -0.08195689 -0.08094242 -0.0041220635 0.07306636 0.0034081622 0.06911942 0.0019785226
-0.016399289 -0.031573594 0.010046232 -0.105066575 -0.12170615 -0.043332316 -0.010278576 -0.065610304
-0.0330114 0.100416094 0.022644494 0.05668302 -0.009806591 -0.044772293 -0.015489089 -0.13522437
-0.10186511 0.06627481 -0.08468833 0.08748909 -0.021393823 -0.004530219 -0.069715574 0.22142641
0.13235986 -0.25954175 -0.052439984 0.004191101 0.042732347 -0.06728382 -0.072968125 -0.047342084
0.020417212 0.058760628 -0.047472466 -0.025320657 -0.10781113 0.111103415 -0.10515928 0.13818532
-0.12576278 -0.019779678 -0.12138341 0.053509366 0.079528816 0.041198213 0.1153189 -0.07179776
-0.054498237 -0.07346545 0.013662879 -0.03905617 -0.1226839 0.07721798 -0.056069758 0.13596247
0.056687403 0.07727673 -0.0403791 -0.04088438 0.10788703 0.00907077 0.024273245 -0.012144717
-0.068297364 0.16170658 0.07251538 0.06840908 -0.072104305 0.10580008 0.0606889 -0.0138943195
-0.035789065 -0.04204802 -0.059437536 0.083767705 0.21288471 0.024024896 -0.13449207 0.06101201
00000000: 5f23 a7bd 934c 8cbd 9ea9 0b3d 33fc ea3d
00000010: 56f0 1c3e 3737 f03d 2fe6 31be 3edd 92bc
00000020: b9b6 b7bc 6673 453c 2796 51bb ce73 13be
00000030: a645 91bd 1443 cf3c c457 563e 7a1e d03d
00000040: 2aed bfbd 0f5e 87bb 3e9a bc3d f825 56bd
00000050: 7ff2 a73d eacb 69bd 8603 dc3d 45cb 7abc
00000060: 3fd0 4dbd 7a46 9b3d 4624 aabd 4a98 a63d
00000070: 48be 81bd 0694 3b3d c48f 4ebd a3c6 5a3c
00000080: 6481 dfbc 35c8 3e3d 66b7 8cbd b896 903c
00000090: ae2b c1bd e47d a03d 9ec6 adbd aed8 693d
000000a0: dd90 27be c93f 393e 9365 abbd 8010 c8bc
000000b0: d997 86bd d6cb 0a3e 8935 5dbd 858d 9b3d
000000c0: 353f f8bb bf61 983d 8e3e 82bb 7dfd c23d
000000d0: 40f4 92bd 66ea 953d 115e 1d3e 619b 883d
000000e0: 8be6 5cbe 115b 3cbd eb18 3cbc 4144 dbbd
000000f0: e270 8cbd e51b 563e 7a02 22be 042d b23d
00000100: dab8 59bc 831c dcbd 1c86 72bd 32f2 9ebd
00000110: e45d dd3b 82de bdbd 770f 043d b4a7 9c3d
00000120: 7c4e 86bc a4e3 663e d505 aa3d e50c 833d
00000130: 377f 833d abb3 9e3d d977 8abd 0a78 143e
00000140: 2b68 abbc e010 21bd fc58 0d3e 9f6d acbd
00000150: 77f2 cfbd 2aa5 c8bd 4b22 ac3d e4af 54bd
00000160: 757b 26bd 4c38 d63d e35d a63c d04a a23d
00000170: df2d cf3d 957b 8cbd fb9b 2ebe 7df4 ffbd
00000180: 8400 0ebd e9bb 43be 1b4b 9ebd f78f f4bc
00000190: 7e38 fd3d 3d45 ee3b 3311 83bd 6f23 483d
000001a0: 5325 adbd b91a 313d eae7 acbd 9543 083e
000001b0: 2c96 8bbd 4d0c c83d 3903 623c 15ef a33c
000001c0: 0461 87bd 1ed6 9cbd 5bb7 db3d 55fa 1cbd
000001d0: 39ed 5d3d 64c6 373d fcb7 bc3c 3fea 2a3e
000001e0: a22f cb3b ef87 a33d a00b 06be 0be9 133e
000001f0: 3309 2fbe 2809 ab3c 9f95 f53c 2ed7 c1bd
00000200: 97ba 21be b118 97bb 33a2 af3c c101 643d
00000210: bbcb adbc 468b 4abd 8401 103e a751 3e3d
00000220: ba07 88bb d283 b4bd 2e84 13bd aeb3 acbc
00000230: a6dd 553d 5024 c2bd 824e cd3c c6b0 04be
00000240: d419 af3c 42d8 9b3d ec96 093e 4997 e3bd
00000250: ce5e 44bd 3998 ecbd 0109 5bbd 2947 353e
00000260: 2cd4 013d fc32 a4bd 0a16 21bc 3d23 743b
00000270: ab6a afbd 7060 48bc 139b f53b 2ab9 ea3a
00000280: 9922 013d 85a8 613d 25a0 3c3c caeb a0bc
00000290: 9082 aebc d2a2 cc3b 5e09 8f3d 4acf cbbd
000002a0: dc63 ce3d 04d9 a7bd 24c5 a5bd 6012 87bb
000002b0: d1a3 953d 795b 5f3b 7c8e 8d3d 1aaa 013b
000002c0: cd57 86bc 5053 01bd f398 243c 252d d7bd
000002d0: 1341 f9bd 3a7d 31bd 7967 28bc b25e 86bd
000002e0: f636 07bd f4a6 cd3d f280 b93c 742c 683d
000002f0: d3ab 20bc 2763 37bd f3c5 7dbc 4278 0abe
00000300: a89e d0bd 16bb 873d 1371 adbd 7b2d b33d
00000310: 1942 afbc 3b72 94bb 0ac7 8ebd 9bbd 623e
00000320: 5889 073e a8e2 84be 4fcb 56bd 8155 893b
00000330: 1d08 2f3d 19cc 89bd 5070 95bd c6e9 41bd
00000340: ff41 a73c fcae 703d 7d72 42bd 446d cfbc
00000350: 15cc dcbd 308a e33d c05d d7bd 7480 0d3e
00000360: f5c7 00be fe08 a2bc de97 f8bd a32c 5b3d
00000370: 01e0 a23d 75bf 283d 512c ec3d b40a 93bd
00000380: 8b39 5fbd 0e75 96bd 45da 5f3c 5df9 1fbd
00000390: b241 fbbd 7624 9e3d 67a9 65bd bf39 0b3e
000003a0: 0d31 683d 4343 9e3d 8e64 25bd 6176 27bd
000003b0: e0f3 dc3d 919d 143c afd8 c63c a3fa 46bc
000003c0: 7ddf 8bbd 6996 253e f282 943d 0f1a 8c3d
000003d0: 6cab 93bd b6ad d83d ed94 783d 00a5 63bc
000003e0: 8e97 12bd 8b3a 2cbd c674 73bd 678e ab3d
000003f0: 73fe 593e dccf c43c 4ab8 09be bbe7 793d

network_body._body_endoder.seq_layers.2.bias f4 [128]
0.0018762958 -0.0024981557 0.008886037 0.012863773 0.00975043 -0.0012168939 0.00246932 0.0021126198
-0.0032186203 -0.016485186 -0.014134423 -0.00839067 -0.003351601 0.0032164867 0.00917074 -0.01218009
-0.012811582 -0.0035320667 -0.011061705 0.007924246 0.016375981 -0.016863875 0.00987592 0.010321979
0.005534375 -0.021132316 -0.0050733727 0.0042574205 -0.012145465 0.011176312 0.0046174848 0.0053668222
0.002180138 -0.0051673953 0.010488706 0.0028082074 -0.01247475 0.0069918176 -0.011061569 0.00038220096
-0.016804596 -0.003756795 -0.0030250624 -0.008242813 -0.009107664 -0.00040251485 -0.012410151 0.009883398
-0.010365971 0.0070461673 -0.010083411 0.016214484 0.009875003 -0.005049387 -0.0016408615 0.0024932928
0.007700683 -0.007498615 -0.0019592731 0.005921563 -0.009368985 -0.0018185342 0.0078568505 0.008195005
0.0035149872 -0.006464594 -0.016476447 0.0054848543 -0.008380638 -0.004818449 -0.0022560016 0.0029092901
0.003955171 -0.0025743484 0.0074232863 -0.013696869 -0.0065215183 -0.0052091475 -0.007838792 -0.006183337
-0.0012343613 -0.0021103001 0.0075372458 -0.007098625 0.009137732 -0.008098024 0.011366504 -0.010056717
-0.012725573 -0.0072058984 -0.0046870904 -0.012884884 0.010961338 0.0074137757 -0.02900345 0.007919238
-0.007630672 -0.009398401 0.006804166 0.0017253624 -0.008455974 0.008028086 -0.015374944 0.0032838963
0.0049672797 -0.0013300839 -0.0071320697 -0.0117458375 0.009663593 0.008620104 0.008818776 -0.021279214
0.0043959916 -0.010014133 0.008118274 -0.0060970294 -0.002630527 0.00743812 -0.014987033 -0.009087964
0.004900893 0.0099753905 -0.0010746843 -0.022100661 -0.0032168352 0.003461683 -0.00028037778 -0.0058332756
00000000: 0aee f53a 19b8 23bb be96 113c 93c2 523c
00000010: 44c0 1f3c 2f80 9fba 51d4 213b e173 0a3b
00000020: 7def 52bb f10b 87bc 1194 67bc 0579 09bc
00000030: 89a6 5bbb b1cb 523b df40 163c 008f 47bc
00000040: abe7 51bc 3f7a 67bb 273c 35bc b2d4 013c
00000050: ec26 863c 1c26 8abc 9cce 213c 851d 293c
00000060: b459 b53b ae1d adbc 893e a6bb d581 8b3b
00000070: c6fd 46bc da1c 373c 454e 973b 2bdc af3b
00000080: a5e0 0e3b 4153 a9bb d2d8 2b3c e709 383b
00000090: e562 4cbc 9e1b e53b 953b 35bc 2562 c839
000000a0: cba9 89bc 9034 76bb 2040 46bb dd0c 07bc
000000b0: 5038 15bc a108 d3b9 f253 4bbc faed 213c
000000c0: 09d6 29bc 89e3 e63b e434 25bc 3dd4 843c
000000d0: c4ca 213c 5475 a5bb 2d12 d7ba 8366 233b
000000e0: 0356 fc3b f1b6 f5bb 2667 00bb ac09 c23b
000000f0: 5f80 19bc e25b eeba 05ba 003c 5844 063c
00000100: b35b 663b f2d4 d3bb 9df9 86bc 4bba b33b
00000110: f24e 09bc 14e4 9dbb 6dd9 13bb caa9 3e3b
00000120: 619a 813b 66b6 28bb 0a3f f33b d568 60bc
00000130: 76b2 d5bb 7fb1 aabb 476e 00bc 979d cabb
00000140: 4bca a1ba f64c 0abb 00fb f63b 959b e8bb
00000150: 6db6 153c 93ad 04bc 933a 3a3c eec4 24bc
00000160: ec7e 50bc 751f ecbb 2a96 99bb 1f1b 53bc
00000170: 2f97 333c 42ef f23b a598 edbc b1bf 013c
00000180: b70a fabb c0fb 19bc 7bf5 de3b 8e25 e23a
00000190: ed8a 0abc 3c88 033c 30e7 7bbc a336 573b
000001a0: 90c4 a23b 3656 aeba 23b4 e9bb 9d71 40bc
000001b0: 0c54 1e3c 563b 0d3c a17c 103c bf51 aebc
000001c0: 400c 903b 5112 24bc 8202 053c 97c9 c7bb
000001d0: eb64 2cbb 79bb f33b 2c8c 75bc afe5 14bc
000001e0: ac97 a03b d26f 233c 6cdc 8cba 720c b5bc
000001f0: 8ad1 52bb 67dd 623b abff 92b9 1025 bfbb

action_model._continuous_distribution.log_sigma f4 [1, 2]
0.0074820663 -0.0034952487
00000000: 1f2c f53b 8b10 65bb

action_model._continuous_distribution.mu.weight f4 [2, 128]
-0.020846242 0.025223799 -0.007630013 -0.029727569 -0.010246691 0.008793223 0.004772684 -0.017471706
0.0128082195 0.009692095 0.024775855 0.03361826 0.010103248 0.0011827357 -0.016114188 0.02570025
0.024456218 -0.0098416135 0.015080907 -0.04189052 -0.0146647785 0.010630764 -0.035212982 -0.019252611
-0.008086766 0.01260446 0.0011632729 -0.022773504 0.017124057 -0.02149166 -0.03660943 -0.028877534
0.01945866 0.029476704 -0.0075805727 -0.035834514 0.011350854 -0.03063062 0.017811047 -0.014252324
0.014875153 0.02876189 0.025475748 0.0256606 0.014532267 -0.014463897 0.03711232 -0.032211285
0.005807821 -0.07413372 0.017554058 -0.016915824 -0.02862938 -0.0029571443 0.01595509 0.0026790763
-0.03400206 0.031915355 0.010368484 -0.0338597 0.041577883 -0.015996177 -0.041585196 -0.038424112
-0.039812703 0.039709773 0.009782092 -0.0026158297 0.009746337 0.035232402 0.021895632 0.002908738
-0.02687746 0.012641887 -0.055978984 0.023528706 0.025616279 0.033520777 0.010688898 0.04868965
0.013404858 0.009251618 -0.023998527 0.03416055 -0.038905144 0.004946696 -0.012973863 0.012932486
0.010080256 0.0009597935 0.0641426 0.0044836467 -0.02223251 -0.0535405 0.0120800575 -0.04013321
0.036175225 0.018313436 -0.053136814 -0.028822776 0.0023651992 -0.0104759615 0.012864703 -0.0107293725
-0.044020917 0.0140403835 0.03354438 0.012421956 -0.011416607 -0.032643 -0.04316637 0.014201559
0.0052756434 0.026525173 -0.03636012 0.044917975 0.054636147 -0.037475403 0.021213971 0.008959701
-0.031166183 -0.039371423 -0.014039316 0.014875471 0.01122087 0.0074470104 -0.012843159 0.03323246
-0.003789962 0.012676981 0.02254494 0.017693933 -0.0011527074 0.014058037 0.010529678 -0.021123342
-0.0013854406 -0.0008531782 -0.010366296 0.0012986006 0.011611198 0.004096777 0.01641334 -0.013406525
-0.0018050997 -0.03353071 0.0037128835 -0.0066663194 -0.0051870486 0.004811719 0.033764914 0.032163173
0.009510931 -0.0049501136 0.0013031198 -0.0014166126 -0.022268562 -0.0026002147 0.013446098 -0.023118278
0.040742595 0.012219585 0.013265219 -0.03543175 -0.01797513 0.0027626064 0.0016028617 -0.01508743
-0.011115404 0.017226178 0.0049109277 -0.005729821 -0.018955288 -0.025080485 -0.0030983964 0.023666445
-0.016164878 0.016496697 -0.033506677 0.009603489 -0.009084406 -0.014362269 0.014669807 0.0055499305
-0.019897813 -0.0012567809 0.013722597 -0.021900633 -0.039247308 -0.034247715 0.016550515 0.0054795025
-0.023863086 0.018200086 -0.007922186 0.049470555 -0.045670435 0.022452623 0.017836815 0.008735726
-0.024535192 0.016324017 0.031370483 -0.012031167 0.0074308114 -0.017538374 -0.0011886085 -0.004070048
0.010968755 -0.0049761557 -0.011477082 -0.010747854 0.025991067 -0.04328415 0.021166552 -0.034912437
-0.0134384595 -0.01571978 -0.0045080497 -0.0016303139 0.023398666 0.015221427 0.0008982631 0.0019467121
-0.007816441 -0.00025804687 -0.0053864834 -0.032992166 -0.017906347 0.04453249 -0.012395132 0.027333671
-0.019874109 0.0074837725 0.018017355 0.004141664 0.028741395 -0.0057886215 -0.008758215 -0.004263645
0.024328291 -0.005043584 0.019511217 0.012760309 0.032107837 -0.014277832 -0.012953831 -0.026955178
-0.022545986 0.0033275066 -0.018939918 -0.0042759865 -0.014704849 0.022913035 -0.025636654 0.017499343
00000000: bdc5 aabc 24a2 ce3c 3005 fabb 3b87 f3bc
00000010: bde1 27bc 7311 103c 2d64 9c3b d320 8fbc
00000020: 91d9 513c 98cb 1e3c bcf6 ca3c 4db3 093d
00000030: 1888 253c 0606 9b3a e701 84bc 5589 d23c
00000040: 6858 c83c b83e 21bc e915 773c 6595 2bbd
00000050: 8a44 70bc a82c 2e3c 7d3b 10bd a7b7 9dbc
00000060: 5b7e 04bc f082 4e3c f678 983a 808f babc
00000070: c047 8c3c 470f b0bc c5f3 15bd 9490 ecbc
00000080: c567 9f3c 2179 f13c 7466 f8bb 36c7 12bd
00000090: eff8 393c 11ed fabc 79e8 913c 9482 69bc
000000a0: eab6 733c 0e9e eb3c 84b2 d03c 2e36 d23c
000000b0: bf18 6e3c fbf9 6cbc 1703 183d fbef 03bd
000000c0: 894f be3b 6bd3 97bd 87cd 8f3c 0e93 8abc
000000d0: 2988 eabc a6cc 41bb 40b4 823c 7193 2f3b
000000e0: be45 0bbd adb9 023d 93e0 293c 78b0 0abd
000000f0: 924d 2a3d 6a0a 83bc 3d55 2abd 9a62 1dbd
00000100: a512 23bd b7a6 223d 1145 203c 576e 2bbb
00000110: 1aaf 1f3c da4f 103d 785e b33c 87a0 3e3b
00000120: 1e2e dcbc eb1f 4f3c 384a 65bd 46bf c03c
00000130: 3bd9 d13c 154d 093d 7d20 2f3c cc6e 473d
00000140: 0da0 5b3c 1994 173c 8f98 c4bc efeb 0b3d
00000150: 005b 1fbd e517 a23b 5390 54bc c7e2 533c
00000160: a827 253c a79a 7b3a 325d 833d 8eeb 923b
00000170: f420 b6bc 494d 5bbd 6feb 453c b962 24bd
00000180: 792c 143d 0f06 963c fda5 59bd be1d ecbc
00000190: 7501 1b3b 5ea3 2bbc 7ac6 523c 40ca 2fbc
000001a0: 474f 34bd a309 663c d565 093d 7685 4b3c
000001b0: b80c 3bbc abb4 05bd 38cf 30bd a8ad 683c
000001c0: 4edf ac3b 524b d93c 59ee 14bd e9fb 373d
000001d0: 27ca 5f3d cf7f 19bd ecc8 ad3c b6cb 123c
000001e0: 3950 ffbc ee43 21bd 2905 66bc 3fb8 733c
000001f0: bdd7 373c 0d06 f43b 1d6c 52bc c31e 083d
00000200: 0361 78bb 1db3 4f3c 2ab0 b83c def2 903c
00000210: 7116 97ba ae53 663c ac84 2c3c dc0a adbc
00000220: ac97 b5ba d2a7 5fba 66d7 29bc ce35 aa3a
00000230: e53c 3e3c 423e 863b 4575 863c 0ba7 5bbc
00000240: 1899 ecba 7f57 09bd d953 733b 2471 dabb
00000250: 1ef8 a9bb a0ab 9d3b 144d 0a3d 88bd 033d
00000260: bcd3 1b3c 9034 a2bb 72cd aa3a a2ad b9ba
00000270: 8f6c b6bc 5d68 2abb 064d 5c3c 8b62 bdbc
00000280: b5e1 263d a734 483c 5c56 593c e220 11bd
00000290: 9440 93bc d80c 353b 1d17 d23a 4531 77bc
000002a0: 621d 36bc ea1d 8d3c d9eb a03b 39c1 bbbb
000002b0: 1f48 9bbc 9775 cdbc 770e 4bbb 22e0 c13c
000002c0: 356c 84bc 1524 873c 4c3e 09bd f457 1d3c
000002d0: c3d6 14bc b94f 6bbc a159 703c 31dc b53b
000002e0: bd00 a3bc 92ba a4ba bed4 603c f568 b3bc
000002f0: c9c1 20bd 5547 0cbd f294 873c 668d b33b
00000300: 857c c3bc 5918 953c 0ecc 01bc a3a1 4a3d
00000310: ec10 3bbd 90ee b73c 831e 923c 4a20 0f3c
00000320: 07fe c8bc f2b9 853c 567e 003d 5f1e 45bc
00000330: 2a7e f33b a3ac 8fbc 15cb 9bba 0a5e 85bb
00000340: 4bb6 333c 050f a3bb 5f0a 3cbc c417 30bc
00000350: 38eb d43c b94a 31bd 7a65 ad3c 5800 0fbd
00000360: fc2c 5cbc c5c6 80bc 43b8 93bb 42b0 d5ba
00000370: 8fae bf3c 4b63 793c 6b79 6b3a d228 ff3a
00000380: 8810 00bc 774a 87b9 1981 b0bb cb22 07bd
00000390: 55b0 92bc b367 363d f414 4bbc ddea df3c
000003a0: 07cf a2bc 6f3a f53b 2299 933c ccb6 873b
000003b0: 1373 eb3c 7aae bdbb 9e7e 0fbc 0cb6 8bbb
000003c0: 204c c73c a644 a5bb fdd5 9f3c 9d10 513c
000003d0: 8283 033d 91ed 69bc 4e3c 54bc 1bd1 dcbc
000003e0: 5cb2 b8bc 4c12 5a3b e327 9bbc 931d 8cbb
000003f0: 9bec 70bc 1eb4 bb3c f603 d2bc c85a 8f3c

action_model._continuous_distribution.mu.bias f4 [2]
-0.004317892 0.0058987266
00000000: 1a7d 8dbb 1b4a c13b

exp_avg f4 [128, 10]
0.00013700224 -1.78639e-06 -2.8240133e-06 2.5747917e-07 -6.468951e-06 3.6126763e-05 -3.7049102e-07 -5.1961847e-06
-2.4568917e-06 1.1296054e-08 -9.6875365e-06 1.1271547e-06 1.7818614e-06 -1.5688543e-07 4.0715313e-06 -2.1698614e-05
2.5147475e-07 3.2786254e-06 1.5502195e-06 -7.1274466e-09 -8.0811515e-05 1.9824598e-07 3.1339692e-07 -2.2661716e-08
7.26336e-07 -4.9641067e-06 2.801719e-08 5.7665034e-07 2.726553e-07 -1.2535881e-09 3.7359166e-06 -8.012181e-07
-1.2666052e-06 1.2497836e-07 -2.8954403e-06 1.5277168e-05 -1.7752124e-07 -2.330553e-06 -1.1019462e-06 5.06642e-09
2.8502123e-05 4.8699076e-07 7.698588e-07 -7.417421e-08 1.7558741e-06 -8.84287e-06 1.14869536e-07 1.4165404e-06
6.697772e-07 -3.0794352e-09 6.6201595e-05 -1.1715705e-06 -1.8520761e-06 1.685495e-07 -4.238253e-06 2.3191546e-05
-2.4949335e-07 -3.4078203e-06 -1.6113062e-06 7.4083055e-09 -7.243166e-05 2.073266e-06 3.2775204e-06 -2.7548722e-07
7.4947893e-06 -4.0709543e-05 4.5262775e-07 6.0306393e-06 2.8514428e-06 -1.3110081e-08 -3.3392615e-05 1.467249e-06
2.3194982e-06 -2.0834982e-07 5.3036315e-06 -2.8426926e-05 3.2095713e-07 4.2678785e-06 2.0179634e-06 -9.277995e-09
4.9086793e-05 -1.3079592e-06 -2.0676862e-06 2.0485602e-07 -4.731749e-06 2.5462587e-05 -2.793816e-07 -3.8045425e-06
-1.7988871e-06 8.270745e-09 6.755823e-05 -1.11998425e-07 -1.770527e-07 1.3918327e-08 -4.1120092e-07 2.6921903e-06
-1.0965917e-08 -3.2577688e-07 -1.5403589e-07 7.082111e-10 2.9092227e-05 -2.0583713e-07 -3.2539745e-07 5.4622635e-09
-7.4552725e-07 4.107299e-06 -4.2574808e-08 -5.987313e-07 -2.8309574e-07 1.3015898e-09 -3.9372513e-05 7.0533525e-07
1.1150288e-06 -1.081568e-07 2.5505647e-06 -1.3715847e-05 1.5015702e-07 2.051653e-06 9.700748e-07 -4.460114e-09
0.00014013954 3.178604e-09 5.0248916e-09 -2.4699283e-08 -3.6735623e-09 2.1032067e-06 2.6117181e-08 9.245633e-09
4.371603e-09 -2.0098995e-11 4.9121714e-05 -2.8736674e-06 -4.542834e-06 4.2313388e-07 -1.0383647e-05 5.4915225e-05
-6.3282397e-07 -8.358817e-06 -3.9522665e-06 1.8171342e-08 6.9390066e-05 1.7379862e-06 2.7474935e-06 -2.4963515e-07
6.267205e-06 -3.1967666e-05 4.0426747e-07 5.0553886e-06 2.3903197e-06 -1.0989975e-08 0.00010684049 -1.5849112e-06
-2.505505e-06 2.2816447e-07 -5.737127e-06 3.1641823e-05 -3.3217157e-07 -4.6101295e-06 -2.1797894e-06 1.00220205e-08
-0.00012958022 -1.2143339e-07 -1.9196777e-07 5.253884e-08 -4.237699e-07 2.8611773e-08 -4.9811163e-08 -3.5322054e-07
-1.67012e-07 7.678715e-10 2.7131246e-05 -1.2923399e-06 -2.042995e-06 2.0356421e-07 -4.672478e-06 2.5149753e-05
-2.8211994e-07 -3.75911e-06 -1.777405e-06 8.171978e-09 6.15523e-05 -2.0018977e-06 -3.1646982e-06 2.9244103e-07
-7.236847e-06 3.861902e-05 -4.3510144e-07 -5.823044e-06 -2.7532872e-06 1.26587905e-08 4.488688e-06 -1.2612691e-06
-1.9938757e-06 1.9597957e-07 -4.5570014e-06 2.392476e-05 -2.8027762e-07 -3.668732e-06 -1.7346722e-06 7.975506e-09
2.3829489e-05 7.382134e-07 1.1670037e-06 -1.09509195e-07 2.6642656e-06 -1.3681062e-05 1.6880293e-07 2.1472872e-06
1.0152934e-06 -4.668016e-09 -0.00016075236 1.5805145e-06 2.4985547e-06 -1.8309716e-07 5.724979e-06 -3.2707016e-05
3.2665235e-07 4.597341e-06 2.173743e-06 -9.994221e-09 4.5479686e-05 -1.0293861e-06 -1.6273042e-06 1.3416263e-07
-3.7229913e-06 2.034141e-05 -2.2224299e-07 -2.9942394e-06 -1.4157545e-06 6.509216e-09 -9.125293e-05 2.0830012e-06
3.292911e-06 -2.73555e-07 7.531921e-06 -4.112446e-05 4.5082672e-07 6.058955e-06 2.8648324e-06 -1.3171641e-08
4.8562015e-06 -2.1426304e-06 -3.3871752e-06 3.2996942e-07 -7.739496e-06 4.0595776e-05 -4.7658378e-07 -6.232404e-06
-2.9468422e-06 1.3548698e-08 7.820558e-05 -2.536186e-06 -4.0093273e-06 3.7830105e-07 -9.169883e-06 4.923822e-05
00000000: 42a8 0f39 e5c3 efb5 2e84 3db6 ab3b 8a34
00000010: de0f d9b6 d186 1738 e6e7 c6b4 e35a aeb6
00000020: 14e1 24b6 9210 4232 a787 22b7 be48 9735
00000030: 4b28 ef35 5774 28b4 309e 8836 6b05 b6b7
00000040: 6d02 8734 5b06 5c36 2311 d035 afe5 f4b1
00000050: 5a79 a9b8 71dd 5434 f240 a834 a4a9 c2b2
00000060: 6ef9 4235 5a91 a6b6 74aa f032 1ccb 1a35
00000070: 7661 9234 b64a acb0 8fb6 7a36 4a13 57b5
00000080: 3900 aab5 ca31 0634 494f 42b6 7827 8037
00000090: ab9c 3eb4 9866 1cb6 95e6 93b5 b414 ae31
000000a0: d817 ef37 c0b9 0235 4ba8 4e35 b449 9fb3
000000b0: 60ab eb35 d65b 14b7 32ae f633 f51f be35
000000c0: bdca 3335 ff9d 53b1 b6d5 8a38 db3e 9db5
000000d0: da94 f8b5 89fa 3434 5136 8eb6 778b c237
000000e0: 1bf2 85b4 e8b1 64b6 0f44 d8b5 258c fe31
000000f0: 74e6 97b8 7022 0b36 5ff3 5b36 ade6 93b4
00000100: c07b fb36 8abf 2ab8 af00 f334 cc5a ca36
00000110: 6a5b 3f36 bf3a 61b2 0c0f 0cb8 4bee c435
00000120: ada8 1b36 c3b6 5fb4 d9f5 b136 5c76 eeb7
00000130: 0350 ac34 cc34 8f36 596c 0736 0e65 1fb2
00000140: 8be2 4d38 238d afb5 94c2 0ab6 65f6 5b34
00000150: 6ac5 9eb6 7d98 d537 eafd 95b4 8b51 7fb6
00000160: 4a71 f1b5 1f17 0e32 0cae 8d38 c983 f0b3
00000170: e01b 3eb4 731d 6f32 06c3 dcb4 7aab 3436
00000180: 9d64 3cb2 6fe6 aeb4 1065 25b4 edab 4230
00000190: 150b f437 1404 5db4 49b2 aeb4 94ae bb31
000001a0: 3e20 48b5 6ed1 8936 7fdb 36b3 80b8 20b5
000001b0: 62fc 97b4 9fe3 b230 ea23 25b8 4556 3d35
000001c0: 19a8 9535 d443 e8b3 5e2a 2b36 1d1d 66b7
000001d0: d93a 2134 21af 0936 8433 8235 943f 99b1
000001e0: 6cf2 1239 986e 5a31 6aa7 ac31 4c2a d4b2
000001f0: fe71 7cb1 d124 0d36 4a58 e032 b9d6 1e32
00000200: 0735 9631 eaca b0ad 0a08 4e38 3bd9 40b6
00000210: a66e 98b6 142b e334 6d35 2eb7 c654 6638
00000220: 55df 29b5 d83c 0cb7 b69d 84b6 3417 9c32
00000230: 8285 9138 c044 e935 9461 3836 9805 86b4
00000240: e24a d236 0515 06b8 190a d934 75a1 a936
00000250: 6169 2036 6cce 3cb2 8d0f e038 22b9 d4b5
00000260: 4024 28b6 5ffd 7434 8c81 c0b6 26b7 0438
00000270: 5055 b2b4 b6b0 9ab6 7f48 12b6 502d 2c32
00000280: eddf 07b9 5b63 02b4 b31f 4eb4 11a7 6133
00000290: 7e82 e3b4 f4c5 f532 f4ef 55b3 43a2 bdb4
000002a0: e953 33b4 2712 5330 e897 e337 7674 adb5
000002b0: 631a 09b6 4e93 5a34 48c8 9cb6 aff8 d237
000002c0: 4576 97b4 0545 7cb6 2c8f eeb5 bd64 0c32
000002d0: a415 8138 5758 06b6 1a61 54b6 ca00 9d34
000002e0: 0bd4 f2b6 dbfa 2138 e397 e9b4 9163 c3b6
000002f0: 1dc5 38b6 f379 5932 899d 9636 e048 a9b5
00000300: 86ce 05b6 746e 5234 58e8 98b6 08b2 c837
00000310: 1079 96b4 5634 76b6 e2d2 e8b5 a504 0932
00000320: 70e5 c737 a329 4635 f1a1 9c35 512b ebb3
00000330: bccb 3236 b787 65b7 3240 3534 1d1a 1036
00000340: 3745 8835 4e64 a0b1 a28f 28b9 1122 d435
00000350: d8ac 2736 5d99 44b4 3219 c036 e42e 09b8
00000360: c25e af34 dc42 9a36 9fe0 1136 0cb3 2bb2
00000370: 71c1 3e38 7029 8ab5 bf69 dab5 580e 1034
00000380: 81d8 79b6 d8a2 aa37 b0a1 6eb4 a4f0 48b6
00000390: f404 beb5 aba7 df31 0b5f bfb8 b0c9 0b36
000003a0: c8fb 5c36 1ddd 92b4 b5ba fc36 0d7d 2cb8
000003b0: 2709 f234 074e cb36 7241 4036 7d49 62b2
000003c0: 74f2 a236 1cca 0fb6 3a4f 63b6 a726 b134
000003d0: e2d8 01b7 6245 2a38 2ddd ffb4 f11f d1b6
000003e0: 5dc2 45b6 cec3 6832 4d02 a438 5833 2ab6
000003f0: dc87 86b6 4d19 cb34 59d8 19b7 2385 4e38

exp_avg_sq f4 [128, 10]
6.740499e-08 1.4904448e-12 3.724746e-12 1.4029483e-13 1.9997677e-11 1.9214104e-10 1.2015054e-13 1.2610506e-11
2.8192602e-12 5.9595954e-17 3.8701646e-08 9.342933e-13 2.3348777e-12 6.405246e-14 1.0870997e-11 1.4619536e-10
7.81784e-14 7.904957e-12 1.7672685e-12 3.735804e-17 5.505446e-08 8.176372e-13 2.0433455e-12 9.162625e-14
8.752977e-12 5.6703576e-11 1.1321129e-13 6.917946e-12 1.5466076e-12 3.2693506e-17 4.0251464e-08 6.6380777e-13
1.658911e-12 8.34774e-14 7.661722e-12 6.0970055e-11 7.1302454e-14 5.6164097e-12 1.2556293e-12 2.654258e-17
2.9696196e-08 4.862428e-13 1.2151617e-12 4.543423e-14 5.854231e-12 4.7174157e-11 4.578257e-14 4.1140502e-12
9.197555e-13 1.9442584e-17 5.528566e-08 1.0305991e-12 2.5755528e-12 1.0076188e-13 1.3872766e-11 8.3679993e-11
8.7807684e-14 8.719792e-12 1.949436e-12 4.1208834e-17 9.845741e-08 2.3891147e-12 5.970599e-12 1.8226417e-13
2.8737146e-11 3.5480746e-10 1.8334204e-13 2.0214063e-11 4.5191433e-12 9.552957e-17 4.2722057e-08 1.1071308e-12
2.7668124e-12 7.699527e-14 1.3205717e-11 1.7862528e-10 7.459487e-14 9.367319e-12 2.094201e-12 4.4268996e-17
2.8002434e-08 7.754947e-13 1.938026e-12 7.317383e-14 9.369813e-12 1.1335715e-10 6.161518e-14 6.561382e-12
1.466892e-12 3.1008424e-17 8.1450004e-08 1.1593188e-12 2.8972335e-12 1.2532203e-13 1.8523216e-11 6.7575244e-11
1.2827363e-13 9.808884e-12 2.1929169e-12 4.6355774e-17 1.039809e-08 1.4138479e-13 3.533326e-13 2.2845207e-14
1.5402904e-12 6.2189216e-12 2.7166691e-14 1.1962423e-12 2.6743736e-13 5.6533167e-18 9.7969064e-08 1.2090695e-12
3.0215682e-12 1.4281806e-13 1.771543e-11 3.6700396e-11 1.1759712e-13 1.0229819e-11 2.2870243e-12 4.834512e-17
1.09383144e-07 1.884208e-12 4.7087933e-12 1.6170863e-13 2.338547e-11 1.6897451e-10 2.4393267e-13 1.5942088e-11
3.5640835e-12 7.534069e-17 3.6671838e-07 6.2187187e-12 1.5541105e-11 4.6801376e-13 7.666033e-11 6.307335e-10
4.297881e-13 5.2615953e-11 1.1763054e-11 2.4865767e-16 3.01671e-07 5.449145e-12 1.3617873e-11 4.0433572e-13
6.298787e-11 6.0077043e-10 5.3746856e-13 4.6104686e-11 1.0307364e-11 2.1788595e-16 6.8086486e-08 1.3502732e-12
3.3744457e-12 1.2734662e-13 1.8660481e-11 1.4699818e-10 1.058732e-13 1.1424524e-11 2.5541177e-12 5.399114e-17
1.3746812e-07 2.079766e-12 5.197511e-12 1.9658656e-13 2.2734448e-11 1.4298146e-10 2.7054563e-13 1.759669e-11
3.933995e-12 8.3160146e-17 2.9629717e-08 7.583199e-13 1.8951056e-12 6.325098e-14 8.894701e-12 1.2591495e-10
5.79038e-14 6.4160673e-12 1.434405e-12 3.032169e-17 1.17591455e-07 2.425627e-12 6.0618476e-12 1.85324e-13
3.0662993e-11 2.844276e-10 1.5926735e-13 2.052298e-11 4.5882113e-12 9.698956e-17 4.850834e-08 9.956046e-13
2.4881e-12 7.198886e-14 1.1882188e-11 1.3399794e-10 7.2688254e-14 8.423711e-12 1.883242e-12 3.98096e-17
3.5080745e-08 7.3478593e-13 1.8362924e-12 6.320336e-14 8.527606e-12 9.0000396e-11 6.952321e-14 6.2169506e-12
1.3898892e-12 2.938067e-17 4.3459877e-08 1.0814737e-12 2.7026938e-12 1.0598249e-13 1.43219984e-11 1.3937221e-10
1.1514996e-13 9.150243e-12 2.0456692e-12 4.3243093e-17 1.03593845e-08 4.0790475e-13 1.0193886e-12 3.2498936e-14
4.9827616e-12 8.255902e-11 2.8080675e-14 3.4512415e-12 7.71575e-13 1.6310213e-17 1.6951898e-07 3.1649735e-12
7.909532e-12 3.071271e-13 3.8044054e-11 3.3345776e-10 2.753061e-13 2.6778512e-11 5.986725e-12 1.2655253e-16
2.3763097e-07 3.93029e-12 9.822124e-12 2.928458e-13 4.8004354e-11 4.16496e-10 2.9713162e-13 3.3253778e-11
7.434364e-12 1.5715402e-16 1.7000119e-07 3.4847852e-12 8.708775e-12 2.697305e-13 4.3495076e-11 4.4259033e-10
00000000: 49c0 9033 efc2 d12b 880d 832c 3bf5 1d2a
00000010: c4e6 af2d e542 532f 0947 072a acd8 5d2d
00000020: 4763 462c 3e6b 8924 e938 2633 777d 832b
00000030: 6b4d 242c bb3b 9029 9e3e 3f2d 56be 202f
00000040: c70a b029 c310 0b2d 8fb8 f82b 9748 2c24
00000050: 0575 6c33 f824 662b a4c9 0f2c f052 ce29
00000060: e7fb 192d 8d62 792e deed fe29 5167 f32c
00000070: 69aa d92b aec5 1624 f4e0 2c33 64d8 3a2b
00000080: 9178 e92b 72f9 bb29 54c9 062d 1713 862e
00000090: 118f a029 1f9c c52c d0b6 b02b e5cf f423
000000a0: a016 ff32 7cdd 082b d004 ab2b 1a9e 4c29
000000b0: 3afa cd2c 6179 4f2e b62f 4e29 12c0 902c
000000c0: af71 812b 8153 b323 3a73 6d33 3f0b 912b
000000d0: 093d 352c 45e5 e229 620d 742d a603 b82e
000000e0: afb9 c529 7466 192d eb2d 092c ce0a 3e24
000000f0: 896f d333 771e 282c 6012 d22c 1236 4d2a
00000100: 4dc6 fc2d b60e c32f bf6c 4e2a 06ce b12d
00000110: d300 9f2c b446 dc24 667d 3733 97d0 9b2b
00000120: 76b2 422c c060 ad29 4351 682d 8c66 442f
00000130: 04f9 a729 a8ca 242d c55d 132c 9b27 4c24
00000140: 018a f032 4848 5a2b 5f60 082c d7c5 a429
00000150: e3d5 242d 6746 f92e bcbe 8a29 addb e62c
00000160: 5b72 ce2b 4900 0f24 9de9 ae33 dd28 a32b
00000170: ebdf 4b2c 9e19 0d2a 93ee a22d 7b99 942e
00000180: 5b6c 102a 498f 2c2d 1450 1a2c 3dc7 5524
00000190: 49a3 3232 642f 1f2a 98e8 c62a 76c5 cd28
000001a0: cfc6 d82b 11cf da2c 20b2 f428 2c5b a82b
000001b0: c98d 962a 1192 d022 1063 d233 5229 aa2b
000001c0: bc9f 542c 81cc 202a 9ad3 9b2d f968 212e
000001d0: 1067 042a 02f7 332d 5eef 202c d8f3 5e24
000001e0: 05e6 ea33 e096 042c 0aad a52c 5711 362a
000001f0: 66b3 cd2d 19ca 392f 6752 892a 643a 8c2d
00000200: d2cc 7a2c 4bb9 ad24 64e1 c434 3dcd da2c
00000210: 75b3 882d f2bb 032b ee93 a82e ed5f 2d30
00000220: fef2 f12a 4c68 672e 16f0 4e2d 6557 8f25
00000230: 59f5 a134 89b9 bf2c 7391 6f2d eb9e e32a
00000240: 0583 8a2e 7623 2530 b148 172b 43c5 4a2e
00000250: 3e54 352d 9534 7b25 f136 9233 b808 be2b
00000260: 9c74 6d2c 2a61 0f2a ab23 a42d 4fa0 212f
00000270: bf67 ee29 7bfb 482d e5ba 332c 7dfd 7824
00000280: f39a 1334 bc59 122c 04df b62c 3856 5d2a
00000290: 6df9 c72d b435 1d2f bc4d 982a 39c8 9a2d
000002a0: 476a 8a2c 16c1 bf24 7084 fe32 b572 552b
000002b0: 305b 052c b56d 8e29 2c7a 1c2d e871 0a2f
000002c0: 4563 8229 ccbe e12c e3df c92b 88d5 0b24
000002d0: 9686 fc33 36b0 2a2c 4548 d52c 02a8 502a
000002e0: 76db 062e a05d 9c2f b051 332a a485 b42d
000002f0: ef6e a12c 88a4 df24 7c57 5033 701e 8c2b
00000300: a015 2f2c c11a a229 9e08 512d 1155 132f
00000310: edad a329 0631 142d 7985 042c e196 3724
00000320: b0ab 1633 e8d2 4e2b b437 012c 4252 8e29
00000330: ec04 162d b8e9 c52e 678d 9c29 50bd da2c
00000340: 099c c32b 937e 0724 a4a8 3a33 3234 982b
00000350: 672f 3e2c bfa6 ee29 8cf4 7b2d ca3d 192f
00000360: b7a5 012a 08f9 202d 80f3 0f2c 6f6c 4724
00000370: 0ef9 3132 45a1 e52a 5877 8f2b b95c 1229
00000380: ba50 af2c 998c b52e a1ed fc28 0adc 722c
00000390: d72d 592b 676f 9623 0605 3634 18b7 5e2c
000003a0: 5e25 0b2d aee5 ac2a cc51 272e 0252 b72f
000003b0: cafb 9a2a d98b eb2d a0a3 d22c b7e7 1125
000003c0: 8127 7f34 e848 8a2c eaca 2c2d 87db a42a
000003d0: 1920 532e 9af8 e42f 2e45 a72a 6d40 122e
000003e0: 66c9 022d ae2f 3525 9289 3634 4f38 752c
000003f0: d634 192d 43d8 972a 1a4b 3f2e 0d51 f32f

exp_avg f4 [128]
-0.0008068611 0.00050910335 8.9541994e-05 -0.00036188716 0.00021995965 -0.00052916456 0.0009364346 0.0006627139
-0.00059076736 -5.0586477e-05 -9.29707e-05 0.00031857964 1.4356484e-06 -0.001297953 0.0007849982 -0.00071585854
-5.4847987e-05 -0.0005837127 -0.0009041996 -0.0005696788 0.00033342963 0.0007138729 -0.00046494394 0.00094083155
-0.0009677642 -0.0011455222 0.0007673048 -0.00062708627 0.00028145438 0.0005181766 0.0011111553 -0.0005768877
0.0012505074 -0.0013332751 0.00019093357 -5.0340437e-05 0.0006901344 0.00073786214 0.0010878297 -0.001208047
0.0015031833 1.7397071e-05 -0.00059611176 -0.0005923011 0.0013616558 0.00018277622 -3.0387251e-05 -0.0007070684
-0.0009199585 0.00051606906 0.00027295662 -5.475553e-05 -0.00061946467 0.0013393916 0.00033297145 -0.0011562277
-0.00055075664 -0.0004054149 -0.00092988566 -0.00038290294 -0.0007536577 -0.00047431924 -0.0008423878 -3.992056e-06
0.0010152705 -1.5002901e-05 -0.0006389994 0.00026341114 0.000379471 -0.0009614405 -2.5568615e-05 0.00062520284
0.0011830888 -0.00030175457 -0.0005104967 -0.00059267075 -0.00071818655 6.306642e-05 0.0006154482 -0.00068984105
0.0008212727 -0.00024826315 0.00093983766 -0.00074594864 -0.00019025964 -0.0011616028 -0.00011841709 -0.00013288304
5.765326e-05 0.00018360329 0.0011360487 -0.0010648667 -0.00084045855 0.00080091954 2.330898e-05 -0.00081039226
-0.0009362499 0.0008039104 -0.00076320284 -3.9903214e-05 -0.00038374317 -0.00033174743 0.00062923215 0.00084814534
-0.0003643861 -0.0004970899 0.00085664063 0.0005921437 -0.0005131741 -3.7479807e-05 -0.0003698702 0.00023219302
5.7371082e-05 0.0007478468 -0.00032599436 -0.00022238542 0.00088521873 3.591318e-05 -0.0007594932 -0.0006264571
0.00059079024 -0.0005553055 0.00022671348 -0.001297013 -0.0008073457 -0.00066187367 -0.00060650706 0.00088012614
00000000: 8883 53ba 5975 053a 7ec8 bb38 acbb bdb9
00000010: f8a4 6639 a2b7 0aba 107b 753a fab9 2d3a
00000020: badd 1aba d12c 54b8 44f9 c2b8 0907 a739
00000030: 81b0 c035 1320 aaba 56c8 4d3a 74a8 3bba
00000040: 940c 66b8 4c04 19ba cf07 6dba 7f56 15ba
00000050: 2bd0 ae39 3323 3b3a b8c3 f3b9 23a2 763a
00000060: 8eb1 7dba 5925 96ba f424 493a 0c63 24ba
00000070: 2b90 9339 3ed6 073a 2fa4 913a 473a 17ba
00000080: 11e8 a33a 4ac1 aeba 5735 4839 a224 53b8
00000090: 23ea 343a 176d 413a 8295 8e3a 5557 9eba
000000a0: 7606 c53a edef 9137 6244 1cba a744 1bba
000000b0: 9679 b23a 9ea7 3f39 20e8 feb7 8f5a 39ba
000000c0: 5f29 71ba cf48 073a 9e1b 8f39 4da9 65b8
000000d0: 9263 22ba 868e af3a ac92 ae39 908c 97ba
000000e0: a760 10ba de8d d4b9 92c3 73ba 5dc0 c8b9
000000f0: 1d91 45ba 0dae f8b9 b0d3 5cba 80f3 85b6
00000100: d312 853a f8b4 7bb7 8682 27ba 721a 8a39
00000110: bcf3 c639 2e09 7cba 2f7c d6b7 a7e4 233a
00000120: df11 9b3a d034 9eb9 dbd2 05ba 765d 1bba
00000130: af44 3cba 8742 8438 0856 213a 73d6 34ba
00000140: ae4a 573a 5129 82b9 705f 763a c48b 43ba
00000150: 6f80 47b9 ec40 98ba b156 f8b8 8556 0bb9
00000160: b7d0 7138 a285 4039 78e7 943a ff92 8bba
00000170: 3852 5cba cdf4 513a a787 c337 8170 54ba
00000180: ab6e 75ba 84bd 523a ad11 48ba c05d 27b8
00000190: 2331 c9b9 63ee adb9 0ef3 243a 1256 5e3a
000001a0: 130b bfb9 234f 02ba 2e90 603a 173a 1b3a
000001b0: 8886 06ba a333 1db8 23eb c1b9 d778 7339
000001c0: bba1 7038 260b 443a 39ea aab9 2230 69b9
000001d0: 060e 683a 7ca1 1638 ba18 47ba d338 24ba
000001e0: 43df 1a3a ec91 11ba f0b9 6d39 8900 aaba
000001f0: 0ea4 53ba 9781 2dba 00fe 1eba 44b8 663a

exp_avg_sq f4 [128]
3.0406082e-07 1.906022e-07 1.6680367e-07 1.354213e-07 9.919683e-08 2.1024923e-07 4.873957e-07 2.2586221e-07
1.5820622e-07 2.3650897e-07 2.884345e-08 2.4665874e-07 3.8439134e-07 1.2686617e-06 1.1116628e-06 2.7546494e-07
4.2428664e-07 1.5470242e-07 4.9484464e-07 2.031102e-07 1.4990142e-07 2.2062808e-07 8.3215376e-08 6.4567587e-07
8.01806e-07 7.1092023e-07 4.6031755e-07 1.9167099e-07 3.6353805e-07 2.8321722e-07 9.512346e-07 1.6508015e-07
1.146889e-06 1.1654932e-06 2.0406835e-08 1.3347605e-07 2.7079798e-07 3.424029e-07 1.0535128e-06 1.9429492e-06
1.3184947e-06 1.7575455e-07 5.1478276e-07 1.5849241e-07 1.0368062e-06 1.1999985e-07 3.1099933e-07 3.5776927e-07
7.374712e-07 1.5030487e-07 3.4579706e-08 9.5805945e-08 3.2724208e-07 1.1231253e-06 1.4691287e-07 7.037789e-07
2.3641194e-07 1.6822003e-07 2.0175845e-07 1.6218718e-06 1.4808945e-06 1.2698064e-07 9.084934e-07 7.2882514e-08
9.680788e-07 3.7111724e-07 5.220095e-07 5.0531206e-08 2.7120035e-07 1.0872642e-06 5.8071475e-07 1.4988264e-07
7.3234463e-07 2.6291204e-07 2.84128e-07 7.0533446e-07 2.6326003e-07 2.0948036e-08 5.030095e-07 2.642352e-07
5.1190904e-07 3.0650747e-07 3.6675516e-07 2.8414279e-06 2.9029212e-07 9.353916e-07 4.9649316e-08 3.439464e-07
2.0626636e-07 1.5448525e-07 6.506045e-07 1.0139054e-06 2.5161293e-07 5.589365e-07 1.8146972e-07 5.233632e-07
7.182012e-07 1.9411917e-07 6.9413926e-07 7.43798e-07 5.402155e-07 5.374685e-07 2.7731284e-07 3.877797e-07
1.5449016e-06 9.1660587e-07 5.214898e-07 1.5040871e-07 1.3125044e-06 1.0960346e-07 1.6800841e-07 5.206824e-07
4.2588977e-07 3.03674e-07 6.976677e-08 3.3916152e-07 3.37414e-07 2.6604377e-07 5.4317735e-07 6.4244864e-07
1.3422809e-07 1.377082e-07 2.5709676e-07 1.1809728e-06 1.0258889e-06 1.917297e-07 3.1657638e-07 4.3145633e-07
00000000: cd3d a334 55a8 4c34 a51a 3334 5368 1134
00000010: 0906 d533 dec0 6134 94d5 0235 8884 7234
00000020: 65df 2934 17f3 7d34 6bc3 f732 856c 8434
00000030: 585e ce34 e246 aa35 7134 9535 9de3 9334
00000040: 83c9 e334 471c 2634 77d5 0435 8216 5a34
00000050: 97f4 2034 c9e5 6c34 23b4 b233 8252 2d35
00000060: b03b 5735 11d6 3e35 9021 f734 1fce 4d34
00000070: 4a2c c334 140d 9834 5858 7f35 e340 3134
00000080: ceee 9935 0b6e 9c35 1b4b af32 9e51 0f34
00000090: 3162 9134 7fd3 b734 6d66 8d35 9d63 0236
000000a0: 22f7 b035 0bb7 3c34 9a2f 0a35 102e 2a34
000000b0: 6428 8b35 4fd9 0034 6cf7 a634 6f13 c034
000000c0: a3f6 4535 7d63 2134 ca84 1433 e0bd cd33
000000d0: cfaf af34 4bbe 9635 1abf 1d34 51eb 3c35
000000e0: 6bd8 7d34 f89f 3434 f1a2 5834 17af d935
000000f0: 26c3 c635 2c58 0834 31df 7335 9683 9c33
00000100: efee 8135 f73d c734 3820 0c35 a607 5933
00000110: 7e99 9134 1dee 9135 6ae2 1b35 6def 2034
00000120: 5796 4435 5b26 8d34 418a 9834 3756 3d35
00000130: 2f56 8d34 38f1 b332 8d06 0735 36dc 8d34
00000140: 1f6a 0935 118e a434 72e6 c434 5caf 3e36
00000150: 72d9 9b34 9f17 7b35 003e 5533 a2a7 b834
00000160: 117a 5d34 95e0 2534 33a5 2e35 8615 8835
00000170: 6b15 8734 d309 1635 04da 4234 3f7d 0c35
00000180: 69ca 4035 126f 5034 e354 3a35 69a9 4735
00000190: 5403 1135 8e46 1035 96e1 9434 0930 d034
000001a0: 6a5a cf35 ad0c 7635 82fc 0b35 0880 2134
000001b0: 4f29 b035 245f eb33 cd65 3434 06c5 0b35
000001c0: d8a5 e434 a308 a334 b0d2 9533 0116 b634
000001d0: d425 b534 c7d4 8e34 ddce 1135 bc74 2c35
000001e0: 5620 1034 f1dc 1334 1c07 8a34 eb81 9e35
000001f0: 46b1 8935 42de 4d34 edf5 a934 e8a2 e734
