Foosbots_working/results/foosballTraining/Foosbots_working/Foosbots_working-1152.onnx (onnx, 74687 bytes, 7 tensors)

action_model._continuous_distribution.log_sigma f4 [1, 2]
00000000: ce42 6b3c 28db cfbb
0.014359189 -0.006343264

action_model._continuous_distribution.mu.bias f4 [2]
00000000: 6ed6 c839 d322 b33a
0.00038306735 0.0013666995

action_model._continuous_distribution.mu.weight f4 [2, 128]
00000000: 8fab 1d3d f298 27bb a59a 173c 5868 dcbb
00000010: 6e7d d73c 0dd5 8f3b 16e9 ef3c 8a37 a239
00000020: 2e8d c03c 3572 59bb c308 52bd 7c87 bfbc
00000030: 89c5 f63b 1ecc ee3c bc50 e7bc 9378 a538
00000040: 045b 833a 9665 4d3c dd57 17bd 6c99 263d
00000050: 6256 c63c d230 9fbc d0fe 0dbd 7641 37bd
00000060: df51 70bc 026f 043d 8f2a a33c aac0 043b
00000070: ce10 193c c260 0abc 4736 c53c 9c69 ef3c
00000080: 9232 f53c 3f9b f03c 6603 06bc cfe1 183b
00000090: ceef a83b eba6 fe3c 7fdf 963b 4ddd 093d
000000a0: a4ff 0d3d 8014 013d 4539 c03a 8e9f 923b
000000b0: ba09 17bb 55b4 8f3c 986b 71bc add8 a63b
000000c0: 87cb 25bd aed3 24bd c2d1 bf3b bfe2 303d
000000d0: dc3f e6bc fb10 323d f1a8 2dbd 5538 bf3c
000000e0: bfa0 003d 27b4 b5bc 83c9 b8bc 341a 993c
000000f0: 4d73 09bc 1fe8 963a 1942 bc3b 4a8d c1bc
00000100: 3b9e 16bc ef5d 66bc 76af 0d3d 10c2 fcbc
00000110: e348 163c 6501 123d d00b f83c f0a8 9cbc
00000120: 2709 1a3d 7ed8 95bc 131b 7dbc 86ed 9c3c
00000130: e9b9 e4bc b7e3 11bd 76b5 253c e24e ebbb
00000140: 149a 51bc d75f 2dbc 749c 3c3b 0970 8d3c
00000150: 7b72 17bc 615c c6bc ca39 5bbc 57c6 4cbc
00000160: 82f0 b43c aa8f a33c 298b d7bc d823 573d
00000170: cbd8 b2bc c2f9 b4bc abc0 c7bb a503 953a
00000180: f3ff 92bc 4be7 bc3c 9187 75ba 4296 913c
00000190: 429f 1ebc 08d7 09bc 646f 8a3c 1099 ad3c
000001a0: b8f6 8d3c 830e 01bc 486a c1bc 5f8a a83b
000001b0: 710f dabc b73f 043d 76b4 e93b 3141 d33c
000001c0: 3818 ce3c 77f0 873a 8792 f03c 34e4 5cbc
000001d0: 77dc a43c 63c8 663c 5f46 a3bc 5156 86bc
000001e0: c285 c23c c006 b0bc 8702 c5bb 02f9 f83b
000001f0: 0528 9b3c 6c4e 89bc 0b81 2d3c ff2f 053b
00000200: 1baf 59bd 3c0d 183c 8911 d23c b93f 2a3b
00000210: f001 2ebc 8deb fe3c a075 9a3c f75a 103d
00000220: 1d41 d33a 8314 993c c5b5 85bc ad74 e33b
00000230: b937 cd3c 4cf0 4bbc 69a1 e93c 8e13 0a3d
00000240: 1579 f7ba 39ef 94bb 8ca1 deb9 41f4 8ebb
00000250: 5889 dfbb 1b99 2e3d 0135 cf3c 5180 4f3c
00000260: e6a9 04bc 4b1a 1cbd 8914 d63b 28dd 04bd
00000270: ba5a 963c 4f17 ca3b 5457 7cbc 4f0a 90bc
00000280: 059e af3c 1849 49bc 312a 423d 673a b4bc
00000290: f8cf b53b 6160 4bbc dab8 9b3b 7c6c 353b
000002a0: 214a bfbc a4ca 6abc 1aba bdbc 219d 17bc
000002b0: c05f 963c ad10 f9bb f611 973c 8e01 4cbb
000002c0: 3c4d 81bc 5dfd d93c 259a bcbb 4f75 cfbc
000002d0: 6167 8a3c 0c51 2dbd 282e 153c 63e7 55bb
000002e0: d214 5cbc 98e7 873c 5898 ce3c 0eca 99b9
000002f0: 49c4 a5bc aad3 b3bc 6e58 3cbb 24bb e13c
00000300: d85e d73c 878e 89bb a78f 3cbc 762a 793b
00000310: e70d a7bc 151c d2bc b290 fabc 1c51 f03b
00000320: 0286 ddbb d686 fdbb 8fb8 b63c 94f2 38bc
00000330: 375a 313b 65d0 b5ba c823 b53c f3a1 e13c
00000340: 47b1 cabb a4fc 963c c7f4 b2bc dd51 2bbb
00000350: 8e48 bc3b 8035 8b3c a4d1 363c 5c18 49bb
00000360: f561 993c 4fa5 c5bc 90e8 763c 9330 4abc
00000370: a385 563d 0775 cebc a2e3 35bd d97c de3b
00000380: 4994 be3c 3449 573c b4c6 cabc 8313 1ebb
00000390: 37d0 eebb d801 f93c d112 80bc 4e72 72bc
000003a0: 3c87 8a3a ef3a eabc ccce a7bb 49df 87bc
000003b0: 3b02 963b 6dd1 b4bc cbc1 9f3c b17f 223c
000003c0: a730 aebc 55fc 36bc 5c48 c9ba f7c6 ec3b
000003d0: 0340 8fbc f1ad 97bc 8486 693c c6d1 bf3c
000003e0: fed1 26bc 9850 443c 1c45 013d b557 24bb
000003f0: f76e 0bbc 3424 6dbc a32a dfbc ad59 e5bb
0.03849369 -0.002557334 0.009253179 -0.006726306 0.026304927 0.0043894113 0.029285949 0.00030940428
0.02350482 -0.0033179645 -0.051277887 -0.023380034 0.0075308722 0.029150065 -0.02823674 7.890272e-05
0.0010021632 0.012536427 -0.036949027 0.04067366 0.024211112 -0.019432459 -0.034666836 -0.044740163
-0.014667957 0.032332428 0.019917754 0.0020256438 0.009342385 -0.00844592 0.024073733 0.029225163
0.02993134 0.029370902 -0.008179521 0.0023327952 0.00515554 0.031085452 0.0046042795 0.033658314
0.034667626 0.03151369 0.0014665505 0.004474587 -0.002304657 0.017542044 -0.014735125 0.0050917477
-0.040477302 -0.040240936 0.0058538625 0.043184992 -0.028106622 0.043473225 -0.042397443 0.02334229
0.0314033 -0.02218063 -0.022557026 0.018689252 -0.008389306 0.0011513269 0.005745184 -0.023626942
-0.0091929985 -0.014060481 0.03459116 -0.030854255 0.009172651 0.03564586 0.03027907 -0.019123524
0.037606385 -0.018291708 -0.0154483495 0.019156229 -0.02792068 -0.035617556 0.010114064 -0.0071810344
-0.012793083 -0.010581932 0.0028779777 0.017265337 -0.009243603 -0.024213972 -0.013380477 -0.01249846
0.02208734 0.019965965 -0.026311474 0.052524418 -0.02183189 -0.02209175 -0.006095966 0.0011368884
-0.017944312 0.023059508 -0.0009366209 0.017771844 -0.009681525 -0.008413084 0.016898818 0.02119115
0.017329559 -0.007876995 -0.02361025 0.0051434482 -0.026618691 0.032287326 0.0071321083 0.025787922
0.025158033 0.0010371347 0.029366745 -0.013482142 0.020124657 0.014085862 -0.019931016 -0.01639858
0.023745421 -0.021487594 -0.006012264 0.0075980434 0.018939981 -0.016761027 0.010589848 0.0020322797
-0.05314551 0.009280499 0.025643127 0.0025977923 -0.010620579 0.031118179 0.018854916 0.035243
0.0016117428 0.018686539 -0.016322026 0.006941399 0.025050985 -0.012447428 0.02851935 0.033710055
-0.001888069 -0.004545119 -0.000424635 -0.0043626134 -0.0068217926 0.04262648 0.025293829 0.01266487
-0.008097148 -0.038111012 0.0065332097 -0.032437474 0.018353809 0.0061673294 -0.01540168 -0.01758304
0.021437654 -0.012285493 0.047403518 -0.022000505 0.0055484734 -0.012413115 0.0047522606 0.002768307
-0.023350777 -0.01433054 -0.02316003 -0.009253771 0.018356204 -0.007600865 0.018441182 -0.0031128856
-0.015783899 0.02661007 -0.00575568 -0.025324492 0.016894998 -0.04231362 0.009105243 -0.0032639138
-0.013432698 0.016589925 0.025219128 -0.00029332977 -0.020235198 -0.021951515 -0.0028739232 0.027555056
0.026290342 -0.004197899 -0.011508859 0.0038019693 -0.020392371 -0.025648156 -0.030586574 0.0073338877
-0.0067603597 -0.007737021 0.022304801 -0.011288304 0.002706183 -0.001387131 0.022111788 0.027543044
-0.006185684 0.018431015 -0.021845235 -0.0026141324 0.005745954 0.016993284 0.011158381 -0.0030684685
0.018723467 -0.024126677 0.015070096 -0.012340683 0.05237354 -0.025202287 -0.04440654 0.0067897853
0.023264067 0.013140012 -0.024752952 -0.0024120517 -0.0072880047 0.030396387 -0.015633972 -0.01479776
0.0010568867 -0.028592555 -0.0051210877 -0.016585963 0.0045779026 -0.022072518 0.019501587 0.009918139
-0.021263434 -0.011168559 -0.0015356648 0.007225867 -0.017486578 -0.018515559 0.014253262 0.023415457
-0.010181902 0.011982106 0.03156005 -0.0025076692 -0.008510343 -0.0144739635 -0.02724201 -0.0069992156

network_body._body_endoder.seq_layers.0.bias f4 [128]
00000000: b735 1abb 18d5 0a3c 8384 25b9 1785 bfbb
00000010: 9c17 0a3c 0297 13bc 2232 62bb 4231 03bc
00000020: fa4e 3ebc ad77 023c 708f 98bb 4d31 f239
00000030: da1c d73b ede8 e039 4d92 2c3b 2557 afbb
00000040: d7d6 cb3b c102 f33b ac54 fa3b 9223 30bb
00000050: 5e60 7a3b 2a5c 0038 87bd f43b 6cae 80bb
00000060: 0ef7 77bb 739e 363c 7041 7cbb af82 013b
00000070: 9a0b 31bb 1a29 23ba 41bb 4e3a 34fd 1dbc
00000080: 2517 0f39 00f0 07bb 3bc8 babb a5de 6f3a
00000090: 0732 e8bb aef4 9fbb 5603 ebba 9847 ebba
000000a0: d9c8 e0ba c822 083c e5a8 30bc 9ffb cb3a
000000b0: 7a6c 1b3c 03ab 09bb e448 623b 92dc 643b
000000c0: db66 b83b 6a42 e73b 536a 96bb b431 24ba
000000d0: 8939 963b 48d3 a53a 07a0 ccbb 2f7d 1a3c
000000e0: 96c6 653b 1797 ee3b bff5 d73a b22f a13b
000000f0: a38d 9f3b 00f4 eaba 2fac 6fbb 0c54 773b
00000100: 93a5 59bc d8eb 373c 818a a33b 9e66 583b
00000110: 7b41 103c 568d 08ba 67b1 18bb 9518 72b9
00000120: 3834 3939 52e4 4cbb 5b25 453b 2267 22b9
00000130: 9803 94bb f659 d93b d371 ce3b 89ff 8abc
00000140: 16a6 68bb c8de 0739 ec19 82bb b64a 5d3b
00000150: a1d8 b6ba 3730 92ba a1f8 523c e142 803b
00000160: 3f25 72bb 1df3 92ba f943 48bb 8233 19bb
00000170: 4373 003c d431 81bb 07da 31bb f69b 6dba
00000180: c1cb 29bb bb03 10bb 3193 a13b 5838 e1bb
00000190: 02d4 9d3b db5e 9f3a 0d06 543c a0d2 1e3c
000001a0: 309c afbb 6de7 0d3c c211 14ba 76ae 8abb
000001b0: ca1d cebb 972e b6ba be53 f3bb f86f e53b
000001c0: 2971 7e3a 4bcb b4ba b7b6 eb3b cc38 d23b
000001d0: 7211 023c e82e c1b9 71d3 49bb 3557 963b
000001e0: 8002 263c 411b 07bc 4518 ffba 23e8 293b
000001f0: 2a40 9db9 1383 75bb d2e2 843b b32c 4cbb
-0.0023530552 0.008473657 -0.0001578499 -0.005844723 0.0084284805 -0.009008171 -0.0034514745 -0.008007349
-0.011615509 0.007963103 -0.004655771 0.0004619457 0.0065647187 0.00042898153 0.002633232 -0.0053509646
0.0062206793 0.0074161 0.007639488 -0.002687667 0.0038204412 3.0603413e-05 0.0074688825 -0.0039270427
-0.0037836465 0.011146176 -0.0038491152 0.0019761731 -0.0027014972 -0.0006224081 0.00078861794 -0.009642888
0.00013646165 -0.0020742416 -0.005700139 0.0009150303 -0.007086042 -0.004881463 -0.0017930071 -0.0017950414
-0.0017149701 0.008309074 -0.010782455 0.001556266 0.009486312 -0.0021006472 0.003452831 0.003492151
0.0056274957 0.0070574777 -0.0045903116 -0.000626351 0.0045844954 0.0012651468 -0.0062446627 0.00942926
0.0035060993 0.007281195 0.0016476436 0.004919016 0.0048691793 -0.0017925501 -0.0036571135 0.0037739305
-0.013284105 0.011225663 0.004990876 0.003302015 0.008804674 -0.0005209049 -0.00232991 -0.00023088076
0.00017662428 -0.003126402 0.003008208 -0.00015487944 -0.00451703 0.0066330386 0.00630019 -0.016967552
-0.0035499386 0.00012957596 -0.0039703753 0.0033766455 -0.0013950058 -0.0011153285 0.012876661 0.0039142226
-0.003694847 -0.001121137 -0.0030558093 -0.0023376648 0.007839981 -0.0039427076 -0.002713801 -0.00090640725
-0.00259088 -0.002197488 0.0049308767 -0.006873172 0.004816533 0.0012159006 0.012940896 0.009693772
-0.005359195 0.008661133 -0.0005648398 -0.004232223 -0.006290172 -0.0013899383 -0.0074257543 0.007001873
0.0009706193 -0.0013793496 0.007193412 0.006415462 0.00793873 -0.00036846776 -0.0030796195 0.0045880326
0.010132432 -0.008246244 -0.0019462189 0.0025925718 -0.0002999318 -0.003746216 0.0040553594 -0.0031154572

network_body._body_endoder.seq_layers.0.weight f4 [128, 10]
00000000: 068e cf3e 9177 67bd 3808 933d f5bf c23e
00000010: ca41 3fbe ee79 43be c2ec aa3d ebd2 34be
00000020: f5e5 1c3e b9d4 babd ab57 cfbe adc7 f33d
00000030: 42a1 2cbc fe95 f83c 4c8f 1fbe 17a7 b2bd
00000040: b5fd ff3e 71fb d7be 11dd ecbd fd6c 173f
00000050: 8742 a3be ef3c 6c3e fd38 b83e 0d37 3f3e
00000060: 11e5 2f3f 45c0 d7bd c16f 3dbe 5ab1 c03d
00000070: 35f2 543e d991 e4be 876c 683e 764c 34be
00000080: cf72 8ebe 43e1 813d 13d9 293e 06e2 b7be
00000090: 8d9c 1bbe 7e83 cabd 7080 08bf 9ef3 fc3e
000000a0: 41f7 17bf 4b82 e13e 641d 3dbf b467 50bd
000000b0: e163 103e b94b 2a3c 91cf 333d ceea 033f
000000c0: a81c a23e ebe6 983d 1506 8a3d 54fb b8be
000000d0: 717a 503e d563 93be 8c29 093f ce29 423e
000000e0: affd 96be d7a9 423f f762 8c3e 181e bcbe
000000f0: 78cd 8a3d e0d9 6bbf 3ff1 8fbc 5fe8 6cbe
00000100: 01d1 01bf 3988 05be a639 713e 1887 ae3e
00000110: e493 22be 3fd8 9c3e 5f27 5b3d f50a 4dbd
00000120: d417 c9be 696c fcbe bb88 f63e 5732 3f3e
00000130: a3ae c03d 0c91 a13e 479d bc3d ada8 f4bd
00000140: ea30 763d 0212 9d3e 3ea7 30be 0ef4 c03e
00000150: 6b0e 633e 09b2 c23e 7a4f 123f 3727 443e
00000160: aced b43e 82e6 17bf a0a3 d7be 3918 ec3e
00000170: 11f9 76be 069b 3cbe 7edf 3e3e 382a 543e
00000180: 5693 03bd 8cfc cabe 5dae 3dbe 02e8 9dbe
00000190: 0c23 0e3e b440 9b3e a144 993e 17eb 28be
000001a0: 511b 92be 131e 19bf 5974 48be 1490 a1be
000001b0: cb39 9bbd 5bad 0f3f 4b3b 09be 4248 c9bc
000001c0: a3f7 89be e3ac 2bbe 3bd8 f3bd 818e 013f
000001d0: 5250 34be 4476 243f 55e3 87bc bab8 273e
000001e0: c667 66be 1ad0 bdbc 46e7 50be 972d d2bd
000001f0: 6737 b33e 8c4b 00be 1d0c 57bd 2cdf dfbe
00000200: 0f98 66bf e0c2 023f a760 a63e 4328 adbe
00000210: 56b5 fd3e 0ce7 d23e 787c 023e ac9c 0ebe
00000220: 6545 c4bd 3b64 093f 6e18 42be 6e9a e43d
00000230: f162 2bbe 7ae4 d9be 4487 263e 90f2 733d
00000240: d21a 663e 3dd6 743f 86a4 a4be bf23 1a3d
00000250: ecb6 1bbf 4855 94be ee13 363d da35 a83e
00000260: 3570 613e 770b 63be 7a88 22bd 9923 b9bd
00000270: 1526 2ebe 49c2 0c3f c365 38be 3286 fd3e
00000280: 4951 95be 98f9 633e aaf6 7c3d acdc 263f
00000290: 02ea e4be 0ed1 083e 971c 5cbd 8792 8bbe
000002a0: b8b7 a73e 47d4 3a3e 66d2 26bf 93e6 d6be
000002b0: fdd9 b83e 6479 d63c d21e f93d cfa6 833e
000002c0: 521e 0fbe f0af 66bf 1bb0 22be f4d5 03bd
000002d0: 5235 7ebe d12a 523e db7b a6be a33e a8bd
000002e0: a49c 6fbe fd1e d8be 8c3f a53e 7788 0ebf
000002f0: 1e7f 95be cfd3 2fbe 5aac d23e a233 c43e
00000300: 29fe 50b9 ec38 51be 14c2 e1bd b80d e4be
00000310: ddc6 913e 4596 9cbe 464b c6be 3533 ee3e
00000320: 38c5 223f 3c81 153e 1491 28bf 0680 f8bd
00000330: 35d1 59bc 1e88 123f 13d0 513d 7896 173e
00000340: 74b9 c0be b4c0 48be 97cd ad3e c361 60be
00000350: f1f0 9fbe 17b1 7abe 547c df3d 0782 6abe
00000360: 072d cfbe b59b e93e f074 2abd 3942 243f
00000370: 99fc f5bc d3d9 a13e bc43 6e3e 737b 813e
00000380: c0a9 29bf 3eac 6abe 1a93 55be b5fd 083f
00000390: dfba 5fbe c269 543e ff2d ef3d 34ad 223d
000003a0: 6c29 c5be 6f32 5cbe b380 90bd 761c 74be
000003b0: db2a cabe b0a4 c5be 4f76 99be fa6e 403e
000003c0: 661d 8c3e cd8e 51be 8ec5 83bd 00d4 473e
000003d0: 055c d0bd 2330 b13e fbb6 e93e 2b9e 2abe
000003e0: cb73 143f f428 8f3e 864a 0abf 9156 11be
000003f0: 3b71 563e c344 1abe 5c45 373d cbf5 1dbf
0.40538043 -0.05651051 0.07179302 0.38037077 -0.1867744 -0.19089481 0.08345939 -0.17658584
0.15322097 -0.09122605 -0.40496573 0.119033195 -0.010536494 0.03034496 -0.15582007 -0.08723276
0.4999825 -0.42184022 -0.115656026 0.5915068 -0.31886694 0.2307012 0.3598098 0.18673344
0.687089 -0.105347194 -0.18499662 0.09408827 0.2079552 -0.44642523 0.2269765 -0.17607293
-0.27821967 0.063417934 0.16586713 -0.3591463 -0.15196438 -0.098883614 -0.5332098 0.49404615
-0.59361655 0.44044718 -0.7387297 -0.05088015 0.14100601 0.01039403 0.043899123 0.5153016
0.31662488 0.07465919 0.06739441 -0.36129248 0.20359208 -0.28787103 0.5357902 0.1896126
-0.2949042 0.76040405 0.27419254 -0.3674171 0.06777471 -0.92129326 -0.01757109 -0.23135518
-0.5070954 -0.13040246 0.23557147 0.34087443 -0.15876728 0.30633733 0.053504344 -0.050059278
-0.39275992 -0.4930146 0.48151192 0.18671547 0.09408309 0.31555974 0.09209686 -0.11946235
0.06010524 0.306778 -0.17251298 0.376862 0.22173469 0.38026455 0.5715252 0.19155584
0.3533758 -0.593361 -0.42117023 0.4611223 -0.24118449 -0.18418512 0.18639943 0.2071923
-0.032122932 -0.39645803 -0.18523546 -0.3084107 0.13880557 0.30322802 0.29935172 -0.1649593
-0.28536466 -0.59811515 -0.19575633 -0.31555235 -0.075793825 0.56123894 -0.13401525 -0.024570588
-0.26946744 -0.1676517 -0.11906477 0.5060807 -0.17608765 0.6424296 -0.016587893 0.16379061
-0.22500524 -0.02317052 -0.20400724 -0.10262602 0.35003206 -0.12528819 -0.052501787 -0.43724954
-0.90075773 0.51078606 0.32495615 -0.3381978 0.4955241 0.411919 0.12742794 -0.13926953
-0.095835485 0.53668565 -0.18954632 0.111622676 -0.16736962 -0.42557126 0.16262537 0.059557498
0.22471169 0.956394 -0.3215677 0.037631746 -0.6082599 -0.28971314 0.0444526 0.32853585
0.2201546 -0.22172342 -0.039680935 -0.09039993 -0.17006715 0.54983956 -0.18007569 0.49516445
-0.29163578 0.22263181 0.061758675 0.6518047 -0.44709784 0.13360998 -0.053738203 -0.2726023
0.32757354 0.1824504 -0.6516479 -0.4197279 0.36103812 0.02618093 0.12164082 0.25713202
-0.1397641 -0.9011221 -0.15887491 -0.032186463 -0.24825028 0.20524146 -0.3251637 -0.08215072
-0.23399597 -0.42211142 0.32275045 -0.5567698 -0.29198545 -0.17170642 0.4114712 0.38320643
-0.00019931108 -0.2043187 -0.110233456 -0.44541717 0.28472033 -0.30583397 -0.38729304 0.46523443
0.6358218 0.1460008 -0.6584637 -0.121337935 -0.013294508 0.5723895 0.051223826 0.14803493
-0.3764149 -0.1960476 0.33945915 -0.21912293 -0.3123851 -0.24481617 0.109123856 -0.22901164
-0.4046404 0.45626608 -0.041615427 0.6416355 -0.030027675 0.316115 0.23268026 0.25289497
-0.6627464 -0.22917268 -0.20856896 0.53512126 -0.2184863 0.20743468 0.11678695 0.03971596
-0.38508165 -0.21503614 -0.070557974 -0.23838982 -0.3948582 -0.3860221 -0.29973075 0.18792334
0.2736618 -0.2046463 -0.06434165 0.19514465 -0.10173801 0.34607038 0.45647416 -0.16661899
0.57989186 0.27960932 -0.54019964 -0.14193179 0.20941631 -0.15065293 0.04474388 -0.61703175

network_body._body_endoder.seq_layers.2.bias f4 [128]
00000000: c19d 9a38 5a23 71bb e6d2 2039 cced 0fbc
00000010: 64a4 a33b d846 46ba 36a2 8a3a b359 7fb9
00000020: fa83 30ba aadb ecba 7713 24bb b197 f0ba
00000030: 0338 26ba 888d 813b e6a9 673b 2608 73b9
00000040: b0bf 50bb d178 073b 3318 68b9 25c7 643b
00000050: 352a b53b 1ccb ac3a dcaf 913b eb8b 8e3a
00000060: ebff 3eba 7f8e db3a 3417 3c3b 4dee cd3a
00000070: 7662 ceba 5d6c dfbb f54d cc3b fd22 473b
00000080: 34ec 9aba 2bb0 9e3b b678 423a 8b70 1e3b
00000090: 0190 03ba d4e7 963b 15fe daba 9f07 1c3b
000000a0: d4c2 9a3a 4955 7e3b 92af af3a 3eaa 8bbb
000000b0: bc9b f2ba 9c31 433c 0f90 773a 881c 4c3b
000000c0: a80a faba ee4b 8cb9 f6d5 6abb 197c a23a
000000d0: 7251 acba fa26 383a 82a6 94ba 4479 9d3a
000000e0: 5f23 963b cd55 3f3a 6a26 9bba d3cc 0e3c
000000f0: f822 353a 6fff dd3a 7d54 b2ba 9572 57ba
00000100: 09ca 99b9 4884 29bb d801 8f3b 8318 46bb
00000110: 3efc 4e3b 58a5 2f3b 6a3b b13a 3a8a eabb
00000120: 6422 963b 80ee bcba 7b37 bc3a 85a0 d03b
00000130: 2084 9fba a140 2bbb 3a6c 4cba ec34 d2b9
00000140: c14c a8bb 50e9 0fbb 7fb1 9cbb ce4c 12bb
00000150: 574d 15bc 4ec6 c6ba 9555 7ebb 22af 70bb
00000160: 9310 2c3b 3962 633b 359c 4b3a aa57 453b
00000170: bbb1 e93a c6d2 91ba 07b9 303a 29a6 b73a
00000180: 59c3 92b9 e70f 793b 004c 61bb 4caf 19bb
00000190: 141b 0eb9 91ea 34ba c369 8d3b 69aa f2b8
000001a0: 715e 933a eac0 bc39 d6d6 92b9 46bd 8839
000001b0: 0252 0437 35bf 2e3b 150e 03ba 13a8 a33b
000001c0: b022 273b 5f01 473b f470 8e3b e10c beb7
000001d0: eb6d d8b9 74d5 743b 0dae b1b9 677c 8039
000001e0: bd5a 3d3c 885a b7ba ef92 cbba 17c3 65bb
000001f0: 9a37 163c 2a97 d9b9 4132 1c3b 2402 753b
7.372676e-05 -0.0036794753 0.00015337355 -0.008784723 0.004993962 -0.0007563657 0.0010576907 -0.0002435211
-0.0006733533 -0.0018070836 -0.0025036016 -0.0018355754 -0.0006340744 0.0039536394 0.003534907 -0.00023177321
-0.0031852536 0.0020671377 -0.00022134259 0.0034908738 0.005528713 0.001318309 0.004446013 0.0010875439
-0.00072860596 0.0016750841 0.0028700354 0.0015711278 -0.0015745896 -0.006818338 0.006234879 0.0030385845
-0.0011819662 0.004842778 0.00074185 0.0024175968 -0.00050187117 0.004605273 -0.0016707802 0.0023808253
0.0011807331 0.0038808158 0.0013403764 -0.004262238 -0.0018509547 0.011913683 0.00094437686 0.0031144936
-0.0019076662 -0.00026759453 -0.0035833097 0.0012396603 -0.0013146831 0.0007024851 -0.0011341127 0.0012014289
0.0045818533 0.0007298857 -0.001183701 0.008715826 0.0006909813 0.0016937087 -0.0013605502 -0.0008218673
-0.00029332962 -0.00258662 0.0043642335 -0.0030227012 0.0031583454 0.0026801433 0.0013521735 -0.007157591
0.0045817364 -0.001441434 0.0014359796 0.0063667917 -0.0012170114 -0.002613105 -0.00077981094 -0.0004009375
-0.005136103 -0.0021959133 -0.0047819014 -0.0022323611 -0.009112678 -0.00151653 -0.0038808335 -0.003672548
0.0026254996 0.0034695996 0.0007767112 0.0030112066 0.0017829457 -0.0011125437 0.00067414384 0.0014011312
-0.00027992835 0.0038003863 -0.0034377575 -0.0023450432 -0.00013552263 -0.0006901408 0.0043155863 -0.000115712006
0.0011243356 0.00036001886 -0.00028007355 0.0002608096 7.886907e-06 0.0026664261 -0.0004999352 0.0049944012
0.0025502853 0.0030365807 0.004346961 -2.2655762e-05 -0.00041280626 0.0037358673 -0.0003388975 0.0002450675
0.011557278 -0.0013988772 -0.001553146 -0.003505891 0.00916853 -0.0004150209 0.0023833665 0.003738531

network_body._body_endoder.seq_layers.2.weight f4 [128, 128]
00000000: 2ea5 b43d bc04 193d 2f43 d33d 0e50 7b3d
00000010: c09d f2bd 4fff d53d 5b33 5e3d 8294 983d
00000020: e464 0a38 017b 38bc b857 e53c 0b39 393e
00000030: 70e8 b63c a807 cdbd 0855 afbc e08b 50bd
00000040: 5443 283d e471 81bb daf3 b33c 45fc ac3d
00000050: a010 1dbe c9c3 963c 9d90 c0bd 68b2 383c
00000060: b692 933e 8117 be3d af5a 663d e856 5a3c
00000070: 71bc 2bb9 9452 a03c 656b 5ebb 2719 cbbd
00000080: f0c7 8d3c 5faa 0abe d53b 003e 85ac 933d
00000090: e8a8 ffbc 2e57 17be 2285 4cbd b5e4 f4bd
000000a0: 3c6f 3a3d 2e74 0dbe c14b 833d ad54 30be
000000b0: 0d23 fdbd 34c1 87bd 8659 42bc 414c 893d
000000c0: db85 373e 5df0 adbd 239b 253e c5f1 87bd
000000d0: f92c 4fbd 4c53 173d 3211 513d d867 203d
000000e0: 202f 2e3d 699a f6bc ade0 793d 464a 59bd
000000f0: 22d0 2f3d a4c3 6cbd 6a2b 8ebd 3a6d 393d
00000100: 938e 28bd 6a83 063d aa4a 9bbd b884 9f3d
00000110: f592 f5bd 5660 0cbd a216 9a3b 8363 99bc
00000120: 7621 13be c2ff fdbc d489 65bc ba56 1dbe
00000130: 39f2 fbbb eabd d1bd 413e 223d 5ca9 3dbe
00000140: 7ebb 00be 7ebc c1bd 9dc1 8fbd 0b73 413d
00000150: 7893 92be 039d 4cbd 1150 693d c183 ce3d
00000160: 5a48 5bbe 4ab6 133d b443 a73d a8ea bcbd
00000170: e415 193d 7652 673a 48be b8bd 02a4 a4bd
00000180: b87a e23c 3c68 8f3d 26a5 5cbb 3a40 753d
00000190: 32b6 5cbc cf71 7f3d ba6e 4fbd 39c2 6d3c
000001a0: b518 b2bd aa92 cf3a 23bd 34be c385 2fbe
000001b0: df03 ad3d c113 a6bc 3080 0ebe dec2 d93b
000001c0: 812d 4c3e 7bc9 78bd c369 923d aad2 973c
000001d0: a581 b33d 7623 63be e417 713d e0fd aa3d
000001e0: a352 79bd 48d4 fe3d 51e6 073d 6f81 1abe
000001f0: 5eb8 b3bd f1eb 40be 9973 75bd 3202 82bd
00000200: 6a78 86bd 9810 dbbd 6cf0 273d b603 703d
00000210: 346a ccbc 29d4 243d 73a9 103c 3b11 613e
00000220: b7e3 82bc 4bc5 233c 1d16 77bd f793 d3bd
00000230: 335a e33d f0a6 a23b d9f0 283d a22c 073e
00000240: 26cf 32be d272 023d ed42 5cbd 9044 78bd
00000250: a065 523e 6ca4 eb3c 5da6 683d 39b6 48be
00000260: 94f3 4cbd 1fe2 9ebd 7899 e03d 9682 a63c
00000270: e855 303d 5b75 973d 3745 d6bd f43c 1f3d
00000280: e327 0abe f1c2 c73b bcdc 493d 8eea 52bc
00000290: cecd da3c b1a0 1f3e cf17 cfbb e30f 8c3d
000002a0: daf7 c0bb 377a 9e3d 95ac 623d a0a2 24be
000002b0: 8d00 443d 7ca1 543e 629c e2bd 6c12 d63d
000002c0: 3700 dbbd 6b96 5d3d 1133 023e 766e afbc
000002d0: 3f63 973b f4f7 c23c 169b a5ba f592 be3d
000002e0: 8a17 733d 9f85 d33d 3cb5 7a3e 31fc 34bd
000002f0: 5daf d8bd d15e f63b 22f5 1f3d 225c b13d
00000300: 28ff b13d aac6 46be a055 c0bc 211e 893c
00000310: 5edc 24be 662e 86bc fa9a 81bc a543 aabb
00000320: 2d19 16be 958e 56bc 1ec7 bebc 2dc4 813d
00000330: a706 86bd be98 1a3e 672e 82be 117b d83c
00000340: 8963 923b 985f bb3b 7e9c ed3d 53ed 123c
00000350: 3694 0c3e 2bdb 5a3d 23cc 9f3d 7139 09bc
00000360: 9f4f aebc d2b1 0dbd a114 cbbb 93d4 f63c
00000370: 145f b63d 9cec 943d 7dd7 c7bd 6b2e 53bd
00000380: 7e69 dabd 3716 19bc 7c63 a03c 9189 3abe
00000390: 82f4 b63d 3331 af3d 4fd7 f4bb 5f15 d0bd
000003a0: 6158 a83d c403 fb3d 6cff 42be a9fc 33bd
000003b0: a368 90bd 781a 32bd 7ee4 fa3d 1ae2 e4bd
000003c0: da2a c63d f472 23bc 5ff4 1dbe 809c 92bd
000003d0: 4faa 3ebe da2c 2c3c 6182 5fbd c120 b8bd
000003e0: 0592 17bd c88c 033d 75c6 ac3c 60ab f9bc
000003f0: 12eb 223d f190 753d 3f88 893d 3e5d 19bd
0.08820568 0.03735803 0.10315549 0.061355643 -0.11846495 0.10449087 0.054248195 0.074502006
3.2995726e-05 -0.011259795 0.02799593 0.18088166 0.022327632 -0.10011226 -0.02140285 -0.050914645
0.041079834 -0.0039503444 0.021966863 0.08446554 -0.15338373 0.018403905 -0.09402583 0.011273004
0.2882287 0.09281827 0.056238826 0.013326384 -0.0001637803 0.019570626 -0.0033938524 -0.09916907
0.017307252 -0.13541554 0.12522824 0.0721064 -0.03120847 -0.1477935 -0.049931653 -0.11957685
0.045516238 -0.1381385 0.06410933 -0.17219801 -0.12360201 -0.066286474 -0.011862164 0.067039974
0.17922156 -0.08493111 0.16172461 -0.06637911 -0.05058 0.036944672 0.05104179 0.039161533
0.04252541 -0.030102925 0.061005283 -0.05304935 0.0429231 -0.057803765 -0.06941874 0.045270182
-0.041151594 0.03284017 -0.075826004 0.07788986 -0.119909205 -0.03427156 0.004702405 -0.018724209
-0.14368233 -0.031005744 -0.014009912 -0.15365115 -0.0076887873 -0.10241301 0.03961015 -0.18521637
-0.12571523 -0.0945978 -0.07019351 0.047228854 -0.28628135 -0.049954426 0.056961123 0.10083724
-0.21414319 0.036062516 0.0816721 -0.09224445 0.037374392 0.00088242383 -0.09020668 -0.080390945
0.027646407 0.07002303 -0.0033667772 0.059875704 -0.013471173 0.062364396 -0.050642706 0.014511638
-0.08696119 0.0015836556 -0.17650275 -0.1714087 0.08448004 -0.020273091 -0.13916087 0.0066455444
0.19939233 -0.06073902 0.07149079 0.01853307 0.08764962 -0.22181496 0.058860675 0.08349204
-0.060869824 0.12442833 0.03317863 -0.15088437 -0.087753996 -0.18840005 -0.059924696 -0.06348075
-0.06565936 -0.106965244 0.04100077 0.05859729 -0.024952985 0.040241394 0.008829462 0.21979229
-0.015977724 0.009995769 -0.060323823 -0.103309564 0.111011885 0.004963748 0.041245315 0.1320062
-0.17461833 0.031847782 -0.053774763 -0.06061226 0.2054658 0.028764926 0.05679928 -0.19600762
-0.05003698 -0.07757973 0.10966772 0.02032594 0.043050677 0.07395431 -0.104624204 0.03887649
-0.13491778 0.006096237 0.049282774 -0.012873305 0.026709463 0.15588643 -0.006319977 0.06838968
-0.005888921 0.077381544 0.05534037 -0.16077662 0.047852088 0.20764726 -0.11064984 0.104527324
-0.106934 0.054098528 0.12714793 -0.021414977 0.0046199854 0.023799874 -0.001263472 0.093053736
0.05934862 0.103282206 0.24483198 -0.04418582 -0.10580323 0.007518627 0.039052136 0.08660151
0.08691245 -0.19411722 -0.02347833 0.016738 -0.16099688 -0.016379546 -0.015820969 -0.005196052
-0.14658041 -0.013095518 -0.023288306 0.06336246 -0.065442376 0.15097329 -0.25426027 0.02642587
0.004467432 0.005718183 0.11602114 0.008967715 0.13728413 0.05343167 0.07802608 -0.0083755115
-0.0212782 -0.03459341 -0.0061975275 0.03013066 0.089048535 0.07271692 -0.09757898 -0.05155794
-0.10664652 -0.009343675 0.019578688 -0.1821654 0.08933355 0.08554306 -0.007471956 -0.10160326
0.08219982 0.122565776 -0.19042748 -0.043942127 -0.07051208 -0.043482274 0.12250613 -0.11175938
0.09676142 -0.009976137 -0.15425251 -0.07158756 -0.18619655 0.01050874 -0.0545677 -0.08990622
-0.03700449 0.03211668 0.021090725 -0.030477226 0.03977496 0.05995268 0.0671544 -0.03744244
