Foosbots_working/results/foosballTraining/Foosbots_working/Foosbots_working-616.pt (torch, 451423 bytes, 36 tensors)

network_body._body_endoder.seq_layers.0.weight f4 [128, 10]
0	0x3e9b09e4	0.30280983
1	0x3e995643	0.29948625
2	0xbee7a224	-0.4524089
3	0xbe3b9b95	-0.18321069
4	0x3e17872e	0.1479766
5	0x3ea005ca	0.31254417
6	0xbd05f170	-0.032700956
7	0xbe3ad976	-0.18247017
8	0x3dd10c09	0.10207374
9	0xbf1492f6	-0.58036745
10	0x3ee434d9	0.4457157
11	0xbebadfdf	-0.36498925
12	0x3ebdd119	0.3707359
13	0x3f2cd088	0.67505693
14	0xbdb6881c	-0.089126796
15	0x3eb19136	0.346811
16	0x3edb178a	0.42791396
17	0x3e5b5f84	0.21423155
18	0xbf4f375f	-0.80943865
19	0x3db48fa5	0.088164605
20	0xbe99262d	-0.29911938
21	0x3ef55df8	0.47923255
22	0x3ea7bf47	0.3276312
23	0xbc837335	-0.016046146
24	0x3ed703d2	0.41995102
25	0xbd422733	-0.047400665
26	0xbebcf3df	-0.3690481
27	0xbe20b460	-0.15693808
28	0xbe89bdf2	-0.2690273
29	0x3e9ce56d	0.30643788
30	0xbe9cf52a	-0.30655795
31	0x3e4d429d	0.20044942
32	0x3ddebf91	0.10876382
33	0xbe6d4040	-0.2316904
34	0xbe34376b	-0.17599265
35	0x3e1c3b03	0.15256886
36	0xbdc42fb2	-0.0957941
37	0xbcf171fb	-0.029473295
38	0xbf11465d	-0.5674799
39	0x3d9ee090	0.07757676
40	0x3e727c4e	0.23680231
41	0x3da9f2f2	0.08298291
42	0xbf00bb5c	-0.5028589
43	0x3d39ff5d	0.04540955
44	0xbe4524dc	-0.19252342
45	0xbe4ca3cd	-0.1998436
46	0x3f4542e2	0.7705518
47	0x3e5ccd20	0.21562624
48	0x3ede7b66	0.4345352
49	0x3f294ffc	0.6613767
50	0xbdf68720	-0.12037492
51	0xbe4c9a25	-0.19980676
52	0x3e3eeeb5	0.18645747
53	0x3cfdc9a0	0.030979931
54	0x3e29f6b8	0.16598022
55	0xbe8ab97a	-0.27094632
56	0x3dfe35bf	0.12412595
57	0x3b22c37f	0.0024835763
58	0x3f0e4f2d	0.5558956
59	0x3eb6071b	0.35552296
60	0x3d1eb3d5	0.03874572
61	0xbe571487	-0.21003924
62	0x3e5fde10	0.21862054
63	0x3de2fa80	0.11082935
64	0xbce1b964	-0.027554221
65	0x3db92dbb	0.090419255
66	0xbeef3d64	-0.46726525
67	0x3e33255c	0.1749472
68	0xbec0403c	-0.37549007
69	0xbeca7d32	-0.3954864
70	0xbed9099b	-0.4239014
71	0xbe81b25a	-0.25331384
72	0xbe48bddf	-0.1960368
73	0xbf2eef15	-0.6833356
74	0xbee4602f	-0.44604632
75	0x3e53e93c	0.2069444
76	0xbd3a697c	-0.045510754
77	0xbeb930cc	-0.36170042
78	0x3f24717b	0.6423566
79	0xbc52deb2	-0.0128704775
80	0xbe4657b9	-0.19369401
81	0x3e858223	0.2607585
82	0x3e981530	0.29703665
83	0x3e069b6e	0.13145229
84	0x3e2bc2f1	0.16773583
85	0x3edc94a3	0.4308215
86	0xbf24be41	-0.64352804
87	0x3dd496d1	0.103803284
88	0xbe45f218	-0.19330633
89	0xbe3e56ef	-0.1858785
90	0x3e2c42c7	0.16822349
91	0xbdb6054f	-0.08887731
92	0x3ddf73f8	0.10910791
93	0xbe28d679	-0.16488065
94	0x3e044b1a	0.12919274
95	0x3e818db3	0.2530342
96	0x3f24e16b	0.6440646
97	0xbc7bb179	-0.015362137
98	0xbd9f341f	-0.07773613
99	0x3e8a5b0d	0.2702259
100	0xbf3904e6	-0.722731
101	0xbc628cee	-0.013827546
102	0xbcf39d74	-0.029738165
103	0xbee93929	-0.45551422
104	0xbe335910	-0.17514443
105	0xbe9b9c25	-0.30392566
106	0x3e3d9ab9	0.18516053
107	0xbd8778a5	-0.06614808
108	0x3df80e08	0.12112051
109	0xbef07f46	-0.46972102
110	0x3cc2a278	0.023759112
111	0x3e82402a	0.25439578
112	0xbf20078b	-0.6251151
113	0xbeee6b21	-0.46566108
114	0xbda5bf9e	-0.08093189
115	0xbcf94374	-0.030427672
116	0x3e13ddc9	0.14440073
117	0x3e323d3f	0.17406176
118	0x3e706b98	0.23478544
119	0x3d481b24	0.04885401
120	0x3f16a4cd	0.58845216
121	0xbe4d79e9	-0.20066036
122	0xbcb39e36	-0.021926027
123	0xbd2acdf0	-0.041700304
124	0x3e79c302	0.24390796
125	0x3e5bc0e6	0.21460304
126	0xbdf7df35	-0.1210312
127	0x3d77860f	0.060430583
128	0x3e905326	0.28188437
129	0x3d97db9e	0.074149355
130	0xbd58e1f8	-0.052949876
131	0x3e0e5635	0.13900073
132	0x3e231aa4	0.15928131
133	0xbd979892	-0.07402147
134	0xbd2ebd78	-0.04266116
135	0xbeb6968b	-0.3566173
136	0xbe7dba2d	-0.24778052
137	0xbefca81a	-0.49347
138	0xbe5f4803	-0.21804814
139	0xbe954650	-0.29155207
140	0xbc46ac4d	-0.012126041
141	0x3dfff949	0.12498719
142	0x3e9b89be	0.30378526
143	0xbdb27118	-0.08712977
144	0x3d11a9d6	0.03556236
145	0xbd5c7c71	-0.053829614
146	0xbbbe378f	-0.005804963
147	0xbdb348c5	-0.08754114
148	0x3d8c938f	0.06864082
149	0x3e620704	0.22072989
150	0xbd9f42c0	-0.077764034
151	0x3a4867d1	0.00076448644
152	0xbbbbaf02	-0.0057276497
153	0x3b41de6b	0.0029582034
154	0x3c9609be	0.018315192
155	0xbe5c4cc3	-0.21513657
156	0xbdcad82f	-0.09904515
157	0xbd3950a5	-0.045242924
158	0xbe6a756f	-0.2289636
159	0xbdd2b680	-0.10288715
160	0xbd817d0c	-0.06322679
161	0x3eb19ac5	0.34688392
162	0x3e3acd7f	0.18242453
163	0xbdf8aa0f	-0.12141811
164	0xbe1350c7	-0.14386283
165	0xbd8b22de	-0.0679376
166	0x3f1ba588	0.60799456
167	0x3e93d07a	0.28869992
168	0xbf2406d9	-0.6407295
169	0x3e0ed8e8	0.1394993
170	0xbedc63c8	-0.43044877
171	0x3d94be4d	0.072628595
172	0xbe4120d5	-0.1886018
173	0xbe550eb7	-0.20806395
174	0xbf103ded	-0.5634449
175	0x3dc72654	0.097241074
176	0xbdd465cf	-0.10370981
177	0xbe883d78	-0.26609397
178	0x3ece9a5d	0.40352145
179	0x3d94e6f4	0.07270613
180	0xbf13f6e4	-0.577986
181	0x3e90196a	0.2814439
182	0xbd999ff0	-0.07501209
183	0x3c0c2783	0.008554342
184	0xbe215944	-0.15756708
185	0xbd875516	-0.06608026
186	0x3e123edf	0.14281796
187	0x3e88deee	0.26732582
188	0x3d0fed61	0.03513849
189	0xbe0e8671	-0.13918473
190	0x3e70d77c	0.23519701
191	0x3f63b68e	0.8895043
192	0xbef959d4	-0.48701346
193	0x3f16f9a1	0.58974653
194	0xbe8b26d5	-0.27178064
195	0xbe018a03	-0.12650304
196	0xbecb14ad	-0.39664212
197	0x3f227cad	0.6347149
198	0xbf836d7a	-1.0267785
199	0xbcef6d99	-0.029227065
200	0x3eabe683	0.33574304
201	0xbe865a31	-0.26240686
202	0xbd812be0	-0.063071966
203	0x3ee4f580	0.44718552
204	0x3f366186	0.7124256
205	0xbe4886a3	-0.1958261
206	0xbe1dfc42	-0.1542826
207	0xbf207822	-0.6268331
208	0x3d87c9a9	0.066302605
209	0xbf1c3cf7	-0.61030525
210	0x3e777147	0.24164306
211	0xbd0791f9	-0.033098195
212	0xbe90f42e	-0.28311294
213	0xbd90f756	-0.070784256
214	0x3eafcfbb	0.34338173
215	0xbec58d22	-0.38584238
216	0x3e9b681c	0.30352867
217	0x3f104eda	0.5637032
218	0x3dca9896	0.09892385
219	0x3d302965	0.043008227
220	0xbea04286	-0.31300753
221	0x3e805759	0.2506664
222	0x3db6138e	0.088904485
223	0x3d71750d	0.05894952
224	0xbd2d9992	-0.042382784
225	0xbbd75a4f	-0.006572045
226	0xbf1d2fe5	-0.61401206
227	0x3e97c40e	0.29641765
228	0xbdf63dc3	-0.12023499
229	0x3ec8ab3d	0.39193144
230	0xbe3aac3d	-0.18229766
231	0x3ef7dd50	0.48411036
232	0x3ea810ea	0.32825404
233	0x3cdc3c55	0.026884237
234	0xbf07efd3	-0.5310032
235	0x3e258bf0	0.16166663
236	0x3f266b72	0.650077
237	0xbd9f0882	-0.077652946
238	0x3de4db7b	0.11174675
239	0xbdc8c2b2	-0.0980276
240	0x3f0bd8bf	0.54627603
241	0xbe7356f1	-0.23763634
242	0xbceb63c6	-0.0287341
243	0x3dcae927	0.099077515
244	0xbf045a66	-0.5170044
245	0xbe854951	-0.26032498
246	0x3e3587b6	0.17727551
247	0x3e351d7f	0.17687033
248	0x3ea75b01	0.32686618
249	0xbd590005	-0.052978534
250	0x3d6a4fa5	0.05720486
251	0x3e2cb8db	0.16867392
252	0xb9fab31e	-0.00047817169
253	0xbf33997e	-0.70156085
254	0x3e8b40fa	0.2719801
255	0x3e1baa9d	0.15201803

network_body._body_endoder.seq_layers.0.bias f4 [128]
0	0x3bb47519	0.005507123
1	0x3a95da28	0.0011432813
2	0xb8cfe82e	-9.913776e-05
3	0xb898d9d9	-7.288502e-05
4	0xbb214175	-0.0024605666
5	0xbbfbabf9	-0.007680413
6	0x3ba259f5	0.0049545714
7	0x3b108c0b	0.0022056128
8	0xbbbbe60f	-0.005734212
9	0x3a746885	0.0009323436
10	0xba910ed6	-0.0011067044
11	0x3b6b3131	0.0035887475
12	0xbb38d033	-0.0028200268
13	0xbbdce18e	-0.0067407554
14	0x3b306d85	0.0026920747
15	0xbc100f7b	-0.008792753
16	0xbabc8cf5	-0.001438527
17	0xbb1954a3	-0.0023396395
18	0xbb98269b	-0.004643274
19	0x3b4c7740	0.0031199008
20	0x3bea2c77	0.007146414
21	0x3b6c833a	0.003608896
22	0xbbb624f5	-0.005558605
23	0xbb234200	-0.0024911165
24	0x3b881f61	0.0041541313
25	0x3bbbc0ea	0.0057297843
26	0xbba0439a	-0.0048908712
27	0x3b69013d	0.0035553717
28	0x3bcdd5de	0.0062815985
29	0xbb756b0f	-0.0037447845
30	0x3b80c5d9	0.0039298353
31	0x3b3f796b	0.0029216658
32	0xbbb807d2	-0.0056161666
33	0xbb788596	-0.003792142
34	0xbbc08560	-0.0058752745
35	0x3adeb18c	0.0016990169
36	0xba2e8033	-0.00066566764
37	0x39493c4d	0.00019191318
38	0x3bd76928	0.006573815
39	0xbb031c60	-0.0020005926
40	0xb8f0ece2	-0.00011488215
41	0x3bce23cb	0.006290888
42	0xbbbd95f2	-0.005785697
43	0xbb3d9542	-0.0028928076
44	0xba874fa9	-0.0010323423
45	0xbbad3c0c	-0.005286699
46	0x3be567f8	0.0070009194
47	0x3bd96285	0.006634059
48	0xbb48abfb	-0.0030620086
49	0x3a1e6070	0.0006041592
50	0x3c416fa4	0.011806402
51	0x3bf609aa	0.0075084763
52	0xbb686dca	-0.003546583
53	0x3c01735d	0.00790104
54	0x3baff084	0.005369248
55	0x3b88283e	0.004155188
56	0x3ad22c94	0.0016035014
57	0xbbff33cb	-0.0077881566
58	0xbbd8beb2	-0.0066145295
59	0x3a33fb10	0.00068657193
60	0xbb92c768	-0.0044793375
61	0xbb52deef	-0.0032176336
62	0x3ba0f21e	0.004911675
63	0x3c187336	0.009304812
64	0xbbecdffd	-0.00722885
65	0x3a4cc958	0.0007811985
66	0xbb5d97cf	-0.0033812409
67	0xbb117bcc	-0.0022199033
68	0xbba103ab	-0.0049137673
69	0x3b19e497	0.0023482197
70	0x3a94a58c	0.0011340841
71	0xbb794098	-0.0038032886
72	0xb941e0fb	-0.00018489726
73	0xbac95ba9	-0.00153624
74	0x3b3a203e	0.0028400565
75	0x3b13e5bb	0.002256735
76	0xbb2471c5	-0.0025092226
77	0xbb1b0a32	-0.00236572
78	0xbb8524ab	-0.004063209
79	0xba3eea0d	-0.0007282801
80	0x3b8f7b61	0.0043787216
81	0xbb841042	-0.0040302584
82	0xbbd1a72b	-0.006398102
83	0x3af36d21	0.0018571952
84	0x3ad51c31	0.0016259012
85	0x3ae17f62	0.0017204101
86	0xbb20f62e	-0.0024560797
87	0xbbb7eb7b	-0.0056127883
88	0xbb22843e	-0.002479806
89	0xbb6b3d35	-0.0035894637
90	0x3bd17b63	0.0063928827
91	0xbb897d93	-0.004195878
92	0xbb93f0ce	-0.00451479
93	0x3b4c0165	0.003112876
94	0xbb37aeb5	-0.0028027717
95	0xba1406cc	-0.0005646765
96	0x3c6be718	0.014398359
97	0x3b59e6b4	0.0033249082
98	0xbbd029dd	-0.0063526467
99	0x3b549958	0.0032440033
100	0xbbad03f1	-0.005280011
101	0xbba7eed2	-0.005124905
102	0xbbb91227	-0.005647916
103	0xbb8a88ed	-0.0042277486
104	0xba416ec3	-0.00073788705
105	0xbab68b13	-0.0013926945
106	0x390368b6	0.00012532141
107	0x3acf2b51	0.0015805756
108	0xbb68819f	-0.003547765
109	0x3b8706ca	0.0041206824
110	0x3ba8fee2	0.0051573375
111	0xbb688a33	-0.0035482764
112	0xbc041f66	-0.008064127
113	0xbb03691c	-0.0020051664
114	0xbb7053bb	-0.0036671
115	0xbc08237e	-0.008309243
116	0xbb423ec6	-0.0029639467
117	0xbbef3c0c	-0.0073008593
118	0xbb6ba938	-0.0035959017
119	0xba8794bf	-0.0010344012
120	0xbac75f6e	-0.0015210935
121	0xbb8edf45	-0.004360112
122	0x3ba02fc0	0.0048885047
123	0x3bd51be3	0.0065035685
124	0xbaaa3c66	-0.0012987971
125	0x3ac5b675	0.0015084284
126	0x3b05fb38	0.0020443927
127	0x3a5bbacf	0.00083820237

network_body._body_endoder.seq_layers.2.weight f4 [128, 128]
0	0x3d1836bc	0.037161574
1	0xbd95d9a4	-0.07316902
2	0xbd47b1a4	-0.048753396
3	0x3d1967b6	0.037452422
4	0x3d9c906a	0.07644732
5	0x3de4f698	0.111798465
6	0x3d9a2ba1	0.07527853
7	0x3da4ac77	0.080407076
8	0xbb060429	-0.0020449257
9	0xbb84c894	-0.004052231
10	0x3d4b0578	0.049565762
11	0x3dd2ca6e	0.10292517
12	0xbd4b3f99	-0.0496212
13	0xbe0338bf	-0.12814616
14	0xbd2fc2cd	-0.042910386
15	0xbdf205e2	-0.11817528
16	0x3c3250c7	0.010883517
17	0x3c11384a	0.008863518
18	0xbe33041a	-0.17482033
19	0xbd4c66d6	-0.04990276
20	0xbe829eaf	-0.2551169
21	0xbde7368f	-0.11289703
22	0xbd883864	-0.06651381
23	0x3df9fd81	0.12206555
24	0x3bafead7	0.0053685713
25	0x3de67116	0.11252038
26	0x3ccf962a	0.025340158
27	0xbd848615	-0.064708866
28	0xbdf32008	-0.11871344
29	0xbc941f07	-0.018081201
30	0x3dd01d92	0.1016189
31	0x3ccd0448	0.025026456
32	0xbdc76929	-0.097368546
33	0xbbf72939	-0.007542756
34	0xbba2c12a	-0.0049668746
35	0xbb1ffa22	-0.0024410565
36	0xbd1487ff	-0.03626251
37	0xbd27949e	-0.040913217
38	0x3dbc6754	0.09199396
39	0xbd8eb3e6	-0.06967907
40	0xbaded6fc	-0.0017001326
41	0x3dd38edd	0.103299834
42	0xbd7b26f1	-0.061316434
43	0xbd23248c	-0.039829776
44	0xbdba28e3	-0.0908983
45	0xbde7964a	-0.11307962
46	0xbb68269a	-0.00354234
47	0x3e1e95bf	0.15486811
48	0xbc4689c2	-0.012117805
49	0x3d935d7a	0.071955636
50	0xbc8fe2e5	-0.017564246
51	0xbc23660a	-0.0099730585
52	0xbdbb3f21	-0.091429
53	0xbe1f17e8	-0.15536463
54	0xbaea4500	-0.0017873347
55	0x3d289479	0.04115722
56	0x3d8a7077	0.06759732
57	0x3cb82a91	0.022481235
58	0x3e065b01	0.13120653
59	0xbdf26204	-0.11835101
60	0x3e04bbdf	0.12962292
61	0xbc1457f0	-0.009054169
62	0xbe2728ca	-0.16324154
63	0xbde62eba	-0.11239381
64	0x3e2447ed	0.16043063
65	0xbe0c7f2b	-0.13720386
66	0x3b8af4f2	0.0042406255
67	0x3e1c9a7a	0.15293303
68	0x3d640a6e	0.05567401
69	0x3b92dc1d	0.004481806
70	0x3d975735	0.0738968
71	0x3d6e5587	0.058187034
72	0xbd688037	-0.0567629
73	0xbe7de965	-0.24796064
74	0xbd881b40	-0.066458225
75	0x3daf031f	0.08545517
76	0xbdb88bf3	-0.09011068
77	0x3cace601	0.021105768
78	0xbdf077e4	-0.11741617
79	0xbcad908a	-0.021187086
80	0xbda70eba	-0.08157106
81	0x3e22c36e	0.15894863
82	0xbc5f0d9f	-0.013614087
83	0xbc1209f2	-0.008913504
84	0x3dd642d6	0.10461967
85	0xbca6937f	-0.020334003
86	0xbd4b7e21	-0.049680833
87	0x3d8ea7b0	0.069655776
88	0x3c2dad17	0.01060035
89	0xbe306ea7	-0.1722971
90	0xbd614ed2	-0.05500681
91	0x3d7d2de8	0.061811358
92	0xbdf635b7	-0.12021964
93	0xbe2bb9c8	-0.16770089
94	0x3e623ac5	0.22092731
95	0x3db4820d	0.08813868
96	0xbcf49823	-0.0298577
97	0x3d83f857	0.064438514
98	0xbd574023	-0.0525514
99	0xbb42237a	-0.0029623196
100	0x3cb9bf55	0.022674242
101	0x3dff394f	0.124621026
102	0x3d31ed61	0.043439273
103	0x3dac57de	0.08415197
104	0x3d2bd115	0.041947443
105	0xbd543237	-0.0518057
106	0x3ac3e280	0.0014944822
107	0x3d41eb00	0.047343254
108	0x3da13daa	0.078730896
109	0x3d8b39aa	0.06798108
110	0xbdaaf213	-0.08346953
111	0x3d206552	0.039159127
112	0xbd9129bf	-0.070880406
113	0xbb52a591	-0.0032142142
114	0xbbc8acf7	-0.0061241346
115	0xbd947e8e	-0.07250701
116	0x3cc7ae9c	0.024375252
117	0x3d0efbd4	0.03490813
118	0x3c3c9329	0.011509695
119	0xbe60241a	-0.21888772
120	0x3de5ea58	0.11226338
121	0xbe3a7888	-0.18210042
122	0x3e138959	0.14407863
123	0xbc1a9a30	-0.009436175
124	0x3d1a9e33	0.037748527
125	0x3d45ffde	0.048339717
126	0xbdcdf5f3	-0.10056677
127	0xbcfde8ac	-0.030994736
128	0xbe0ef8cc	-0.13962096
129	0xbd3ce38b	-0.04611544
130	0xbd4a1f90	-0.049346507
131	0xbdc9589d	-0.09831355
132	0x3d8be261	0.06830288
133	0x3cd15d6f	0.025557248
134	0x3c6e9bc3	0.014563504
135	0xbdff69dc	-0.12471363
136	0xbd7e7948	-0.06212738
137	0xbcdc4d79	-0.02689241
138	0x3da977ac	0.08274779
139	0x3d065c5e	0.032802932
140	0xbcd7c440	-0.026338696
141	0x3ccf0479	0.025270687
142	0x3bccf7ab	0.0062551103
143	0x3cda224a	0.026627678
144	0x3e30bba8	0.17259085
145	0xbc55324e	-0.013012482
146	0xbdb7467e	-0.08948992
147	0xbdab016a	-0.08349879
148	0xbc1dd015	-0.00963213
149	0xbe1ac556	-0.1511434
150	0xbd9c134f	-0.0762087
151	0xbdc69ae0	-0.09697509
152	0xbc670f80	-0.014102817
153	0xbcc45fb5	-0.023971418
154	0x3e3bee9b	0.1835274
155	0x3d4fc517	0.05072507
156	0xbc2025f2	-0.009774672
157	0xbc5ff124	-0.013668332
158	0x3e351d16	0.17686877
159	0xbe38709b	-0.18011706
160	0x3d80040c	0.06250772
161	0x3d403c53	0.04693253
162	0x3a7a7403	0.000955403
163	0xbbb2a80d	-0.005452162
164	0x3de64bff	0.11244964
165	0xbcfe00c6	-0.031006228
166	0xbdac44f7	-0.084115915
167	0xbe159e6a	-0.14611211
168	0xbc3e5b7a	-0.011618489
169	0x3da51082	0.08059789
170	0xbdbd7917	-0.09251612
171	0x3d48dd3c	0.04903911
172	0x3b73206f	0.003709819
173	0x3dd7cd59	0.10537214
174	0x3d004655	0.031317074
175	0x3d7925f3	0.060827207
176	0x3d92471b	0.071424685
177	0xbdce0277	-0.10059064
178	0xbd4c39bf	-0.04985976
179	0x3d3ba951	0.04581577
180	0x3e819ae8	0.25313497
181	0xbdabb45c	-0.0838401
182	0xbca0e41a	-0.019640017
183	0xbdd84346	-0.105597064
184	0xbd1d7e53	-0.03845055
185	0x3e37e601	0.17958833
186	0xbdc4d92b	-0.09611734
187	0xbd8143dd	-0.06311772
188	0x3dc657f0	0.096847415
189	0xbe0ab7fa	-0.13546744
190	0x3d3a9405	0.04555132
191	0x3d571131	0.05250663
192	0xbde1ceeb	-0.110257946
193	0xbd5dcd93	-0.05415113
194	0x3e22ba58	0.15891397
195	0xbe488118	-0.19580495
196	0xbc80e8bf	-0.015735982
197	0xbde40b0a	-0.11134918
198	0x3d9c9b32	0.07646789
199	0x3cec1e8c	0.02882316
200	0xbdb89c19	-0.09014148
201	0x3d9e00b5	0.077149786
202	0x3d3b5230	0.045732677
203	0xbd18f658	-0.037344307
204	0xbdfc4cf2	-0.12319364
205	0x3df2e61d	0.11860297
206	0x3d439612	0.04775054
207	0xbc83aaee	-0.016072717
208	0x3cc2d58f	0.023783473
209	0xbdac52c2	-0.08414222
210	0x3b64c834	0.003490937
211	0x3cfbbee6	0.030730676
212	0xbdeb1545	-0.11478666
213	0x3dfddfea	0.12396224
214	0xbdde7f61	-0.10864139
215	0x3c5d5751	0.013509587
216	0x3d8abd31	0.06774367
217	0x3d85c5e9	0.06531889
218	0xbbc413e4	-0.0059838165
219	0x3dfc095b	0.12306472
220	0xbcf55cd7	-0.029951496
221	0xbe2c3b75	-0.16819556
222	0x3c030521	0.007996828
223	0x3d87e9fd	0.066364266
224	0x3de71070	0.11282432
225	0x3dc00b51	0.093771584
226	0x3d7da136	0.06192132
227	0x3d4f8fcb	0.05067424
228	0xbde4d4ce	-0.11173402
229	0x3d44dc26	0.048061512
230	0x3d1274af	0.03575581
231	0x3dc49498	0.095986545
232	0x3d83df77	0.06439107
233	0x3b7908b8	0.0037999582
234	0x3d33e335	0.043917853
235	0xbd8f75a0	-0.07004857
236	0x3e05270f	0.13003181
237	0x3be4933a	0.0069755586
238	0xbc45ce63	-0.012073132
239	0xbdf6cdfd	-0.12051008
240	0xbda92fb7	-0.08261054
241	0xbdd1df11	-0.10247625
242	0xbda4d8f1	-0.08049191
243	0x3d08146a	0.033222593
244	0xbdc7df0b	-0.09759339
245	0x3dfa1d56	0.12212627
246	0xbdad77eb	-0.08470138
247	0x3d293a9e	0.041315667
248	0xbde89a1f	-0.11357521
249	0x3d8abbfb	0.06774136
250	0x3e12f239	0.14350213
251	0x3d10c68b	0.035345595
252	0x3d97ed33	0.07418289
253	0xbd3cfdbd	-0.04614042
254	0xbcb6bd48	-0.022307053
255	0x3dcbbe28	0.09948379

network_body._body_endoder.seq_layers.2.bias f4 [128]
0	0xbad75765	-0.0016429244
1	0xbb859ef1	-0.004077785
2	0xbb3b702c	-0.0028600795
3	0x3b982085	0.0046425485
4	0x3b826127	0.0039788666
5	0xbab562c5	-0.001383864
6	0x3b849a81	0.0040467386
7	0xbba1abfa	-0.0049338313
8	0xbb900bf3	-0.0043959557
9	0xbb004150	-0.001957018
10	0x3bf1ad0e	0.007375366
11	0x3baa36fe	0.005194544
12	0x3aa4950d	0.0012556628
13	0x3b773f79	0.0037727042
14	0x3b2f50e6	0.00267511
15	0x3bdf9199	0.0068227765
16	0x3b21cee6	0.0024689971
17	0x3a0238df	0.0004967581
18	0x3ae72b41	0.0017636792
19	0xbb7af9ee	-0.0038295942
20	0x3b21cc3d	0.0024688386
21	0x3a0975df	0.00052436994
22	0x3bb242e4	0.005440103
23	0xbb14ce10	-0.002270583
24	0xbb9df343	-0.004820259
25	0x3b499d4b	0.003076392
26	0xbb8b9217	-0.0042593586
27	0xbb935777	-0.0044965106
28	0xbafd91b5	-0.0019345792
29	0x3b89203f	0.0041847522
30	0xbb736f7e	-0.0037145312
31	0x3b36bc27	0.0027883144
32	0xbc14d648	-0.009084292
33	0xbb2e2592	-0.0026572687
34	0xbbe110c0	-0.006868452
35	0x3b6f22a1	0.0036489146
36	0xbb9a2f64	-0.0047053564
37	0xbbb0eb06	-0.0053991107
38	0x3ab73e58	0.0013980372
39	0x3bd1e10d	0.006405002
40	0xbb67b1cb	-0.0035353776
41	0xba002565	-0.0004888385
42	0x3b143236	0.0022612936
43	0x3bd8166d	0.0065944702
44	0xbac2bf0f	-0.0014857965
45	0xbb941419	-0.0045189974
46	0xbb8ed103	-0.004358412
47	0x3b900d6a	0.0043961303
48	0xbbbce327	-0.0057643834
49	0x3b8661f5	0.004101033
50	0xbb7081b3	-0.00366984
51	0xba9ed42e	-0.0012117678
52	0x3aacf4a0	0.0013195463
53	0xbba3bbe5	-0.004996764
54	0xbb9cba5d	-0.0047829584
55	0xbad837d3	-0.0016496129
56	0xba28f747	-0.00064455386
57	0x397744ed	0.00023581432
58	0x3a8029b2	0.0009778051
59	0x3b161660	0.002290152
60	0xbb941d28	-0.0045200773
61	0x3b657304	0.0035011182
62	0xbb8a7184	-0.004224958
63	0x3b4fdb26	0.0031716316
64	0xbb78ddec	-0.0037974073
65	0x3a85ae2e	0.0010199004
66	0x3bcd1731	0.006258868
67	0xbb97edd5	-0.004636506
68	0xbb10dc77	-0.0022104064
69	0xbb43bdd1	-0.0029867778
70	0xbad4815a	-0.0016212866
71	0xb97e4f9b	-0.00024252983
72	0x3abd1956	0.0014427106
73	0x3b4d3178	0.0031310003
74	0xbb3942cd	-0.0028268576
75	0xbbae4794	-0.0053185914
76	0xbb50db32	-0.0031868932
77	0xbbb428db	-0.0054980344
78	0xba3c469e	-0.00071821536
79	0x3b2bbb17	0.0026204044
80	0xb98df566	-0.00027076452
81	0xbb928408	-0.0044713058
82	0x3b4583bd	0.0030138337
83	0x3ba3ccc6	0.004998776
84	0xbb854ebd	-0.004068224
85	0x3a0ff0ff	0.00054909283
86	0xbbd7ea88	-0.0065892376
87	0xba8a4480	-0.0010548979
88	0x3babeabd	0.005246489
89	0x3b080766	0.0020756363
90	0x3b9a3225	0.0047056847
91	0x3a01f05a	0.00049567746
92	0x3c1bbac9	0.009504982
93	0x3bb6c0b8	0.005577173
94	0xbb9b6c9a	-0.004743171
95	0x3bd23ea0	0.006416157
96	0xbb1610a6	-0.0022898107
97	0x3af8685a	0.0018951998
98	0x3a32049e	0.0006790849
99	0xba5af210	-0.000835211
100	0xbb955a17	-0.0045578587
101	0xbac274c2	-0.0014835822
102	0x3ba22f2e	0.004949472
103	0xbb6b35ad	-0.0035890148
104	0x3b716f4a	0.0036840015
105	0x3b71ed48	0.0036915112
106	0xbae3565d	-0.0017344464
107	0xbb1e3bdb	-0.0024144563
108	0x3b0af615	0.0021203805
109	0xbbada25c	-0.0052988958
110	0x3ba57e13	0.0050504296
111	0x3bd0ef4f	0.006376184
112	0xbb9ac55e	-0.004723235
113	0x3b82c7a0	0.0039910823
114	0xbb7c6714	-0.0038513588
115	0x3bbf1879	0.005831775
116	0xbb0904b7	-0.0020907351
117	0xb95d5cca	-0.00021110769
118	0x3a983584	0.0011612629
119	0x3b2e88ca	0.0026631826
120	0x3c0a39a1	0.008436591
121	0xbb120007	-0.0022277848
122	0xbb1b9055	-0.0023737152
123	0xbbc181eb	-0.00590538
124	0x3b405aa2	0.0029350896
125	0x3b7904bc	0.0037997207
126	0xba581452	-0.0008242774
127	0xb702a19c	-7.786231e-06

action_model._continuous_distribution.log_sigma f4 [1, 2]
0	0xbbd7c693	-0.006584951
1	0x3b0db673	0.002162364

action_model._continuous_distribution.mu.weight f4 [2, 128]
0	0xbc9c2a1a	-0.019063044
1	0xbcab3333	-0.020898437
2	0xbc82bfc9	-0.01596059
3	0x3bf461f0	0.007457964
4	0x3bee7bd1	0.0072779437
5	0xbc06f477	-0.008236996
6	0x3cd0fc5a	0.025510956
7	0xbcc00970	-0.023442
8	0xbc0f911a	-0.008762622
9	0xbbbbc744	-0.0057305414
10	0x3c2366f3	0.0099732755
11	0x3b9318a5	0.004489022
12	0x3b91166f	0.004427723
13	0x3c90243c	0.017595403
14	0x3c5dfcfe	0.013549088
15	0x3cccd14b	0.025002142
16	0x3ca9f09f	0.02074462
17	0x3ab49ae3	0.001377907
18	0x3bfc6a4a	0.0077031003
19	0xbbfcbfff	-0.0077133174
20	0x3c9adde2	0.01890463
21	0xb8ac2d49	-8.210034e-05
22	0x3c2cb437	0.010541013
23	0xbbfe4a89	-0.00776035
24	0xbbdbe130	-0.006710194
25	0x3b989c9a	0.0046573402
26	0xbc59e22f	-0.013298555
27	0xbc760f90	-0.015018359
28	0xbcefd4d4	-0.029276289
29	0x3c49c8b6	0.01231592
30	0xbc3ca965	-0.011514996
31	0x3c0fed09	0.008784541
32	0xbb75be47	-0.0037497447
33	0xbb30ebbc	-0.0026995977
34	0xbbac0138	-0.0052491687
35	0x3b95d2b4	0.004572237
36	0xbd2145aa	-0.039373077
37	0xbc5c690f	-0.013452782
38	0x3b24a344	0.0025121728
39	0x3ce355f2	0.027750943
40	0xbc01994a	-0.007910082
41	0xbaa25331	-0.0012384412
42	0x3c52f357	0.0128754
43	0x3b9e5f03	0.0048331036
44	0xbb5a20b3	-0.003328365
45	0xbcc6e8ae	-0.024280872
46	0xbc959cc7	-0.018263234
47	0x3cc607ae	0.024173584
48	0xbcb50bbe	-0.022100326
49	0x3b98941b	0.0046563274
50	0xbc2d4362	-0.010575147
51	0xbc51b958	-0.012800537
52	0x3c3f84be	0.011689363
53	0xbc0f75eb	-0.008756141
54	0xbc578d00	-0.013156176
55	0xbc2d38dd	-0.010572639
56	0xbb1d87d1	-0.0024037252
57	0x3abf40ad	0.0014591418
58	0xba78b697	-0.0009487657
59	0x3c1408a9	0.009035268
60	0xbcf9a6ec	-0.030475102
61	0x3c75c56d	0.015000683
62	0xbc43c432	-0.011948632
63	0x3cd70e82	0.026252035
64	0xbc64930f	-0.013951077
65	0x3a661047	0.0008776229
66	0x3b69322b	0.003558288
67	0xbce723f0	-0.028215379
68	0xbbe82f82	-0.0070857415
69	0xbc2410be	-0.010013757
70	0xbb3eec34	-0.0029132487
71	0x39d780d7	0.0004110399
72	0x3c03b47a	0.008038634
73	0x3c0a28e8	0.008432604
74	0xbb68d0ee	-0.0035524922
75	0xbd01d1ea	-0.03169433
76	0xbb8222b1	-0.0039714207
77	0xbc8e411d	-0.017365033
78	0xb9e64b5f	-0.00043925174
79	0x3c8bb717	0.017055077
80	0xbb25cc95	-0.0025298942
81	0xbc3154f9	-0.010823482
82	0x3ac95e85	0.0015363252
83	0x3d05bd3e	0.03265118
84	0xbcecbc79	-0.028898465
85	0x390e0bf4	0.00013546628
86	0xbc404f7f	-0.011737703
87	0xbb11349d	-0.0022156604
88	0x3cb4f6e9	0.022090392
89	0x3b99ca58	0.0046933107
90	0x3cc3dd5e	0.023909267
91	0x3b974fb4	0.0046176556
92	0x3b95b201	0.004568339
93	0x3c8db78c	0.017299436
94	0xbc4bf059	-0.01244744
95	0x3c9e4305	0.019319067
96	0xbc594539	-0.013261133
97	0x3b347db5	0.0027540748
98	0x3b941834	0.004519487
99	0xbaf04099	-0.0018329798
100	0xbc92583e	-0.017864343
101	0xbc36a7c0	-0.011148393
102	0x3c2a9322	0.010411056
103	0xbc81acf5	-0.015829543
104	0x3c8279e0	0.015927255
105	0x3c170925	0.009218489
106	0xbc0a18fb	-0.008428807
107	0xbcaf306e	-0.021385398
108	0x3bd28be7	0.006425369
109	0xbbbd7ca5	-0.005782681
110	0x3bfb5108	0.007669572
111	0x3c48c10c	0.012253057
112	0xbcb44c38	-0.022009
113	0x3c723364	0.01478276
114	0xbc813069	-0.015770154
115	0x3d17c39c	0.037051782
116	0xbb9615d8	-0.0045802407
117	0xbb3d69a1	-0.002890207
118	0x3b26e78a	0.0025467598
119	0x3c24b267	0.0100523
120	0x3bcad86f	0.0061903517
121	0xbc26e771	-0.010187016
122	0xbb8932d5	-0.004186968
123	0xbbfff8fe	-0.0078116646
124	0x3c466bb5	0.01211064
125	0x3cdeb30a	0.027184982
126	0xbc252ce5	-0.0100815045
127	0x3b1baee9	0.0023755378
128	0x3d18d6ae	0.03731411
129	0xbb615ef5	-0.0034388874
130	0x3c9e11cb	0.019295594
131	0xbbb3cdf1	-0.0054871966
132	0x3c8f229d	0.01747256
133	0x3cf964b8	0.030443534
134	0x3cd3fb74	0.025876738
135	0xbc842544	-0.01613105
136	0x3c0170af	0.007900401
137	0xbcd51256	-0.02600972
138	0x3b5fb5bc	0.0034135422
139	0xbb9b9007	-0.004747394
140	0x3d11c62d	0.035589386
141	0x3bbc94d8	0.0057550482
142	0xbbe4b80b	-0.0069799474
143	0x3b56eb69	0.0032794124
144	0xbbeb8aaa	-0.007188161
145	0x3c8c6686	0.01713873
146	0x3d1fef9b	0.039046865
147	0xbb4b442f	-0.0031015982
148	0xbba4127d	-0.005007087
149	0x3d436ecf	0.047713097
150	0xbb4dcf64	-0.0031404132
151	0xbd06aa35	-0.032877166
152	0xbc3d00d9	-0.011535847
153	0xbc18095a	-0.009279573
154	0x3c275606	0.010213381
155	0xbcc088e0	-0.023502767
156	0x3d2fd713	0.04292972
157	0xbc9bdfa0	-0.019027531
158	0x3c20316b	0.009777407
159	0x3c83fd9a	0.016112138
160	0x39294b7b	0.00016145215
161	0xbb0e7b38	-0.0021740925
162	0x3b9dd35b	0.0048164553
163	0x3a674c7b	0.0008823347
164	0x3c0e1dcd	0.008674097
165	0x3b5d5848	0.0033774544
166	0x3cf04510	0.029329807
167	0x3c01c5b9	0.007920676
168	0x3bf411c2	0.007448406
169	0xbc874bd7	-0.016515655
170	0xbc14ce0b	-0.009082328
171	0xbb82d0f3	-0.003992194
172	0x3bbf72a5	0.005842524
173	0x3c01fd80	0.007933974
174	0x3c2ff0a3	0.010738525
175	0x3ca9f8c8	0.020748511
176	0xbc70803b	-0.01467901
177	0x3c435a01	0.011923314
178	0x3b151edd	0.0022753992
179	0x3cf01eb8	0.029311523
180	0xbccb803f	-0.024841426
181	0xbc2d6af5	-0.010584583
182	0xbc3cb6cb	-0.011518191
183	0x3ca394c4	0.019968398
184	0x3cad13a6	0.021127533
185	0xbcc6983a	-0.02424251
186	0x3c40f389	0.011776813
187	0xbcc94ca1	-0.024572672
188	0x3c5d820d	0.013519776
189	0xbc898600	-0.016787529
190	0xbbd6d6c4	-0.006556364
191	0xbcd27dc5	-0.025694737
192	0xbbc162f3	-0.0059016882
193	0xbc5b333b	-0.0133789135
194	0x3b8a191d	0.0042144195
195	0x3bb0ec7b	0.0053992844
196	0xbcf01d25	-0.029310772
197	0x3b04e343	0.002027706
198	0x3afd3f01	0.0019321145
199	0xbd57890a	-0.052620925
200	0xbc029493	-0.007969993
201	0xbc65ed73	-0.014033663
202	0x3a6ec9a8	0.00091090286
203	0x3c98f4ab	0.018671354
204	0x3b31d408	0.0027134437
205	0xbc803631	-0.01565084
206	0x3c5004ba	0.012696439
207	0xbd0ad826	-0.03389754
208	0x3cb7bc4d	0.022428656
209	0xbc1c9f3a	-0.009559447
210	0xba91b316	-0.0011115994
211	0x3c5cdc65	0.0134802805
212	0x3c84bd57	0.016203566
213	0x3c9fc76d	0.019504273
214	0xbb91ddc9	-0.0044514877
215	0xbc10ac4c	-0.008830141
216	0x3ca30ea1	0.019904437
217	0xbc943008	-0.01808931
218	0x3c072832	0.008249329
219	0xbd0a10be	-0.033707373
220	0xb97c11df	-0.0002403925
221	0xbc22488d	-0.009904993
222	0xbc682015	-0.014167805
223	0x3c47842b	0.012177507
224	0x3c4881ea	0.012238005
225	0x3ca2d8eb	0.019878825
226	0xbb8ac3dd	-0.0042347745
227	0xbcbd4f16	-0.023109
228	0x3b80d7b7	0.003931965
229	0x3ce2e6ae	0.027697887
230	0xbc53341f	-0.012890845
231	0x3ca0415e	0.01956242
232	0x3ca1c034	0.01974497
233	0x361cae37	2.3347218e-06
234	0x3cb3da87	0.021954788
235	0x3d11beab	0.035582226
236	0xbca3b51e	-0.019983824
237	0x3aff32be	0.0019470078
238	0x3c550e30	0.013003871
239	0xbb85d84a	-0.0040846216
240	0x3c168851	0.009187774
241	0xbcad8da0	-0.021185696
242	0x3bb94bba	0.0056547793
243	0xbc635e43	-0.013877454
244	0xbc6cd05b	-0.014453973
245	0x3c422287	0.011849052
246	0xbc83f1ec	-0.016106568
247	0x3bc7226e	0.0060771024
248	0xba293b3b	-0.00064556644
249	0x3c8c0767	0.017093373
250	0x3bc2898b	0.0059368066
251	0xbc0644f6	-0.0081951525
252	0xbc6936fe	-0.014234303
253	0xbc0d6362	-0.008629652
254	0x3d3b7b80	0.045772076
255	0xbb472f74	-0.0030393275

action_model._continuous_distribution.mu.bias f4 [2]
0	0x3ba439ec	0.0050117876
1	0x3a6c6c26	0.0009018801

exp_avg f4 [128, 10]
0	0xb82630a7	-3.9622795e-05
1	0xb52038aa	-5.96871e-07
2	0xb57d4929	-9.4356307e-07
3	0x3234833b	1.0507217e-08
4	0xb595ef73	-1.1171054e-06
5	0xb5319196	-6.6149494e-07
6	0x346ed868	2.2244205e-07
7	0xb5e905df	-1.7361562e-06
8	0xb55c5bcd	-8.2089974e-07
9	0x3181aeac	3.774252e-09
10	0x384e9bad	4.925921e-05
11	0xb4667497	-2.1462834e-07
12	0xb4b6285b	-3.3929504e-07
13	0xb3daea4b	-1.0194034e-07
14	0xb467d1b6	-2.1589844e-07
15	0xb30fa47c	-3.344438e-08
16	0xb300e41e	-3.0009794e-08
17	0xb52795c2	-6.2430274e-07
18	0xb49e7a25	-2.9518665e-07
19	0x30ba8787	1.35718e-09
20	0x38cef9de	9.869387e-05
21	0xb4c5d72b	-3.6850665e-07
22	0xb51c60c7	-5.825536e-07
23	0xb4b4a5a1	-3.3648124e-07
24	0xb4acfd52	-3.222181e-07
25	0xb480cee5	-2.3992393e-07
26	0xb3ac4583	-8.022018e-08
27	0xb58fde26	-1.0718984e-06
28	0xb5080c83	-5.0682155e-07
29	0x31202191	2.3302145e-09
30	0x37961921	1.7893095e-05
31	0x33288add	3.9241844e-08
32	0x3385385a	6.2035454e-08
33	0xb3beab60	-8.8787374e-08
34	0x3408e4de	1.2749248e-07
35	0x32ff9b7b	2.9756611e-08
36	0xb3483d27	-4.6621746e-08
37	0x33f52006	1.14145266e-07
38	0x3367cd9f	5.397089e-08
39	0xaf886adf	-2.4814192e-10
40	0xb6a45ae7	-4.8981633e-06
41	0x357608a5	9.165472e-07
42	0x35c2789b	1.4489227e-06
43	0x33111d2b	3.378697e-08
44	0x35cd4292	1.5293065e-06
45	0x35557bd7	7.9528894e-07
46	0xb47876fe	-2.3140089e-07
47	0x3632e9d5	2.6660175e-06
48	0x35a9309a	1.2605626e-06
49	0xb1c72371	-5.7956915e-09
50	0xb81e5968	-3.77534e-05
51	0x358f688b	1.0684756e-06
52	0x35e2b4ff	1.6890989e-06
53	0x337a89d1	5.8333004e-08
54	0x35e4c8ad	1.7045728e-06
55	0x354febc8	7.7456616e-07
56	0xb46feb4f	-2.2344214e-07
57	0x36509207	3.1079414e-06
58	0x35c53c2d	1.4695157e-06
59	0xb1e825e4	-6.7563963e-09
60	0x382f667e	4.1818705e-05
61	0xb4ec5744	-4.402192e-07
62	0xb53acf46	-6.959202e-07
63	0xb34267ad	-4.5263437e-08
64	0xb528ac7b	-6.283587e-07
65	0xb46cfc5e	-2.2071023e-07
66	0x334f64bb	4.8287557e-08
67	0xb5abdd69	-1.2804932e-06
68	0xb522863d	-6.0545045e-07
69	0x313f4b08	2.7836808e-09
70	0x38a478a2	7.842599e-05
71	0xb5dfa1f0	-1.6661925e-06
72	0xb630c3bf	-2.6339983e-06
73	0xb3a32844	-7.597603e-08
74	0xb62ebea0	-2.6038979e-06
75	0xb59ec1c0	-1.1828306e-06
76	0x34a9d45a	3.163321e-07
77	0xb6a29f9b	-4.8465567e-06
78	0xb619c904	-2.2915783e-06
79	0x323501ca	1.0535993e-08
80	0xb882de03	-6.240236e-05
81	0x35e12c54	1.6776708e-06
82	0x3631fb7c	2.6521438e-06
83	0x342baa28	1.5987519e-07
84	0x36324a8a	2.6567454e-06
85	0x35b1cb11	1.3246628e-06
86	0xb4b61858	-3.3917854e-07
87	0x36a3be6a	4.8799457e-06
88	0x361ad83b	2.307365e-06
89	0xb2364103	-1.0608576e-08
90	0x3873d82a	5.8137033e-05
91	0xb364d660	-5.328036e-08
92	0xb3b4e0fb	-8.422827e-08
93	0xb408c858	-1.2738872e-07
94	0x33b03efc	8.2070954e-08
95	0x33f5e304	1.14499954e-07
96	0xb3bc7a73	-8.7767056e-08
97	0xb4266893	-1.5497999e-07
98	0xb39d5d51	-7.3278564e-08
99	0x2fb9384c	3.3691305e-10
100	0xb7e8130d	-2.7665426e-05
101	0x35fd258b	1.8860895e-06
102	0x364817e4	2.9816229e-06
103	0xb4ebedfe	-4.3945323e-07
104	0x3654e639	3.172447e-06
105	0x3583d6e3	9.822801e-07
106	0xb503dc96	-4.91223e-07
107	0x36b815fc	5.4861866e-06
108	0x362e14ca	2.5940121e-06
109	0xb24ce542	-1.192649e-08
110	0xb7a4aed6	-1.9631738e-05
111	0xb58b52f2	-1.0380447e-06
112	0xb5dc400c	-1.6409917e-06
113	0x33a60c17	7.7321765e-08
114	0xb5f46c38	-1.8210912e-06
115	0xb56cd1c2	-8.822209e-07
116	0x34a901d6	3.148004e-07
117	0xb64aa155	-3.0194253e-06
118	0xb5bf9e1e	-1.4276627e-06
119	0x31e18942	6.5639663e-09
120	0xb810bf57	-3.4510475e-05
121	0x3523bba3	6.099528e-07
122	0x35816b26	9.642433e-07
123	0x34299c21	1.5796151e-07
124	0x3571deb1	9.0103555e-07
125	0x34f8eeb5	4.6367282e-07
126	0xb3b65501	-8.4904975e-08
127	0x35ee214e	1.7742075e-06
128	0x35613030	8.3889154e-07
129	0xb184864c	-3.8569734e-09
130	0x363562d5	2.702863e-06
131	0x3570efce	8.975593e-07
132	0x35be713b	1.4189058e-06
133	0x3153a2de	3.079712e-09
134	0x35cceb4f	1.5267668e-06
135	0x354c37a6	7.60769e-07
136	0xb482ebdc	-2.4385997e-07
137	0x362f34fa	2.6107869e-06
138	0x35a5af50	1.2344481e-06
139	0xb1c3034f	-5.675623e-09
140	0x380d85b3	3.3741537e-05
141	0xb570ba90	-8.967845e-07
142	0xb5be4725	-1.4176809e-06
143	0xb4038730	-1.2249507e-07
144	0xb5bd3c28	-1.4099105e-06
145	0xb547bdcb	-7.440946e-07
146	0x343c2be6	1.7524835e-07
147	0xb62f0e42	-2.6085331e-06
148	0xb5a58ab1	-1.2333822e-06
149	0x31c2d837	5.670724e-09
150	0xb7955f0b	-1.7806442e-05
151	0x350a5c87	5.154365e-07
152	0x355aba7f	8.1482716e-07
153	0x338d809b	6.589217e-08
154	0x355afe1d	8.158111e-07
155	0x34cf6013	3.8626658e-07
156	0xb3df3c79	-1.03952466e-07
157	0x35c93aef	1.4992819e-06
158	0x353e4b34	7.088995e-07
159	0xb15ffa5e	-3.2593088e-09
160	0xb7206502	-9.560261e-06
161	0x339870e2	7.098585e-08
162	0x33f0fc6d	1.1221787e-07
163	0x34021990	1.2116493e-07
164	0x33a301f8	7.590637e-08
165	0x34087c18	1.2711132e-07
166	0x31f97c9e	7.261021e-09
167	0x345db50c	2.0648093e-07
168	0x33d1a86f	9.762959e-08
169	0xaff6c514	-4.4887172e-10
170	0xb8187cff	-3.6356036e-05
171	0x356955e0	8.692423e-07
172	0x35b86f1f	1.3741409e-06
173	0xb3594b60	-5.0592803e-08
174	0x35b995df	1.3827192e-06
175	0x350932d4	5.111044e-07
176	0xb440a219	-1.7940364e-07
177	0x3629adeb	2.5284196e-06
178	0x35a07528	1.1955026e-06
179	0xb1bcdc48	-5.496563e-09
180	0xb7392828	-1.1036209e-05
181	0xb21e83df	-9.226794e-09
182	0xb27a96ad	-1.4586175e-08
183	0x32cc1f54	2.3762972e-08
184	0xb32b80d2	-3.99312e-08
185	0xb38abc2e	-6.4603555e-08
186	0x3290c8ea	1.6855171e-08
187	0xb2e68ab4	-2.6838599e-08
188	0xb25a031c	-1.2689977e-08
189	0x2e804d23	5.834468e-11
190	0xb7be95bd	-2.2719492e-05
191	0xb51cbe82	-5.8391754e-07
192	0xb577c9f1	-9.2308534e-07
193	0x33a726dc	7.783612e-08
194	0xb58eabb8	-1.0629801e-06
195	0xb509e287	-5.136612e-07
196	0x3456aab2	1.9992402e-07
197	0xb5e3f73e	-1.6984775e-06
198	0xb5579388	-8.030843e-07
199	0x317dbc61	3.6923427e-09
200	0xb697286a	-4.5048555e-06
201	0xb583fea2	-9.834368e-07
202	0xb5d0a9e2	-1.554665e-06
203	0xb3aa614b	-7.9339394e-08
204	0xb5df2a9a	-1.6627193e-06
205	0xb573a9e3	-9.077177e-07
206	0x348c3aa0	2.6119687e-07
207	0xb63ff876	-2.8605841e-06
208	0xb5b58991	-1.3525588e-06
209	0x31d5abed	6.2186616e-09
210	0xb7d06aa6	-2.4845194e-05
211	0xb4fb9436	-4.686023e-07
212	0xb546daad	-7.4078963e-07
213	0x33451a53	4.589158e-08
214	0xb569deec	-8.712366e-07
215	0xb4fe9876	-4.7422117e-07
216	0x3437d458	1.7120453e-07
217	0xb5b6f224	-1.3630529e-06
218	0xb52d00cf	-6.44487e-07
219	0x314ba06d	2.963158e-09
220	0xb7080402	-8.107165e-06
221	0x35173bfc	5.633917e-07
222	0x356f1420	8.9063724e-07
223	0xb35ef5bb	-5.1911893e-08
224	0x357b9be3	9.373163e-07
225	0x34c1c669	3.6093414e-07
226	0xb416fdf2	-1.4062223e-07
227	0x35dbf3cc	1.6387726e-06
228	0x354fff95	7.748543e-07
229	0xb174d108	-3.5625494e-09
230	0x37ef3e5d	2.852006e-05
231	0x3393bf71	6.880044e-08
232	0x33e99123	1.0876308e-07
233	0xb38ec67f	-6.6484965e-08
234	0x3457fe7f	2.011602e-07
235	0x33fb7c99	1.17107625e-07
236	0xb3931993	-6.849873e-08
237	0x3456e1a7	2.0012395e-07
238	0x33cb3402	9.462384e-08
239	0xafef2c26	-4.3505216e-10
240	0xb834ae59	-4.3077718e-05
241	0xb4358856	-1.6906537e-07
242	0xb48f7ce1	-2.6726687e-07
243	0x331b55b4	3.6166696e-08
244	0xb4de4236	-4.1398897e-07
245	0xb4a8cd20	-3.1441687e-07
246	0x3401ac7e	1.2076814e-07
247	0xb504023c	-4.9177083e-07
248	0xb479ab35	-2.3252217e-07
249	0x3092ee76	1.0690673e-09
250	0xb7c27cfa	-2.3184799e-05
251	0x321e56c3	9.216538e-09
252	0x327a4f6f	1.4569976e-08
253	0x330e3e1a	3.3118432e-08
254	0xb36793e8	-5.39184e-08
255	0xb380afe2	-5.9924574e-08

exp_avg_sq f4 [128, 10]
0	0x32ccf08c	2.3858114e-08
1	0x2ac9586e	3.5766133e-13
2	0x2b7b96ee	8.938257e-13
3	0x28ff1bf7	2.8322815e-14
4	0x2b320cda	6.325614e-13
5	0x2c5ee11d	3.167306e-12
6	0x27d20037	5.828694e-15
7	0x2c54f205	3.026136e-12
8	0x2b3e6d92	6.765362e-13
9	0x2383e7c7	1.430121e-17
10	0x3307781f	3.1541386e-08
11	0x2ac37914	3.4722973e-13
12	0x2b744072	8.677565e-13
13	0x290c16d4	3.1106045e-14
14	0x2b194994	5.445863e-13
15	0x2c663d5b	3.2719025e-12
16	0x2631132c	6.1435194e-16
17	0x2c4ebc0c	2.9378748e-12
18	0x2b38dfc3	6.5680463e-13
19	0x23800ee9	1.3884103e-17
20	0x350ba1ff	5.201727e-07
21	0x2c84238c	3.755612e-12
22	0x2d251cf4	9.385593e-12
23	0x2aaacb23	3.033902e-13
24	0x2ccd0a17	5.8275706e-12
25	0x2e89af2b	6.261155e-11
26	0x27595dcd	3.016565e-15
27	0x2e0bc06d	3.177585e-11
28	0x2cf9f2b6	7.103952e-12
29	0x252d222f	1.501694e-16
30	0x331a4493	3.5918287e-08
31	0x2a9e9b4c	2.8174197e-13
32	0x2b462f8a	7.0409705e-13
33	0x28f0f111	2.6749898e-14
34	0x2af80c62	4.4062242e-13
35	0x2cad35f9	4.922948e-12
36	0x26060519	4.64975e-16
37	0x2c27be8e	2.3837906e-12
38	0x2b1601ba	5.32931e-13
39	0x234fd017	1.1265557e-17
40	0x337b68ce	5.853581e-08
41	0x2b49857b	7.1594786e-13
42	0x2bfbcf3b	1.7892141e-12
43	0x2989444c	6.09587e-14
44	0x2ba68cc4	1.183408e-12
45	0x2c840e6a	3.753266e-12
46	0x27c797c0	5.5398123e-15
47	0x2cd521ab	6.057562e-12
48	0x2bbe983b	1.3542564e-12
49	0x2404054c	2.8627424e-17
50	0x3330e573	4.1186876e-08
51	0x2b13f207	5.256077e-13
52	0x2bb8dd30	1.3135378e-12
53	0x2924aac7	3.656344e-14
54	0x2b79b8ab	8.871885e-13
55	0x2c75e34a	3.4942765e-12
56	0x27b592ba	5.0396673e-15
57	0x2c9c780a	4.4471137e-12
58	0x2b8bec6d	9.942165e-13
59	0x23c1d808	2.1016595e-17
60	0x32869101	1.5665593e-08
61	0x2a27031d	1.483366e-13
62	0x2ad0b048	3.7070542e-13
63	0x2858b1c4	1.20289554e-14
64	0x2a840782	2.345312e-13
65	0x2bad86a3	1.2329759e-12
66	0x25a7f995	2.9139005e-16
67	0x2bb0a25a	1.2550614e-12
68	0x2a9df4db	2.8058705e-13
69	0x22dad36f	5.9312882e-18
70	0x347e5d6b	2.3689579e-07
71	0x2c263b13	2.3622812e-12
72	0x2ccfb65c	5.90354e-12
73	0x2a3f82a7	1.7009537e-13
74	0x2c85a87e	3.7987937e-12
75	0x2d8a99e0	1.5757118e-11
76	0x28337589	9.9619824e-15
77	0x2dafcebe	1.9987009e-11
78	0x2c9d37ad	4.4683896e-12
79	0x24d9cd65	9.44567e-17
80	0x3427966d	1.5607812e-07
81	0x2bda7919	1.5523443e-12
82	0x2c887ee7	3.8794415e-12
83	0x29e3af19	1.01112e-13
84	0x2c34d812	2.5699482e-12
85	0x2d4e6968	1.1733149e-11
86	0x2853977e	1.17457025e-14
87	0x2d670f4f	1.3134229e-11
88	0x2c4ea090	2.936349e-12
89	0x248f2047	6.2071044e-17
90	0x33c9942f	9.386746e-08
91	0x2b86f991	9.590541e-13
92	0x2c28a81f	2.3967562e-12
93	0x29d663d3	9.520826e-14
94	0x2bd3a72a	1.5038849e-12
95	0x2d2181aa	9.180582e-12
96	0x2700b668	1.786245e-15
97	0x2d0ec045	8.114458e-12
98	0x2bff5002	1.8141046e-12
99	0x2430d971	3.8348097e-17
100	0x35c98b52	1.5016215e-06
101	0x2d5390c7	1.2026108e-11
102	0x2e042e12	3.0054244e-11
103	0x2b9a2734	1.0953239e-12
104	0x2da6a245	1.8944077e-11
105	0x2f5eb1f9	2.0254011e-10
106	0x28fb5ff1	2.7908206e-14
107	0x2edfc118	1.0175166e-10
108	0x2dc81810	2.2748053e-11
109	0x260a99ca	4.808679e-16
110	0x34139a78	1.3746637e-07
111	0x2bc2dcd7	1.3845824e-12
112	0x2c737d35	3.460188e-12
113	0x2a108d0b	1.2838703e-13
114	0x2c216ad1	2.2938771e-12
115	0x2d9d15a8	1.785845e-11
116	0x2848db9f	1.1149853e-14
117	0x2d4e16d7	1.1714816e-11
118	0x2c384c03	2.6190168e-12
119	0x247f5119	5.5363003e-17
120	0x3315af09	3.485096e-08
121	0x2adf407d	3.9657505e-13
122	0x2b8b7b3b	9.910747e-13
123	0x29066a2a	2.984606e-14
124	0x2b316763	6.302651e-13
125	0x2c8a9c55	3.9395522e-12
126	0x26bcf29c	1.311088e-15
127	0x2c6c1d38	3.3553837e-12
128	0x2b53259c	7.501445e-13
129	0x239241bf	1.5857196e-17
130	0x3301ce8d	3.022301e-08
131	0x2ae103a9	3.9970569e-13
132	0x2b8c9518	9.98898e-13
133	0x2913daba	3.2830272e-14
134	0x2b4658b0	7.046681e-13
135	0x2c8eb0d5	4.055515e-12
136	0x27deb31d	6.1811573e-15
137	0x2c6dfa50	3.3818677e-12
138	0x2b54d046	7.560657e-13
139	0x23936949	1.5982362e-17
140	0x3383b784	6.133544e-08
141	0x2b1b9f83	5.528843e-13
142	0x2bc27521	1.3817039e-12
143	0x2913b4ce	3.279738e-14
144	0x2b7c8fce	8.9727954e-13
145	0x2caa9263	4.847943e-12
146	0x275b0944	3.0397378e-15
147	0x2ca496c4	4.6778987e-12
148	0x2b932f5c	1.0458123e-12
149	0x23cbe750	2.2107269e-17
150	0x31d919cd	6.3184644e-09
151	0x29e7a9b4	1.02878995e-13
152	0x2a90bc78	2.5710315e-13
153	0x28059812	7.415958e-15
154	0x2a449f8a	1.7463648e-13
155	0x2ade05a0	3.9439025e-13
156	0x269c0d10	1.0828215e-15
157	0x2b750266	8.7044814e-13
158	0x2a5b1a0d	1.9460146e-13
159	0x2297c456	4.113651e-18
160	0x337a901c	5.8338728e-08
161	0x2b020f45	4.620647e-13
162	0x2ba283e1	1.1547396e-12
163	0x29451139	4.3757725e-14
164	0x2b490be4	7.1426047e-13
165	0x2cf73057	7.025529e-12
166	0x25798ab2	2.1644299e-16
167	0x2c898d83	3.909485e-12
168	0x2b7603e5	8.740216e-13
169	0x23aa68d3	1.8475832e-17
170	0x33d5e6d0	9.96057e-08
171	0x2b7932e0	8.8533174e-13
172	0x2c1bb12c	2.2125175e-12
173	0x29af9cbc	7.79875e-14
174	0x2bc774b2	1.417219e-12
175	0x2d50299b	1.1832669e-11
176	0x27703ce7	3.3339706e-15
177	0x2d03c71e	7.490701e-12
178	0x2bebafc7	1.6746542e-12
179	0x24234148	3.5400286e-17
180	0x32c291a0	2.2650795e-08
181	0x2a6c3e1c	2.0982559e-13
182	0x2b1398f6	5.2437167e-13
183	0x28b4e079	2.0081364e-14
184	0x2ab66a13	3.2403298e-13
185	0x2b8897c9	9.70551e-13
186	0x241a95a1	3.3520168e-17
187	0x2bf9da5c	1.7753121e-12
188	0x2adf6edc	3.9689682e-13
189	0x231ac460	8.389941e-18
190	0x33981518	7.0818885e-08
191	0x2b556c22	7.5822866e-13
192	0x2c055713	1.8948773e-12
193	0x29966e5c	6.6804824e-14
194	0x2badd6b3	1.235198e-12
195	0x2d2393cc	9.298295e-12
196	0x27a8f048	4.688988e-15
197	0x2ce1b7df	6.4152984e-12
198	0x2bc9d9aa	1.4342323e-12
199	0x240bd134	3.0318022e-17
200	0x328049a0	1.4934642e-08
201	0x2ac6be3a	3.5303862e-13
202	0x2b785681	8.822735e-13
203	0x28d58d27	2.3708965e-14
204	0x2b354966	6.440598e-13
205	0x2b91d162	1.0360985e-12
206	0x27ffc551	7.099065e-15
207	0x2c523171	2.987024e-12
208	0x2b3bf783	6.677924e-13
209	0x2382335c	1.411638e-17
210	0x33089073	3.1796343e-08
211	0x2af51edb	4.3542153e-13
212	0x2b9924ed	1.0881553e-12
213	0x292f4a17	3.892207e-14
214	0x2b4aa7f1	7.199788e-13
215	0x2c874a68	3.8451915e-12
216	0x277a2408	3.4714002e-15
217	0x2c819f0b	3.684058e-12
218	0x2b67d46b	8.2362475e-13
219	0x23a09555	1.741048e-17
220	0x335cd866	5.1419555e-08
221	0x2ad3b526	3.7606826e-13
222	0x2b8444d2	9.398266e-13
223	0x2921570c	3.5824683e-14
224	0x2b2cb51e	6.1358026e-13
225	0x2d0a0cdc	7.847247e-12
226	0x2723c11b	2.2725477e-15
227	0x2c5fe79d	3.1818777e-12
228	0x2b483a7e	7.113545e-13
229	0x238ab1a8	1.503723e-17
230	0x32d843b3	2.5176496e-08
231	0x2a80310e	2.2771406e-13
232	0x2b202e4b	5.6907663e-13
233	0x28aa6cc9	1.892097e-14
234	0x2acb1cda	3.6080064e-13
235	0x2c5ea600	3.1640246e-12
236	0x264f55c5	7.193379e-16
237	0x2c0793b9	1.9266656e-12
238	0x2af27b52	4.3073406e-13
239	0x2327f63c	9.10523e-18
240	0x3278ee2c	1.4489654e-08
241	0x2a6c615e	2.0994792e-13
242	0x2b13af00	5.246775e-13
243	0x28a28105	1.8041566e-14
244	0x2ac5cbef	3.5135737e-13
245	0x2bf0c887	1.7108683e-12
246	0x270f43ae	1.9881926e-15
247	0x2bf9ffb3	1.7763485e-12
248	0x2adf9032	3.9712813e-13
249	0x231adb80	8.394838e-18
250	0x3240df13	1.1226592e-08
251	0x29bff280	8.524171e-14
252	0x2a6fd89d	2.1302617e-13
253	0x27c483d2	5.454385e-15
254	0x2a17f2dd	1.3495754e-13
255	0x2b91e5b3	1.0366624e-12

exp_avg f4 [128]
0	0xb98d57af	-0.00026958945
1	0xb8cb4d0a	-9.694144e-05
2	0xb92e8771	-0.00016644389
3	0x3794aee4	1.7724415e-05
4	0x39d90b2c	0.0004139779
5	0x39fd0570	0.00048259972
6	0xb9507e30	-0.00019883434
7	0xba45482f	-0.000752571
8	0x3a46a41b	0.0007577554
9	0xb7c9dfb1	-2.4065232e-05
10	0x3a5f5184	0.00085189217
11	0xb9f5d0a5	-0.00046885494
12	0x399070b9	0.00027549805
13	0x39d48c15	0.0004054016
14	0xb9d45d1f	-0.00040505172
15	0x39741ddb	0.00023280775
16	0x38067a98	3.2062264e-05
17	0x39cdd773	0.0003926117
18	0xb68bd65f	-4.167479e-06
19	0xb98a4668	-0.00026373868
20	0xb9e8e22f	-0.00044419008
21	0xb95def79	-0.00021165413
22	0x39856a15	0.00025446774
23	0x380256b7	3.1075175e-05
24	0xb8a02482	-7.636195e-05
25	0x368bae71	4.1628305e-06
26	0x392fad9d	0.00016753977
27	0xb9d3c1aa	-0.00040389347
28	0xba2b4d6c	-0.0006534669
29	0x39e47e12	0.00043581479
30	0xba082086	-0.00051928347
31	0xb9af8f98	-0.00033485587
32	0x39a6e77f	0.00031834465
33	0x3a258732	0.0006314396
34	0x39c9cdc8	0.00038491026
35	0xb7c99fec	-2.4035537e-05
36	0x3961c2cf	0.00021530244
37	0xb8967f84	-7.176309e-05
38	0xb9cbc3a8	-0.00038864953
39	0x39b91a64	0.00035305612
40	0x37dbe57d	2.6213698e-05
41	0xb9b71936	-0.00034923264
42	0x3a0c3835	0.00053489517
43	0x39f2a289	0.00046278935
44	0x38d7d79a	0.00010292158
45	0x3a055567	0.00050862733
46	0xb9e55435	-0.00043741023
47	0xb8da17e2	-0.000103994986
48	0x39964ee0	0.00028668996
49	0xb9158837	-0.00014260491
50	0xb92c8eee	-0.00016456444
51	0xb9bf52fd	-0.0003649219
52	0x39c54eb4	0.00037633406
53	0xba9ef236	-0.0012126628
54	0xba392c9f	-0.0007063839
55	0xb986738c	-0.0002564456
56	0xb82d90dc	-4.1381325e-05
57	0x3a06f34b	0.0005147948
58	0x38a00876	7.6309705e-05
59	0x390e28bd	0.00013557351
60	0x3902a9a1	0.00012460958
61	0x38085b9e	3.2510252e-05
62	0xb93a4b52	-0.00017766401
63	0xb99cecf5	-0.00029931185
64	0x37d6ee05	2.5621624e-05
65	0x371cedc8	9.353687e-06
66	0x3a114bf8	0.0005542631
67	0x396400b2	0.00021744033
68	0x3a5555f1	0.00081381114
69	0xb854260a	-5.0580165e-05
70	0xb97a0bd9	-0.00023846272
71	0x3a0b8f59	0.00053237897
72	0xb89d7c50	-7.5094984e-05
73	0x388819d4	6.489796e-05
74	0xba5b4a0d	-0.00083652214
75	0xb98d8c75	-0.00026998264
76	0x38b2897d	8.5133106e-05
77	0x397e1769	0.00024232049
78	0x39b18a7e	0.00033863256
79	0x384c9c5d	4.8783015e-05
80	0xb981f989	-0.00024790716
81	0x3958c697	0.00020673346
82	0x39544b84	0.00020246027
83	0xb90051a5	-0.00012237446
84	0xb99934e3	-0.00029221838
85	0xb91edbfe	-0.00015150008
86	0x3a16dc2c	0.0005754854
87	0x39b4820d	0.0003442917
88	0x3a330c4c	0.00068301405
89	0x3a78e205	0.0009494129
90	0xb8c21a2c	-9.255516e-05
91	0x3a1207bd	0.0005570611
92	0x39c81f98	0.00038170512
93	0xba56d01c	-0.0008194463
94	0x39827ef1	0.0002489011
95	0xb8d02396	-9.924841e-05
96	0xb94655e5	-0.0001891475
97	0xb9815e26	-0.00024674943
98	0x364b3008	3.0277315e-06
99	0xb9899d77	-0.00026247997
100	0x3997c70c	0.00028949266
101	0x39f5d91d	0.00046891804
102	0x3987a879	0.00025874728
103	0x3a1abbcf	0.00059026195
104	0x38e8454d	0.0001107553
105	0x38856523	6.3607724e-05
106	0x38d67429	0.00010225952
107	0xb9697ef0	-0.000222679
108	0x3a352a35	0.00069108914
109	0xba2a9ba9	-0.00065081805
110	0x3811c49e	3.4753808e-05
111	0x398b5230	0.0002657338
112	0x394406c9	0.00018694544
113	0xb8c4b580	-9.379815e-05
114	0x393f8623	0.00018265149
115	0x39719846	0.00023040277
116	0x39ba9858	0.0003559019
117	0x39b4a61c	0.00034456037
118	0x3a1aea06	0.0005909506
119	0x36cde329	6.135921e-06
120	0x381d3dcc	3.748927e-05
121	0x39117806	0.0001387299
122	0xb7be208f	-2.2664926e-05
123	0xb9c2b752	-0.00037139148
124	0x38e31dc6	0.00010829749
125	0xb7af2536	-2.0878953e-05
126	0xb63386d9	-2.675157e-06
127	0x38b373cb	8.556953e-05

exp_avg_sq f4 [128]
0	0x339cb123	7.296537e-08
1	0x33981f34	7.0837274e-08
2	0x354daad6	7.661705e-07
3	0x3376dcf9	5.7477312e-08
4	0x341cd433	1.460583e-07
5	0x33e644f4	1.0722752e-07
6	0x3301f911	3.0261678e-08
7	0x35015d69	4.8192175e-07
8	0x34aa0562	3.1668884e-07
9	0x345214d1	1.9565347e-07
10	0x3624a539	2.4534077e-06
11	0x3497a59d	2.824644e-07
12	0x33adbd77	8.090404e-08
13	0x33af1c93	8.15427e-08
14	0x33f23829	1.12792186e-07
15	0x32b44922	2.0988015e-08
16	0x33ca6e63	9.426437e-08
17	0x3441eeb3	1.8061364e-07
18	0x3337d984	4.2805837e-08
19	0x3426172a	1.5468382e-07
20	0x339aaab4	7.2022345e-08
21	0x33bec240	8.882898e-08
22	0x33a4c190	7.672054e-08
23	0x33478617	4.6455252e-08
24	0x3337f4f7	4.2830802e-08
25	0x329560c3	1.7389885e-08
26	0x337bdc76	5.8641e-08
27	0x346ecf09	2.2240796e-07
28	0x3436b8ca	1.7017297e-07
29	0x33dcf8ea	1.02898255e-07
30	0x342bbe93	1.5994947e-07
31	0x346dcc45	2.2146658e-07
32	0x335e8822	5.1812215e-08
33	0x3460c6be	2.0933928e-07
34	0x33a2ecca	7.5867845e-08
35	0x330543a1	3.1027984e-08
36	0x33dac218	1.01867215e-07
37	0x320e8238	8.295096e-09
38	0x33bc0fda	8.7573156e-08
39	0x34413581	1.799399e-07
40	0x32a32c28	1.8995777e-08
41	0x33857dd1	6.216181e-08
42	0x33e3b468	1.0603327e-07
43	0x3424bc03	1.5342088e-07
44	0x3353035d	4.9130325e-08
45	0x3490b822	2.6956064e-07
46	0x33c44cd6	9.1409376e-08
47	0x32121871	8.503876e-09
48	0x33890efc	6.382285e-08
49	0x33ba33a7	8.6706955e-08
50	0x3237f1eb	1.0707008e-08
51	0x3383c930	6.136759e-08
52	0x3455e085	1.991885e-07
53	0x34f15957	4.495475e-07
54	0x349bd81c	2.902824e-07
55	0x3436d74a	1.7028393e-07
56	0x339a87ec	7.195908e-08
57	0x33c0608b	8.958258e-08
58	0x319fe084	4.6530335e-09
59	0x33226ac2	3.781566e-08
60	0x32e9241a	2.7141187e-08
61	0x32498b3d	1.1731399e-08
62	0x330d4ba2	3.289791e-08
63	0x32d978f9	2.5317137e-08
64	0x336a87ad	5.4605767e-08
65	0x3455a343	1.9896565e-07
66	0x343b6a75	1.7454461e-07
67	0x33831c70	6.1053356e-08
68	0x348ed3df	2.6603718e-07
69	0x336550ec	5.3391815e-08
70	0x3395f155	6.982251e-08
71	0x349a4ebb	2.874202e-07
72	0x3422ae41	1.5150819e-07
73	0x34d0c18f	3.8883852e-07
74	0x34f30147	4.5263207e-07
75	0x3368d6c0	5.4212023e-08
76	0x339402d9	6.892305e-08
77	0x333f852d	4.4591776e-08
78	0x33826f44	6.073836e-08
79	0x339d99dc	7.338869e-08
80	0x33a45dc3	7.6539e-08
81	0x340306d5	1.2202811e-07
82	0x330c67a3	3.2690547e-08
83	0x34571b5d	2.003339e-07
84	0x33cb29b8	9.460513e-08
85	0x350e5b5f	5.3032085e-07
86	0x35039fde	4.903394e-07
87	0x3349cfaf	4.6987847e-08
88	0x353206d0	6.632008e-07
89	0x35603256	8.351975e-07
90	0x32b376d1	2.0892374e-08
91	0x34338017	1.6717273e-07
92	0x33d85af9	1.00748316e-07
93	0x34fdfff2	4.7311147e-07
94	0x3314aad1	3.4614292e-08
95	0x348963a3	2.5590734e-07
96	0x31f901c8	7.2470563e-09
97	0x34570b35	2.0027512e-07
98	0x32afdb46	2.0472395e-08
99	0x33bfa172	8.923497e-08
100	0x330a1425	3.214895e-08
101	0x342c8409	1.6066782e-07
102	0x3346e9f7	4.6313257e-08
103	0x347cfdd0	2.3561665e-07
104	0x32aeb003	2.0336307e-08
105	0x3267e278	1.3497463e-08
106	0x331d08df	3.656248e-08
107	0x339882e9	7.101864e-08
108	0x34fa2896	4.659566e-07
109	0x348569d4	2.485018e-07
110	0x3308b0f4	3.1825905e-08
111	0x33307aac	4.1089763e-08
112	0x3291bfab	1.6967382e-08
113	0x34d8ad34	4.0359157e-07
114	0x32b36bf2	2.088743e-08
115	0x33016be5	3.0133283e-08
116	0x339c3c56	7.275291e-08
117	0x337bd035	5.8629855e-08
118	0x34952bb7	2.778522e-07
119	0x34002ca9	1.1937176e-07
120	0x3389bd13	6.413952e-08
121	0x33a3aadd	7.621359e-08
122	0x324172db	1.1260194e-08
123	0x338a0b2f	6.42816e-08
124	0x335def36	5.1673133e-08
125	0x3400e49f	1.2004101e-07
126	0x3316348e	3.4972395e-08
127	0x34bb90ec	3.493691e-07
